Model/ILQN/result/DDQN/agent_ddqn_600570_SH_0_5.pt (torch_old, 85145 bytes, 14 tensors)

Q_net.linear1.weight f4 [50, 150]
0	0x3c4290e8	0.011875369
1	0xbd1720b7	-0.036896434
2	0xbd55f504	-0.05223562
3	0xbd7a1d27	-0.061062958
4	0xbde0b68b	-0.10972317
5	0xbc9c96b7	-0.019114835
6	0xbcb57022	-0.022148196
7	0xbe8720ad	-0.26392117
8	0xbdb8d22f	-0.09024464
9	0x3d5d60fa	0.054047562
10	0xbdf6090f	-0.120134465
11	0x3b7a7879	0.003821878
12	0xbd49399a	-0.0491272
13	0xbd21a3a4	-0.0394627
14	0xbde02b63	-0.10945775
15	0x3d1e78d5	0.038689453
16	0x3d866c37	0.06563609
17	0xbea164e8	-0.31522298
18	0xbccc6619	-0.024951028
19	0xbcc2c020	-0.023773253
20	0xbd44d169	-0.04805127
21	0xbdd4a0ee	-0.103822574
22	0xbdb9704d	-0.09054623
23	0xbce834f6	-0.028345566
24	0xbd84db12	-0.06487097
25	0xbe0cf970	-0.13767028
26	0xbd9c6f4c	-0.07638416
27	0xbe517cc8	-0.20457757
28	0xbd82518a	-0.063632086
29	0xbc3174bf	-0.010831057
30	0xbd8c731f	-0.06857895
31	0xbdb8a256	-0.09015338
32	0xbddaeeef	-0.10690104
33	0xbcc3f007	-0.023918165
34	0x3c39f687	0.011350281
35	0xbd971e2b	-0.07378801
36	0xbda07c66	-0.07836227
37	0xbe06d26c	-0.13166207
38	0x3c191139	0.009342485
39	0x3d2ca412	0.042148657
40	0xbdbd9ad5	-0.092580475
41	0xbd754bfd	-0.05988692
42	0x3bcdd165	0.0062810653
43	0xbc83e405	-0.01609994
44	0x3d08dbe0	0.033412814
45	0x3c3ea785	0.011636619
46	0xbd83f288	-0.064427435
47	0xbe691530	-0.22761989
48	0xbdc24be4	-0.09487131
49	0x3bb67c70	0.0055690333
50	0xbd095ed0	-0.033537686
51	0xbd68d407	-0.05684283
52	0xbce37323	-0.027764862
53	0x3bd598ee	0.006518475
54	0x3c275c7a	0.010214919
55	0xbc0935aa	-0.008374611
56	0xbdc8cb3b	-0.09804388
57	0xbd6fb7ec	-0.05852501
58	0xbdcd6bfc	-0.10030362
59	0xbd684bf1	-0.05671305
60	0xbdd96486	-0.106148764
61	0xbdd022cd	-0.10162888
62	0x3c19d72b	0.009389679
63	0xbcc5aa9b	-0.024129203
64	0xbd773551	-0.06035358
65	0x3e0f4d82	0.1399441
66	0x3c0b67be	0.008508621
67	0x3d26d08d	0.040726233
68	0xbda7c3b3	-0.081916235
69	0x3d5552c2	0.052080877
70	0xbd79dca3	-0.06100143
71	0xbd6420ce	-0.055695347
72	0xbdcfa7dd	-0.10139439
73	0xbd831a51	-0.06401504
74	0xbdcda48b	-0.1004115
75	0x3cc16493	0.023607528
76	0xbccc9d7b	-0.024977436
77	0xbc9c716f	-0.019097058
78	0xbda057bf	-0.07829236
79	0xbc1f1d19	-0.009711527
80	0xbddb6176	-0.107119486
81	0x3c6d14ab	0.01447026
82	0xbd0e9f00	-0.034819603
83	0xbda1deb8	-0.07903808
84	0xbd07f6d6	-0.033194385
85	0x3d978f16	0.07400338
86	0xbd39a149	-0.04531983
87	0x3da0dc9b	0.07854577
88	0xbe00ea21	-0.12589313
89	0xbce93271	-0.028466435
90	0x3cbd7dcc	0.023131274
91	0xbd3d9743	-0.046286833
92	0xbdf0e454	-0.117623
93	0x3d4d5fc0	0.050140142
94	0xbdc5b0f1	-0.096528895
95	0x3ccbb6fd	0.024867529
96	0x3cab6526	0.020922255
97	0x3e50097a	0.20316115
98	0xbdd36821	-0.103225954
99	0xb93b43dd	-0.00017858991
100	0xbd1e495c	-0.03864418
101	0xbcfb95df	-0.030711113
102	0xbd2e1215	-0.042497713
103	0xbdba5a5d	-0.09099267
104	0xbda02b79	-0.07820792
105	0xbd16db26	-0.03683009
106	0xbbc04db8	-0.00586864
107	0x3e310490	0.17286897
108	0xbdb5d083	-0.08877661
109	0xbc5df289	-0.013546594
110	0xbdb5e87f	-0.08882236
111	0x3c73e4b2	0.014886068
112	0xbd9028d0	-0.07039034
113	0xbdc5570d	-0.09635744
114	0xbc6e243c	-0.014535006
115	0xbcb4ff26	-0.02209432
116	0x3ccb6181	0.024826767
117	0x3d997bdc	0.074943274
118	0xbdf05a63	-0.1173599
119	0x3c7324e9	0.014840343
120	0xbdd077a3	-0.10179069
121	0x3c7e0640	0.01550442
122	0x3cef2f89	0.029197471
123	0x3ac1bed2	0.00147816
124	0xbd48b2eb	-0.048998754
125	0x3d5945b4	0.05304499
126	0x3d775946	0.060387872
127	0x3d47ffb7	0.048827853
128	0xbde4388c	-0.11143598
129	0xbd15ebe0	-0.0366019
130	0x3cd5d571	0.026102753
131	0xbdcedc80	-0.10100651
132	0x3cd70403	0.02624703
133	0xbca0eb7c	-0.019643538
134	0xbca46f60	-0.020072639
135	0x3da0f482	0.07859136
136	0x3d729071	0.05921978
137	0x3dd303fc	0.10303494
138	0xbd35a89a	-0.044350244
139	0x3d8054ac	0.0626615
140	0xbc3d78d9	-0.011564457
141	0xbc8dc969	-0.017307954
142	0xbd562f14	-0.05229099
143	0xbd2182a5	-0.039431233
144	0x3d341655	0.04396661
145	0x3d159b77	0.036525216
146	0xbdc0c56d	-0.09412656
147	0x3dd55892	0.10417284
148	0xbbfcf536	-0.007719661
149	0xbd3e414b	-0.046448987
150	0xbdf46502	-0.11933328
151	0xbdce9df4	-0.10088721
152	0xbdfea73a	-0.1243424
153	0xbd91321c	-0.07089636
154	0xbe138bc2	-0.14408782
155	0xbcc30dc4	-0.023810275
156	0x3d9efd82	0.077631965
157	0x3e93a44e	0.28836292
158	0xbdc9b24a	-0.09848459
159	0x3d62775c	0.05528961
160	0xbe266c6e	-0.162523
161	0xbde8d2bf	-0.113683216
162	0xbda6170c	-0.081098646
163	0xbe0fe35f	-0.14051579
164	0xbdf2607b	-0.118348084
165	0xbd45c612	-0.048284598
166	0x3d3b0ff2	0.045669504
167	0x3eb13cd0	0.3461671
168	0xbda4a423	-0.08039119
169	0x3d763a52	0.060114212
170	0xbe2c35d4	-0.16817409
171	0xbc90a612	-0.017657313
172	0xbe23b698	-0.15987623
173	0xbd9f0d14	-0.07766166
174	0xbe1d34f5	-0.15352233
175	0x3def533c	0.116857976
176	0x3d43b7a4	0.047782555
177	0x3e843992	0.25825173
178	0xbe08ed4e	-0.13371775
179	0x3d47a36f	0.048739847
180	0xbde3ac0b	-0.11116799
181	0xbd10fd75	-0.035397965
182	0xbe0d226d	-0.13782664
183	0xbd0559d4	-0.03255637
184	0xbdd51a90	-0.10405457
185	0x3d227b7e	0.039668553
186	0x3b20accc	0.0024517057
187	0x3ea38229	0.31935242
188	0xbd1fdb3d	-0.03902744
189	0xbd290f94	-0.041274622
190	0xbbf8e65b	-0.00759582
191	0xbe0540a7	-0.13012944
192	0xbe1afd77	-0.15135752
193	0xbe15c490	-0.14625764
194	0xbd271f5d	-0.040801395
195	0x3d89caae	0.06728111
196	0xbd2ab8d1	-0.04168016
197	0x3e81b6e7	0.25334856
198	0xbdd7a62d	-0.105297424
199	0xbd8953a5	-0.06705407
200	0xbda97a91	-0.08275331
201	0xbd848040	-0.06469774
202	0xbe19faa6	-0.15037021
203	0xbde068e8	-0.10957509
204	0xbcbc810d	-0.023010755
205	0x3d7a3248	0.06108311
206	0x3d6d2690	0.057898104
207	0x3ebf79af	0.37397525
208	0xbd8b294a	-0.06794985
209	0x3d597153	0.05308659
210	0xbd2c4b90	-0.04206425
211	0xbd4ac4c7	-0.049504068
212	0xbe2dcee3	-0.16973452
213	0xbd334b01	-0.0437727
214	0xbdeed899	-0.116624065
215	0x3d8266ff	0.06367301
216	0x3d2d0020	0.042236447
217	0x3e9a08aa	0.30084735
218	0xbde8b1ec	-0.11362061
219	0x3d1e38cd	0.03862839
220	0xbc947abe	-0.018124934
221	0xbdc20f20	-0.09475541
222	0xbe13445c	-0.14381546
223	0xbdb9b1b3	-0.090670966
224	0xbe079ef6	-0.13244233
225	0x3de8f473	0.1137475
226	0xbd5bbed9	-0.053648803
227	0x3e8a70e9	0.2703927
228	0xbde8f3c9	-0.11374623
229	0xbd11238e	-0.0354343
230	0xbe3091e5	-0.17243154
231	0xbd2b99ff	-0.04189491
232	0xbdf83dac	-0.12121138
233	0xbd30ecea	-0.04319469
234	0xbe299aac	-0.16562909
235	0x3e29e11e	0.16589782
236	0x3d473676	0.048635922
237	0x3e97354e	0.29532856
238	0xbdfcb5c3	-0.12339356
239	0x3d633988	0.055474788
240	0xbd439dd5	-0.047757942
241	0xbd9902b6	-0.0747122
242	0xbc9b939e	-0.018991288
243	0xbda84f5e	-0.08218263
244	0xbe0d57a9	-0.13802971
245	0x3d2db054	0.042404488
246	0xbd852f00	-0.06503105
247	0x3ee48d0d	0.44638863
248	0xbdbfe5da	-0.093700126
249	0x3c5a76e8	0.0133340135
250	0xbd936471	-0.07196892
251	0xbd1ceafb	-0.038310032
252	0xbd834544	-0.06409696
253	0xbe0fb72b	-0.14034717
254	0xbdcdf41d	-0.100563265
255	0x3c5d9442	0.013524117

Q_net.linear1.bias f4 [50]
0	0x3cf8c039	0.030365096
1	0xbdad892b	-0.08473428
2	0xbc2b93f0	-0.010472283
3	0x3dea87fb	0.114517175
4	0xbd79f016	-0.06101998
5	0x3d4e0685	0.050299186
6	0xbcc4ef91	-0.024040015
7	0x3cd68de8	0.026190713
8	0xbd44568a	-0.047934093
9	0xbc9e64e4	-0.019335218
10	0xbab00a6c	-0.001343084
11	0xbda842ae	-0.08215843
12	0x3e146f91	0.14495684
13	0xbd202230	-0.039095104
14	0x3daaa6a4	0.083325654
15	0xbcbe05ac	-0.023196064
16	0x3dfb801d	0.12280295
17	0xbe0321c6	-0.12805852
18	0xbc8a9ed9	-0.016921448
19	0x3e941315	0.28920808
20	0x3df0eacf	0.11763536
21	0xbe86440f	-0.262238
22	0x3d071f25	0.032988686
23	0xbd95eb20	-0.07320237
24	0xbdeccd04	-0.11562541
25	0xbd2a0a4f	-0.041513737
26	0x3e70ea8d	0.23526974
27	0x3d3f8ba1	0.04676402
28	0xbdbb942b	-0.0915912
29	0x3d998a38	0.07497066
30	0xbe1b3942	-0.15158561
31	0x3e3cec3a	0.18449488
32	0x3d54f8b3	0.05199499
33	0xbd817a56	-0.06322162
34	0x3cbba994	0.02290801
35	0x3e272e95	0.16326363
36	0xbddd22f0	-0.107976794
37	0xbe00412f	-0.12524866
38	0xbdf66017	-0.120300464
39	0x3dd05702	0.101728454
40	0xbd599ed0	-0.05312997
41	0xbd1b2c3f	-0.037883993
42	0xbe224f4b	-0.1585056
43	0xbe5020b5	-0.20324977
44	0xbd85a948	-0.065264285
45	0xbe2859bb	-0.1644048
46	0x3d9934e9	0.07480795
47	0xbdf46da0	-0.11934972
48	0xbd0eef7f	-0.03489637
49	0x3d747971	0.059686128

Q_net.linear2.weight f4 [50, 50]
0	0xbe0512ff	-0.12995528
1	0x3cf3ce0d	0.029761339
2	0x3caf6f1d	0.021415288
3	0xbdfdbabc	-0.123891324
4	0xbe0513ab	-0.12995784
5	0x3cf04e54	0.029334225
6	0xbdc15266	-0.094395444
7	0xbde5aa3c	-0.1121411
8	0xbdbbad98	-0.0916397
9	0xbd29c837	-0.041450705
10	0x3de4493c	0.11146781
11	0x3e1b6d12	0.15178326
12	0xbc9adac4	-0.018903144
13	0xbd5955bc	-0.05306028
14	0xbda46957	-0.080279045
15	0x3e12ff36	0.14355168
16	0x3df3e86b	0.119095646
17	0xb9014407	-0.00012327741
18	0x3e10455d	0.1408896
19	0xbc4f8fec	-0.012668591
20	0xbdb3f00f	-0.08786022
21	0xbcccc9c9	-0.024998562
22	0x3dcd6c90	0.10030472
23	0x3daf729f	0.08566784
24	0x3d52efd7	0.05149826
25	0xbd58bca8	-0.05291429
26	0x3dd73f69	0.105101414
27	0x3dbe2ff1	0.09286488
28	0x3d68b4e4	0.056813136
29	0x3db090bc	0.08621356
30	0xbdb776c5	-0.089582
31	0x3dd1f27c	0.10251328
32	0xbd3f60e2	-0.046723254
33	0x3cd51be2	0.026014272
34	0x3db7ced9	0.08975
35	0xbcff0867	-0.031131936
36	0x3d14d77f	0.036338326
37	0x3dacde30	0.084408164
38	0xbcd5ffe6	-0.026122998
39	0xbc37e270	-0.0112234205
40	0x3e019387	0.12653933
41	0xbdf9020e	-0.12158595
42	0xbdef7edf	-0.116941206
43	0xbd969c32	-0.07354011
44	0xbdd0078f	-0.10157692
45	0x3d9ea161	0.07745624
46	0x3cc82975	0.02443383
47	0x3df0c942	0.11757137
48	0x3cfcd94f	0.03086534
49	0x3da0eab4	0.07857266
50	0x3d34eda4	0.044171944
51	0x3dde1032	0.10842933
52	0xbd8dfe68	-0.0693329
53	0x3e02f2ed	0.12787981
54	0x3b8e30fa	0.0043393346
55	0xbdb9b2ca	-0.090673044
56	0x3d951e04	0.07281116
57	0x3a6849c5	0.000886109
58	0x3d9d50dd	0.07681439
59	0xbdc20ec8	-0.094754755
60	0xbdb74683	-0.08948996
61	0x3dad61d2	0.08465923
62	0x3d93085f	0.07179331
63	0x3d3ce523	0.04611696
64	0xbddfea23	-0.1093333
65	0xbd8a64ac	-0.06757483
66	0x3d68eba0	0.056865335
67	0x3d16bbe1	0.03680027
68	0xbdd5f4bf	-0.10447072
69	0x3e0c5b7c	0.13706774
70	0xbd9bf6f8	-0.07615465
71	0x3d3a8bb0	0.045543373
72	0x3d338dda	0.043836452
73	0x3d66a727	0.056311753
74	0x3cd883b2	0.026429985
75	0xbd2c023d	-0.041994322
76	0x3c60a221	0.01371053
77	0xbd40cfd5	-0.047073204
78	0xbdf489ff	-0.11940383
79	0x3e0845b2	0.13307837
80	0x3d183012	0.03715522
81	0x3e015ddd	0.12633462
82	0x3ce83bd6	0.028348844
83	0x3da65e64	0.08123472
84	0x3d3defb2	0.04637117
85	0x3db70f6f	0.089384906
86	0xbce4c379	-0.02792524
87	0x3ce874ca	0.028376002
88	0x3cfa7f59	0.030578302
89	0x3dd1b8a7	0.10240298
90	0xbe0b8e75	-0.13628562
91	0xbc6f6bfa	-0.014613146
92	0x3d5e0461	0.054203395
93	0x3d435388	0.047687083
94	0xbe138e40	-0.14409733
95	0xbdbfe17b	-0.09369179
96	0xbdc52ca4	-0.09627655
97	0x3d66a907	0.05631354
98	0x3ce9f9f8	0.028561577
99	0xbdd70a23	-0.1049998
100	0xbdfbd906	-0.12297253
101	0xbd407ef2	-0.046996064
102	0x3e00a527	0.12563
103	0x3c355e32	0.011069821
104	0x3cf93f1c	0.0304256
105	0x3ddaccd7	0.10683601
106	0xbd77f1f5	-0.060533483
107	0x3d2f7dee	0.042844705
108	0x3cada821	0.021198334
109	0xbe126946	-0.14297971
110	0x3df8ce10	0.12148678
111	0xbe00714f	-0.12543224
112	0xbcde2f57	-0.027122183
113	0x3d822af0	0.06355846
114	0x3da1af65	0.07894782
115	0xbcf7d3b3	-0.030252313
116	0xbd101dc6	-0.035184644
117	0xbdeda361	-0.11603428
118	0xbdcaa8c9	-0.098954745
119	0xbdc7e2a2	-0.09760024
120	0x3d56764e	0.052358918
121	0x3db7ee4c	0.089809984
122	0xbd1f4f72	-0.038894124
123	0x3dd5320a	0.10409935
124	0x3dc0cefe	0.094144806
125	0xbafde79b	-0.0019371392
126	0x3da47942	0.080309406
127	0x3d77afa8	0.060470253
128	0x3c2da1a6	0.010597622
129	0x3d651e13	0.055936884
130	0xbd436e36	-0.047712527
131	0xbd5b8e44	-0.053602472
132	0x3d16f08c	0.036850497
133	0xbd2dc78a	-0.042426623
134	0x3daac81b	0.08338948
135	0xbdcbb009	-0.099456854
136	0xbc7cd203	-0.01543093
137	0x3c518dbc	0.01279014
138	0x3de94011	0.11389173
139	0xbe0d9b13	-0.13828687
140	0xbd5b1a70	-0.05349201
141	0xbd080aeb	-0.033213537
142	0xbdf7c73c	-0.12098548
143	0xbdb3991a	-0.08769436
144	0x3c37a97d	0.011209843
145	0xbd3439dd	-0.044000495
146	0xbd203493	-0.03911264
147	0xbcb52395	-0.022111693
148	0xbd7392be	-0.059466116
149	0x3e12c8a9	0.14334358
150	0x3dec7c17	0.11547106
151	0x3db5a7d2	0.088699
152	0x3d903aa6	0.07042436
153	0x3dc63458	0.096779525
154	0x3e00418d	0.12525006
155	0x3d2b08a8	0.041756302
156	0xbe213130	-0.1574142
157	0x3cda1394	0.026620664
158	0x3da0d18c	0.07852468
159	0x3d810181	0.06299115
160	0xbdd8b2dd	-0.105809905
161	0xbdc0a700	-0.09406853
162	0xbd849b16	-0.06474893
163	0x3d53ec8a	0.051739253
164	0x3dc4b6d5	0.09605185
165	0xbd2de9f7	-0.042459454
166	0xbdfcb65a	-0.12339468
167	0x3df37f21	0.11889482
168	0x3db72cb0	0.0894407
169	0x3cc58173	0.024109578
170	0x3e08cbd6	0.13359007
171	0xbdab1d19	-0.08355159
172	0x3d998c1d	0.074974276
173	0xbdad5bb1	-0.084647544
174	0x3de06a54	0.109577805
175	0xbe093b93	-0.13401632
176	0x3dbde21a	0.09271641
177	0x3dadb472	0.08481683
178	0x3ca4b874	0.020107485
179	0x3da9faa6	0.082997605
180	0x3d8d3674	0.06895152
181	0xbdbf38a9	-0.09336979
182	0xbdf0915a	-0.117464736
183	0xbd2a1124	-0.041520253
184	0x3e10f686	0.14156541
185	0x3dac59fd	0.084156014
186	0x3d19a5dd	0.037511695
187	0xbd15aa45	-0.036539335
188	0xbd9f18b1	-0.077683814
189	0xbe0e360d	-0.13887806
190	0x3da8f344	0.08249524
191	0x3dbb891b	0.0915701
192	0xbd001201	-0.03126717
193	0xbd068ac4	-0.03284718
194	0xbdb3f35f	-0.08786654
195	0xbcb50f48	-0.022102013
196	0xbdfebfb2	-0.12438907
197	0xbe12dca1	-0.14341976
198	0xbb9b3ea4	-0.004737692
199	0xbddbabfb	-0.10726162
200	0x3dc32462	0.09528424
201	0x3bb47371	0.0055069258
202	0x3de019fb	0.109424554
203	0xbc517ec6	-0.012786573
204	0x3d9ab91f	0.0755484
205	0xbdfd11c6	-0.12356906
206	0xbda82ba7	-0.08211451
207	0xbdf92d22	-0.121668115
208	0xbd96c18b	-0.07361134
209	0xbd88f340	-0.06687021
210	0x3d8a2b06	0.06746487
211	0x3bc29013	0.005937585
212	0xbd877ea4	-0.06615952
213	0xbdf1556e	-0.117838725
214	0x3cdcdc3f	0.02696049
215	0xbd503136	-0.05082818
216	0xbd84a425	-0.064766206
217	0xbda531cd	-0.08066139
218	0x3ca58cb0	0.020208687
219	0xbdb7049f	-0.08936428
220	0xbc4106e3	-0.011781427
221	0x3d2a4651	0.041570965
222	0x3c832320	0.01600796
223	0x3dd53f9d	0.10412524
224	0x3d75b3a5	0.059985776
225	0x3d8af000	0.067840576
226	0x3e0eefde	0.1395869
227	0x3dcc45cb	0.099742495
228	0xbdc8f72b	-0.098127685
229	0xbdaf2e3e	-0.08553742
230	0xbdccabda	-0.099937156
231	0xbc17fc76	-0.0092765
232	0xbd2cc258	-0.04217753
233	0x3dfc04c8	0.123055995
234	0x3d5ba9e1	0.053628806
235	0xbdb60dc9	-0.08889348
236	0x3df418bf	0.119187824
237	0xbc20be1e	-0.0098109525
238	0x3dbee2a5	0.09320573
239	0x3d8502c6	0.064946696
240	0xbd8b7827	-0.068100266
241	0xbcf9b834	-0.030483343
242	0x3d3ac4f3	0.04559798
243	0xbdaf752a	-0.08567269
244	0xbde69813	-0.112594746
245	0x3dae5c47	0.08513694
246	0x3da19f68	0.078917325
247	0x3dc07f81	0.093993194
248	0x3b598df4	0.0033196183
249	0xbd49efd3	-0.04930098
250	0x3e08f291	0.13373782
251	0x3de211ea	0.11038573
252	0x3ad44895	0.0016195948
253	0xbd3a47b8	-0.045478553
254	0xbc1848ca	-0.009294698
255	0x3b9563ba	0.0045590075

Q_net.linear2.bias f4 [50]
0	0x3d1d1da0	0.03835833
1	0xbe63ac54	-0.22233707
2	0x3b187ed0	0.0023268946
3	0xbd061c12	-0.032741614
4	0x3d81798c	0.06322011
5	0xbe2ef008	-0.17083752
6	0xbdc5ec71	-0.09664238
7	0xbc99dcaa	-0.018781979
8	0xbd711d00	-0.058865547
9	0xbe30866f	-0.17238782
10	0x3d4ee3a1	0.050510053
11	0xbe15ba7a	-0.14621916
12	0xbe183895	-0.14865334
13	0xbe0702ff	-0.13184737
14	0xbcb9e565	-0.022692392
15	0xbe3ee5bc	-0.18642324
16	0x3d912036	0.07086222
17	0xbe07c988	-0.13260472
18	0xbd889e79	-0.06670851
19	0xbdbbbef7	-0.09167283
20	0xbd515b5d	-0.05111252
21	0x3d5aa5dd	0.053380836
22	0xbc4ff660	-0.012693018
23	0x3df7bf11	0.1209699
24	0x3c6fc708	0.014634855
25	0xbdf243f7	-0.118293695
26	0x3a1d7b5b	0.0006007456
27	0x3d909c94	0.07061115
28	0x3d3671f3	0.044542264
29	0x3dd33b1f	0.10314011
30	0x3db0bf2d	0.08630214
31	0xbd2be048	-0.04196194
32	0x3d9dad05	0.076990165
33	0x3c5368b0	0.012903377
34	0xbe42a3f0	-0.1900785
35	0xbe42d809	-0.19027723
36	0xbd6d09d6	-0.05787071
37	0xbe05003a	-0.12988368
38	0xbdb5bee4	-0.088743
39	0x3e488139	0.19580545
40	0xbd007e43	-0.031370413
41	0xbd665280	-0.056231022
42	0x3e20a608	0.15688336
43	0x3e53999a	0.20664063
44	0x3c1ac24f	0.009445741
45	0xbdfd4d39	-0.12368245
46	0x3ddccaa2	0.10780837
47	0x3e00ec34	0.12590104
48	0x3e7a10f3	0.24420528
49	0xbdb11869	-0.08647234

Q_net.fc_A.weight f4 [3, 50]
0	0xbdeb538f	-0.11490547
1	0x3d0cc700	0.03436947
2	0x3db5fc1d	0.088859774
3	0x3d4e46f2	0.050360627
4	0x3dc5a0b4	0.09649792
5	0x3cc369b0	0.023854107
6	0x3d8dd255	0.06924883
7	0xbd07b527	-0.033131745
8	0x3dbbd64a	0.09171732
9	0xbdd762af	-0.10516869
10	0x3d266ad5	0.040629227
11	0x3af22a67	0.0018475772
12	0x3c1eb4de	0.009686677
13	0xbdab8587	-0.08375078
14	0xbd71acf2	-0.059002824
15	0x3d0f736e	0.03502219
16	0x3d9843dc	0.07434818
17	0x3db4dc9d	0.08831141
18	0xbd532637	-0.051550116
19	0xbde70ffd	-0.112823464
20	0xbdc5670f	-0.096387975
21	0x3b612cc4	0.0034358958
22	0x3ca3f0c8	0.020012274
23	0x3ca06a1e	0.01958185
24	0xbb378698	-0.0028003808
25	0x3d6754c6	0.05647733
26	0xbd3a5913	-0.045495104
27	0xbdce7ff2	-0.100829974
28	0xbdd379d9	-0.10325975
29	0x3c9df5da	0.01928227
30	0xbbd00985	-0.006348791
31	0x3d611d5b	0.054959636
32	0xbd1f2d10	-0.038861334
33	0xbcebd575	-0.028788308
34	0xbd9425a4	-0.07233742
35	0xbdd8799c	-0.1057007
36	0x3c3403eb	0.010987262
37	0xbde1a878	-0.11018461
38	0x3d2445d3	0.040105652
39	0xbcd7fd53	-0.026365912
40	0xbd692407	-0.056919124
41	0x3b630207	0.003463866
42	0x3cefb191	0.029259475
43	0xbb6137cd	-0.0034365535
44	0xbbee2f86	-0.007268849
45	0xbdf05ee1	-0.11736847
46	0xbd9aac49	-0.07552392
47	0xbdd337eb	-0.103134
48	0x3daa85d5	0.08326308
49	0xbc6e0802	-0.014528276
50	0xbd878b87	-0.066184096
51	0x3dca8bc8	0.098899424
52	0x3dfd3b6e	0.12364851
53	0xbccff899	-0.025387095
54	0x3b292277	0.0025807896
55	0xbd193f09	-0.03741363
56	0xbcef735f	-0.029229818
57	0xbda6a3b8	-0.081366956
58	0xbd0b4f48	-0.034011155
59	0xbddd7762	-0.10813786
60	0x3ab09775	0.0013472872
61	0x3dd3471e	0.10316299
62	0xbd89f049	-0.06735284
63	0xb92959c0	-0.0001615053
64	0x3ce40a33	0.027836895
65	0x3d2d61f5	0.042329747
66	0xbc5e568b	-0.013570438
67	0xbd6466e1	-0.055762175
68	0xbe0191a2	-0.12653211
69	0x3db64394	0.08899608
70	0x3d84f30f	0.06491672
71	0xbd28ea3a	-0.041239
72	0x3cf5ed19	0.030020284
73	0x3dd03c43	0.10167744
74	0xbde72886	-0.11287026
75	0x3ce4a346	0.027909886
76	0xbdc497bb	-0.09599253
77	0xbdb4a65a	-0.088207915
78	0x3d94633d	0.07245491
79	0x3d08f3d9	0.033435676
80	0xbd3d85f8	-0.04627034
81	0x3dcdf474	0.10056391
82	0x3dd015cd	0.10160408
83	0x3df7c839	0.12098736
84	0x3cfddc49	0.03098883
85	0x3c5e0ed9	0.013553345
86	0x3c46d139	0.0121348435
87	0x3d2d8282	0.04236079
88	0xbdaec098	-0.08532828
89	0xbd97d210	-0.07413113
90	0xbdf686dc	-0.12037441
91	0x3d8a4ddd	0.067531325
92	0x3ccb86e0	0.024844587
93	0xbda4f62b	-0.08054765
94	0x3db5ae07	0.08871084
95	0xbdad1241	-0.08450747
96	0xbd8181f9	-0.063236184
97	0xbcc92106	-0.02455188
98	0x3d6225a1	0.055211667
99	0xbdee9af7	-0.11650651
100	0xbdb9586d	-0.09050069
101	0x3d1f0b81	0.03882933
102	0x3e083d61	0.13304664
103	0x3daf3956	0.08555858
104	0x3d526311	0.05136401
105	0xbd46f5f6	-0.04857441
106	0x3d0909f8	0.033456773
107	0x3ca88df9	0.02057551
108	0x3d3070a5	0.043076176
109	0xbde4669a	-0.11152382
110	0x3d51a7c0	0.05118537
111	0xbda40bbf	-0.08010053
112	0xbd63fdf5	-0.055662114
113	0xbca5ef9b	-0.020255854
114	0xbd92aa0c	-0.0716134
115	0x3dc85569	0.09781916
116	0x3dc29346	0.095007464
117	0x3b781eb5	0.00378601
118	0xbcd6d122	-0.02622277
119	0xbdeb34e3	-0.11484697
120	0xbc252a71	-0.01008092
121	0x3d1b010f	0.037842806
122	0x3bbce5d9	0.0057647047
123	0xbd0c5df0	-0.034269273
124	0xbd18841d	-0.037235368
125	0xbce81d69	-0.028334336
126	0xbdb6a443	-0.08918049
127	0xbdfcc2fb	-0.12341877
128	0xbe02ca9f	-0.12772606
129	0xbccaa8f9	-0.024738776
130	0x3d57a9e4	0.052652255
131	0x3d755ff8	0.059905976
132	0x3debeb88	0.115195334
133	0xbce31fbb	-0.027725091
134	0xbd448396	-0.047977053
135	0xbd3f76f1	-0.04674429
136	0x3bee8820	0.007279411
137	0xbdd35b6e	-0.10320173
138	0xbd1c04d7	-0.038090553
139	0x3d275798	0.04085502
140	0xbd4d5acc	-0.05013542
141	0x3cf527b7	0.029926164
142	0x3d90c1b2	0.070681944
143	0x3d01805d	0.031616557
144	0x3d3402bd	0.043947924
145	0xbd91f4ef	-0.071267955
146	0xbcc7c72c	-0.024386965
147	0x3c7be70a	0.015374908
148	0x3dd8b0e2	0.10580613
149	0x3b2f8305	0.0026780975

Q_net.fc_A.bias f4 [3]
0	0xbd70be34	-0.05877514
1	0xbd1e222c	-0.038606808
2	0xbddaead5	-0.10689322

Q_net.fc_V.weight f4 [1, 50]
0	0x3c67b72f	0.0141427955
1	0xbd2d3d0c	-0.042294547
2	0xbc45c0f7	-0.012069932
3	0xbd563801	-0.052299503
4	0x3d2c3065	0.04203834
5	0xbd5f44c7	-0.05450895
6	0x3ba3f142	0.0050031254
7	0xbc422731	-0.011850164
8	0xbd8d6888	-0.069047034
9	0xbb7d3cf0	-0.0038641058
10	0x3da13567	0.07871514
11	0xbaed2ef7	-0.0018095662
12	0xbdf81402	-0.12113191
13	0x3bd3b453	0.0064607053
14	0xbdacccce	-0.08437501
15	0xbdb07ebd	-0.086179234
16	0x3d6044f0	0.054753244
17	0xbdbb25a3	-0.09138038
18	0x3b426daa	0.0029667416
19	0x3d9805c4	0.07422975
20	0xbc804593	-0.015658176
21	0x3d6273f1	0.05528635
22	0x3daec1f5	0.08533088
23	0x3dc37b42	0.09544994
24	0x3ac454bc	0.0014978866
25	0x3a86cede	0.001028504
26	0x3c2dc5db	0.010606254
27	0x3d9cd428	0.07657653
28	0x3d80f2e5	0.062963285
29	0x3d802df6	0.06258766
30	0xbcafddd6	-0.021468084
31	0x3d311122	0.04322923
32	0xbd548f80	-0.051894665
33	0x3d6717f2	0.05641932
34	0xbced5143	-0.028969413
35	0xbda65ee2	-0.08123566
36	0xbbd099c4	-0.0063659865
37	0xbda631bc	-0.08114955
38	0xbd0abb76	-0.033870183
39	0x3d00de84	0.031462207
40	0xbd823733	-0.06358185
41	0xbcb73495	-0.02236394
42	0x3d7eaa5d	0.06217419
43	0x3c1c7ed2	0.009551721
44	0x3c8d47c2	0.01724613
45	0xbc686d72	-0.01418625
46	0x3d98bd08	0.0745793
47	0x3c06b721	0.008222372
48	0x3d345db5	0.04403468
49	0xbc8f6183	-0.017502552

Target_Q_Net.linear1.weight f4 [50, 150]
0	0x3c3e1271	0.011601076
1	0xbd184c51	-0.037182156
2	0xbd571d40	-0.05251813
3	0xbd7b43e1	-0.06134403
4	0xbde136a3	-0.10996749
5	0xbc9d4b47	-0.019200934
6	0xbcb53c21	-0.022123398
7	0xbe87185a	-0.26385766
8	0xbdb96015	-0.09051529
9	0x3d5d1a46	0.053980134
10	0xbdf69572	-0.12040223
11	0x3b694f77	0.0035600343
12	0xbd4a51c4	-0.049394384
13	0xbd22c260	-0.03973615
14	0xbde0b11d	-0.10971282
15	0x3d1de542	0.038548715
16	0x3d868a09	0.06569297
17	0xbea15983	-0.31513605
18	0xbcce9ce2	-0.025221292
19	0xbcc2e1fb	-0.023789397
20	0xbd45eb6e	-0.048320226
21	0xbdd5289d	-0.10408137
22	0xbdb9f829	-0.09080536
23	0xbcea6002	-0.028610233
24	0xbd855e44	-0.0651212
25	0xbe0d08ec	-0.13772935
26	0xbd9c6d8a	-0.076380804
27	0xbe516246	-0.20447645
28	0xbd82df35	-0.063902296
29	0xbc312b14	-0.010813493
30	0xbd8cfa53	-0.06883683
31	0xbdb93024	-0.09042385
32	0xbddb77c0	-0.107162
33	0xbcc62c40	-0.024191022
34	0x3c35bba0	0.011092097
35	0xbd97162b	-0.07377275
36	0xbda0d316	-0.078527614
37	0xbe06acf8	-0.1315192
38	0x3c14ab75	0.009074082
39	0x3d2ca028	0.042144924
40	0xbdbe1ca3	-0.09282806
41	0xbd76556e	-0.060140066
42	0x3bc5b4be	0.006033509
43	0xbc85f82e	-0.016353693
44	0x3d07d023	0.03315748
45	0x3c3efa5c	0.01165637
46	0xbd842232	-0.06451835
47	0xbe68ddda	-0.2274088
48	0xbdc2d709	-0.09513671
49	0x3bb6c8cd	0.0055781365
50	0xbd0a6825	-0.033790726
51	0xbd69d0a0	-0.057083726
52	0xbce57f89	-0.028014915
53	0x3bcd75d0	0.006270148
54	0x3c231a1a	0.009954954
55	0xbc0836be	-0.008313833
56	0xbdc927c8	-0.09822041
57	0xbd6eb5b5	-0.058278758
58	0xbdcdf62e	-0.10056721
59	0xbd68275d	-0.056678165
60	0xbdd9ea5b	-0.10640403
61	0xbdd0aa30	-0.10188711
62	0x3c15a306	0.009133106
63	0xbcc7c46e	-0.024385657
64	0xbd783689	-0.060598884
65	0x3e0f581c	0.13998455
66	0x3c092999	0.008371734
67	0x3d27decd	0.040983964
68	0xbda84d45	-0.08217863
69	0x3d555bbc	0.052089438
70	0xbd7aec50	-0.06126052
71	0xbd6529f0	-0.055948198
72	0xbdd02f51	-0.10165275
73	0xbd83a0b5	-0.06427137
74	0xbdce266e	-0.10065924
75	0x3cc1d695	0.023661891
76	0xbccded14	-0.025137462
77	0xbc9a71a4	-0.018853016
78	0xbda0e11b	-0.078554355
79	0xbc1f9081	-0.009739042
80	0xbddbeb2b	-0.10738214
81	0x3c68d0e9	0.014209964
82	0xbd0faaee	-0.03507512
83	0xbda26927	-0.079302125
84	0xbd08e49b	-0.03342114
85	0x3d97bfd4	0.07409635
86	0xbd3a37fb	-0.045463543
87	0x3da14b1a	0.078756526
88	0xbe012ed7	-0.12615524
89	0xbce94d54	-0.028479256
90	0x3cbb859b	0.022890856
91	0xbd3ead98	-0.04655227
92	0xbdf1649c	-0.11786768
93	0x3d4c5463	0.049885165
94	0xbdc6229c	-0.0967457
95	0x3ccd113c	0.025032632
96	0x3caa7395	0.020807067
97	0x3e50497e	0.20340535
98	0xbdd3efe6	-0.10348491
99	0xb928381c	-0.00016042631
100	0xbd1f38de	-0.038872592
101	0xbcfd849f	-0.030947028
102	0xbd2f029f	-0.04272711
103	0xbdbad87e	-0.09123324
104	0xbda0a009	-0.07843024
105	0xbd1653db	-0.036701065
106	0xbbc4b2a7	-0.0060027423
107	0x3e3150aa	0.17315927
108	0xbdb655e5	-0.08903102
109	0xbc5d56da	-0.013509477
110	0xbdb65d4c	-0.08904514
111	0x3c702155	0.0146563845
112	0xbd909f4b	-0.07061633
113	0xbdc5d0a8	-0.09658939
114	0xbc71cd07	-0.014758355
115	0xbcb3e5e3	-0.021960204
116	0x3cca4816	0.024692576
117	0x3d9a2a2f	0.07527577
118	0xbdf0dd3b	-0.11760946
119	0x3c72d650	0.014821604
120	0xbdd0edc7	-0.102016024
121	0x3c7a7c10	0.015288368
122	0x3ced6e72	0.028983328
123	0x3aa423f8	0.0012522927
124	0xbd499657	-0.04921564
125	0x3d5982de	0.05310332
126	0x3d773b97	0.060359564
127	0x3d497136	0.049180232
128	0xbde4b985	-0.111681975
129	0xbd15fc7d	-0.036617745
130	0x3cd3d02c	0.0258561
131	0xbdcf53d6	-0.10123412
132	0x3cd51f58	0.026015922
133	0xbca2d996	-0.019879144
134	0xbca6a758	-0.020343468
135	0x3da0e17b	0.07855507
136	0x3d71b06e	0.059006147
137	0x3dd3a845	0.10334829
138	0xbd36aab3	-0.044596385
139	0x3d805398	0.06265944
140	0xbc41c8e6	-0.011827683
141	0xbc8fda05	-0.017560015
142	0xbd57356e	-0.05254119
143	0xbd22940c	-0.03969197
144	0x3d330644	0.043707147
145	0x3d153544	0.03642775
146	0xbdc13b27	-0.094351105
147	0x3dd5d895	0.104417
148	0xbc028db3	-0.007968354
149	0xbd3e6041	-0.046478514
150	0xbdf4d59b	-0.119548045
151	0xbdcf0a34	-0.10109368
152	0xbdff152a	-0.124552086
153	0xbd919f72	-0.0711049
154	0xbe13c901	-0.14432146
155	0xbcc4f033	-0.024040317
156	0x3d9f3839	0.077743955
157	0x3e934c7e	0.28769296
158	0xbdca1c2e	-0.09868656
159	0x3d625aa0	0.055262208
160	0xbe26a499	-0.16273727
161	0xbde94534	-0.113901526
162	0xbda6867b	-0.08131119
163	0xbe101b02	-0.14072803
164	0xbdf2d167	-0.118563466
165	0xbd465517	-0.04842099
166	0x3d3b300b	0.045700114
167	0x3eb0ec09	0.3455508
168	0xbda50ef5	-0.080594935
169	0x3d764b12	0.060130186
170	0xbe2c6c79	-0.16838254
171	0xbc926aa2	-0.017873112
172	0xbe23edd2	-0.1600869
173	0xbd9f7de4	-0.077876836
174	0xbe1d6b81	-0.1537304
175	0x3deee313	0.11664405
176	0x3d43c5ce	0.047796063
177	0x3e83f1c9	0.25770405
178	0xbe0922e4	-0.13392216
179	0x3d47c7ee	0.048774652
180	0xbde41ae4	-0.111379415
181	0xbd11d543	-0.035603773
182	0xbe0d5b00	-0.13804245
183	0xbd062fe3	-0.032760512
184	0xbdd58495	-0.10425679
185	0x3d21aa21	0.03946889
186	0x3b1f05a8	0.0024264846
187	0x3ea3404c	0.31884992
188	0xbd20b2bc	-0.039232954
189	0xbd29137a	-0.04127834
190	0xbc00192a	-0.0078185
191	0xbe057630	-0.13033366
192	0xbe1b3684	-0.15157515
193	0xbe15fac4	-0.1464644
194	0xbd27f339	-0.04100344
195	0x3d89a186	0.06720261
196	0xbd2af7cf	-0.041740235
197	0x3e817526	0.2528469
198	0xbdd81336	-0.10550539
199	0xbd89541a	-0.06705494
200	0xbda9e6a5	-0.08295945
201	0xbd84f432	-0.06491889
202	0xbe1a32cc	-0.1505844
203	0xbde0d9c7	-0.10979038
204	0xbcbe0dc9	-0.023199933
205	0x3d7a1111	0.061051432
206	0x3d6cf446	0.057850145
207	0x3ebf3f60	0.3735304
208	0xbd8b9639	-0.06815762
209	0x3d598abd	0.053110827
210	0xbd2d29aa	-0.042276062
211	0xbd4b9eca	-0.04971198
212	0xbe2e05c6	-0.1699439
213	0xbd3424b0	-0.0439803
214	0xbdef4453	-0.11682954
215	0x3d823035	0.06356851
216	0x3d2c60f4	0.04208465
217	0x3e99d1b7	0.30042812
218	0xbde91f28	-0.11382896
219	0x3d1e30b1	0.038620654
220	0xbc962c89	-0.018331783
221	0xbdc281bb	-0.094974004
222	0xbe137b59	-0.14402522
223	0xbdba2055	-0.09088198
224	0xbe07d2ba	-0.1326398
225	0x3de8aae9	0.113607235
226	0xbd5c820b	-0.053834956
227	0x3e8a3dfa	0.2700041
228	0xbde960eb	-0.11395439
229	0xbd1105e2	-0.035406
230	0xbe30c66d	-0.17263193
231	0xbd2c7348	-0.04210213
232	0xbdf8a8fd	-0.12141607
233	0xbd31be68	-0.043394476
234	0xbe29d391	-0.16584612
235	0x3e29b172	0.16571596
236	0x3d469706	0.04848387
237	0x3e970731	0.29497674
238	0xbdfd2252	-0.12360062
239	0x3d632b9f	0.055461522
240	0xbd447b4a	-0.04796914
241	0xbd996a97	-0.074910335
242	0xbc9d3f23	-0.019195145
243	0xbda8ba80	-0.08238697
244	0xbe0d8deb	-0.13823669
245	0x3d2d2df9	0.04228017
246	0xbd852dfe	-0.06502913
247	0x3ee45c4c	0.44601667
248	0xbdc052b0	-0.093907714
249	0x3c5ad133	0.013355541
250	0xbd93dacd	-0.07219467
251	0xbd1dca74	-0.038523152
252	0xbd83b703	-0.06431391
253	0xbe0fef9f	-0.14056252
254	0xbdce5d79	-0.10076422
255	0x3c5c12e9	0.013432243

Target_Q_Net.linear1.bias f4 [50]
0	0x3cf6a361	0.030107202
1	0xbdadeeb6	-0.08492796
2	0xbc2d35cd	-0.010571909
3	0x3deb19a9	0.11479504
4	0xbd7ae129	-0.061249886
5	0x3d4e1212	0.050310202
6	0xbcc5812d	-0.024109447
7	0x3cd75dd4	0.026289858
8	0xbd44b3ca	-0.048023023
9	0xbc9a9e14	-0.018874206
10	0xba9e53a1	-0.0012079367
11	0xbda85328	-0.08218986
12	0x3e147fd2	0.14501885
13	0xbd2129b5	-0.039346416
14	0x3daa5706	0.0831738
15	0xbcc0a991	-0.023518356
16	0x3dfbabd7	0.12288635
17	0xbe0352ae	-0.12824509
18	0xbc89ffeb	-0.016845664
19	0x3e93fde9	0.28904656
20	0x3df15264	0.11783293
21	0xbe863d2e	-0.2621855
22	0x3d074e99	0.03303394
23	0xbd95c40f	-0.07312786
24	0xbded4550	-0.11585486
25	0xbd29d8fe	-0.041466706
26	0x3e70b280	0.23505592
27	0x3d3ffa60	0.046869636
28	0xbdbbb778	-0.09165853
29	0x3d991a98	0.074757755
30	0xbe1afb0b	-0.15134828
31	0x3e3ce854	0.18448001
32	0x3d5533c2	0.052051313
33	0xbd820b0d	-0.06349764
34	0x3cbccf11	0.023047956
35	0x3e26e331	0.16297604
36	0xbddcc92a	-0.107805565
37	0xbe003db2	-0.12523535
38	0xbdf64a2b	-0.12025865
39	0x3dd06dda	0.101772025
40	0xbd5a6d06	-0.05332663
41	0xbd1ab4f7	-0.037770238
42	0xbe227032	-0.15863112
43	0xbe5027cb	-0.2032768
44	0xbd8627c5	-0.06550554
45	0xbe287928	-0.16452467
46	0x3d9938ce	0.07481538
47	0xbdf433a8	-0.11923915
48	0xbd0f24ae	-0.03494709
49	0x3d752775	0.059852082

Target_Q_Net.linear2.weight f4 [50, 50]
0	0xbe050af2	-0.12992457
1	0x3cf376e1	0.029719772
2	0x3cb009c8	0.021489039
3	0xbdfdcfad	-0.12393127
4	0xbe050da7	-0.12993489
5	0x3cedf49a	0.0290473
6	0xbdc13aed	-0.09435067
7	0xbde5aee0	-0.112149954
8	0xbdbbcbfd	-0.09169767
9	0xbd2a2aea	-0.041544832
10	0x3de45e4a	0.11150797
11	0x3e1b6a91	0.1517737
12	0xbc9b6f5b	-0.018973997
13	0xbd59895b	-0.053109508
14	0xbda461dc	-0.08026478
15	0x3e130e86	0.14361009
16	0x3df3f10a	0.11911209
17	0xb98514a9	-0.0002538313
18	0x3e1041a4	0.1408754
19	0xbc4e1e81	-0.012580515
20	0xbdb3f5fe	-0.08787154
21	0xbccd81f2	-0.025086377
22	0x3dcd82f6	0.100347444
23	0x3dafa98c	0.085772604
24	0x3d52cc51	0.051464383
25	0xbd590503	-0.052983295
26	0x3dd76edd	0.10519192
27	0x3dbe2785	0.092848815
28	0x3d68b65c	0.056814536
29	0x3db0a0a2	0.08624388
30	0xbdb76cb1	-0.08956278
31	0x3dd1f90a	0.102525786
32	0xbd3eee9c	-0.046614274
33	0x3cd4fb7d	0.025998825
34	0x3db7bfeb	0.08972152
35	0xbcff3eca	-0.03115787
36	0x3d14e4f3	0.036351155
37	0x3dacdd5e	0.0844066
38	0xbcd65181	-0.026161911
39	0xbc37df57	-0.011222682
40	0x3e01900a	0.12652603
41	0xbdf8fde7	-0.12157803
42	0xbdef84dc	-0.11695263
43	0xbd969805	-0.07353214
44	0xbdd01fcf	-0.10162317
45	0x3d9e8c60	0.07741618
46	0x3cc82438	0.024431333
47	0x3df09b8f	0.117484204
48	0x3cfd43da	0.030916143
49	0x3da1231f	0.07868027
50	0x3d34a79c	0.044105157
51	0x3dde2bd0	0.108482
52	0xbd8d508b	-0.06900128
53	0x3e02aad3	0.12760477
54	0x3b8dbf6d	0.0043257982
55	0xbdb92f4b	-0.090422235
56	0x3d952920	0.072832346
57	0x3a72dbd1	0.00092643226
58	0x3d9d2ef6	0.07674973
59	0xbdc1cd3b	-0.09462973
60	0xbdb74782	-0.08949186
61	0x3dad7aae	0.08470665
62	0x3d93379c	0.07188341
63	0x3d3d0c20	0.04615414
64	0xbde05213	-0.109531544
65	0xbd8a8988	-0.06764513
66	0x3d684295	0.056704123
67	0x3d16d2a5	0.03682198
68	0xbdd5d716	-0.10441415
69	0x3e0c6553	0.13710527
70	0xbd9bf95c	-0.07615921
71	0x3d3a00b5	0.04541083
72	0x3d33b127	0.043870118
73	0x3d66fa26	0.056390904
74	0x3cd7c59c	0.026339345
75	0xbd2bf5b4	-0.041982368
76	0x3c5f5643	0.013631406
77	0xbd40e2d8	-0.047091335
78	0xbdf4dfc5	-0.11956743
79	0x3e083fd7	0.13305603
80	0x3d181149	0.03712586
81	0x3e015f7b	0.12634079
82	0x3ce7b6af	0.028285353
83	0x3da65953	0.08122506
84	0x3d3dd141	0.04634214
85	0x3db72d2f	0.08944165
86	0xbce4edeb	-0.02794548
87	0x3ce91cfd	0.028456206
88	0x3cfb3b04	0.03066779
89	0x3dd1b0e8	0.1023882
90	0xbe0bb919	-0.13644828
91	0xbc6fffe3	-0.0146484105
92	0x3d5e200d	0.054229785
93	0x3d43569f	0.04769003
94	0xbe136080	-0.1439228
95	0xbdbfdb45	-0.09367994
96	0xbdc56913	-0.09639182
97	0x3d66b0c2	0.056320913
98	0x3ce92c00	0.028463364
99	0xbdd707da	-0.104995444
100	0xbdfbf6bd	-0.12302921
101	0xbd404a9b	-0.04694615
102	0x3e00fce3	0.12596469
103	0x3c322e88	0.010875352
104	0x3cf913d6	0.030404966
105	0x3ddb0654	0.10694566
106	0xbd77fa9c	-0.060541734
107	0x3d2fa7c4	0.042884603
108	0x3cad3c34	0.021146871
109	0xbe1253c2	-0.14289764
110	0x3df8d2a0	0.121495485
111	0xbe00686f	-0.12539838
112	0xbcde3186	-0.027123224
113	0x3d82282d	0.06355319
114	0x3da16e2e	0.07882343
115	0xbcf81db2	-0.030287597
116	0xbd10a9da	-0.035318233
117	0xbded938c	-0.11600408
118	0xbdca99f0	-0.098926425
119	0xbdc7d62e	-0.097576484
120	0x3d56622a	0.05233971
121	0x3db7c8d2	0.0897385
122	0xbd1f1ae8	-0.03884402
123	0x3dd53da9	0.10412151
124	0x3dc0a628	0.09406692
125	0xbafb2cfe	-0.0019163189
126	0x3da459a9	0.08024914
127	0x3d77a3af	0.060458835
128	0x3c2b7425	0.010464703
129	0x3d64fd6b	0.05590574
130	0xbd437072	-0.047714658
131	0xbd5bb0d7	-0.053635444
132	0x3d16db58	0.036830276
133	0xbd2dc0d3	-0.04242022
134	0x3daaad4d	0.08333836
135	0xbdcb8a8c	-0.09938535
136	0xbc7eaf9a	-0.015544796
137	0x3c52ccd8	0.012866221
138	0x3de973d8	0.113990486
139	0xbe0d9d67	-0.13829575
140	0xbd5b945c	-0.053608283
141	0xbd0840e8	-0.033265024
142	0xbdf7b417	-0.12094896
143	0xbdb3a095	-0.08770863
144	0x3c3adc7b	0.011405106
145	0xbd34327f	-0.04399347
146	0xbd20a32b	-0.03921811
147	0xbcb5030c	-0.02209618
148	0xbd73cb2b	-0.059519928
149	0x3e12beef	0.14330648
150	0x3dec5be1	0.11540962
151	0x3db5d1a6	0.08877878
152	0x3d90b42c	0.07065615
153	0x3dc62755	0.09675471
154	0x3e0038f2	0.12521723
155	0x3d2c3abd	0.042048205
156	0xbe21469c	-0.15749592
157	0x3cda4f1f	0.026649056
158	0x3da0deb8	0.0785498
159	0x3d814b86	0.06313233
160	0xbdd8c679	-0.10584731
161	0xbdc0907d	-0.09402559
162	0xbd848391	-0.06470407
163	0x3d5402be	0.051760428
164	0x3dc49d4c	0.096003145
165	0xbd2e536c	-0.042560026
166	0xbdfcdb8f	-0.12346565
167	0x3df3e2cd	0.11908493
168	0x3db736fb	0.089460336
169	0x3cc4b79c	0.024013333
170	0x3e08c694	0.13357002
171	0xbdaaf41f	-0.08347344
172	0x3d9994db	0.07499095
173	0xbdada410	-0.08478558
174	0x3de068ab	0.10957464
175	0xbe09260f	-0.13393424
176	0x3dbdb41d	0.092628695
177	0x3dadba53	0.08482804
178	0x3ca4458f	0.0200527
179	0x3da9d98e	0.082934484
180	0x3d8d3753	0.06895318
181	0xbdbf6420	-0.09345269
182	0xbdf0cafb	-0.117574655
183	0xbd29f2a0	-0.04149115
184	0x3e10f7af	0.14156984
185	0x3dac8627	0.08424025
186	0x3d18f298	0.03734073
187	0xbd1581bf	-0.03650069
188	0xbd9ee53e	-0.07758568
189	0xbe0e3724	-0.13888222
190	0x3da8e529	0.08246834
191	0x3dbb648d	0.09150038
192	0xbcffe814	-0.031238593
193	0xbd069c2f	-0.032863792
194	0xbdb3b571	-0.087748416
195	0xbcb4ba25	-0.022061417
196	0xbdfed452	-0.12442841
197	0xbe12bc27	-0.14329587
198	0xbb9e0e08	-0.00482345
199	0xbddc047c	-0.10743043
200	0x3dc35a8b	0.09538754
201	0x3bb213e1	0.0054344987
202	0x3ddf3963	0.108996175
203	0xbc4a8448	-0.01236064
204	0x3d9ac56a	0.07557185
205	0xbdfdaae9	-0.12386114
206	0xbda83827	-0.08213835
207	0xbdf95512	-0.12174429
208	0xbd969320	-0.073522806
209	0xbd89486a	-0.06703265
210	0x3d8a28b5	0.067460455
211	0x3bc0aee3	0.005880223
212	0xbd87a888	-0.06623942
213	0xbdf16746	-0.11787276
214	0x3cdf2d6a	0.027243335
215	0xbd4fdf59	-0.05075011
216	0xbd842403	-0.06452181
217	0xbda54018	-0.080688655
218	0x3ca4e2cd	0.020127678
219	0xbdb71ea3	-0.0894139
220	0xbc40d4e8	-0.011769511
221	0x3d2b0ac4	0.041758314
222	0x3c82aed1	0.0159525
223	0x3dd50eff	0.10403251
224	0x3d76337a	0.060107686
225	0x3d8ae8a4	0.06782654
226	0x3e0f143b	0.13972561
227	0x3dcc517b	0.09976479
228	0xbdc86cd4	-0.09786382
229	0xbdaf1b92	-0.085501805
230	0xbdcc986d	-0.099900104
231	0xbc17e5e7	-0.009271122
232	0xbd2c7656	-0.04210504
233	0x3dfc0962	0.12306477
234	0x3d5bde84	0.053679004
235	0xbdb63772	-0.08897294
236	0x3df43a65	0.119252004
237	0xbc2275c5	-0.009915774
238	0x3dbe9a99	0.09306831
239	0x3d850c6d	0.06496511
240	0xbd8afd93	-0.06786647
241	0xbcf94392	-0.030427728
242	0x3d3a9282	0.045549877
243	0xbdaf741c	-0.08567068
244	0xbde7296c	-0.112871975
245	0x3dae5451	0.08512176
246	0x3da1f22c	0.07907519
247	0x3dc07b00	0.093984604
248	0x3b60cf28	0.0034303162
249	0xbd49eaff	-0.049296375
250	0x3e08da7b	0.13364594
251	0x3de239d9	0.1104619
252	0x3af54da0	0.0018715151
253	0xbd3b0afb	-0.04566477
254	0xbc18acdc	-0.009318557
255	0x3ba34541	0.004982621

Target_Q_Net.linear2.bias f4 [50]
0	0x3d1e0980	0.03858328
1	0xbe63cdf1	-0.22246529
2	0x3b07c78a	0.00207183
3	0xbd087fd6	-0.03332504
4	0x3d81ec45	0.06343893
5	0xbe2f2dce	-0.17107317
6	0xbdc5efad	-0.09664855
7	0xbc9c0c6d	-0.019048894
8	0xbd730360	-0.05932939
9	0xbe309a42	-0.17246345
10	0x3d5016b9	0.05080292
11	0xbe155e1f	-0.14586686
12	0xbe18a391	-0.14906146
13	0xbe0706fa	-0.13186255
14	0xbcbbbfbc	-0.022918575
15	0xbe3f32ff	-0.18671797
16	0x3d9168b4	0.07100049
17	0xbe0839c6	-0.13303289
18	0xbd8910b0	-0.06692636
19	0xbdba7928	-0.0910514
20	0xbd51a908	-0.05118659
21	0x3d5b4216	0.05352982
22	0xbc493d06	-0.0122826155
23	0x3df8ac2f	0.121422164
24	0x3c6e9d5f	0.014563887
25	0xbdf1d8ca	-0.11808927
26	0x3a465f01	0.0007567257
27	0x3d915ff1	0.070983775
28	0x3d38f42d	0.04515474
29	0x3dd3f910	0.10350239
30	0x3db0064b	0.0859495
31	0xbd2a3cea	-0.041562
32	0x3d9d2a81	0.076741226
33	0x3c5d5765	0.013509606
34	0xbe42bf90	-0.19018388
35	0xbe431c4b	-0.19053762
36	0xbd6da3a3	-0.058017384
37	0xbe052919	-0.13003959
38	0xbdb625fa	-0.08893962
39	0x3e4874cd	0.19575806
40	0xbd024c51	-0.031811062
41	0xbd670400	-0.0564003
42	0x3e20e328	0.15711653
43	0x3e535ec8	0.20641625
44	0x3c1d0399	0.009583377
45	0xbdfdb6e0	-0.12388396
46	0x3ddd61c2	0.108096614
47	0x3e00cb6f	0.12577604
48	0x3e7a4b7c	0.24442858
49	0xbdb246db	-0.08704921

Target_Q_Net.fc_A.weight f4 [3, 50]
0	0xbdeb7141	-0.11496211
1	0x3d0d0489	0.034428153
2	0x3db5ff0e	0.088865384
3	0x3d4eab8f	0.05045658
4	0x3dc58b8e	0.096457586
5	0x3cc35d4c	0.023848198
6	0x3d8e23d5	0.06940428
7	0xbd07cdde	-0.033155315
8	0x3dbbd442	0.09171344
9	0xbdd77864	-0.105210096
10	0x3d26eeb6	0.040754996
11	0x3aee2545	0.0018169066
12	0x3c1f9381	0.0097397575
13	0xbdab6232	-0.08368339
14	0xbd71b471	-0.059009973
15	0x3d0f6582	0.035008915
16	0x3d98404b	0.07434138
17	0x3db4de05	0.08831409
18	0xbd5277a9	-0.051383648
19	0xbde6f284	-0.11276725
20	0xbdc53e1c	-0.09630987
21	0x3b5f72f9	0.0034095629
22	0x3ca42ec1	0.020041825
23	0x3ca06b72	0.019582484
24	0xbb347c24	-0.0027539814
25	0x3d670fa0	0.056411386
26	0xbd3be06a	-0.045868315
27	0xbdce6c2a	-0.100792244
28	0xbdd37aba	-0.103261426
29	0x3c9c25e0	0.019061029
30	0xbbd02c48	-0.006352935
31	0x3d617f77	0.0550532
32	0xbd1f5c38	-0.038906306
33	0xbceb8604	-0.028750427
34	0xbd949e2e	-0.07256733
35	0xbdd8653a	-0.105661824
36	0x3c353b73	0.011061537
37	0xbde186e4	-0.110120565
38	0x3d2433c7	0.04008844
39	0xbcd8629c	-0.026414208
40	0xbd68b8ff	-0.05681705
41	0x3b64a47e	0.0034888084
42	0x3cefbeb0	0.029265732
43	0xbb60716d	-0.0034247295
44	0xbbee9192	-0.007280537
45	0xbdf09290	-0.117467046
46	0xbd9aaa0a	-0.075519636
47	0xbdd35149	-0.10318238
48	0x3daa8b16	0.0832731
49	0xbc704ead	-0.014667195
50	0xbd873ddc	-0.066035956
51	0x3dca641b	0.09882375
52	0x3dfd3e57	0.12365406
53	0xbcd0fb6e	-0.025510516
54	0x3b25f586	0.0025323345
55	0xbd19498d	-0.03742366
56	0xbcf0cdb7	-0.029394967
57	0xbda69736	-0.0813431
58	0xbd0b05a6	-0.033940934
59	0xbddd74f1	-0.108133204
60	0x3a8bd1eb	0.0010667419
61	0x3dd3918a	0.10330494
62	0xbd8a060d	-0.06739435
63	0xb9e15ef1	-0.0004298608
64	0x3ce39968	0.02778311
65	0x3d2d5791	0.042319838
66	0xbc5eecd9	-0.013606274
67	0xbd645a0e	-0.055749945
68	0xbe01a452	-0.1266034
69	0x3db62cbb	0.088952504
70	0x3d84d491	0.06485856
71	0xbd28c715	-0.041205484
72	0x3cf60e55	0.03003613
73	0x3dd03a2f	0.10167348
74	0xbde72dcc	-0.11288032
75	0x3ce56eb6	0.028006893
76	0xbdc43468	-0.09580308
77	0xbdb4b76a	-0.08824046
78	0x3d949095	0.07254139
79	0x3d09a776	0.03360697
80	0xbd3d7c15	-0.046260912
81	0x3dcddcf6	0.100519106
82	0x3dd04603	0.10169604
83	0x3df77d77	0.120844774
84	0x3d031907	0.03200629
85	0x3c5b6181	0.013389946
86	0x3c470c66	0.012148952
87	0x3d2cbe58	0.042173713
88	0xbdaec84a	-0.08534296
89	0xbd97b37f	-0.07407283
90	0xbdf6b122	-0.12045504
91	0x3d8a2860	0.06745982
92	0x3ccb105b	0.024788072
93	0xbda4e85c	-0.080521315
94	0x3db6048b	0.08887585
95	0xbdace228	-0.084415734
96	0xbd81b031	-0.06332434
97	0xbcc8db19	-0.024518536
98	0x3d623918	0.05523023
99	0xbdee3b0e	-0.116323575
100	0xbdb98ff1	-0.09060658
101	0x3d1f0774	0.038825467
102	0x3e0838b7	0.13302885
103	0x3daf34ae	0.0855497
104	0x3d52c000	0.051452637
105	0xbd46de42	-0.048551805
106	0x3d08f518	0.033436865
107	0x3ca8906a	0.020576674
108	0x3d301c0a	0.04299549
109	0xbde44faf	-0.11148011
110	0x3d5234d3	0.05131991
111	0xbda44196	-0.08020322
112	0xbd6414ba	-0.05568383
113	0xbca452fe	-0.020059105
114	0xbd927413	-0.07151046
115	0x3dc8636f	0.097845905
116	0x3dc2b02b	0.095062576
117	0x3b76b82c	0.0037646396
118	0xbcd7cfcc	-0.026344202
119	0xbdeb47ad	-0.114882804
120	0xbc25c5ae	-0.010117931
121	0x3d1b049e	0.0378462
122	0x3bba83bb	0.005691973
123	0xbd0c5936	-0.034264766
124	0xbd18bdc9	-0.03729037
125	0xbce84b97	-0.028356357
126	0xbdb5fff7	-0.08886712
127	0xbdfcc908	-0.12343031
128	0xbe02e62b	-0.12783115
129	0xbcca812f	-0.024719803
130	0x3d57a4f1	0.052647535
131	0x3d753611	0.059866015
132	0x3debcf8a	0.11514194
133	0xbce207aa	-0.027591545
134	0xbd472bd6	-0.04862579
135	0xbd3ef0d7	-0.0466164
136	0x3beb111e	0.0071736714
137	0xbdd31fe0	-0.10308814
138	0xbd1bce96	-0.038038813
139	0x3d27513f	0.040848967
140	0xbd4d8dce	-0.050184064
141	0x3cf580a2	0.029968563
142	0x3d90eab1	0.07076014
143	0x3d014366	0.031558417
144	0x3d3345bf	0.043767687
145	0xbd91e3b3	-0.07123508
146	0xbcc72068	-0.024307445
147	0x3c7c3d37	0.015395454
148	0x3dd8a3ce	0.10578118
149	0x3b27ef85	0.0025624943

Target_Q_Net.fc_A.bias f4 [3]
0	0xbd7033db	-0.058643203
1	0xbd1cf92d	-0.03832357
2	0xbddb8688	-0.10719019

Target_Q_Net.fc_V.weight f4 [1, 50]
0	0x3c677f52	0.014129477
1	0xbd2c801c	-0.042114362
2	0xbc43e416	-0.011956235
3	0xbd55f55f	-0.052235957
4	0x3d2c777e	0.042106144
5	0xbd5fcc7b	-0.054638367
6	0x3ba00083	0.0048828735
7	0xbc42ee40	-0.011897624
8	0xbd8d65c1	-0.06904174
9	0xbb7bd62d	-0.003842722
10	0x3da16fc3	0.07882645
11	0xbaf7542d	-0.0018869691
12	0xbdf8211a	-0.121156886
13	0x3bdb4676	0.006691749
14	0xbdaccbce	-0.0843731
15	0xbdb0b1aa	-0.08627637
16	0x3d6067d0	0.054786503
17	0xbdbb510c	-0.09146318
18	0x3b35654f	0.0027678793
19	0x3d982135	0.07428209
20	0xbc7cc2e9	-0.01542733
21	0x3d61c90b	0.05512337
22	0x3daeab3c	0.08528754
23	0x3dc35150	0.095369935
24	0x3ac0b426	0.0014702126
25	0x3a783b03	0.00094692427
26	0x3c29e924	0.010370526
27	0x3d9d03ff	0.07666778
28	0x3d808c75	0.0627679
29	0x3d800264	0.06250456
30	0xbcb1b56d	-0.021692956
31	0x3d30e46c	0.04318659
32	0xbd54e052	-0.05197174
33	0x3d6725b6	0.05643245
34	0xbcf2c5de	-0.029635366
35	0xbda621b8	-0.081119
36	0xbbcc4b8d	-0.0062345923
37	0xbda60dfa	-0.081081346
38	0xbd09f6a8	-0.033682495
39	0x3d00ae0c	0.031415984
40	0xbd82029a	-0.063481525
41	0xbcb76491	-0.022386821
42	0x3d7f0fdf	0.062270995
43	0x3c1b6602	0.00948477
44	0x3c8a2f27	0.016868187
45	0xbc68f635	-0.014218857
46	0x3d98b2d4	0.07455984
47	0x3c0565d6	0.008141955
48	0x3d34259d	0.043981183
49	0xbc91fa6b	-0.017819604
