Model/ILQN/result/DDQN/agent_ddqn_000568_SZ_0_5.pt (torch_old, 85145 bytes, 14 tensors)

Q_net.linear1.weight f4 [50, 150]
0.15426682 0.1922141 0.083712146 0.07212123 0.08181907 -0.14428943 -0.05633689 0.57332385
0.14203231 -0.03929637 0.08883071 0.14687802 0.14174142 0.12527464 0.18217975 -0.033226956
-0.07578502 0.37617183 0.16956498 -0.021175968 0.120330736 0.1871642 0.118417926 0.1619397
0.15145697 0.1806109 -0.25720048 0.48063946 0.18259327 0.016368166 0.15923004 0.073394984
0.14032806 0.08609116 0.14374968 -0.33690906 -0.08255517 0.29088902 0.17511791 -0.010164566
0.18201436 0.16058505 0.2084017 0.1470006 0.21624005 -0.09655058 0.05457513 0.2538244
0.1379758 0.03769507 0.21324338 0.21710841 0.22492963 0.10966599 0.23402943 0.31386352
0.059279986 0.39527917 0.088060595 0.027664838 0.11401994 0.08068405 0.06442471 0.10993203
0.13091902 0.3656049 0.26990187 0.36532477 0.115510605 -0.0080443565 0.20954023 0.075725295
0.08515817 0.17702927 0.194277 -0.24862 0.06528533 0.25700048 0.15677157 -0.0034021842
0.11808614 0.15688449 0.09709138 0.06894562 0.11430571 -0.28436348 0.11270393 0.31961352
0.0672515 -0.018593084 0.0788705 0.114727385 0.0908179 0.12705801 0.26105765 0.2058202
-0.038711973 0.25961912 0.111012116 -0.02548773 0.12376399 0.17026407 0.17105176 0.046878207
0.24550796 -0.0018577062 0.030648246 0.14916633 0.15634508 -0.005414237 0.08111587 0.07154471
0.13404687 0.1487342 0.16864814 0.14048822 0.0398046 0.04410896 0.1274312 0.021138595
0.099657096 0.15349664 0.16279508 0.08101532 0.21472266 -0.05061536 0.1163 0.112737864
0.18761179 0.013184875 0.16559471 0.070825115 0.06572337 0.2096134 0.08807651 -0.16887583
0.18221311 -0.07869754 0.1579495 -0.041909967 0.13473423 0.19591044 0.084983386 0.11460774
0.19140401 -0.23849238 0.20265013 -0.0013600576 0.13136551 0.03832233 0.050154213 0.0691327
-0.022741387 0.10534658 -0.21036537 0.15859045 -0.03609047 -0.02986633 0.048765473 -0.06283415
-0.018712252 -0.0071996264 0.07848168 0.12246704 -0.22565985 0.015675671 0.029823676 0.028911024
-0.0020131858 -0.027512537 0.09973409 0.04060514 0.06230422 0.035975873 -0.08453928 -0.06430195
-0.0073393956 0.055511415 0.010728556 0.0046449844 0.11632201 -0.018044475 0.102138214 0.08462161
-0.1994328 0.29360366 -0.08418026 0.053667884 0.086297624 -0.009591573 0.015728295 0.05339624
-0.017901804 0.11668847 -0.22137155 0.17474827 -0.06574564 0.13330896 -0.04379442 -0.0017841593
-0.024160441 0.07346985 -0.02917911 0.09623812 -0.21549362 0.0431904 -0.061333522 0.04904671
0.009726715 -0.06263632 0.0711873 -0.0479652 0.034076683 0.07352082 -0.17164692 0.08096449
-0.030905092 0.060034275 0.032550283 0.084004276 0.07246337 -0.032818533 0.08257605 0.009447877
-0.21455611 0.31736735 0.060867235 0.050429273 0.08576069 -0.023374408 0.049320213 0.018617462
0.016680384 -0.024136392 -0.10477716 0.30216712 -0.13170114 0.081509836 0.103358805 -0.058149684
-0.00018201397 0.0010913177 0.10767507 0.1083337 -0.2719105 -0.0426965 -0.23974061 0.2199899
0.04023104 0.044166982 0.122487895 0.07728665 0.03822663 0.085299216 -0.13619451 0.1692747
00000000: 1ff8 1d3e c6d3 443e 4671 ab3d 4cb4 933d
00000010: c290 a73d 9cc0 13be 83c1 66bd 5ac5 123f
00000020: eb70 113e 3bf5 20bd e0ec b53d 3167 163e
00000030: aa24 113e ff47 003e 548d 3a3e fd18 08bd
00000040: 2d35 9bbd 9899 c03e 71a2 2d3e 3979 adbc
00000050: f66f f63d f9a7 3f3e 1985 f23d 85d3 253e
00000060: 8917 1b3e 10f2 383e c8af 83be 6016 f63e
00000070: bbf9 3a3e 8816 863c 330d 233e 1c50 963d
00000080: 29b2 0f3e 9050 b03d 1e33 133e 587f acbe
00000090: af12 a9bd 68ef 943e 1c52 333e 4889 26bc
000000a0: f961 3a3e 6870 243e 4167 553e 5387 163e
000000b0: 086e 5d3e 4fbc c5bd 2c8a 5f3d 46f5 813e
000000c0: 8749 0d3e 2566 1a3d 795c 5a3e ab51 5e3e
000000d0: f453 663e 9098 e03d 69a5 6f3e b8b2 a03e
000000e0: 92cf 723d 0862 ca3e 1d59 b43d 5fa1 e23c
000000f0: 4983 e93d ae3d a53d 1af1 833d 0b24 e13d
00000100: a30f 063e 9130 bb3e 9430 8a3e d90b bb3e
00000110: d390 ec3d 7acc 03bc b791 563e dd15 9b3d
00000120: 6867 ae3d 2947 353e 8df0 463e 3e96 7ebe
00000130: 51b4 853d 9195 833e ba88 203e 2ef7 5ebb
00000140: 25d7 f13d 54a6 203e d8d7 c63d 5c33 8d3d
00000150: 1d19 ea3d 1798 91be 51d1 e63d 62a4 a33e
00000160: 28bb 893d 8650 98bc db86 a13d 31f6 ea3d
00000170: bcfe b93d 7f1b 023e 59a9 853e 88c2 523e
00000180: 7290 1ebd ccec 843e 525a e33d a5cb d0bc
00000190: fa77 fd3d b459 2e3e 3128 2f3e 5d03 403d
000001a0: 7066 7b3e 477e f3ba 0812 fb3c 0fbf 183e
000001b0: ed18 203e e969 b1bb 1420 a63d 0886 923d
000001c0: 9543 093e c74d 183e 19b2 2c3e 25dc 0f3e
000001d0: 260a 233d 99ab 343d 537d 023e d92a ad3c
000001e0: 0519 cc3d 392e 1d3e c1b3 263e 5ceb a53d
000001f0: 42e0 5b3e 0d52 4fbd b22e ee3d 1ce3 e63d
00000200: 4e1d 403e 6005 583c a991 293e c20c 913d
00000210: f999 863d e5a4 563e 7561 b43d c9ed 2cbe
00000220: 1396 3a3e 2d2c a1bd 84bd 213e c9a9 2bbd
00000230: c5f7 093e bf9c 483e c50b ae3d 76b7 ea3d
00000240: 6aff 433e 5937 74be 8483 4f3e f643 b2ba
00000250: ae84 063e e0f7 1c3d 816e 4d3d 7295 8d3d
00000260: 254c babc f3bf d73d 056a 57be 8965 223e
00000270: 9ad3 13bd 3caa f4bc 4ebe 473d 31af 80bd
00000280: 704a 99bc d8ea ebbb 01bb a03d 00d0 fa3d
00000290: 6013 67be 446a 803c c850 f43c d0d6 ec3c
000002a0: a7ef 03bb f961 e1bc 6341 cc3d 9351 263d
000002b0: b632 7f3d 705b 133d ee22 adbd beb0 83bd
000002c0: 507f f0bb f05f 633d d3c6 2f3c f434 983b
000002d0: 3c3a ee3d 02d2 93bc d72d d13d 184e ad3d
000002e0: 1d38 4cbe 3853 963e b366 acbd dbd2 5b3d
000002f0: cfbc b03d f925 1dbc a0d8 803c 04b6 5a3d
00000300: cea6 92bc 5dfa ee3d 39af 62be 36f1 323e
00000310: a6a5 86bd 2582 083e c761 33bd 74da e9ba
00000320: 1eec c5bc 5c77 963d 0709 efbc 7e18 c53d
00000330: 5caa 5cbe 6be8 303d dc38 7bbd 34e5 483d
00000340: cd5c 1f3c 7947 80bd a6ca 913d 2877 44bd
00000350: fe93 0b3d 1592 963d 36c4 2fbe b6d0 a53d
00000360: ad2c fdbc 80e6 753d 7253 053d 6f0a ac3d
00000370: ad67 943d ba6c 06bd a21d a93d 45cb 1a3c
00000380: 99b4 5bbe f97d a23e ec4f 793d ed8e 4e3d
00000390: 4da3 af3d b07b bfbc fe03 4a3d a683 983c
000003a0: 4da5 883c afb9 c5bc 6895 d6bd a6b5 9a3e
000003b0: aadc 06be a1ee a63d c8ad d33d 5d2e 6ebd
000003c0: 01db 3eb9 8c0a 8f3a bf84 dc3d 0fde dd3d
000003d0: da37 8bbe 86e2 2ebd 907e 75be 0845 613e
000003e0: 4ec9 243d 70e8 343d efda fa3d 7748 9e3d
000003f0: 8793 1c3d 5bb1 ae3d 9376 0bbe 5956 2d3e

Q_net.linear1.bias f4 [50]
0.26395288 -0.21798591 0.033720624 -0.22142166 0.21368843 -0.18512312 -0.12574592 -0.22110814
-0.09128485 0.019679656 0.35239053 -0.13617782 0.0003661584 -0.12783405 -0.1459615 -0.0069331476
0.26259428 0.19351342 -0.16027555 -0.29833782 0.22001444 -0.21445183 0.040908802 0.15801674
-0.04243602 0.16446868 -0.3266579 -0.17429519 0.19122456 -0.1435351 0.23804745 0.15725793
-0.22945148 0.20788467 0.24217647 -0.012798337 0.13759367 0.20861034 -0.31712666 0.08161373
0.046059523 0.13629264 0.20244992 0.20357539 0.026217163 0.11581055 -0.22916473 0.082906306
0.2873822 0.11694639
00000000: d524 873e b337 5fbe a31e 0a3d 5cbc 62be
00000010: 24d1 5a3e ea90 3dbe 8ac3 00be 2c6a 62be
00000020: 8df3 babd 3b37 a13c 886c b43e 3372 0bbe
00000030: f3f8 bf39 eee6 02be ee76 15be 752f e3bb
00000040: c272 863e 6228 463e 461f 24be bcbf 98be
00000050: 774b 613e 4399 5bbe fd8f 273d 24cf 213e
00000060: 64d1 2dbd 7a6a 283e b43f a7be 707a 32be
00000070: 5fd0 433e defa 12be b6c2 733e 3908 213e
00000080: 54f5 6abe b8df 543e 1cfd 773e 1eb0 51bc
00000090: 5be5 0c3e f39d 553e 6d5e a2be 1925 a73d
000000a0: e9a8 3c3d 4c90 0b3e 084f 4f3e 1176 503e
000000b0: 60c5 d63c 152e ed3d 29aa 6abe c8ca a93d
000000c0: c223 933e 9781 ef3d

Q_net.linear2.weight f4 [50, 50]
0.013689842 0.081127405 0.018047836 -0.14168769 0.02631447 -0.10511735 -0.057834093 -0.11125738
0.12484351 0.05881308 -0.11736266 0.009869627 0.038024265 -0.0578671 0.00022038798 0.057833213
0.009323257 0.10604886 -0.12803183 -0.02176739 0.015978875 -0.046393227 0.106386155 0.0010587457
-0.13363048 -0.013872616 -0.039352022 -0.05103041 -0.025417155 -0.12982865 0.12536028 0.11528964
0.12213351 -0.02679978 -0.00081322587 0.046912767 -0.08286247 -0.017197633 -0.021479432 0.0072684647
0.04328793 0.05471854 -0.042281754 0.0042834235 -0.0006514016 -0.06702916 0.10783495 -0.008216241
0.104006246 -0.101549424 0.09392853 0.08386715 0.10579907 0.0018101769 0.06623781 -0.12638572
0.052985508 0.112313464 0.10784096 0.03636474 0.086047314 -0.06953168 0.028275011 -0.025330368
-0.07838542 0.10912372 -0.12288702 -0.011900927 0.011579951 -0.02214172 0.10699281 -0.052768074
0.09889738 -0.044266418 0.0898797 -0.11869951 0.048060667 0.13517551 0.10902137 0.085439645
0.08859355 -0.001400265 -0.08706715 -0.026034942 -0.059333082 -0.12821864 0.07881298 -0.09199378
0.022558121 -0.012756332 0.0888517 -0.11309774 0.019196505 -0.066169195 -0.00015973777 0.068189435
0.055996433 0.13208914 -0.00766208 0.0019123978 -0.03342689 0.123826966 -0.049651705 -0.10464004
0.073068514 0.0022394485 0.09048396 0.03537758 -0.11184086 -0.019343693 0.048796337 0.09708405
0.008185311 0.013086602 -0.11841043 -0.08732181 0.013308962 0.028721793 0.056852747 -0.037651364
0.036572605 0.05461137 0.08096293 -0.031934366 0.02201598 -0.107012205 0.143038 -0.051380392
-0.051911317 0.116664775 -0.028368488 0.0590718 0.047871713 -0.06949554 0.08824505 -0.11262234
0.10808694 0.10622219 -0.13075376 0.046966936 0.11165356 0.06804749 -0.12744519 0.017323937
0.06597481 -0.04843044 -0.0011570487 -0.012829056 -0.050392766 -0.06973463 0.11029495 0.11707268
-0.009763916 0.02541771 -0.11806701 -0.043398883 0.0012268466 -0.033889752 -0.018404469 0.065118454
0.09930199 0.008887799 0.07631065 0.12012969 -0.023809424 -0.07034625 0.008762321 0.019197153
0.102626845 -0.038207855 -0.09900044 -0.032618202 -0.1288117 0.04698168 -0.0052668247 0.08394027
0.0990788 0.09998551 -0.09987235 0.1344033 -0.13508478 -0.13580354 0.1362132 -0.0841147
-0.042310525 -0.00059840357 0.122214936 0.08151632 0.1088802 0.05594622 0.12976007 0.13008307
0.01892747 0.07498085 0.112133145 -0.088473946 0.104724504 0.115542136 0.0068084477 0.12578152
-0.056088567 -0.037372213 -0.00063199195 0.086664766 0.089355774 0.014251462 0.04795201 0.13578023
0.0836306 -0.1443626 -0.05145845 -0.047820084 -0.013350751 0.09072588 0.079306036 0.10639325
0.06382692 -0.006520829 0.009389973 0.03140149 -0.07293887 0.082550734 0.029726138 0.07676819
-0.11836726 -0.08939833 -0.04697625 0.012741336 -0.11146339 -0.107444845 -0.07489633 -0.12518904
0.10073546 -0.023430904 -0.09228982 -0.122190915 -0.11297578 0.0716384 0.025374705 0.0459208
0.0314373 -0.08951479 0.085748345 0.026453573 -0.006388668 0.007243488 -0.026027983 0.03917259
0.1299773 -0.031779587 -0.07804381 0.029173883 -0.02725473 -0.11621512 0.12882705 -0.08156149
00000000: 5c4b 603c 2026 a63d 0ed9 933c 9416 11be
00000010: 7291 d73c c447 d7bd 71e3 6cbd e9da e3bd
00000020: f4ad ff3d fce5 703d d65b f0bd 37b4 213c
00000030: 55bf 1b3d 0d06 6dbd f317 6739 85e2 6c3d
00000040: 93c0 183c 2530 d93d c71a 03be 8751 b2bc
00000050: 21e6 823c d306 3ebd fce0 d93d 9cc5 8a3a
00000060: 6ed6 08be f849 63bc 962f 21bd 4305 51bd
00000070: a337 d0bc cdf1 04be 725e 003e fa1c ec3d
00000080: 2221 fa3d 368b dbbc aa2e 55ba 9a27 403d
00000090: ccb3 a9bd 0de2 8cbc a2f5 afbc 4d2c ee3b
000000a0: af4e 313d 8c20 603d a22f 2dbd f65b 8c3b
000000b0: d2c2 2aba 9646 89bd 92d8 dc3d 6a9d 06bc
000000c0: 3a01 d53d 25f9 cfbd 9a5d c03d 8ac2 ab3d
000000d0: 2fad d83d 7543 ed3a b0a7 873d 426b 01be
000000e0: 5507 593d 9a04 e63d b9db dc3d 32f3 143d
000000f0: 9339 b03d a066 8ebd ffa0 e73c a281 cfbc
00000100: 8988 a0bd 427c df3d 31ac fbbd 1bfc 42bc
00000110: d6b9 3d3c 8d62 b5bc 0c1f db3d 5623 58bd
00000120: b68a ca3d b450 35bd d912 b83d bb18 f3bd
00000130: 43db 443d 736b 0a3e 9946 df3d fbfa ae3d
00000140: 8970 b53d 1989 b7ba 4350 b2bd 3b47 d5bc
00000150: 3f07 73bd bf4b 03be b368 a13d 3c67 bcbd
00000160: cfcb b83c efff 50bc e1f7 b53d ca9f e7bd
00000170: fd41 9d3c b783 87bd 487f 27b9 e7a6 8b3d
00000180: 845c 653d 6042 073e 3012 fbbb 6ca9 fa3a
00000190: a2ea 08bd fe98 fd3d 965f 4bbd 844d d6bd
000001a0: f2a4 953d b6c3 123b a84f b93d 15e8 103d
000001b0: d20c e5bd aa76 9ebc abde 473d 01d4 c63d
000001c0: af1b 063c 3069 563c 2b81 f2bd c7d5 b2bd
000001d0: d50d 5a3c f749 eb3c 6dde 683d 5138 1abd
000001e0: 28cd 153d 2cb0 5f3d e5cf a53d 9ccd 02bd
000001f0: db5a b43c 3729 dbbd 8e78 123e 3f74 52bd
00000200: f6a0 54bd f1ed ee3d 0865 e8bc 46f5 713d
00000210: 2115 443d ad53 8ebd d2b9 b43d 8ba6 e6bd
00000220: b05c dd3d 058b d93d 50e4 05be 6760 403d
00000230: 9faa e43d 7c5c 8b3d fe80 02be eeea 8d3c
00000240: cd1d 873d ff5e 46bd 1da8 97ba f630 52bc
00000250: a568 4ebd 08d1 8ebd 52e2 e13d cdc3 ef3d
00000260: d5f8 1fbc cd38 d03c 1ecd f1bd 07c3 31bd
00000270: 24ce a03a fbcf 0abd f8c4 96bc d35c 853d
00000280: d75e cb3d 229e 113c c248 9c3d 8e06 f63d
00000290: fb0b c3bc b211 90bd d78f 0f3c 5943 9d3c
000002a0: 062e d23d d77f 1cbd bec0 cabd aa9a 05bd
000002b0: 37e7 03be dd6f 403d 5495 acbb e0e8 ab3d
000002c0: d3e9 ca3d 34c5 cc3d e089 ccbd 05a1 093e
000002d0: aa53 0abe 1510 0bbe 797b 0b3e 5444 acbd
000002e0: cd4d 2dbd 2fde 1cba d34b fa3d 07f2 a63d
000002f0: 95fc de3d dd27 653d d3df 043e 7f34 053e
00000300: c80d 9b3c 8f8f 993d 10a6 e53d d431 b5bd
00000310: cd79 d63d 5ba1 ec3d 6619 df3b dfcc 003e
00000320: 20bd 65bd 9b13 19bd 43ac 25ba 4c7d b13d
00000330: 2900 b73d f77e 693c 5469 443d f909 0b3e
00000340: 8546 ab3d cad3 13be 18c6 52bd fede 43bd
00000350: 1cbd 5abc 7dce b93d 346b a23d b4e4 d93d
00000360: b0b7 823d aeac d5bb 67d8 193c d99e 003d
00000370: f960 95bd 5c10 a93d 3b84 f33c a438 9d3d
00000380: 896a f2bd 7916 b7bd 2b6a 40bd 09c1 503c
00000390: eb46 e4bd 0b0c dcbd 3f63 99bd 8e31 00be
000003a0: 654e ce3d 2bf2 bfbc 7202 bdbd 3b3f fabd
000003b0: d95f e7bd 27b7 923d 9dde cf3c 7317 3c3d
000003c0: 66c4 003d 8853 b7bd d49c af3d 2ab5 d83c
000003d0: 0858 d1bb c85a ed3b a338 d5bc 7073 203d
000003e0: c518 053e 502b 02bd 6fd5 9fbd 11fe ee3c
000003f0: 5045 dfbc 3102 eebd 3deb 033e b609 a7bd

Q_net.linear2.bias f4 [50]
0.088300906 0.404209 0.19563934 0.11737288 -0.3138572 -0.04946101 0.1018265 0.031410538
0.04016869 -0.5074454 -0.43869686 -0.13050403 -0.07564597 -0.10014134 -0.24942611 0.053973135
0.15845989 -0.058492377 -0.14272712 -0.12751524 0.19570075 0.39707065 -0.058913995 0.17091778
0.22889873 -0.08220051 -0.1932368 0.013987596 0.19310126 0.36609644 -0.07289428 0.14010772
0.113994785 0.28463957 0.34376594 0.51859474 -0.054379456 0.17462517 -0.17442326 0.35623023
0.23346406 -0.24115913 -0.15768006 -0.356607 -0.16205326 0.13140441 -0.015750093 0.29718187
-0.2376887 0.12474788
00000000: 1bd7 b43d 7bf4 ce3e ae55 483e 3161 f03d
00000010: e4b1 a0be a197 4abd 698a d03d 56a8 003d
00000020: ed87 243d f1e7 01bf e09c e0be d9a2 05be
00000030: 46ec 9abd e716 cdbd 8f69 7fbe ef12 5d3d
00000040: 4f43 223e b495 6fbd 0f27 12be 5b93 02be
00000050: c765 483e d84c cb3e cd4f 71bd 1205 2f3e
00000060: 6e64 6a3e be58 a8bd dedf 45be 3b2c 653c
00000070: 56bc 453e fe70 bb3e 9949 95bd 6678 0f3e
00000080: 1976 e93d 47bc 913e 1702 b03e a0c2 043f
00000090: febc 5ebd f1d0 323e 039c 32be cf63 b63e
000000a0: 3411 6f3e 6bf2 76be e276 21be 3195 b6be
000000b0: 4af1 25be e18e 063e 5706 81bc 3928 983e
000000c0: ab64 73be d17b ff3d

Q_net.fc_A.weight f4 [3, 50]
-0.09913221 -0.063582845 0.01809571 -0.02930537 -0.11152397 0.07490613 0.100849986 -0.0929517
0.051463008 0.045156464 -0.05435947 0.049659424 -0.09020735 0.05874596 0.070582 0.04845407
-0.0751599 0.10203667 -0.09689805 -0.14002459 -0.049305856 0.010081359 0.0148439165 0.094128795
-0.11158771 -0.0445677 -0.026838398 -0.019784953 0.099521704 -0.039135873 -0.021068376 -0.07790386
-0.032073796 0.036230955 -0.0650205 -0.106538005 -0.050776724 0.07385495 -0.026772091 -0.016261209
-0.016503863 0.0137549145 -0.12098659 0.059859015 0.100327276 -0.024610804 -0.017769681 0.081560135
0.08136778 0.05064455 0.058722217 -0.09629917 -0.10249795 0.10310887 0.059810467 0.124572314
0.045251347 0.08438213 0.018083828 0.035404667 0.10300288 0.088325 -0.12037354 0.0003955774
0.019160166 0.07812638 -0.142562 0.13066332 0.06051691 -0.17561847 0.07896505 -0.087149784
0.015603119 -0.039862443 0.056049157 0.022000827 -0.045940157 0.04873054 0.117857285 0.04343363
0.057234395 -0.025999969 0.12336076 -0.016700212 -0.10142612 -0.11917878 0.05128156 -0.035710447
0.0318032 -0.032950345 0.06456182 0.07431226 0.010747379 0.087506354 0.066363916 -0.09279178
0.05499297 -0.108927466 0.057595745 -0.018723713 0.023007011 -0.00828061 0.13154873 -0.055544186
-0.07921266 -0.086712316 0.10398594 0.13046701 0.033164326 0.031738825 -0.09688123 0.05110828
0.12390006 0.043001343 -0.08259038 0.004870555 0.020229682 0.008702122 0.044981353 -0.072627306
-0.06422766 0.09460755 0.05609955 -0.04528458 0.0031303768 -0.04419778 -0.032711413 0.1510908
0.070935294 0.00041832353 0.121194325 -0.16222163 -0.0049191066 -0.073001415 -0.07900411 0.04721762
-0.10424048 -0.03940261 -0.10111158 0.06894989 0.05320235 -0.061798863 -0.03048239 0.0755373
-0.07662656 -0.03712582 -0.04014148 0.09483167 0.0832987 -0.058006395
00000000: d405 cbbd b937 82bd 743d 943c d111 f0bc
00000010: ae66 e4bd 6368 993d 708a ce3d 765d bebd
00000020: e0ca 523d fcf5 383d 09a8 5ebd ae67 4b3d
00000030: a2be b8bd 9b9f 703d 4c8d 903d c677 463d
00000040: 6fed 99bd 9af8 d03d 7c72 c6bd 9b62 0fbe
00000050: f0f4 49bd 492c 253c e633 733c 99c6 c03d
00000060: 1988 e4bd 9f8c 36bd 33dc dbbc 0e14 a2bc
00000070: 09d2 cb3d f04c 20bd 9697 acbc 0f8c 9fbd
00000080: d05f 03bd e966 143d 7829 85bd 9930 dabd
00000090: 41fb 4fbd 4441 973d 2551 dbbc 3a36 85bc
000000a0: 1c33 87bc 4b5c 613c d1c7 f7bd ba2e 753d
000000b0: 6378 cd3d 999c c9bc b991 91bc 0009 a73d
000000c0: 27a4 a63d a970 4f3d b586 703d 8038 c5bd
000000d0: 72ea d1bd be2a d33d d2fb 743d c51f ff3d
000000e0: 7a59 393d 8ad0 ac3d 8924 943c 7c04 113d
000000f0: 2df3 d23d bde3 b43d 6786 f6bd 8065 cf39
00000100: c8f5 9c3c b900 a03d c6fb 11be 9bcc 053e
00000110: 94e0 773d 54d5 33be 6eb8 a13d 967b b2bd
00000120: 39a4 7f3c cd46 23bd cd93 653d 143b b43c
00000130: bf2b 3cbd ad99 473d 295f f13d 76e7 313d
00000140: 9d6e 6a3d e3fd d4bc 91a4 fc3d e2ce 88bc
00000150: 7fb8 cfbd 0114 f4bd 9d0c 523d 1e45 12bd
00000160: 1244 023d f1f6 06bd fd38 843d 0731 983d
00000170: c615 303c 8836 b33d cee9 873d 9e09 bebd
00000180: 4f40 613d 5d15 dfbd 84e9 6b3d 7962 99bc
00000190: 3379 bc3c 65ab 07bc b6b4 063e 4d82 63bd
000001a0: 3f3a a2bd 3a96 b1bd 95f6 d43d 2599 053e
000001b0: 51d7 073d 9200 023d ab69 c6bd ea56 513d
000001c0: 51bf fd3d 2d22 303d 2525 a9bd 2d99 9f3b
000001d0: b8b8 a53c 5893 0e3c 5e3e 383d a0bd 94bd
000001e0: cb89 83bd 9ac1 c13d a4c8 653d 537c 39bd
000001f0: 0227 4d3b bb08 35bd 67fc 05bd 8cb7 1a3e
00000200: 8646 913d 6f52 db39 bb34 f83d 6d1d 26be
00000210: 7530 a1bb c481 95bd e8cc a1bd 4367 413d
00000220: 087c d5bd a264 21bd 9713 cfbd 9a35 8d3d
00000230: b5ea 593d ce20 7dbd 35b6 f9bc 4db3 9a3d
00000240: 63ee 9cbd 3e11 18bd 646b 24bd 1b37 c23d
00000250: 8298 aa3d 1d98 6dbd

Q_net.fc_A.bias f4 [3]
-0.17365977 -0.121434614 0.2160637
00000000: ded3 31be b6b2 f8bd cd3f 5d3e

Q_net.fc_V.weight f4 [1, 50]
-0.012058728 0.026952513 -0.052740686 0.09091049 -0.002751809 0.12430282 -0.014670837 -0.06839912
-0.0040410254 -0.050897345 -0.07532045 0.0032179744 -0.093350396 -0.019180179 -0.033171255 0.03771953
-0.042339448 0.037039123 -0.074722864 -0.07398202 0.12199077 0.065764055 -0.017759345 0.06662816
0.09623707 0.016188478 -0.029361034 -0.04832918 0.07925397 0.054924604 -0.11202492 0.04946046
0.055302717 0.07552458 0.05522762 0.119025454 0.029868018 0.09246733 0.036534045 0.051049188
0.02615894 0.035208847 -0.0022392517 -0.06966547 0.05490339 0.013940228 0.033983294 0.110101014
-0.07756591 0.06667613
00000000: f991 45bc 84cb dc3c 9e06 58bd 472f ba3d
00000010: b257 34bb 7a92 fe3d f35d 70bc d614 8cbd
00000020: 946a 84bb bc79 50bd 9c41 9abd a7e4 523b
00000030: 7e2e bfbd c01f 9dbc 95de 07bd cb7f 1a3d
00000040: 216c 2dbd 56b6 173d 4d08 99bd e383 97bd
00000050: 4cd6 f93d 4eaf 863d 0c7c 91bc 5874 883d
00000060: f117 c53d b39d 843c 8d86 f0bc d1f4 45bd
00000070: e84f a23d 9ff8 603d 526d e5bd 0d97 4a3d
00000080: 1a85 623d a2ac 9a3d 5b36 623d 9ec3 f33d
00000090: c6ad f43c 835f bd3d b9a4 153d f418 513d
000000a0: 464b d63c 2737 103d 69c0 12bb c5ac 8ebd
000000b0: 61e2 603d 8e65 643c 1132 0b3d a47c e13d
000000c0: e0da 9ebd 7f8d 883d

Target_Q_Net.linear1.weight f4 [50, 150]
0.1544465 0.19236353 0.083886616 0.07229578 0.08205405 -0.14419828 -0.05700875 0.57218957
0.14219397 -0.039332844 0.08901338 0.14705727 0.14192571 0.12546179 0.18242547 -0.033490855
-0.07616061 0.37522215 0.16972975 -0.021202376 0.120496474 0.18735744 0.118597224 0.16212396
0.15168838 0.17997847 -0.25752518 0.47976115 0.18275861 0.016334392 0.15940359 0.07355435
0.1404998 0.08623927 0.1439952 -0.3369236 -0.08305854 0.2901185 0.17528404 -0.010142767
0.18218248 0.16076213 0.20857769 0.14717242 0.21644801 -0.09665821 0.054426216 0.25311428
0.1381425 0.03774042 0.21341173 0.21727107 0.22509706 0.10983645 0.23427908 0.31329322
0.059408233 0.39462197 0.088227704 0.027685301 0.11420309 0.08084502 0.06460639 0.11010092
0.13117501 0.3651257 0.2700318 0.364795 0.11568002 -0.008031822 0.20972814 0.07591485
0.085351184 0.17722204 0.19451824 -0.24863967 0.06529793 0.25660446 0.15694383 -0.003409341
0.118270144 0.15707438 0.0972859 0.0691269 0.11453708 -0.2843829 0.11265631 0.31930953
0.06742552 -0.01856845 0.07905927 0.1149153 0.09100202 0.12725331 0.2612416 0.20541443
-0.038801685 0.25941703 0.11118851 -0.025428677 0.123953216 0.17045681 0.17123698 0.04708655
0.24567479 -0.0018303014 0.030249666 0.14904948 0.15652306 -0.005390656 0.08131725 0.07173912
0.13424917 0.14892471 0.16884376 0.14035095 0.03957866 0.04412575 0.12761277 0.021128858
0.099865705 0.15370497 0.16299798 0.08122542 0.2149592 -0.050620437 0.116735704 0.11290035
0.1877974 0.013116034 0.16581014 0.07102418 0.06591334 0.20981823 0.08836648 -0.16849767
0.18286619 -0.07837934 0.1581396 -0.04192712 0.13495511 0.19611922 0.08519072 0.114830606
0.1916997 -0.23780173 0.20311204 -0.00088441774 0.13156019 0.038333863 0.049585123 0.06858966
-0.023300895 0.10477744 -0.2110122 0.15854941 -0.035831023 -0.029191568 0.048208743 -0.06284249
-0.019283608 -0.0077707344 0.077910684 0.12188728 -0.22630884 0.015996886 0.029984936 0.029462023
-0.0025721267 -0.027568143 0.09918805 0.040024642 0.061751764 0.035397533 -0.085141465 -0.063720934
-0.0068728826 0.056056403 0.010171154 0.004684662 0.1157537 -0.018589973 0.10157534 0.08408348
-0.20009406 0.29356223 -0.083989695 0.0541197 0.08573901 -0.009687832 0.015158969 0.05282226
-0.018473288 0.116115004 -0.2220035 0.17470543 -0.06586571 0.13368282 -0.044354916 -0.0019518003
-0.024728255 0.07290681 -0.029735142 0.095658116 -0.21613228 0.043461323 -0.061241414 0.049363304
0.009164955 -0.0626685 0.07060797 -0.048528302 0.03350265 0.07294676 -0.17229685 0.08120789
-0.030921718 0.06025538 0.03198594 0.08401522 0.071869224 -0.033408154 0.08198412 0.0088456785
-0.2152356 0.31715888 0.060598943 0.050518617 0.085191734 -0.023341399 0.048724793 0.01801963
0.016078755 -0.024728118 -0.10545849 0.3018069 -0.13206266 0.08148639 0.102785885 -0.05819566
-0.00078158063 0.0004922437 0.10708496 0.10772446 -0.27254352 -0.042769145 -0.24009235 0.21985613
0.03965392 0.04409145 0.121891916 0.07668551 0.037636876 0.084674954 -0.13678296 0.1689589
00000000: 3927 1e3e f2fa 443e bfcc ab3d cf0f 943d
00000010: f40b a83d b7a8 13be 0282 69bd 047b 123f
00000020: 4c9b 113e 7a1b 21bd a64c b63d 2e96 163e
00000030: f954 113e 0e79 003e becd 3a3e b52d 09bd
00000040: 18fa 9bbd 1e1d c03e a3cd 2d3e 9bb0 adbc
00000050: dbc6 f63d a1da 3f3e 1ae3 f23d d303 263e
00000060: 3354 1b3e 474c 383e 57da 83be 41a3 f53e
00000070: 1325 3b3e b4cf 853c b23a 233e aaa3 963d
00000080: 2edf 0f3e 379e b03d 7a73 133e 4081 acbe
00000090: 991a aabd 698a 943e a97d 333e d92d 26bc
000000a0: 0b8e 3a3e d49e 243e 6495 553e 5eb4 163e
000000b0: 8ca4 5d3e bdf4 c5bd 06ee 5e3d 3298 813e
000000c0: 3a75 0d3e b395 1a3d 9b88 5a3e 4f7c 5e3e
000000d0: d87f 663e eff1 e03d dbe6 6f3e f867 a03e
000000e0: 0c56 733d e40b ca3e bab0 b43d 49cc e23c
000000f0: 4fe3 e93d 1392 a53d 5b50 843d 977c e13d
00000100: be52 063e c1f1 ba3e 9c41 8a3e 69c6 ba3e
00000110: a5e9 ec3d e797 03bc f9c2 563e 3f79 9b3d
00000120: 9acc ae3d b279 353e ca2f 473e 669b 7ebe
00000130: ecba 853d a961 833e e2b5 203e 406f 5fbb
00000140: 9e37 f23d 1bd8 203e d43d c73d 6792 8d3d
00000150: 6b92 ea3d a39a 91be 5ab8 e63d 8a7c a33e
00000160: 6416 8a3d dd1c 98bc d4e9 a13d b658 eb3d
00000170: 445f ba3d b14e 023e 76c1 853e 2958 523e
00000180: 84ee 1ebd 4fd2 843e cdb6 e33d cd4f d0bc
00000190: 2fdb fd3d 3b8c 2e3e bf58 2f3e d4dd 403d
000001a0: 2c92 7b3e b9e6 efba 26ce f73c 6da0 183e
000001b0: 9547 203e 1aa4 b0bb a989 a63d f6eb 923d
000001c0: 9d78 093e b87f 183e 61e5 2c3e 29b8 0f3e
000001d0: 3c1d 223d 34bd 343d ecac 023e 6d16 ad3c
000001e0: 6486 cc3d d664 1d3e f1e8 263e 8359 a63d
000001f0: 441e 5c3e 6057 4fbd 2113 ef3d 4c38 e73d
00000200: f64d 403e a2e4 563c 22ca 293e 2075 913d
00000210: 93fd 863d 97da 563e 7cf9 b43d a78a 2cbe
00000220: 4641 3b3e 5985 a0bd 59ef 213e c6bb 2bbd
00000230: ac31 0a3e 7ad3 483e 7978 ae3d 4f2c eb3d
00000240: ed4c 443e 4c82 73be 9afc 4f3e 45d8 67ba
00000250: b7b7 063e f803 1d3d c519 4b3d bc78 8c3d
00000260: 85e1 bebc 8e95 d63d 9513 58be c75a 223e
00000270: 8dc3 12bd 2823 efbc 8876 453d 90b3 80bd
00000280: a8f8 9dbc a5a1 febb a38f 9f3d 0aa0 f93d
00000290: 81bd 67be e70b 833c f8a2 f53c 575a f13c
000002a0: 2091 28bb 96d6 e1bc 1b23 cb3d e1f0 233d
000002b0: 6bef 7c3d 01fd 103d a65e aebd 1f80 82bd
000002c0: eb35 e1bb 669b 653d e9a4 263c cb81 993b
000002d0: 4710 ed3d 004a 98bc bb06 d03d f633 ac3d
000002e0: 75e5 4cbe ca4d 963e ca02 acbd 9eac 5d3d
000002f0: ef97 af3d b6b9 1ebc 535d 783c 275c 583d
00000300: 4b55 97bc b4cd ed3d e354 63be fbe5 323e
00000310: 9ae4 86bd 26e4 083e 80ad 35bd 8dd3 ffba
00000320: e992 cabc 2a50 953d 1d97 f3bc 67e8 c33d
00000330: c851 5dbe 8004 323d 47d8 7abd 2d31 4a3d
00000340: 9b28 163c 5858 80bd e99a 903d 9dc5 46bd
00000350: 133a 093d 1c65 953d 966e 30be 5250 a63d
00000360: 8b4f fdbc 58ce 763d b003 033d 2c10 ac3d
00000370: 2c30 933d fdd6 08bd 4ae7 a73d 77ed 103c
00000380: b966 5cbe a662 a23e 9936 783d 9cec 4e3d
00000390: 0179 ae3d 7636 bfbc a693 473d e79d 933c
000003a0: 98b7 833c 9f92 cabc 9ffa d7bd 6f86 9a3e
000003b0: 6f3b 07be 56e2 a63d 6881 d23d 935e 6ebd
000003c0: fde2 4cba ea09 013a 5c4f db3d a49e dc3d
000003d0: d38a 8bbe b32e 2fbd c5da 75be f721 613e
000003e0: 266c 223d 3c99 343d 78a2 f93d 4b0d 9d3d
000003f0: 2029 1a3d 106a ad3d d510 0cbe 9003 2d3e

Target_Q_Net.linear1.bias f4 [50]
0.26419464 -0.21863413 0.03383019 -0.22194156 0.21389727 -0.1855508 -0.12595125 -0.22158428
-0.09108372 0.019766789 0.35274357 -0.13673753 0.00016359167 -0.12818195 -0.14598428 -0.0066659274
0.263179 0.19334757 -0.16011095 -0.29912245 0.22039878 -0.21468592 0.04117373 0.15861282
-0.04245134 0.16486439 -0.32739875 -0.17453012 0.19172272 -0.14320098 0.23811105 0.15786368
-0.22954246 0.2083048 0.24210376 -0.013199836 0.1379225 0.2088076 -0.31783494 0.08191171
0.045947302 0.13635068 0.20264515 0.20350747 0.0257915 0.11593166 -0.22973086 0.08308266
0.28807878 0.11711781
00000000: 8544 873e a0e1 5fbe 8691 0a3d a644 63be
00000010: e307 5b3e 0701 3ebe 5df9 00be fde6 62be
00000020: 1a8a babd f6ed a13c ce9a b43e ec04 0cbe
00000030: ce89 2b39 2142 03be e77c 15be da6d dabb
00000040: 66bf 863e e8fc 453e 20f4 23be 9426 99be
00000050: 38b0 613e a0d6 5bbe c9a5 283d 666b 223e
00000060: 75e1 2dbd 36d2 283e cfa0 a7be 06b8 32be
00000070: f652 443e 47a3 12be 62d3 733e 04a7 213e
00000080: 2e0d 6bbe da4d 553e 0cea 773e 2044 58bc
00000090: 8e3b 0d3e a9d1 553e 43bb a2be 54c1 a73d
000000a0: 3d33 3c3d 839f 0b3e 3682 4f3e 4364 503e
000000b0: b248 d33c 946d ed3d 913e 6bbe 3e27 aa3d
000000c0: 107f 933e 76db ef3d

Target_Q_Net.linear2.weight f4 [50, 50]
0.013702961 0.08120974 0.017951688 -0.14148545 0.02623576 -0.105131686 -0.057723187 -0.11133219
0.12480496 0.058645144 -0.117403045 0.010052012 0.037994333 -0.057831105 0.00013640254 0.05786333
0.009285513 0.106186554 -0.12789544 -0.02182382 0.01595568 -0.046283673 0.10640687 0.0010157143
-0.13356172 -0.013729011 -0.039317615 -0.050740093 -0.025489708 -0.12985176 0.12519512 0.1153846
0.12217741 -0.026725827 -0.0007958099 0.046936344 -0.08238184 -0.017154444 -0.02145185 0.0070872363
0.043389436 0.05473522 -0.042452358 0.0042660455 -0.0007686611 -0.06699877 0.10789422 -0.008309007
0.104039595 -0.101699635 0.09417618 0.08377326 0.10608417 0.0011586859 0.06640929 -0.12661088
0.052670088 0.112501994 0.10788688 0.036714505 0.086135894 -0.06982819 0.028478185 -0.025439048
-0.07818531 0.10908912 -0.122745104 -0.012105087 0.010809515 -0.022038784 0.10721939 -0.05319419
0.09888586 -0.04413898 0.0901642 -0.118908696 0.047691833 0.13477805 0.109280065 0.08563487
0.08861298 -0.0017065894 -0.087283365 -0.025884306 -0.059265926 -0.12845346 0.077986926 -0.09216479
0.022416893 -0.012564925 0.088858 -0.113176964 0.019255942 -0.06620931 3.0260493e-05 0.0680774
0.05569922 0.13228503 -0.0077297185 0.0022903443 -0.033301346 0.12383211 -0.049544122 -0.10481416
0.073130496 0.0021182294 0.09041293 0.035388608 -0.111837484 -0.019250838 0.04884868 0.09700636
0.0082438495 0.0130402325 -0.11831647 -0.087340444 0.013420662 0.028678995 0.056546494 -0.037636083
0.036687084 0.05445262 0.080962054 -0.031875044 0.022206277 -0.10700762 0.14287528 -0.051424604
-0.051804252 0.11674207 -0.028417362 0.058996372 0.047816105 -0.06940579 0.08832074 -0.11271173
0.10778802 0.10615288 -0.13083595 0.04706999 0.11170067 0.06809491 -0.12742007 0.017290806
0.06602608 -0.048460394 -0.0012079625 -0.012734589 -0.050394647 -0.069575235 0.11036549 0.116986565
-0.009666274 0.025154222 -0.11799687 -0.043489844 0.0010355043 -0.033751782 -0.018382749 0.0654014
0.09934233 0.008689597 0.07640269 0.12009705 -0.023722133 -0.07035898 0.008785701 0.019103799
0.10234893 -0.03816274 -0.09894114 -0.03289338 -0.1288127 0.047014616 -0.00513631 0.08373625
0.098880135 0.09970952 -0.09976235 0.1344659 -0.13506395 -0.13588911 0.13612317 -0.084004626
-0.042318355 -0.00069847354 0.12193821 0.08146402 0.10883784 0.055987142 0.12974788 0.12999901
0.018913893 0.074976325 0.11223799 -0.08854683 0.10459493 0.115595 0.0067675654 0.1260132
-0.056194443 -0.0372623 -0.000852561 0.08717596 0.08920258 0.014352562 0.048207 0.1356561
0.083576754 -0.14467274 -0.051549844 -0.04748249 -0.013451424 0.09080396 0.07912077 0.106442295
0.06370885 -0.006299265 0.009832831 0.031315934 -0.073059075 0.08290321 0.029749611 0.07666137
-0.11846856 -0.08919373 -0.046732202 0.013214673 -0.11166945 -0.107545696 -0.07502874 -0.12500638
0.10084361 -0.023459908 -0.09231992 -0.12208506 -0.11212263 0.071745746 0.025482684 0.045654535
0.03150658 -0.08949524 0.0855338 0.026460584 -0.006582615 0.007316097 -0.0258893 0.03897597
0.13002864 -0.032139122 -0.07802172 0.029085329 -0.027163042 -0.11644326 0.12889881 -0.08160901
00000000: 6282 603c 4b51 a63d 6b0f 933c 90e1 10be
00000010: 60ec d63c 484f d7bd 266f 6cbd 2202 e4bd
00000020: be99 ff3d e435 703d 0271 f0bd 32b1 243c
00000030: f29f 1b3d 4fe0 6cbd 4707 0f39 1902 6d3d
00000040: 4422 183c 5678 d93d 06f7 02be dec7 b2bc
00000050: 7cb5 823c f393 3dbd d8eb d93d b721 853a
00000060: 67c4 08be a5ef 60bc 820b 21bd d8d4 4fbd
00000070: cbcf d0bc dcf7 04be 2633 003e c34e ec3d
00000080: 2638 fa3d 1ff0 dabc e69d 50ba 5340 403d
00000090: cfb7 a8bd 7a87 8cbc cabb afbc 0c3c e83b
000000a0: 1fb9 313d 0a32 603d 86e2 2dbd 2fca 8b3b
000000b0: f97f 49ba a736 89bd a5f7 dc3d 8022 08bc
000000c0: b612 d53d e647 d0bd 71df c03d 5191 ab3d
000000d0: a842 d93d 0cdf 973a 9801 883d 48a6 01be
000000e0: 97bc 573d 7267 e63d ccf3 dc3d f361 163d
000000f0: 0468 b03d 1502 8fbd 154b e93c 8d65 d0bc
00000100: 9f1f a0bd 1e6a df3d c961 fbbd 6a54 46bc
00000110: 641a 313c ae8a b4bc d795 db3d 27e2 59bd
00000120: ab84 ca3d 13cb 34bd 02a8 b83d 6786 f3bd
00000130: 8358 433d 4203 0a3e 3ace df3d 5661 af3d
00000140: b97a b53d a3af dfba 9fc1 b2bd 530b d4bc
00000150: d4c0 72bd 4e89 03be 9cb7 9f3d e5c0 bcbd
00000160: a2a3 b73c 1ddd 4dbc 2ffb b53d 53c9 e7bd
00000170: a3be 9d3c bf98 87bd ead7 fd37 2a6c 8b3d
00000180: de24 643d ba75 073e 9449 fdbb 9a19 163b
00000190: fe66 08bd b09b fd3d c7ee 4abd cea8 d6bd
000001a0: 71c5 953d fed1 0a3b 6a2a b93d a5f3 103d
000001b0: 0d0b e5bd efb3 9dbc 8e15 483d 45ab c63d
000001c0: 3611 073c b3a6 553c e84f f2bd 8cdf b2bd
000001d0: 56e2 5b3c 36f0 ea3c 4c9d 673d 4b28 1abd
000001e0: 3245 163d b609 5f3d 6fcf a53d 688f 02bd
000001f0: f0e9 b53c d026 dbbd e64d 123e 9ba2 52bd
00000200: b230 54bd 7716 ef3d 87cb e8bc 2ea6 713d
00000210: d2da 433d 9f24 8ebd 81e1 b43d 68d5 e6bd
00000220: f7bf dc3d ae66 d93d dcf9 05be 76cc 403d
00000230: 52c3 e43d 5875 8b3d 687a 02be 73a5 8d3c
00000240: ae38 873d 687e 46bd 7f54 9eba bda4 50bc
00000250: 9e6a 4ebd 767d 8ebd 4d07 e23d a796 ef3d
00000260: 4b5f 1ebc 3a10 ce3c 58a8 f1bd 6822 32bd
00000270: c2b9 873a 4f3f 0abd 6b97 96bc 2bf1 853d
00000280: fe73 cb3d d05e 0e3c 0379 9c3d 71f5 f53d
00000290: eb54 c2bc 5e18 90bd e7f1 0f3c 927f 9c3c
000002a0: 519c d13d 8950 1cbd a7a1 cabd 35bb 06bd
000002b0: 7ae7 03be 6692 403d 7e4e a8bb e97d ab3d
000002c0: ab81 ca3d 8134 cc3d 3450 ccbd 6eb1 093e
000002d0: 344e 0abe 8426 0bbe df63 0b3e 9e0a acbd
000002e0: 0356 2dbd c419 37ba beba f93d 9cd6 a63d
000002f0: 60e6 de3d c652 653d a1dc 043e 761e 053e
00000300: 4ff1 9a3c 308d 993d 08dd e53d 0a58 b5bd
00000310: de35 d63d 12bd ec3d 74c2 dd3b 9b09 013e
00000320: 252c 66bd 5aa0 18bd 667e 5fba 4f89 b23d
00000330: d8af b63d 0227 6b3c b474 453d 6fe9 0a3e
00000340: 4a2a ab3d 1725 14be ee25 53bd 007d 42bd
00000350: 5d63 5cbc 6df7 b93d 120a a23d 6bfe d93d
00000360: c979 823d 116a cebb e219 213c 2345 003d
00000370: ff9f 95bd 28c9 a93d 75b5 f33c a300 9d3d
00000380: a59f f2bd 34ab b6bd 446a 3fbd 5b82 583c
00000390: f4b2 e4bd eb40 dcbd aba8 99bd ac01 00be
000003a0: 1887 ce3d fe2e c0bc 3a12 bdbd bb07 fabd
000003b0: 8da0 e5bd 6fef 923d 10c1 d03c 4000 3b3d
000003c0: 0b0d 013d 4849 b7bd 582c af3d dec3 d83c
000003d0: fab2 d7bb dfbb ef3b cc15 d4bc 44a5 1f3d
000003e0: 3a26 053e 50a4 03bd dac9 9fbd 5b44 ee3c
000003f0: 0785 debc ce79 eebd 0dfe 033e a022 a7bd

Target_Q_Net.linear2.bias f4 [50]
0.08857923 0.40518206 0.19635338 0.11743554 -0.3140601 -0.049720556 0.10193924 0.031717576
0.039906178 -0.5080438 -0.4394464 -0.13074428 -0.07514831 -0.1004754 -0.25032017 0.053679734
0.15899262 -0.059006054 -0.14265075 -0.12742127 0.1960382 0.39800048 -0.058619644 0.17078118
0.22980462 -0.082405254 -0.19360042 0.014419861 0.19336368 0.36686727 -0.072835654 0.1396571
0.11430131 0.28452334 0.34417582 0.5196032 -0.055138092 0.17464705 -0.17496091 0.3571802
0.23412582 -0.24182844 -0.15735936 -0.35698932 -0.16252573 0.13174282 -0.016041398 0.29778975
-0.2382008 0.12461927
00000000: 0769 b53d 0674 cf3e dc10 493e 0b82 f03d
00000010: 7ccc a0be c8a7 4bbd 85c5 d03d 4aea 013d
00000020: a974 233d 290f 02bf 1eff e0be d4e1 05be
00000030: 5be7 99bd 0cc6 cdbd f729 80be 48df 5b3d
00000040: f6ce 223e 55b0 71bd 0a13 12be b97a 02be
00000050: 3dbe 483e b8c6 cb3e 271b 70bd 43e1 2e3e
00000060: e751 6b3e 16c4 a8bd 303f 46be 4841 6c3c
00000070: 2101 463e 07d6 bb3e dc2a 95bd 4502 0f3e
00000080: ce16 ea3d 0bad 913e d037 b03e b704 053f
00000090: 7bd8 61bd add6 323e f428 33be 53e0 b63e
000000a0: aebe 6f3e e0a1 77be d022 21be 4ec7 b6be
000000b0: 256d 26be 97e7 063e 4069 83bc e677 983e
000000c0: e9ea 73be 6338 ff3d

Target_Q_Net.fc_A.weight f4 [3, 50]
-0.09919414 -0.06360782 0.018032417 -0.029298734 -0.11144791 0.074918345 0.100784875 -0.0929271
0.051449403 0.045094896 -0.054344192 0.04960927 -0.09017908 0.05900156 0.0705311 0.048455812
-0.075189784 0.102018714 -0.09690322 -0.1398521 -0.04923074 0.010075425 0.014727923 0.09419274
-0.11161758 -0.044539526 -0.026745537 -0.019777337 0.09947081 -0.039239988 -0.02113662 -0.07796053
-0.03207433 0.036124457 -0.065018944 -0.10658192 -0.05066756 0.07394654 -0.026870202 -0.016253017
-0.016465293 0.013743429 -0.12088263 0.059810713 0.10038439 -0.024540741 -0.017787186 0.08154461
0.0814703 0.050681595 0.058926065 -0.09657161 -0.10222635 0.10333619 0.059908904 0.12442851
0.045996215 0.084326304 0.017952824 0.03479891 0.103002965 0.088343844 -0.1203598 -5.0138624e-05
0.019319003 0.0780279 -0.14268933 0.13074154 0.060625006 -0.1757263 0.07882353 -0.0870945
0.016134217 -0.039948992 0.056118697 0.022032121 -0.046497725 0.048545495 0.117985934 0.04347345
0.057167664 -0.025622103 0.123424485 -0.016898874 -0.10142738 -0.11920071 0.05192427 -0.035532307
0.031232 -0.03271379 0.06399472 0.07441153 0.010452344 0.08739952 0.06641847 -0.093359895
0.055294182 -0.10894926 0.057981215 -0.018704355 0.022923792 -0.008063737 0.13143489 -0.055817388
-0.07938531 -0.08662246 0.10362637 0.13048196 0.033267196 0.032278266 -0.09690065 0.051142354
0.123862036 0.042995434 -0.08263164 0.004925429 0.020337991 0.008672727 0.04488902 -0.07275753
-0.064219594 0.094562106 0.055865712 -0.04530634 0.0031129408 -0.04424463 -0.03250458 0.15119164
0.07090586 0.0004954697 0.12130121 -0.16240329 -0.00495353 -0.07275308 -0.07900523 0.04728333
-0.104766734 -0.039602213 -0.10066672 0.06874198 0.053502273 -0.06186118 -0.030401634 0.07564377
-0.0767505 -0.03682043 -0.040321335 0.09486776 0.08298484 -0.058053505
00000000: 4c26 cbbd d144 82bd b8b8 933c e603 f0bc
00000010: cd3e e4bd ca6e 993d 4d68 ce3d 9050 bebd
00000020: 9cbc 523d 6db5 383d 0498 5ebd 1733 4b3d
00000030: cfaf b8bd 9fab 713d 9c72 903d 9a79 463d
00000040: 1afd 99bd 30ef d03d 3275 c6bd 6435 0fbe
00000050: 2ca6 49bd 6513 253c 634d 713c 20e8 c03d
00000060: c297 e4bd 146f 36bd 7519 dbbc 1504 a2bc
00000070: 5ab7 cb3d 1cba 20bd b426 adbc c5a9 9fbd
00000080: 5f60 03bd 3df7 133d a728 85bd 9f47 dabd
00000090: ca88 4fbd 4971 973d e61e dcbc 0c25 85bc
000000a0: 39e2 86bc 1f2c 613c 5091 f7bd 14fc 743d
000000b0: 5596 cd3d aa09 c9bc 6fb6 91bc dc00 a73d
000000c0: e7d9 a63d 8197 4f3d 755c 713d 56c7 c5bd
000000d0: 0c5c d1bd eda1 d33d 0a63 753d 60d4 fe3d
000000e0: 8766 3c3d 45b3 ac3d cd11 933c 4d89 0e3d
000000f0: 38f3 d23d 9eed b43d 337f f6bd f04b 52b8
00000100: e342 9e3c 17cd 9f3d 271d 12be 1ce1 053e
00000110: ed51 783d 98f1 33be 3b6e a13d 9a5e b2bd
00000120: e82b 843c 8ea1 23bd b8dc 653d b57c b43c
00000130: 6674 3ebd a4d7 463d 9ca2 f13d 3711 323d
00000140: a428 6a3d 72e5 d1bc fac5 fc3d 826f 8abc
00000150: 29b9 cfbd 801f f4bd 8bae 543d 538a 11bd
00000160: 40da ff3c e5fe 05bd aa0f 833d 1265 983d
00000170: 4f40 2b3c 85fe b23d 6806 883d 7933 bfbd
00000180: 277c 623d ca20 dfbd b67d 6d3d e039 99bc
00000190: adca bb3c c41d 04bc de96 063e c6a0 64bd
000001a0: c494 a2bd 1e67 b1bd 103a d43d 109d 053e
000001b0: 2f43 083d 3736 043d d973 c6bd a57a 513d
000001c0: 61ab fd3d fb1b 303d c73a a9bd 7e65 a13b
000001d0: dc9b a63c 0e18 0e3c 8ddd 373d e601 95bd
000001e0: 9085 83bd c7a9 c13d 72d3 643d 2493 39bd
000001f0: 7b02 4c3b db39 35bd 8623 05bd fbd1 1a3e
00000200: 1737 913d 69e2 013a c56c f83d 0c4d 26be
00000210: 3951 a2bb 91ff 94bd 7ecd a1bd 2aac 413d
00000220: f18f d6bd ee35 22bd 5a2a cebd 98c8 8c3d
00000230: 3325 5b3d 2662 7dbd d90c f9bc 1feb 9a3d
00000240: 5e2f 9dbd 05d1 16bd fc27 25bd 074a c23d
00000250: f5f3 a93d 83c9 6dbd

Target_Q_Net.fc_A.bias f4 [3]
-0.17419031 -0.12198357 0.21697304
00000000: f25e 32be 86d2 f9bd 2e2e 5e3e

Target_Q_Net.fc_V.weight f4 [1, 50]
-0.012228748 0.027161114 -0.052959185 0.09073854 -0.002852188 0.12442843 -0.0152034 -0.06837594
-0.0039046835 -0.05042084 -0.07532338 0.0032159954 -0.09336858 -0.018923143 -0.03329663 0.037734378
-0.04225846 0.03699859 -0.07477936 -0.073907085 0.12209913 0.0657205 -0.018208237 0.066667184
0.096176974 0.016155744 -0.028848771 -0.048102774 0.07913962 0.05491161 -0.11195356 0.049067106
0.05529037 0.07566854 0.055214275 0.1190425 0.02930885 0.09230055 0.037131853 0.050831538
0.026751718 0.03513585 -0.0019909716 -0.06954406 0.054876767 0.014391414 0.033674475 0.11013269
-0.07799005 0.06666353
00000000: 165b 48bc fc80 de3c bbeb 58bd 21d5 b93d
00000010: c6eb 3abb 55d4 fe3d ae17 79bc af08 8cbd
00000020: b8e5 7fbb 1586 4ebd 2543 9abd 73c3 523b
00000030: 0738 bfbd b504 9bbc 0c62 08bd 5d8f 1a3d
00000040: 3517 2dbd d58b 173d ec25 99bd 995c 97bd
00000050: 1c0f fa3d 7898 863d 7129 95bc ce88 883d
00000060: 6ff8 c43d 0d59 843c 4254 ecbc 6a07 45bd
00000070: f413 a23d ffea 603d e847 e5bd 97fa 483d
00000080: 2878 623d 1cf8 9a3d 5d28 623d 8ecc f33d
00000090: 1d19 f03c 1208 bd3d 9217 183d bb34 503d
000000a0: 6b26 db3c 9cea 0f3d f67a 02bb 1e6d 8ebd
000000b0: 76c6 603d f7c9 6b3c 3fee 093d 3f8d e13d
000000c0: 3fb9 9fbd e486 883d
