Model/ILQN/result/DDQN/agent_ddqn_002415_SZ_0_5.pt (torch_old, 85145 bytes, 14 tensors)

Q_net.linear1.weight f4 [50, 150]
000000 1b e3 8f be c0 45 a3 be ab 21 6d be f7 ad 97 be
       -0.28102955 -0.31889153 -0.23157375 -0.29624912
000010 ab 38 fd bd a1 a4 35 3d 88 ea b1 3d 24 93 a4 3c
       -0.12364324 0.044346455 0.086873114 0.020089693
000020 bc 72 97 be 4f e6 17 bd d0 41 41 be a2 b0 9f be
       -0.29579723 -0.037084874 -0.18872762 -0.31189448
000030 83 c8 85 be 0e 47 43 be 7f 05 39 be d3 7e 97 3b
       -0.2612954 -0.19070074 -0.18068503 0.004623273
000040 e7 49 b1 bc d7 77 f6 3d b4 9c 96 be 17 ef 17 bd
       -0.021641685 0.120345764 -0.2941643 -0.03709325
000050 f3 ef 6a be 54 7d 85 be f1 17 81 be 0c f6 8d be
       -0.22943096 -0.2607218 -0.25213578 -0.2772678
000060 fa d2 04 be a6 4e d8 bc 1e 73 a1 bd c5 78 aa 3c
       -0.12971106 -0.02640469 -0.07883285 0.02080954
000070 ef f4 57 be a2 7e 17 3d 68 8b 5c be 93 4a a2 be
       -0.21089529 0.036986 -0.21537554 -0.3169752
000080 18 e0 40 be 71 84 3c be 45 97 aa bd 79 44 03 bd
       -0.18835485 -0.18409897 -0.083296336 -0.032047722
000090 eb c2 db 3d ea a0 e1 3d d1 01 4e be d9 a7 0e bc
       0.10730537 0.1101702 -0.2011788 -0.00870701
0000a0 d0 55 97 be 99 3b a0 be 51 39 98 be f7 ba 32 be
       -0.29557657 -0.3129547 -0.2973123 -0.17454134
0000b0 10 5d 29 be 8e 65 5d 3b 72 4d b0 bc c4 f3 40 3d
       -0.16539407 0.0033782455 -0.021521304 0.047107473
0000c0 de f4 4d be aa 3e 76 3d 18 66 80 be 1a 68 41 be
       -0.2011294 0.060118355 -0.2507789 -0.18887368
0000d0 56 c1 66 be 50 38 4e be d0 ea 39 be bc 29 bd bc
       -0.2253469 -0.20138669 -0.1815598 -0.02309119
0000e0 0e b0 c1 3c 79 f6 d9 3b 69 46 45 be cb ce a9 bb
       0.02364352 0.0066516963 -0.1926514 -0.0051821223
0000f0 03 e0 35 be ef 4c a3 be 9b 2a 93 be 2b 2b 6b be
       -0.17761235 -0.31894633 -0.28743443 -0.22965686
000100 cb cf ee bd 7b 1e cc 3d 47 cd 73 3d 27 b6 0e 3e
       -0.11660727 0.09966751 0.05952194 0.13936673
000110 7e 89 9c be e7 92 2e 3d 8a 5a a0 be 92 31 93 be
       -0.30573648 0.042620566 -0.31319076 -0.28748757
000120 90 c7 93 be 35 e2 92 be 98 b3 36 be 9a ca b2 3d
       -0.28863192 -0.28688207 -0.17841947 0.087300494
000130 20 bb cd 3b 4c cb f8 3d c4 d3 87 be eb dc d4 bb
       0.0062784106 0.12148151 -0.26528752 -0.006496062
000140 c1 aa a2 be 30 bb 38 be 6e 74 33 be 41 6f 96 be
       -0.317709 -0.18040156 -0.17524883 -0.29381755
000150 ca e4 3d be 37 49 25 3d 03 9d 40 bc 7d 84 37 bc
       -0.18544307 0.040353026 -0.0117561845 -0.011201021
000160 06 76 9b be f7 10 90 3b d0 0e 3e be 44 59 5d be
       -0.30363482 0.0043965536 -0.18560338 -0.21616083
000170 30 de 4a be 11 f6 a1 be b9 96 69 be d3 19 90 bd
       -0.1981132 -0.31633046 -0.22811402 -0.070361756
000180 a5 c6 0c 3d 53 96 97 3d 1f 85 7f be 6f 9f 40 bd
       0.03436913 0.07401719 -0.24953125 -0.047027048
000190 a7 14 71 be 80 5f 31 be 50 e5 50 be 08 3a 98 be
       -0.23543034 -0.17321587 -0.20399976 -0.29731774
0001a0 e2 ad 4c be 9c af a4 bc b3 33 94 3d 1c 75 0b bc
       -0.19988206 -0.020103268 0.07236423 -0.008511808
0001b0 36 25 8d be 61 e2 08 3d 35 e6 85 be f9 20 85 be
       -0.27567452 0.033419017 -0.26152197 -0.2600172
0001c0 74 c2 2d be 9b 73 a5 be 61 f2 71 be 95 c8 35 bd
       -0.16968709 -0.32314762 -0.23627616 -0.044380743
0001d0 9e 16 51 3d 41 b4 01 bd 3c 72 2b be f0 65 3b bd
       0.05104696 -0.031666044 -0.16742796 -0.045751512
0001e0 20 64 8f be 00 5e 88 be c1 2b 95 be 2d f0 a2 be
       -0.28006077 -0.26634216 -0.29134944 -0.31823865
0001f0 0c 1b 0e be 18 4f b7 bb 99 97 c5 3d 37 ed 3f bc
       -0.13877505 -0.0055941455 0.096480556 -0.011714271
000200 25 49 8d be 83 f8 99 3c 5f fc 67 be 2a db 58 be
       -0.27594867 0.018795257 -0.22654866 -0.21177354
000210 0a 6e a7 be 5b f4 4a be 77 23 16 be 9a 99 16 be
       -0.3270114 -0.19819777 -0.14661966 -0.14707032
000220 65 ad ab 3d 3c 76 14 3d 6f 9b 83 be 02 96 85 bd
       0.08382682 0.03624557 -0.25704524 -0.06522752
000230 f2 02 83 be 2b 9d 8c be df db 55 be 6d c3 9e be
       -0.25588185 -0.2746366 -0.20884655 -0.31008473
000240 75 91 bc bd 6c 94 45 be 0f b7 d3 bd 04 10 c0 bd
       -0.09207431 -0.192949 -0.1033765 -0.09378055
000250 0c e1 a2 be 7b ac 24 bd 30 05 08 bf 22 f4 06 bf
       -0.31812322 -0.040203553 -0.53132915 -0.5271627
000260 57 1f 12 bf 6e ab 03 bf 48 fd 93 be a3 97 5a 3c
       -0.5707907 -0.51433456 -0.28904176 0.013341817
000270 28 84 9a 3d ad 61 e1 3d e5 a5 12 bf 31 e0 51 bd
       0.07544738 0.11004958 -0.57284385 -0.051239196
000280 a5 c0 0a bf 60 54 fa be ae de 11 bf 8a 31 06 bf
       -0.542002 -0.48892498 -0.5698041 -0.5241934
000290 a4 0f ce be bb 21 16 3d 06 a0 5e 3d 0b 49 ca 3d
       -0.40246308 0.03665326 0.05435183 0.09877213
0002a0 2f cb 07 bf 74 f6 e3 bc 91 77 07 bf d2 72 0e bf
       -0.5304441 -0.027827479 -0.5291682 -0.5564395
0002b0 44 18 fa be bb 4b 00 bf 9c 29 db be 10 82 09 3d
       -0.48846638 -0.50115556 -0.42805183 0.033571303
0002c0 d1 a1 59 3c 58 8b d8 3d f0 6e 1c bf ea 44 f4 bb
       0.013283209 0.10573453 -0.6110678 -0.0074545043
0002d0 88 a7 15 bf d1 21 f2 be a8 4e f1 be 30 6c 16 bf
       -0.5845876 -0.47291425 -0.47130322 -0.5875883
0002e0 19 a5 90 be 05 ef 53 3d 1c 5b 1f 3d 9b 6f ee 3d
       -0.2825096 0.05174162 0.038905248 0.11642381
0002f0 16 1a 03 bf 7c 31 8a bd 51 ad 02 bf 2a 54 0a bf
       -0.5121168 -0.0674772 -0.5104571 -0.54034674
000300 8e 05 19 bf c5 d7 e3 be f1 0b db be c9 75 21 3d
       -0.597741 -0.44500557 -0.42782548 0.03941897
000310 eb 47 7c 3d 74 62 89 3d 21 8e 12 bf c4 85 0a 3d
       0.061592024 0.067082316 -0.5724812 0.033818975
000320 0f 27 05 bf 41 6d 0a bf 62 fb 15 bf 8c 2e e5 be
       -0.52012724 -0.5407296 -0.58586705 -0.44762075
000330 7d a9 cc be 46 7a d2 3d 91 fa f3 bc 92 ee 27 3e
       -0.3997306 0.10277228 -0.029782565 0.16399601
000340 e2 32 01 bf a8 f4 f6 bc 3e 0c 08 bf 38 43 15 bf
       -0.50468266 -0.030145958 -0.5314368 -0.5830569
000350 53 22 0a bf 1b a3 f4 be 72 e0 d2 be b1 ff 23 3d
       -0.53958625 -0.4778069 -0.41186863 0.04003877
000360 af 84 1e 3c bd 45 1e 3e 05 61 00 bf a0 e7 46 3d
       0.009675189 0.1545629 -0.5014804 0.04856074
000370 51 3a 06 bf 16 df 04 bf ce f4 07 bf bf 67 13 bf
       -0.52432734 -0.519029 -0.5310792 -0.5758018
000380 0d 99 c4 be d5 3b 98 3d 42 ef 9c 3c 48 a5 ad 3d
       -0.38398018 0.07433287 0.019157056 0.084787905
000390 85 86 02 bf 21 d9 4e 3c 16 c0 f3 be e9 de 09 bf
       -0.5098651 0.01262501 -0.47607487 -0.5385576
0003a0 c9 c1 06 bf 20 8c e7 be d1 4d a4 be 32 58 84 3d
       -0.5263944 -0.45224094 -0.3209062 0.064621344
0003b0 b9 50 b0 3b dd 5f 12 3d 46 c7 f6 be 10 cf a9 3d
       0.0053807166 0.035735954 -0.4819891 0.08291447
0003c0 7c 95 00 bf 02 f0 18 bf 5f cb 17 bf f0 9e fb be
       -0.50228095 -0.5974122 -0.59294695 -0.49144697
0003d0 e8 c7 cd be e4 09 8a bc de f8 2d 3d c5 1a 08 3e
       -0.4019158 -0.01685042 0.042473666 0.13291462
0003e0 72 f4 0d bf 3b e9 5e bd 43 80 04 bf 4f 1e 01 bf
       -0.5545112 -0.054421645 -0.5175821 -0.5043687
0003f0 ff 76 ff be 45 9d 04 bf 9c bc a9 be 92 e6 b1 bd
       -0.49895474 -0.51802474 -0.3315171 -0.08686556

Q_net.linear1.bias f4 [50]
000000 73 f7 1b be ba b0 06 bf 2b 69 81 3e 4e 0b aa be
       -0.15231113 -0.52613413 0.2527555 -0.3321175
000010 4b b3 1d be cd c9 2b be a9 02 21 3d 96 ef 5f 3c
       -0.15400426 -0.167762 0.039309178 0.013667962
000020 b6 fe c8 3e ab 3c 9b be 3b 9a 2d 3e f0 32 bc bc
       0.3925683 -0.30319723 0.16953366 -0.022973508
000030 23 45 8c 3e ab 3f eb 3c 3a 26 97 be 30 47 cd be
       0.27396497 0.028716883 -0.29521352 -0.40093374
000040 16 9b e8 3c 51 38 45 be 9c 7f d7 3e 65 76 fe bd
       0.028394263 -0.19259764 0.42089546 -0.12424926
000050 f2 98 59 3e 8d ef a3 3e c0 23 bc 3e d7 d2 d0 3e
       0.2124975 0.320187 0.36746025 0.40785858
000060 b8 03 1c be d0 07 94 3c cf dd 11 3f a4 af 50 39
       -0.15235794 0.018070132 0.5697908 0.00019901857
000070 48 5e f9 3d e9 7e 94 be 5f 71 90 3e ef a3 86 3e
       0.12176186 -0.29003075 0.28211495 0.26296946
000080 a8 05 4a be 03 c2 d1 be c0 62 00 be 6d 6f a4 3c
       -0.1972872 -0.40968332 -0.1253767 0.020072663
000090 a8 fd 58 be 09 83 03 bf 91 95 4c bd 05 56 ab 3c
       -0.21190512 -0.5137182 -0.049947325 0.02091504
0000a0 66 11 4b 3e e2 5a 0c bd 50 9c 4b 3e 4f 88 7e bd
       0.19830856 -0.03426636 0.19883847 -0.062141713
0000b0 12 79 36 be f7 8b 85 bd 03 cb 49 3b b4 19 e1 bc
       -0.17819622 -0.06520837 0.003079117 -0.027478077
0000c0 9e 20 26 be e3 03 ea 3e
       -0.1622338 0.4570609

Q_net.linear2.weight f4 [50, 50]
000000 5c 2f e6 3d ac 3a 06 3e 0d 42 35 bd f8 15 65 bc
       0.11239502 0.13108319 -0.044252444 -0.013982289
000010 29 bb 23 3c 38 5f 43 3d 40 ba f4 bc 99 b5 a6 3d
       0.009993353 0.04769823 -0.029873967 0.08140106
000020 60 8c 51 bc 6b a3 08 3d c9 d4 ad 3d c1 11 02 bc
       -0.012789816 0.033358973 0.08487851 -0.007938803
000030 fb 51 86 bd a9 d8 10 3e 68 24 d6 3d e3 0b f6 3d
       -0.06558605 0.1414515 0.10456163 0.12013986
000040 97 64 30 3d 59 03 9f bc 40 91 fd bd d2 1b d5 3d
       0.04306468 -0.019410776 -0.1238122 0.10405697
000050 fc 0c 8b bd dd 79 58 3c 0c 4f ee bd e9 c9 c4 3d
       -0.06789586 0.013212648 -0.11636171 0.09608824
000060 2a ff ba 3d eb 5e b2 3d 0f 43 9b 3d b3 1e 1d bd
       0.091307 0.087095104 0.0758115 -0.038359355
000070 f9 db e4 bd 7a 55 64 3c 0b c1 a5 bd 75 b7 60 3c
       -0.11174769 0.013936395 -0.08093461 0.013715615
000080 4a f7 e6 bd 52 43 d9 3d 0c f0 8b 3c 28 c3 77 bc
       -0.112776354 0.106085435 0.017082237 -0.0151222125
000090 15 71 88 bb 15 41 db 3d 72 23 ea bb 64 94 6d 3d
       -0.004163871 0.10705773 -0.0071453387 0.058002844
0000a0 92 a3 73 3c c5 f2 95 bd 2d 2e 58 bd 72 fe 65 3d
       0.014870541 -0.07321695 -0.05277841 0.05615086
0000b0 4e 1e e5 bd ab cb b4 3d 1a 88 e4 bc 6d 0f 03 3e
       -0.11187421 0.08827909 -0.02789693 0.12798853
0000c0 97 71 d0 bc a7 67 90 bd 2d 3a 8d 3d 21 f7 54 bd
       -0.025444789 -0.0705102 0.06895862 -0.051993493
0000d0 55 36 be 3d ee 85 10 3d 54 bb f2 bd ab 95 83 3d
       0.09287707 0.035283975 -0.11852136 0.06425031
0000e0 b2 7b 13 3e c5 a6 d2 3d 71 02 15 be 4b 1a e7 3c
       0.14402655 0.10285715 -0.14551713 0.02821078
0000f0 8e 98 dd bd b0 e8 c6 3d ab 93 96 3a 71 2b 17 3d
       -0.10820113 0.0971235 0.00114881 0.036906663
000100 4b 62 ac 3d 3c 87 c1 bd 8f e5 fd 3c 63 43 d2 3c
       0.084171854 -0.09449622 0.030993251 0.025666898
000110 94 d3 91 3d 35 e3 11 3d 92 51 91 3c b9 f3 42 3c
       0.071204334 0.035617072 0.017739091 0.011898928
000120 2c 66 22 bd 2a 7c 91 3d e5 de 8d 3d 5d b5 c5 bd
       -0.03964822 0.071037605 0.069272794 -0.09653733
000130 01 3f 97 3d 51 11 18 be 99 65 90 3d 49 6a 1d bd
       0.07385064 -0.14850356 0.07050628 -0.03843144
000140 1b 9b bf 3d f4 e0 c1 bd d3 39 ae 3d bb 80 3c bc
       0.09355756 -0.094667345 0.08507123 -0.011505301
000150 93 44 b0 bd a1 98 30 bd f0 65 aa 3d 51 4a f5 3d
       -0.086068295 -0.04311431 0.08320224 0.11977065
000160 ef 16 fa bd 89 20 06 3d 3e c6 6f bd 9a 80 c7 bc
       -0.122114055 0.03274587 -0.058538668 -0.024353314
000170 57 aa 9f 3d 90 54 e5 bb 98 27 9e bd 69 dd d1 3d
       0.077961616 -0.006998606 -0.07722396 0.10247309
000180 fe a8 eb 3c 64 7b d9 3d 31 d2 25 3d 6b f5 a4 bc
       0.028767105 0.10619238 0.040483657 -0.020136556
000190 03 a5 93 3d 2d 24 99 bd da eb 97 bd a2 8f 08 bd
       0.07209208 -0.07477603 -0.07418032 -0.033340104
0001a0 48 9a ee 3d e9 ef cb 3d 36 34 cc 3b 7b 6c c0 3c
       0.116505206 0.099578686 0.00623181 0.023489228
0001b0 79 d1 07 be ca 3a c9 bd 99 3e 57 bd c6 20 77 bd
       -0.13263501 -0.09825666 -0.052549932 -0.06033399
0001c0 eb 7a d9 bd f0 b9 ea 3d e2 72 b1 3d f9 ff 23 3e
       -0.10619148 0.11461246 0.0866449 0.16015615
0001d0 83 94 e9 bd df e0 22 3d 77 b0 fc ba 42 42 cb 3d
       -0.114052795 0.039765235 -0.0019278665 0.09924747
0001e0 da b6 f8 3d 04 66 d6 3d 1f 9a 4f ba db bb 17 bd
       0.12144251 0.10468677 -0.0007919389 -0.037044387
0001f0 ff a2 08 3d bd ec e2 3d 4c 10 10 be 9f c4 09 3c
       0.03335857 0.110803105 -0.14068717 0.0084086945
000200 f7 c3 c2 3d 1a 7c 0e 3c c1 3c b6 3d 25 03 8b bd
       0.095100336 0.00869658 0.08898307 -0.06787709
000210 ae a9 57 3d fe 52 d6 3d 2e 1a 90 bc ea 75 06 3e
       0.052652054 0.10465048 -0.017590608 0.13130918
000220 da ec cd 3d 2c 38 86 3b 7b b4 4b bd 95 5a f3 bd
       0.100549415 0.0040960517 -0.049732666 -0.118825115
000230 14 f9 4f 3d 80 ee 8e 3d 52 01 8a bc 3c cb 07 bd
       0.05077465 0.06979084 -0.016846333 -0.033152804
000240 cd 53 0d 3d 37 96 0c be 7d b6 b5 3c e9 ce 0d be
       0.034503747 -0.13729177 0.022181744 -0.13848461
000250 64 f4 09 3e 8d a0 cc 3d d5 c5 61 3d eb 13 7d bc
       0.13472134 0.0999156 0.055120308 -0.015446643
000260 c5 31 00 ba 59 86 02 bd 01 17 8f 3b 48 af 83 3d
       -0.0004890229 -0.031866405 0.004366756 0.064299166
000270 5b 74 eb bc 48 fc df bd 10 d4 f9 bd 99 58 d2 3d
       -0.028742006 -0.10936791 -0.12198651 0.10270805
000280 11 ff e2 3d f8 11 3a 3d f2 d0 7a bd ee 67 d6 3d
       0.11083806 0.045427293 -0.061234422 0.10469042
000290 97 5f f3 3d f2 67 8d bd 1a 49 d9 3d 78 06 8e bc
       0.11883467 -0.069045916 0.10609646 -0.017337069
0002a0 12 37 15 3d bc 74 67 3b 4f f2 dc bd 95 81 ea bd
       0.036429472 0.0035317382 -0.10788404 -0.11450497
0002b0 51 95 63 3a fb 66 a7 bc 5c 15 95 3d 09 70 a7 bd
       0.00086816127 -0.020434847 0.072794646 -0.08175666
0002c0 ab 07 cd bd 5d fd 66 3d 2a 8c fe bd 86 ac 0d 3d
       -0.10011228 0.05639397 -0.12429078 0.03458836
0002d0 a0 a7 d8 bd e4 86 e5 bd 1e 17 bb bd 35 7c 98 bc
       -0.10578847 -0.11207369 -0.09135269 -0.018613914
0002e0 79 0b 20 3d d6 68 81 3c 51 c6 98 3b ad 25 a9 3d
       0.03907344 0.01579706 0.004662313 0.08259139
0002f0 62 f5 e1 bd 92 ee ba bd ec 4d ad 3d 5a 3d 34 bc
       -0.11033131 -0.09127535 0.08462128 -0.0110009555
000300 4a 6f e0 bd 60 b5 04 3e d0 9a fb 3d 6a 0e a7 3d
       -0.10958727 0.12959814 0.122853875 0.08157046
000310 69 53 e0 3d 4e 62 0c be 3d 77 88 3d 32 e5 ed bd
       0.10953409 -0.13709375 0.06663368 -0.11615981
000320 bf 6a ff bd 56 db 9a 3d 1c 2b a0 bd e7 03 4e bd
       -0.12471532 0.07561366 -0.078207225 -0.05029669
000330 39 62 5b 3d ac 4c fc 3c c8 f2 6e bd 43 73 8f 3d
       0.05356047 0.030798279 -0.058337003 0.07004406
000340 6e df cf bd 78 ac 87 3d c2 54 ed bd 5e 17 82 bd
       -0.10150038 0.06624693 -0.11588432 -0.06352113
000350 5d cc 45 3d 3b 31 f5 3c 22 d3 ee bd 7c da ac 3c
       0.0482906 0.029930701 -0.11661364 0.021100275
000360 38 b9 02 be 4e 5a 8a ba e7 f6 e8 3d 69 b9 f4 3d
       -0.12765968 -0.0010555477 0.11375218 0.11949427
000370 6d 71 4f 3d 70 ff 7b bd bf 63 9c 3d 76 4d 9d 3d
       0.05064528 -0.0615229 0.076362126 0.0768079
000380 85 12 59 bc 5f 05 c1 bd 45 68 14 3d 9a c9 73 bb
       -0.013249044 -0.094248526 0.03623225 -0.0037199021
000390 41 63 8d 3d 68 d6 62 bd c1 3a 69 bd cc 59 4a 3d
       0.06903697 -0.055380255 -0.056940798 0.049402043
0003a0 ae 9a 4c bc 29 7c 5b bd b9 a9 0a 3c 41 a0 d6 3d
       -0.01248805 -0.053585205 0.008463317 0.10479785
0003b0 93 10 3d bd ac 19 e5 bd 45 5e f2 bd 0b fe eb bd
       -0.046158385 -0.11186537 -0.11834387 -0.11523064
0003c0 df 68 9d 3d 43 0d 77 bd 01 e0 86 bd c6 ec be bd
       0.07686018 -0.06031538 -0.06585694 -0.09322505
0003d0 18 2d 0a 3c 8f cc d0 bb 5b 1c 4b bd cb 43 56 bc
       0.008433603 -0.0063720415 -0.04958759 -0.013077687
0003e0 a2 58 b6 bd 40 3d 1e bd f2 17 8f bd a7 cd 4e bd
       -0.08903624 -0.03863263 -0.06986989 -0.050489094
0003f0 52 51 1c 3c f1 90 6d bd 05 49 0b 3e b8 4a 1f bd
       0.009540873 -0.057999555 0.13602073 -0.038889617

Q_net.linear2.bias f4 [50]
000000 ab 28 aa be a0 90 b2 3e 56 06 0a 3e 83 46 82 be
       -0.33234152 0.34875965 0.1347898 -0.2544442
000010 0f f9 ad 3e f1 6f 86 3e cf 72 a1 3e 69 c0 79 3e
       0.3397908 0.2625728 0.31532905 0.24389805
000020 ef b1 86 3e e3 24 b4 3e 37 3c 92 bc fa 83 86 be
       0.26307628 0.35184392 -0.017850978 -0.26272565
000030 18 e1 30 3d a0 2b 9c 3e 33 1e 9b 3e 4a ac 05 3e
       0.043183416 0.30502033 0.30296478 0.13054004
000040 29 f9 d2 3e dd 32 1b be b0 7b 03 3f 86 f3 31 3d
       0.4120572 -0.15156122 0.5136061 0.043445133
000050 cb fe 36 3e 3d 70 19 3e 19 c5 51 3e 59 33 c3 3e
       0.17870633 0.14984222 0.20485343 0.38125113
000060 f0 18 46 be 6f d9 12 3d b4 22 0c 3d fe 86 ae 3e
       -0.1934545 0.035851892 0.034212783 0.34087366
000070 24 fe a4 be 20 9d 9f 3e 9c ee 97 3e 85 ef bc 3d
       -0.32225144 0.31174564 0.29674232 0.09225372
000080 95 60 3a 3e c1 cc e4 bc dc 15 96 3e ce 2a 9f 3c
       0.18200906 -0.027929666 0.29313552 0.01942959
000090 7c 55 5a be 1e e0 5c 3e 45 12 a0 be 46 4c 95 bc
       -0.21321672 0.21569869 -0.3126394 -0.018224847
0000a0 ec 6e 49 be 57 ed 40 be 1c f3 7d be c3 a0 15 3b
       -0.1967122 -0.18840538 -0.2479977 0.0022831417
0000b0 17 13 44 be ec ca 95 3e 14 13 4a be 26 82 25 be
       -0.19147907 0.2925638 -0.1973384 -0.16162929
0000c0 4c 61 29 be df 9d d0 3e
       -0.16541022 0.40745446

Q_net.fc_A.weight f4 [3, 50]
000000 c7 d1 93 3d fc 3e 38 3d d9 7e 08 3e 46 fe 2a 3d
       0.07217746 0.04498194 0.13329639 0.0417464
000010 e0 00 0f 3d 17 e5 83 bd a5 60 0e 3d 1d 9a 2c 3d
       0.034912944 -0.0644018 0.034760136 0.04213916
000020 4d 16 94 bc 05 bc a1 bd 65 bd 95 3d 6f 2f de bc
       -0.01807704 -0.0789719 0.07311515 -0.027122227
000030 ad 0b dc 3c e4 e8 4d 3d 73 90 19 bd a3 7d 98 3d
       0.026861036 0.05027093 -0.037491273 0.07445838
000040 a8 b7 72 3c cc 2d 1a bd cb 31 6f 3d 42 a6 20 bd
       0.014814295 -0.03764133 0.058397096 -0.039221056
000050 1d 71 47 bd f7 d9 de bd 10 46 b6 3d 1a 9a 1c ba
       -0.048691858 -0.10881417 0.08900082 -0.00059738907
000060 d0 61 bb 3d 9a 81 fc 3d 98 a4 cc bd 48 51 dc bc
       0.09149516 0.12329407 -0.09992331 -0.026894227
000070 9d c4 86 3d 54 f7 1e bd 68 4c 82 bd 63 2d 8c bc
       0.0658047 -0.03881009 -0.063622296 -0.017111486
000080 07 4a 06 bd fc ec ab 3d 9b 02 aa 3d 57 bc 66 bd
       -0.03278544 0.083948106 0.08301278 -0.05633196
000090 97 7f 4a bd 13 2a 82 bd a0 e0 e8 3d dd ad 2c 3d
       -0.049438085 -0.06355681 0.11370969 0.042157996
0000a0 86 0c 1a 3d aa c0 81 3d c0 fd 4d 3c 6d a4 30 3d
       0.0376096 0.06335576 0.012572706 0.04312556
0000b0 24 f4 7a 3d 95 d1 e1 bd 2f 26 16 3d 4a c8 82 3c
       0.061267987 -0.11026303 0.03665751 0.015964646
0000c0 9f 3b 9e bd ee df bb bd 17 96 b2 3d fa 1b 75 bd
       -0.077262156 -0.091735706 0.087200336 -0.059841134
0000d0 b7 29 67 3d 08 ce 30 bd 83 9e 1c bd 96 2c 8f 3d
       0.056436267 -0.043165237 -0.038237106 0.06990926
0000e0 32 a2 cf 3d 1c 5a 86 3c 3b 92 b4 bd 2f e5 56 bd
       0.10138358 0.01640039 -0.08816954 -0.05246466
0000f0 5a 6f 64 bd 2c c7 ee bd 36 e4 4d bd 72 13 e8 3d
       -0.055770256 -0.11659083 -0.050266467 0.11331834
000100 d1 7e 03 bd 37 0a e9 3d 14 33 47 3d 28 5a b0 bc
       -0.032103363 0.113789015 0.048632696 -0.021527365
000110 a9 ac 79 3d f3 a3 74 3c cb 99 c1 bd f1 53 95 bd
       0.060955677 0.014931667 -0.09453162 -0.07291401
000120 45 a5 01 bd 9f 08 a2 3d 2b eb d7 bd 52 c3 a0 3d
       -0.031651754 0.079118006 -0.105429016 0.078497544
000130 c3 4b bc bd c0 45 60 bd b3 ac c0 3d c9 b4 d4 bd
       -0.09194138 -0.05475402 0.0940794 -0.103860445
000140 f5 23 4c bd ac 25 e9 bb 5a 1d 20 bd d9 6a 87 bd
       -0.04983898 -0.0071150865 -0.03909049 -0.066121764
000150 c2 88 27 bc 94 1a 89 3c b7 2e 11 bc 1c 3a 1b 3d
       -0.010225477 0.016736306 -0.008861235 0.037897214
000160 27 48 94 bd 7b 25 85 bd 00 0a d4 3c ac 7f 1d bd
       -0.072403245 -0.065012895 0.025883675 -0.038451836
000170 e5 e9 96 bd 1a af 6a bd c5 58 80 bd 51 34 34 3d
       -0.073688306 -0.057295896 -0.062669314 0.043995205
000180 43 56 16 3b 04 6e 38 3d 89 b8 dc 3d a0 96 08 3d
       0.00229396 0.045026794 0.10777385 0.033346772
000190 7b ce 09 bd 3e 5b 94 3c 82 bb d1 bd 65 5e 62 bd
       -0.03364418 0.018109914 -0.102408424 -0.055265803
0001a0 2b 9c 2c bd b0 61 8c bd 52 27 48 3c 9e 29 ad 3d
       -0.04214112 -0.0685457 0.012216406 0.084552035
0001b0 76 2e 71 bd 73 d7 bd bd 8e 4d 8d 3d 27 48 c0 bd
       -0.0588822 -0.09269609 0.06899558 -0.09388762
0001c0 38 9d 89 bd 99 21 6d bd ce c2 d2 bc aa 69 9e bd
       -0.0671944 -0.05789337 -0.025727656 -0.077349976
0001d0 45 6e e7 bc 56 51 a3 3d 1f 17 e9 3c 46 2f 49 bc
       -0.028250823 0.07974498 0.028453408 -0.012279337
0001e0 67 42 33 bb f7 72 9f 3d 94 b1 f4 bc fe c0 2f bd
       -0.0027352811 0.077856 -0.029869832 -0.04290866
0001f0 13 f6 9f bd 04 92 ca bb e1 a3 c7 bd e7 45 d3 bd
       -0.07810607 -0.006181957 -0.09748054 -0.10316067
000200 21 cd 89 3d e3 95 15 bd 67 61 50 3c ab 37 3e bd
       0.06728578 -0.036519896 0.012718535 -0.046439808
000210 01 20 b9 3a f8 b0 77 3d 62 8b e8 3c 1c 9d 85 3d
       0.0014123918 0.060471505 0.028386775 0.06524107
000220 e3 ef 62 bd bd 9d 1a bd b5 7c 80 bd 8f 49 b6 bc
       -0.055404555 -0.037748087 -0.06273786 -0.022251872
000230 24 62 db 3c ba 6a 22 3d e1 cd 55 bd 14 ca 48 bd
       0.026780196 0.039652564 -0.052198295 -0.04902084
000240 d0 d8 7e 3d 52 90 91 bc 1b 5c f8 3c 56 13 a7 3c
       0.062218487 -0.017769013 0.030317357 0.020394962
000250 fd 76 f1 3d af 46 b4 bc
       0.11790273 -0.02200636

Q_net.fc_A.bias f4 [3]
000000 29 a8 c7 3d ef 7b 60 bd 4a fd 99 bd
       0.09748871 -0.054805692 -0.07519014

Q_net.fc_V.weight f4 [1, 50]
000000 5f 9a 36 3c fd 69 76 3d 38 66 0a 3d 6a c7 07 bb
       0.011145203 0.060159672 0.03378889 -0.0020718225
000010 56 57 26 3d b7 cd 60 3d 86 fb c7 3d a1 1d f2 3b
       0.040610634 0.054883685 0.09764771 0.007388786
000020 9f 39 ac 3d f8 be 80 3c 30 dd b6 bc 61 eb 8c bd
       0.08409428 0.015716061 -0.022322267 -0.068808325
000030 0c 96 eb bb 9f d6 c0 3d f5 32 8a bb ec bb ae 3d
       -0.007189518 0.09415936 -0.0042175003 0.08531937
000040 44 85 8f 3d 3e 5e 88 bd 10 db 96 3d d2 f3 81 3c
       0.0700784 -0.066586 0.073660016 0.015863333
000050 6a fb 8f 3c a3 65 f1 3b 2e a9 95 3c 63 1c a5 3d
       0.017575938 0.0073668524 0.018269148 0.08062055
000060 27 12 53 bd 63 6d 8d 3c 3e 6b b6 3b 8a 04 ec 3c
       -0.051530983 0.017264074 0.0055669835 0.028810758
000070 2e 1e 1d bd 1c 6f e0 3c fd da cc 3c e9 25 82 bc
       -0.03835886 0.027396731 0.025006765 -0.015887218
000080 3d 4b ce 3a b8 c2 e1 bc 68 76 3a 3d bb 6c d1 3c
       0.0015738975 -0.02755867 0.045523077 0.025564542
000090 f5 42 12 3b e6 df e0 3c a1 43 83 bd 9f ad 95 bc
       0.0022317742 0.027450513 -0.064093836 -0.018271266
0000a0 d4 55 ef bb e8 51 66 bb 01 7e e8 bc 2a 2d a7 bc
       -0.0073039327 -0.0035144035 -0.028380396 -0.020407278
0000b0 84 a8 8b bd 17 ee 27 3d 32 b5 60 bc b4 9d d8 bb
       -0.06819251 0.040998545 -0.013715075 -0.0066105966
0000c0 3c 5c 07 bc df 86 23 3d
       -0.0082617365 0.039923545

Target_Q_Net.linear1.weight f4 [50, 150]
000000 80 e1 8f be 0e 44 a3 be 6f 1e 6d be 4a ac 97 be
       -0.2810173 -0.3188786 -0.2315614 -0.29623634
000010 12 31 fd bd 09 99 35 3d c6 e0 b1 3d 59 87 a4 3c
       -0.12362875 0.0443354 0.0868545 0.02008407
000020 fa 70 97 be 13 f4 17 bd c6 3e 41 be 04 af 9f be
       -0.29578382 -0.037098 -0.18871602 -0.31188214
000030 00 c7 85 be d9 43 43 be e2 01 39 be a6 14 97 3b
       -0.26128387 -0.1906885 -0.18067124 0.004610616
000040 f8 6b b1 bc b7 72 f6 3d fb 9a 96 be 85 fd 17 bd
       -0.021657929 0.12033599 -0.29415116 -0.03710701
000050 d7 ec 6a be d0 7b 85 be 6d 16 81 be 84 f4 8d be
       -0.2294191 -0.26071024 -0.25212422 -0.27725613
000060 d1 ce 04 be 8f 5e d8 bc 87 75 a1 bd da 60 aa 3c
       -0.12969519 -0.026412277 -0.07883745 0.020798136
000070 8b f1 57 be 88 74 17 3d 88 88 5c be 0a 49 a2 be
       -0.21088235 0.036976367 -0.21536458 -0.3169635
000080 34 dd 40 be 67 81 3c be 33 8f aa bd ca 55 03 bd
       -0.18834382 -0.18408738 -0.08328094 -0.032064237
000090 d8 be db 3d 1d 99 e1 3d 81 fe 4d be df c2 0e bc
       0.1072976 0.11015532 -0.20116617 -0.008713453
0000a0 62 54 97 be 1d 3a a0 be e8 37 98 be ed b7 32 be
       -0.29556566 -0.31294337 -0.29730153 -0.17452975
0000b0 3c 59 29 be 10 82 5c 3b 88 6d b0 bc d6 e1 40 3d
       -0.16537946 0.003364686 -0.021536604 0.047090374
0000c0 a0 f1 4d be 50 37 76 3d cb 64 80 be 4f 65 41 be
       -0.20111704 0.060111344 -0.250769 -0.18886302
0000d0 b9 be 66 be 95 35 4e be 80 e7 39 be 7d 57 bd bc
       -0.22533692 -0.20137627 -0.18154716 -0.023113007
0000e0 ba 69 c1 3c c2 46 d9 3b 45 43 45 be a9 16 aa bb
       0.023609985 0.0066307494 -0.19263943 -0.0051906896
0000f0 a4 dd 35 be ae 4b a3 be 6f 29 93 be a6 28 6b be
       -0.1776033 -0.31893677 -0.2874255 -0.22964725
000100 f9 c9 ee bd b9 0f cc 3d 87 a7 73 3d 6b af 0e 3e
       -0.11659617 0.09963936 0.05948594 0.13934104
000110 fb 87 9c be de 8a 2e 3d 64 59 a0 be 65 30 93 be
       -0.30572495 0.042612903 -0.313182 -0.2874786
000120 63 c6 93 be 08 e1 92 be cd b0 36 be 2a b6 b2 3d
       -0.28862295 -0.2868731 -0.17840882 0.08726151
000130 fb 80 cc 3b d5 bb f8 3d 4f d2 87 be a6 01 d5 bb
       0.0062409616 0.12145201 -0.2652764 -0.0065004406
000140 96 a9 a2 be 03 b9 38 be 2e 72 33 be 12 6e 96 be
       -0.3177001 -0.18039326 -0.17524025 -0.29380852
000150 bf e1 3d be 80 19 25 3d 18 fe 40 bc 4f 09 38 bc
       -0.18543147 0.04030752 -0.011779331 -0.011232688
000160 9c 74 9b be 80 0a 90 3b a0 0c 3e be f6 56 5d be
       -0.30362403 0.004395783 -0.18559504 -0.21615204
000170 f3 db 4a be f4 f4 a1 be da 93 69 be 39 34 90 bd
       -0.19810466 -0.31632197 -0.22810307 -0.07041211
000180 5b a4 0c 3d 46 84 97 3d 64 82 7f be 33 9f 40 bd
       0.03433643 0.07398276 -0.24952084 -0.047026824
000190 7f 12 71 be 70 5d 31 be 40 e3 50 be eb 38 98 be
       -0.23542212 -0.173208 -0.20399189 -0.29730925
0001a0 6e ab 4c be 3d 26 a5 bc e4 25 94 3d bf 0e 0c bc
       -0.1998727 -0.020159835 0.072337896 -0.008548438
0001b0 e4 23 8d be d8 e0 08 3d 2e e5 85 be e2 1f 85 be
       -0.27566445 0.033417553 -0.26151413 -0.26000887
0001c0 67 c0 2d be 89 72 a5 be d6 ef 71 be ca ff 35 bd
       -0.16967927 -0.32313946 -0.23626646 -0.044433393
0001d0 8c f5 50 3d 67 dd 01 bd af 6f 2b be 5f 66 3b bd
       0.05101542 -0.031705286 -0.16741823 -0.045751926
0001e0 1f 63 8f be ef 5c 88 be b9 2a 95 be 23 ef a2 be
       -0.2800531 -0.26633403 -0.29134157 -0.31823072
0001f0 9f 18 0e be a9 1d b9 bb 1e 82 c5 3d 34 9c 40 bc
       -0.1387658 -0.0056492877 0.096439585 -0.011755992
000200 e9 47 8d be 1b ff 99 3c 3e fa 67 be 36 d9 58 be
       -0.27593926 0.018798402 -0.22654054 -0.2117661
000210 04 6d a7 be 4d f2 4a be 1b 21 16 be b1 a8 16 be
       -0.3270036 -0.19818993 -0.14661066 -0.14712788
000220 bf 92 ab 3d ef 49 14 3d 3a 9a 83 be 28 95 85 bd
       0.08377599 0.03620332 -0.25703603 -0.0652259
000230 e5 01 83 be 1a 9c 8c be cb d9 55 be 56 c2 9e be
       -0.25587383 -0.27462846 -0.20883863 -0.31007642
000240 ce 8c bc bd f9 a7 45 be 4b cc d3 bd 66 26 c0 bd
       -0.09206544 -0.19302358 -0.103417 -0.09382324
000250 dd df a2 be f7 a9 24 bd f1 01 08 bf d8 f0 06 bf
       -0.3181142 -0.040201154 -0.5312796 -0.5271125
000260 09 1c 12 bf 31 a8 03 bf 3a fc 93 be 17 b6 59 3c
       -0.5707403 -0.51428515 -0.2890337 0.0132880425
000270 c0 6e 9a 3d 11 2b e1 3d 62 a2 12 bf 2f d2 51 bd
       0.07540655 0.109945424 -0.57279027 -0.051225837
000280 85 bd 0a bf ed 4d fa be 77 db 11 bf 67 2e 06 bf
       -0.54195434 -0.48887578 -0.569755 -0.52414554
000290 f5 0e ce be 0f df 15 3d ee 63 5e 3d c8 0f ca 3d
       -0.40245786 0.03658968 0.05429452 0.09866291
0002a0 bb c7 07 bf 4b ed e3 bc 7e 74 07 bf ba 6f 0e bf
       -0.5303914 -0.027823111 -0.5291213 -0.5563923
0002b0 09 12 fa be b3 48 00 bf 1e 29 db be 8d 29 09 3d
       -0.48841885 -0.5011093 -0.42804807 0.03348689
0002c0 c7 59 58 3c 0c 50 d8 3d 8b 6b 1c bf d1 4c f4 bb
       0.013204998 0.10562143 -0.611016 -0.0074554463
0002d0 8b a4 15 bf af 1b f2 be 94 48 f1 be 2d 69 16 bf
       -0.584542 -0.47286746 -0.47125685 -0.58754236
0002e0 d8 a4 90 be 31 96 53 3d 46 fe 1e 3d ff 31 ee 3d
       -0.28250766 0.051656906 0.038816713 0.1163063
0002f0 c0 16 03 bf 37 35 8a bd 45 aa 02 bf 27 51 0a bf
       -0.5120659 -0.06748431 -0.5104106 -0.5403008
000300 7d 02 19 bf d2 d1 e3 be 3b 0b db be f7 2c 21 3d
       -0.5976942 -0.44496018 -0.42782006 0.039349522
000310 cb 0f 7c 3d b5 25 89 3d d6 8a 12 bf 5d 86 0a 3d
       0.0615385 0.06696645 -0.57243097 0.033819545
000320 15 24 05 bf 3d 6a 0a bf 5b f8 15 bf a3 28 e5 be
       -0.5200818 -0.54068357 -0.58582085 -0.44757566
000330 d6 a8 cc be ad 54 d2 3d 7e 61 f4 bc 37 d0 27 3e
       -0.39972562 0.10270057 -0.029831644 0.16388021
000340 a4 2f 01 bf 5d f0 f6 bc 4c 09 08 bf 43 40 15 bf
       -0.5046332 -0.030143911 -0.53139186 -0.5830118
000350 5e 1f 0a bf 30 9d f4 be d4 df d2 be 3c c1 23 3d
       -0.5395411 -0.47776175 -0.41186392 0.039979205
000360 ef b5 1d 3c 7f 27 1e 3e d2 5d 00 bf f2 e2 46 3d
       0.009625896 0.15444754 -0.5014316 0.048556276
000370 5f 37 06 bf 25 dc 04 bf d7 f1 07 bf d2 64 13 bf
       -0.5242824 -0.51898414 -0.53103393 -0.57575715
000380 57 98 c4 be b3 1e 98 3d 7a 8d 9c 3c ad 69 ad 3d
       -0.38397476 0.074277304 0.01911043 0.08467422
000390 5b 83 02 bf 5a b5 4e 3c 4b ba f3 be 04 dc 09 bf
       -0.5098168 0.01261648 -0.47603068 -0.5385134
0003a0 e0 be 06 bf 54 86 e7 be 47 4d a4 be f9 3a 84 3d
       -0.52635 -0.45219672 -0.32090208 0.06456561
0003b0 36 a1 ae 3b c3 e8 11 3d 07 c1 f6 be 3f c9 a9 3d
       0.0053292764 0.03562237 -0.48194143 0.08290338
0003c0 a2 92 00 bf 23 ed 18 bf 75 c8 17 bf 53 99 fb be
       -0.50223744 -0.5973684 -0.5929025 -0.49140415
0003d0 60 c7 cd be 2f 79 8a bc 4d c0 2d 3d d6 fc 07 3e
       -0.40191174 -0.016903488 0.04241972 0.13280043
0003e0 5d f1 0d bf 42 ee 5e bd 6b 7d 04 bf 7b 1b 01 bf
       -0.55446416 -0.05442644 -0.5175387 -0.50432557
0003f0 44 71 ff be 75 9a 04 bf 10 bc a9 be d9 00 b2 bd
       -0.49891102 -0.5179818 -0.33151293 -0.08691568

Target_Q_Net.linear1.bias f4 [50]
000000 60 f3 1b be 31 af 06 bf ba 67 81 3e 5e 0d aa be
       -0.15229559 -0.5261107 0.2527445 -0.33213323
000010 69 a3 1d be 79 bb 2b be 7c 10 21 3d ba ba 60 3c
       -0.15394367 -0.16770734 0.03932236 0.013716394
000020 4a 06 c9 3e e3 3f 9b be af a6 2d 3e b0 b3 bb bc
       0.3926261 -0.3032218 0.16958116 -0.02291283
000030 89 49 8c 3e c3 3b eb 3c 10 23 97 be 26 46 cd be
       0.27399853 0.02871502 -0.29518938 -0.40092582
000040 36 ad e8 3c 5c 3c 45 be 58 83 d7 3e 1c 7b fe bd
       0.028402906 -0.19261307 0.42092395 -0.12425825
000050 36 a0 59 3e 66 eb a3 3e 7c 22 bc 3e f7 d2 d0 3e
       0.21252522 0.32015532 0.3674506 0.40785953
000060 9a 07 1c be 15 cd 93 3c 18 df 11 3f 86 fb 6a 39
       -0.15237275 0.018042127 0.5698104 0.00022409679
000070 1c 6d f9 3d a4 7d 94 be ce 6f 90 3e 07 9f 86 3e
       0.12179014 -0.29002106 0.282103 0.26293203
000080 eb f4 49 be 88 bf d1 be c1 67 00 be ff 4a a4 3c
       -0.19722335 -0.4096644 -0.12539579 0.020055292
000090 2d ff 58 be 32 88 03 bf c2 77 4c bd 88 ae ab 3c
       -0.21191092 -0.5137969 -0.049918897 0.020957246
0000a0 e5 08 4b 3e c1 34 0c bd 65 97 4b 3e 00 7e 7e bd
       0.19827612 -0.034229998 0.19881971 -0.06213188
0000b0 ad 6d 36 be 32 90 85 bd 48 c1 4b 3b cc 9c e1 bc
       -0.17815275 -0.06521644 0.0031090546 -0.027540587
0000c0 31 16 26 be f6 04 ea 3e
       -0.16219403 0.4570691

Target_Q_Net.linear2.weight f4 [50, 50]
000000 58 1e e6 3d 15 39 06 3e c8 54 35 bd 9a 27 66 bc
       0.11236256 0.13107713 -0.044270307 -0.014047528
000010 92 e3 22 3c 48 50 43 3d 23 7f f4 bc ef b5 a6 3d
       0.009941952 0.047683984 -0.02984578 0.0814017
000020 5c 97 50 bc 3e e0 08 3d 9e cb ad 3d 99 dd 01 bc
       -0.012731399 0.03341698 0.084861025 -0.007926368
000030 62 4b 86 bd 66 d9 10 3e 43 2a d6 3d ec d8 f5 3d
       -0.06557347 0.14145431 0.104572795 0.12004265
000040 c2 65 30 3d 6c ca 9e bc c1 ba fd bd 7f 22 d5 3d
       0.043065794 -0.019383632 -0.12389136 0.1040697
000050 af 0c 8b bd f5 ec 58 3c 62 4b ee bd 3f b3 c4 3d
       -0.067895286 0.013240089 -0.11635472 0.09604501
000060 18 c0 ba 3d a8 54 b2 3d 2a 37 9b 3d db 0f 1d bd
       0.0911867 0.08707553 0.07578881 -0.0383452
000070 8d d9 e4 bd d4 eb 65 3c 4a bd a5 bd 27 9e 60 3c
       -0.11174307 0.014033277 -0.08092745 0.013709581
000080 0a d6 e6 bd 1c 40 d9 3d 19 73 8b 3c 02 dc 77 bc
       -0.112712935 0.10607931 0.017022656 -0.015128138
000090 f1 74 89 bb 49 44 db 3d 72 71 ea bb d4 42 6d 3d
       -0.0041948487 0.10706384 -0.007154637 0.05792506
0000a0 85 98 73 3c 70 ce 95 bd 37 2e 58 bd f9 fd 65 3d
       0.014867906 -0.073147655 -0.05277845 0.05615041
0000b0 de 1e e5 bd fe f1 b4 3d c1 3d e5 bc cd 0e 03 3e
       -0.11187528 0.08835219 -0.027983548 0.12798615
0000c0 dd 75 d0 bc 07 7d 90 bd 3a 47 8d 3d 1c de 54 bd
       -0.025446827 -0.07055097 0.06898351 -0.051969633
0000d0 81 31 be 3d e4 70 10 3d 17 cd f2 bd b4 8e 83 3d
       0.09286786 0.03526391 -0.11855524 0.06423703
0000e0 38 78 13 3e 46 c4 d2 3d 77 0e 15 be f4 9a e7 3c
       0.14401329 0.102913424 -0.14556299 0.02827213
0000f0 3f a3 dd bd 8c f6 c6 3d c7 93 95 3a 51 3c 17 3d
       -0.10822152 0.09714994 0.0011411839 0.036922757
000100 d1 5d ac 3d 30 8d c1 bd e1 d1 fd 3c c8 c1 d2 3c
       0.084163316 -0.094507575 0.030983867 0.025727168
000110 05 b0 91 3d a0 ec 11 3d aa 60 91 3c f5 28 43 3c
       0.07113651 0.035626054 0.017746288 0.01191162
000120 95 5e 22 bd 41 62 91 3d af c2 8d 3d d0 b6 c5 bd
       -0.03964098 0.070988186 0.069218986 -0.09654009
000130 71 27 97 3d 10 11 18 be 66 6a 90 3d b0 4e 1d bd
       0.0738057 -0.14850259 0.07051544 -0.03840512
000140 6a 97 bf 3d 02 e6 c1 bd cf 49 ae 3d 78 90 3c bc
       0.09355052 -0.09467699 0.085101716 -0.011509053
000150 77 55 b0 bd 78 a0 30 bd 73 68 aa 3d 98 5f f5 3d
       -0.08610051 -0.043121785 0.08320703 0.11981124
000160 9f 0b fa bd 9c d6 05 3d 8d d0 6f bd d8 38 c7 bc
       -0.12209248 0.03267537 -0.0585485 -0.024319097
000170 0d a8 9f 3d 20 f0 e4 bb 38 21 9e bd 12 d8 d1 3d
       0.07795725 -0.006986633 -0.0772118 0.1024629
000180 f1 67 eb 3c 2d 80 d9 3d 0e c9 25 3d da 4f a5 bc
       0.028736087 0.10620151 0.040474944 -0.020179678
000190 fe 90 93 3d 6c 22 99 bd d2 ff 97 bd 9f 21 09 bd
       0.072053894 -0.074772686 -0.07421841 -0.03347933
0001a0 2c 4f ee 3d 2a dd cb 3d 43 85 cd 3b 8b cb c0 3c
       0.116361946 0.09954293 0.0062719896 0.023534557
0001b0 11 bc 07 be e4 e7 c8 bd 88 6d 57 bd 42 fa 76 bd
       -0.13255335 -0.098098546 -0.05259469 -0.06029726
0001c0 69 70 d9 bd 58 c6 ea 3d b7 79 b1 3d c7 d6 23 3e
       -0.10617144 0.11463612 0.086657934 0.159999
0001d0 97 98 e9 bd b1 43 23 3d c0 2e 06 bb b8 5d cb 3d
       -0.11406057 0.039859477 -0.0020474643 0.09929985
0001e0 dd b8 f8 3d e9 84 d6 3d 42 ba 49 ba 35 0d 18 bd
       0.12144635 0.10474569 -0.0007695296 -0.03712197
0001f0 06 f8 07 3d 4d d5 e2 3d 0e 27 10 be 4b 46 0a 3c
       0.033195518 0.1107584 -0.14077398 0.008439611
000200 69 cb c2 3d 18 64 10 3c 5f 42 b6 3d 69 0a 8b bd
       0.09511454 0.008812927 0.08899378 -0.06789095
000210 2d 37 58 3d d1 4a d6 3d f8 ee 90 bc 46 72 06 3e
       0.052786995 0.10463489 -0.017692074 0.1312953
000220 07 d2 cd 3d 9f ed 86 3b 8d ba 4b bd 3a a2 f3 bd
       0.10049825 0.004117682 -0.049738456 -0.11896177
000230 c6 e6 4f 3d e4 35 8f 3d 50 09 8a bc 0d bf 07 bd
       0.050757192 0.06992701 -0.016850144 -0.033141185
000240 ac 59 0d 3d 50 82 0c be 26 86 b4 3c 26 ce 0d be
       0.034509346 -0.13721585 0.022036623 -0.1384817
000250 c9 f1 09 3e cc 6f cc 3d 8c ac 61 3d c3 ff 7c bc
       0.1347114 0.09982261 0.055096194 -0.015441838
000260 f5 24 07 ba 46 c4 02 bd 80 38 8d 3b ed a1 83 3d
       -0.00051553483 -0.031925462 0.004309714 0.06427369
000270 db 49 eb bc 2c ec df bd a1 b9 f9 bd 00 7d d2 3d
       -0.02872174 -0.10933718 -0.12193609 0.10277748
000280 38 f5 e2 3d 57 2a 3a 3d d5 c5 7a bd 0e 6f d6 3d
       0.11081928 0.045450535 -0.061223824 0.10470401
000290 97 61 f3 3d 4f 97 8d bd 89 45 d9 3d bd 89 8d bc
       0.11883848 -0.069136254 0.10608966 -0.017277593
0002a0 5b f2 14 3d 83 26 69 3b 1f f2 dc bd 6e 6d ea bd
       0.03636394 0.0035575933 -0.107883684 -0.11446653
0002b0 c3 8f 67 3a a5 d9 a7 bc 3b e5 94 3d 1b 7f a7 bd
       0.0008833373 -0.020489523 0.07270285 -0.0817854
0002c0 c5 1a cd bd 05 0c 67 3d f0 85 fe bd 92 f5 0d 3d
       -0.100148715 0.056407947 -0.1242789 0.034658022
0002d0 ae a2 d8 bd 25 88 e5 bd 6b ef ba bd 63 8f 98 bc
       -0.10577904 -0.11207608 -0.091276966 -0.01862306
0002e0 1e bf 1f 3d 78 60 81 3c f7 aa 97 3b 95 2b a9 3d
       0.039000623 0.01579307 0.004628535 0.08260266
0002f0 da f8 e1 bd 5e 13 bb bd 80 4a ad 3d 3c bf 32 bc
       -0.11033793 -0.091345534 0.08461475 -0.010909852
000300 12 72 e0 bd 82 b7 04 3e bb 9d fb 3d bf 28 a7 3d
       -0.10959257 0.12960628 0.12285944 0.081620686
000310 94 20 e0 3d c7 60 0c be 1d 74 88 3d 8c 02 ee bd
       0.10943714 -0.13708793 0.06662772 -0.116215795
000320 b2 68 ff bd de e6 9a 3d 93 36 a0 bd 69 4f 4e bd
       -0.12471141 0.07563566 -0.07822909 -0.0503687
000330 b5 12 5b 3d 6a 1a fc 3c a8 ee 6e bd c9 93 8f 3d
       0.053484637 0.030774314 -0.05833307 0.0701061
000340 f2 e6 cf bd 80 e3 87 3d e4 65 ed bd 5e 04 82 bd
       -0.10151471 0.06635189 -0.115917 -0.06348489
000350 b8 cb 45 3d de 5a f5 3c c7 d4 ee bd e2 4a ac 3c
       0.048289984 0.029950555 -0.11661678 0.0210318
000360 e7 bb 02 be 32 0d 80 ba 65 c2 e8 3d 41 c3 f4 3d
       -0.12766992 -0.0009769558 0.11365203 0.11951304
000370 0b 78 4f 3d 6d de 7b bd e0 6a 9c 3d 35 26 9d 3d
       0.05065159 -0.06149142 0.07637572 0.07673303
000380 03 fa 5a bc 99 0d c1 bd a8 25 14 3d 86 23 73 bb
       -0.0133652715 -0.09426422 0.036168724 -0.003710003
000390 a2 6a 8d 3d 8f 8c 62 bd 40 3c 69 bd 9c 4c 4a 3d
       0.06905104 -0.05530983 -0.056942225 0.049389467
0003a0 88 72 4b bc 4f 84 5b bd a7 8f 09 3c cb 9a d6 3d
       -0.012417443 -0.053592976 0.008396066 0.10478743
0003b0 e8 20 3d bd e8 03 e5 bd 0e 56 f2 bd 79 3c ec bd
       -0.04617396 -0.11182386 -0.1183282 -0.11534972
0003c0 52 62 9d 3d 51 c2 76 bd 27 e3 86 bd e2 e5 be bd
       0.07684769 -0.06024391 -0.065862946 -0.093211904
0003d0 73 64 0a 3c f0 d4 cf bb ad 6c 4b bd c8 1a 56 bc
       0.0084468005 -0.006342523 -0.04966419 -0.013067909
0003e0 8f 5e b6 bd 6d 85 1e bd 1c 16 8f bd a9 ce 4e bd
       -0.08904754 -0.038701463 -0.06986639 -0.050490055
0003f0 51 5e 1c 3c 99 97 6d bd 1f 44 0b 3e 7d 4a 1f bd
       0.009543971 -0.058005903 0.13600205 -0.038889397

Target_Q_Net.linear2.bias f4 [50]
000000 a6 23 aa be 66 8d b2 3e 44 11 0a 3e d7 41 82 be
       -0.33230323 0.34873503 0.13483149 -0.25440857
000010 90 f8 ad 3e 0f 6a 86 3e 6c 6c a1 3e 88 b3 79 3e
       0.339787 0.2625279 0.31528032 0.24384892
000020 a8 ad 86 3e bf 22 b4 3e 16 02 92 bc 15 78 86 be
       0.26304364 0.3518276 -0.01782326 -0.2626349
000030 fa 34 31 3d 97 28 9c 3e b5 1d 9b 3e 57 aa 05 3e
       0.043263413 0.30499718 0.30296102 0.1305326
000040 2a f4 d2 3e f1 30 1b be 61 79 03 3f b8 af 31 3d
       0.41201907 -0.15155388 0.51357085 0.04338047
000050 30 f5 36 3e d6 5f 19 3e 78 cb 51 3e 39 2e c3 3e
       0.17866969 0.14977965 0.20487773 0.38121203
000060 75 00 46 be 2d 01 13 3d 9f f8 0b 3d 0b 88 ae 3e
       -0.19336112 0.035889793 0.03417265 0.34088168
000070 55 f9 a4 be 00 9a 9f 3e 77 e6 97 3e 0c 1a bd 3d
       -0.32221475 0.3117218 0.29668018 0.09233484
000080 86 59 3a 3e cb 7d e4 bc 5c 14 96 3e 3a 69 9e 3c
       0.18198213 -0.027892014 0.29312408 0.019337285
000090 16 55 5a be f2 d4 5c 3e fa 05 a0 be e9 b6 94 bc
       -0.2132152 0.21565607 -0.3125456 -0.018153625
0000a0 1f 62 49 be 41 e9 40 be ff d9 7d be de ed 1a 3b
       -0.19666336 -0.1883898 -0.2479019 0.0023640315
0000b0 cf 04 44 be 17 bf 95 3e 7e 04 4a be ad 7e 25 be
       -0.1914246 0.29247352 -0.19728276 -0.16161604
0000c0 ae 6e 29 be c0 93 d0 3e
       -0.16546127 0.40737724

Target_Q_Net.fc_A.weight f4 [3, 50]
000000 78 9e 93 3d f4 68 38 3d 66 76 08 3e 64 3f 2b 3d
       0.0720796 0.045021966 0.13326415 0.0418085
000010 00 16 0f 3d bc 00 84 bd ce 93 0e 3d 89 c9 2c 3d
       0.03493309 -0.064454526 0.034808926 0.042184386
000020 65 db 93 bc 70 bf a1 bd 09 c5 95 3d 15 e0 de bc
       -0.018048951 -0.07897842 0.07312972 -0.02720646
000030 fb ec db 3c da 3d 4e 3d e5 b0 19 bd 5a 8c 98 3d
       0.0268464 0.050351955 -0.037522215 0.07448645
000040 ea 04 73 3c cf 2b 1a bd 4d a6 6e 3d 86 ae 20 bd
       0.014832715 -0.037639435 0.058264066 -0.03922894
000050 57 b2 47 bd 0c e3 de bd f4 52 b6 3d 90 f9 3c ba
       -0.048754063 -0.108831495 0.08902541 -0.00072088186
000060 9e 79 bb 3d b2 83 fc 3d f8 dc cc bd 9a 99 dc bc
       0.09154056 0.123298064 -0.10003084 -0.026928712
000070 9d ce 86 3d c9 fb 1e bd 46 69 82 bd 52 be 8b bc
       0.06582377 -0.03881434 -0.063677356 -0.017058525
000080 a7 95 06 bd 49 b7 ab 3d 2f 0f aa 3d 9e c1 66 bd
       -0.032857563 0.08384568 0.08303677 -0.05633699
000090 6d 8d 4a bd 94 1a 82 bd 05 fe e8 3d 97 9d 2c 3d
       -0.04945128 -0.063527256 0.113765754 0.042142477
0000a0 f8 39 1a 3d fe cb 81 3d 86 34 4e 3c 06 d8 30 3d
       0.03765294 0.063377365 0.012585765 0.043174766
0000b0 a5 54 7a 3d 5d e3 e1 bd 74 13 16 3d a3 fd 81 3c
       0.06111588 -0.11029694 0.036639646 0.015868014
0000c0 ed 1f 9e bd 62 d8 bb bd 4c 93 b2 3d 01 16 75 bd
       -0.07720933 -0.09172131 0.08719501 -0.059835438
0000d0 b3 1a 67 3d 90 c3 30 bd 90 ac 1c bd 7c 35 8f 3d
       0.056421947 -0.043155253 -0.038250506 0.06992623
0000e0 93 a5 cf 3d 85 16 86 3c 88 99 b4 bd 34 a4 56 bd
       0.10139003 0.01636816 -0.08818346 -0.05240269
0000f0 bc 7e 64 bd 3b a3 ee bd 7a d8 4d bd 0e 0d e8 3d
       -0.055784926 -0.116522275 -0.050255276 0.11330615
000100 ff e9 02 bd c7 0c e9 3d 08 2f 47 3d 86 38 b0 bc
       -0.031961437 0.1137939 0.048628837 -0.021511327
000110 1d df 79 3d 09 3a 74 3c 2f 72 c1 bd 53 55 95 bd
       0.061003793 0.014906415 -0.09445607 -0.07291665
000120 03 cd 01 bd 14 18 a2 3d bf 00 d8 bd 8b bf a0 3d
       -0.031689655 0.07914749 -0.10547017 0.07849034
000130 25 26 bc bd ae 32 60 bd e4 aa c0 3d d8 a9 d4 bd
       -0.09186963 -0.054735832 0.09407595 -0.103839576
000140 91 01 4c bd 30 10 e9 bb 44 10 20 bd b4 53 87 bd
       -0.04980618 -0.0071125254 -0.039078012 -0.06607762
000150 65 4a 27 bc 52 dc 88 3c 37 c2 10 bc b0 16 1b 3d
       -0.010210608 0.01670662 -0.008835367 0.037863433
000160 ee 49 94 bd 81 18 85 bd 0b cf d3 3c 32 ab 1d bd
       -0.072406635 -0.064988144 0.025855562 -0.038493343
000170 4f ee 96 bd 43 b3 6a bd 26 41 80 bd de 34 34 3d
       -0.073696725 -0.057299864 -0.06262426 0.04399573
000180 17 cb 16 3b 57 9b 38 3d f0 af dc 3d aa 9d 08 3d
       0.0023009235 0.04507002 0.10775745 0.033353485
000190 c8 17 09 bd 0f cf 93 3c 7f a1 d1 bd 5c a5 62 bd
       -0.033469945 0.01804307 -0.10235881 -0.05533348
0001a0 6b a9 2c bd 21 4a 8c bd 30 f6 46 3c 52 1c ad 3d
       -0.042153757 -0.068500765 0.012143657 0.08452667
0001b0 cf 44 71 bd 52 eb bd bd c0 4b 8d 3d 0e 30 c0 bd
       -0.05890351 -0.092733994 0.06899214 -0.09384166
0001c0 e5 98 89 bd 5c 8d 6d bd b0 70 d3 bc 53 84 9e bd
       -0.067186154 -0.05799614 -0.02581057 -0.077400826
0001d0 84 a4 e7 bc f9 46 a3 3d ec 0e ea 3c b5 56 48 bc
       -0.02827669 0.07972521 0.028571568 -0.012227704
0001e0 d9 38 33 bb 9a 95 9f 3d 78 9c f4 bc 37 2b 2f bd
       -0.0027347116 0.07792206 -0.029859766 -0.042765822
0001f0 65 00 a0 bd 5e 78 ca bb 0c 8b c7 bd de 37 d3 bd
       -0.07812575 -0.0061788997 -0.09743318 -0.1031339
000200 b5 c2 89 3d c8 c6 15 bd 2b 25 51 3c 2c 90 3e bd
       0.067265905 -0.036566526 0.012765209 -0.04652421
000210 ff ae c3 3a 64 1a 78 3d 46 43 e8 3c 46 b0 85 3d
       0.0014929472 0.060572043 0.028352391 0.06527762
000220 93 fb 62 bd e2 99 1a bd 3f 9b 80 bd c1 4e b6 bc
       -0.0554157 -0.03774441 -0.06279611 -0.02225435
000230 58 41 db 3c a7 75 22 3d 31 d7 55 bd fa 04 49 bd
       0.026764557 0.039662983 -0.052207176 -0.04907701
000240 26 56 7f 3d 41 10 91 bc 89 88 f8 3c 64 d5 a7 3c
       0.062338017 -0.017707946 0.030338543 0.020487495
000250 d9 5b f1 3d 99 74 b4 bc
       0.11785097 -0.022028254

Target_Q_Net.fc_A.bias f4 [3]
000000 ea c7 c7 3d 11 7d 60 bd 3e 21 9a bd
       0.097549275 -0.054806773 -0.07525872

Target_Q_Net.fc_V.weight f4 [1, 50]
000000 d2 d1 36 3c 23 73 76 3d 0f 80 0a 3d 9c 2e 05 bb
       0.0111584235 0.060168397 0.033813532 -0.002032197
000010 9c 56 26 3d ff b0 60 3d 6f fd c7 3d 71 5f f3 3b
       0.04060994 0.054856297 0.097651355 0.007427149
000020 3c 4a ac 3d 20 3d 80 3c 2e bf b6 bc f1 29 8d bd
       0.084125966 0.015654147 -0.022307958 -0.06892765
000030 c1 f9 eb bb b2 e1 c0 3d 20 44 8d bb aa b7 ae 3d
       -0.007201404 0.09418048 -0.0043110996 0.08531125
000040 bd 84 8f 3d 74 62 88 bd 0d ab 96 3d 11 24 82 3c
       0.0700774 -0.066594034 0.07356844 0.015886338
000050 bf 77 8f 3c 90 31 f1 3b 85 cb 95 3c 03 03 a5 3d
       0.017513154 0.0073606446 0.018285522 0.08057215
000060 63 e7 52 bd 57 6d 8d 3c 83 7a b4 3b d3 cf eb 3c
       -0.0514902 0.017264051 0.0055077686 0.028785622
000070 73 1d 1d bd de 14 e0 3c 8a 97 cc 3c b3 3b 82 bc
       -0.038358163 0.0273537 0.024974603 -0.015897607
000080 87 bf cb 3a ac 6f e2 bc 07 53 3a 3d a5 cd d1 3c
       0.001554475 -0.02764114 0.045489337 0.025610754
000090 19 0a 11 3b bd 07 e1 3c 18 33 83 bd 6a fc 95 bc
       0.0022131263 0.02746951 -0.0640623 -0.018308837
0000a0 bc 5d ee bb c5 5c 62 bb 0c 76 e8 bc f2 08 a7 bc
       -0.0072743576 -0.0034540158 -0.028376602 -0.020390008
0000b0 71 ce 8b bd e8 e7 27 3d e3 05 61 bc b9 16 da bb
       -0.06826485 0.040992647 -0.013734314 -0.006655541
0000c0 7e 00 07 bc b9 75 23 3d
       -0.008239863 0.03990719
