Model/ILQN/result/DDQN/agent_ddqn_600028_SH_0_5.pt (torch_old, 85145 bytes, 14 tensors)

Q_net.linear1.weight f4 [50, 150]
00000000: bc3b e93e 32f8 023f 9bef e93e 0fd9 173f
00000010: 774f eb3e cc1c a0bd 5bf0 70bd ede3 f63d
00000020: 7da8 043f 849e 3ebd 7e87 e83e 8d27 ee3e
00000030: 086b f23e 93b1 113f 44a2 0c3f 26ab a4bd
00000040: 7f7f 663a 6286 143c c5ff 093f 5be7 b4bc
00000050: 7335 073f 3324 fb3e f132 0c3f e2db 043f
00000060: 6b10 f53e 479f f9bb d3c5 9fbd 732d 943c
00000070: 083f 163f ad4b 8f3d 15a8 183f 1442 fd3e
00000080: 0a03 e83e 57d1 0a3f 89c1 163f 1ffe 1f3d
00000090: 6d4c 4bbd e59b 4d3d 13d3 f73e 895f b4bc
000000a0: 9aea e83e 8fd3 fb3e b41d 143f 2a6b ec3e
000000b0: 8d17 123f 33b4 ea3d b9dc 98bd 08bf bd3d
000000c0: 110e 003f f86e abbd 1d02 023f 7fc3 0a3f
000000d0: 2a54 fd3e 9022 053f ff19 ff3e d11f f73c
000000e0: 809a 89bd 67dd 6abd 5055 0b3f 42b6 90bc
000000f0: 7c3d 103f 56f0 183f 2f3a 053f dc3f f83e
00000100: 3c8d 023f fb4e b33d bec6 9f3d 8038 443c
00000110: 0552 163f d85e a83d c347 073f bc1d 1b3f
00000120: d510 1a3f 087c 0b3f 26e1 203f aabd da3c
00000130: 0706 873d 8083 72bd 94d5 183f 2472 443d
00000140: 18a8 fe3e 2cf8 133f 3678 113f 71a3 033f
00000150: 4f60 233f a8b5 b0bc e9c5 e53c 2401 ae3d
00000160: 9536 183f aa03 10bc db54 0a3f 73c0 043f
00000170: fea8 f43e a20b 043f 548e 253f 6be4 6cbd
00000180: 1b9c 023e a417 60bd 6db7 113f bbde 2abd
00000190: 3baa 183f 4afc 163f a602 f53e 0cb1 013f
000001a0: d5f8 2b3f ccaf c33c df0c 04bc d044 133d
000001b0: ce98 193f e480 42bd a1d6 003f b894 173f
000001c0: c027 1c3f 62e9 143f fd21 183f 1024 db3c
000001d0: c0b2 103e f365 30bd b837 033f c362 b13b
000001e0: 979c 163f a306 013f b479 1f3f 0271 083f
000001f0: 3bbb 223f 0e47 843d f465 fc3d bdb3 d4bc
00000200: 055c 1b3f 8252 843c 796c ff3e ed29 013f
00000210: 41bf 0c3f 1e61 0c3f 3867 123f 5154 a53d
00000220: ab00 2c3e df7c 0d3d dcd4 143f a220 7d3d
00000230: 1927 103f b53d 1a3f d23e 1b3f cc44 143f
00000240: 9549 233f e54c e93d f621 953e 6408 463d
00000250: df76 093f 3ea8 183d eda3 42bf 4a1c 5cbf
00000260: 9b94 65bf 4806 4fbf 5a6c 2dbf 2ffe 7c3d
00000270: c834 783d fbf4 383d d91e 55bf 387e 6d3d
00000280: 61dc 5cbf 7271 68bf d819 49bf 6e3a 61bf
00000290: 172f 26bf 568a a3bd d16a 9cbc f291 87bb
000002a0: c6d8 4ebf fb54 953c e78f 5fbf bf04 59bf
000002b0: 4476 59bf 9649 4dbf a86a 2ebf 4605 85bd
000002c0: 822e 05bc 8a3b 7a3d d4ae 62bf becd 5bbd
000002d0: e716 42bf 49ad 5fbf 8054 3ebf 71bd 58bf
000002e0: c626 30bf 564d 28bc ef3a 1d3d cdb4 4d3d
000002f0: f1ff 4cbf 8649 443d 2369 4ebf f062 64bf
00000300: a63b 40bf a256 54bf d69d 2bbf 2e8b eebd
00000310: 39bb 6c3d 8c45 0a3e 3985 47bf 5063 213d
00000320: d9cf 41bf dbf7 51bf b8e4 46bf b92d 50bf
00000330: d460 14bf b489 613c cb1e ba3d babf bf3d
00000340: 6afc 5cbf f2e7 3dbd 4133 54bf 5635 5ebf
00000350: eae6 40bf 6bc1 5cbf db0e 0fbf 7c3a 9a3b
00000360: bcac 923d e3dc f23d c2f0 5abf f81b 10bc
00000370: 6ca9 45bf 9b14 3ebf 6af1 3dbf 4510 49bf
00000380: ef44 19bf b51a 1a3c dec4 543d bc1c 633d
00000390: a1e3 49bf 9794 8dbc c1d5 58bf 6ab0 58bf
000003a0: ba89 57bf 96f7 4bbf b2ac 2ebf 721c c63c
000003b0: 73b2 e4bb 4dc8 8a3d d2e0 57bf 2fc6 05bd
000003c0: b8dc 5abf 1db7 5cbf 5ad1 48bf 5f30 4cbf
000003d0: c721 10bf 9aa2 023e 6075 49bd c4df 213d
000003e0: e699 62bf 9d8d 663b e6ef 48bf af23 44bf
000003f0: 7407 65bf e894 5ebf a7fd 25bf d8aa 2c3d
0.45553386 0.51159966 0.45690617 0.5931558 0.45959064 -0.078179926 -0.05882297 0.12055192
0.5181959 -0.04653789 0.45415872 0.4651455 0.47347283 0.5691158 0.549351 -0.080404565
0.0008792802 0.0090652425 0.539059 -0.022082975 0.5281593 0.49051055 0.5476523 0.51898015
0.47864088 -0.0076178643 -0.07801404 0.018088078 0.5868993 0.06996856 0.5963147 0.49464476
0.4531482 0.5422568 0.5888906 0.039060708 -0.049633432 0.0501975 0.48403224 -0.022018211
0.45491487 0.49184844 0.57857823 0.4617551 0.57067186 0.114601515 -0.074639745 0.09264952
0.50021464 -0.08370775 0.50784475 0.54204553 0.49478275 0.52005863 0.4982452 0.030166538
-0.06718922 -0.057340052 0.5442705 -0.017665032 0.5634382 0.59741724 0.52041906 0.4848622
0.50996757 0.08755299 0.07801579 0.011976361 0.587189 0.08221215 0.52843875 0.60592246
0.60181934 0.5448613 0.6284355 0.026701767 0.065929465 -0.05920744 0.59700894 0.047960415
0.4973762 0.57800555 0.5682405 0.51421267 0.6381883 -0.021570995 0.028048472 0.08496311
0.59458286 -0.008789936 0.5403573 0.51856154 0.4778518 0.5158025 0.646703 -0.057835024
0.12754862 -0.054710045 0.5692051 -0.04171632 0.5963475 0.5897871 0.47853583 0.5066078
0.6717656 0.023887537 -0.008059709 0.035954297 0.59998786 -0.0474862 0.503275 0.592113
0.60998154 0.58168614 0.5942686 0.026750594 0.14130688 -0.043065976 0.51256895 0.0054133846
0.5883269 0.5040075 0.6229508 0.53297436 0.6356694 0.06458865 0.123241335 -0.025964612
0.60687286 0.016152624 0.49887446 0.504546 0.5497933 0.5483569 0.5718875 0.08072723
0.1679713 0.034542914 0.581373 0.0617987 0.5630966 0.6025041 0.6064273 0.57917476
0.6378415 0.113916196 0.29127473 0.048347846 0.5369701 0.037269823 -0.7603138 -0.85980666
-0.8967988 -0.8086896 -0.67743456 0.061765846 0.06059721 0.045155507 -0.83250195 0.0579817
-0.8627377 -0.90798104 -0.7855506 -0.8797978 -0.64915603 -0.0798537 -0.019093903 -0.004137271
-0.8079952 0.018228998 -0.8732895 -0.84772867 -0.84946084 -0.8019041 -0.68131495 -0.064951465
-0.008128764 0.061091937 -0.88548017 -0.053663008 -0.75816196 -0.8737379 -0.74347687 -0.84664065
-0.68809164 -0.010272345 0.03838628 0.050221253 -0.80078036 0.04792168 -0.80629176 -0.89213467
-0.75091016 -0.8294469 -0.67037714 -0.1164764 0.057795737 0.13503093 -0.77937657 0.039401352
-0.75707775 -0.8201882 -0.7769275 -0.8131977 -0.5796025 0.013765741 0.090879045 0.09362741
-0.86322653 -0.04636378 -0.8289071 -0.86800134 -0.75352347 -0.8623263 -0.5588204 0.004706679
0.07161853 0.11858537 -0.8552362 -0.008795731 -0.7721164 -0.7425019 -0.74196494 -0.7854045
-0.5987081 0.0094057815 0.05194556 0.055447325 -0.7886296 -0.017282767 -0.8470116 -0.84644186
-0.8419453 -0.7967466 -0.6823226 0.024183486 -0.0069792806 0.067764856 -0.84327424 -0.032659706
-0.8549304 -0.8621691 -0.78444445 -0.7976131 -0.5630154 0.1275734 -0.049184203 0.03952004
-0.8851608 0.0035179623 -0.78491056 -0.7661695 -0.894645 -0.8694596 -0.6484017 0.042155117

Q_net.linear1.bias f4 [50]
00000000: 5ced 133f 936c 4fbf deb9 7d3d f4c2 85be
00000010: d6a1 8b3e d67e abbe b0a2 b5be f310 6fbf
00000020: 53bc 98be 3c66 ecbe cb04 9f3e a7ff a4bc
00000030: 7300 8e3e 0aed 243f 1493 c63e 7401 613e
00000040: 0686 43bf 64c4 e13e abea 2ebf 3f4b 5dbd
00000050: 0408 0d3f 4d82 52bf 7901 9bbe 6df5 afbd
00000060: 8ff2 adbc 7762 43bd bcb9 873d be53 4e3f
00000070: 08b1 2cbf bf3f 91be f071 b33e fd66 c93d
00000080: 0e8f 6bbe d981 ef3e 57aa 6a3e d6d8 21bf
00000090: a7e1 033f b7eb 6bbe 2c47 503d a50e 90be
000000a0: 2ff2 753f cfad 1f3e 6606 13bf 2a0e 0b3e
000000b0: 5a4d c8bd bbd6 49bf 6afb e4be 8246 4dbe
000000c0: 2ecb 70bf 0a8b a6be
0.57784057 -0.81025046 0.061944835 -0.261253 0.2727191 -0.33495206 -0.35475683 -0.9338524
-0.2983118 -0.4617175 0.31058344 -0.020141436 0.27734718 0.6442419 0.38784087 0.2197321
-0.7637638 0.44095147 -0.68326825 -0.05402684 0.55090356 -0.82230073 -0.3027456 -0.08591733
-0.021233825 -0.047701325 0.06627223 0.8059653 -0.6745763 -0.28368947 0.35047865 0.098340966
-0.2300379 0.46778753 0.22916542 -0.6322149 0.51516193 -0.23039137 0.050849125 -0.28136173
0.9607267 0.15593646 -0.5743164 0.13579622 -0.09780379 -0.7884328 -0.44723064 -0.20046428
-0.9406003 -0.32527953

Q_net.linear2.weight f4 [50, 50]
00000000: 96d5 28bd cf2f 553d 3fcd 6c3d dc8d b13d
00000010: 4f57 a6bd 14d6 cbbd 5051 aebc e9c4 cbbb
00000020: 47d7 be3b 1deb 303d 69b3 e83d ffde e0bb
00000030: 3de2 ba3d 37bd 013e 8a80 0bbc 2d21 f8bd
00000040: f4c4 b03d 0408 da3d 322a ecbc 0d78 3bbd
00000050: fcf5 97bd 4ac1 b33d c4db 02be ede6 e2bd
00000060: a31f e2bd d974 a2bd a493 eebd 45c1 92bc
00000070: c137 bdbd a4ae 93bb 7371 d5bb c946 51bd
00000080: dbff b33d 405c f0bd 44fc debc add9 25bd
00000090: 3eb2 8b3d 8d94 53bc bc20 4abc 95bd 22bc
000000a0: 1fa8 513d 8614 823d 9cf4 1dbd 21c1 29bb
000000b0: 577e ed3c 62a8 5abd f5a9 f63d 74a3 b23d
000000c0: 2180 bbbc 46fe 6cbc 4057 84bd 03b2 913c
000000d0: d6d6 d83d d203 a13d f029 6c3d b9eb 46bd
000000e0: 6277 ad3c f684 923d efad 873d 9019 f9bd
000000f0: aff5 ee3d 7fad 363d 520c af3d d56f 95bd
00000100: 1217 06be 4352 8cbd 817a 92bc b332 4c3d
00000110: db35 4fbd a5b5 783d a33b 5e3d b951 43bd
00000120: 67e7 1abe 8709 2d3d ff26 2c3d d36e 46bd
00000130: 1be3 abbb eebb 81bb 864d 8c3d 59e8 4d3d
00000140: 2ee1 a03d 76ec cb3c 6e3c 92bb 0481 093e
00000150: 6b3f 6abc 9b68 7cbd 312a cbbd b290 b6bd
00000160: b7c8 833c 46d7 a33c 0496 823d 9c33 bbbd
00000170: d1ce 6e3d f05e cabd 7271 d03d e97e 84bc
00000180: b7c3 87bc 156d 00be 4959 ff3d 0de4 a93d
00000190: 5fe3 c3bd 27a3 bc3d 14d5 85bc d92b 24bc
000001a0: 9000 bb3b 4cae 983d 32a9 38bc 694e ccbd
000001b0: fd6a 203d 3ac6 c7bd 4714 7b3b 2045 973d
000001c0: e691 153d bc87 b0bd 91fb c93d 041d b9bc
000001d0: d3b7 8b3d 0cd5 99bd 4f4f 303d 8531 e9bd
000001e0: 28aa 053e 37a1 c63d d9bd 0e3e 6d4c 97bc
000001f0: fe1f babd a84a 22bd 0719 dcbc 94fb 8a3b
00000200: 3837 cb3d 745c 9ebd bf89 e7bd 88a1 613d
00000210: ed45 e9bd c1b6 733c 6fee 10be 0963 8cbd
00000220: 3f08 683d 469d 7ebc d251 833d afc9 a53d
00000230: b217 e6bc 3e7d f0bd c5ac d0bc 6243 21bd
00000240: f5ec a73d c1a5 cbbd a053 89bd d483 a6bb
00000250: b856 993c 0654 11be 80bf 383d 5e81 bfbc
00000260: a392 983c eddd c6bc b75b a5bd d548 47bd
00000270: 6907 0ebe c8cc 93bd af09 08be 2b0f 3cbc
00000280: 2837 8b3d 170b 1cbc 66f2 c33d 3754 73bc
00000290: c26a 89bd 772e bd3d 5d8e b7bd 481f 9e3d
000002a0: 5af8 c2bc 34e5 44bd 61f8 a63d fc70 a93d
000002b0: 94d3 20be a9c8 babc 6ee6 1f3d c44e 36bd
000002c0: 8a76 a2bd c3a9 dcbc 1827 bbbd 4b2f 173d
000002d0: e8c9 de3b 83ac 6fbc d0bf d93d 1c1d d73d
000002e0: 2282 69bc c7ca 583c 3c2c 9d3d 5485 9a3d
000002f0: c352 46ba 633e d33d eec8 b03d 225e 7fbd
00000300: 77a4 8abc 3372 eebc fc89 d9bd 21ed 883d
00000310: 8552 c33d be44 eebd ce22 64bd fccb 98bc
00000320: f08f 14be ea0c d8bd 0916 3bbd abe7 f0bd
00000330: 5ec6 0bbd 964c 61bd f7f5 4a3d b0cb 493d
00000340: d0f2 6cbd d6d7 d8bd 5831 a3bd 3408 f1bd
00000350: 78fa 68bd 7b37 12be 2517 c1bd 0ecf 70bc
00000360: c757 d6bd eed4 853c 33cf 6abd 1050 e4bd
00000370: f111 4a3c 2d62 a33d 9874 c3bd 6c92 92bd
00000380: 3367 e23d 3c87 f6bd 6f17 30bd 9e33 ef3c
00000390: 9663 d73d ca7d 97bd 2476 bbbd 7186 6a3d
000003a0: ad42 03bc fae3 a1bc 326f 9e3d 7298 9bbd
000003b0: a0e3 403b 0a62 a0bd 5230 f4bd 3652 06be
000003c0: ee94 363d 823b 89bd 694a efbd cc5e 9fbd
000003d0: 227c 00be 28a1 1a3c 69df 00be c736 cf3d
000003e0: 510a b6bc e166 a1bd 983f e43c f338 493b
000003f0: 0d10 853d c9f0 b9bd 127f 5abd d8aa 0abe
-0.041219316 0.052047547 0.057812925 0.08669636 -0.081221215 -0.099529415 -0.021279007 -0.006218542
0.005824003 0.04319297 0.11362345 -0.0068625207 0.09125183 0.12669836 -0.008514533 -0.12115703
0.08631316 0.1064606 -0.028828714 -0.045768786 -0.07419965 0.08777101 -0.12779146 -0.11079202
-0.110411905 -0.07932443 -0.11649254 -0.017914424 -0.0923915 -0.004506903 -0.0065137683 -0.051092897
0.08789035 -0.11736345 -0.027219899 -0.040490795 0.068211064 -0.012913835 -0.012336906 -0.009932895
0.051185723 0.06351571 -0.038563356 -0.0025902467 0.028990908 -0.05338324 0.120441355 0.087225825
-0.022888245 -0.01446492 -0.06461954 0.017785078 0.10587852 0.07862057 0.057657182 -0.048564646
0.02117509 0.071542665 0.06624972 -0.12163079 0.11667954 0.044599053 0.08547272 -0.07296721
-0.13094738 -0.06851628 -0.01788068 0.049853038 -0.05058847 0.060720105 0.054256093 -0.04768536
-0.15127335 0.042245414 0.042029377 -0.048445534 -0.005245579 -0.0039591705 0.06850724 0.050270412
0.078554496 0.024893027 -0.00446277 0.13428122 -0.014297347 -0.061623197 -0.09920157 -0.08914317
0.01608692 0.020000111 0.063762695 -0.09140703 0.058302704 -0.09881389 0.10177888 -0.016173797
-0.016572816 -0.12541611 0.12468202 0.0829545 -0.09564852 0.09210806 -0.016336955 -0.01002022
0.005706854 0.074551195 -0.011270808 -0.09975893 0.039164532 -0.097546056 0.0038311647 0.073862314
0.036516093 -0.08619639 0.098624356 -0.022596844 0.06822171 -0.075113386 0.043044385 -0.11386398
0.1305319 0.09698718 0.13939609 -0.01846906 -0.09088133 -0.03962198 -0.026867403 0.004241416
0.099226415 -0.07732478 -0.1130557 0.05508569 -0.113902904 0.014875115 -0.14153455 -0.06854827
0.05664849 -0.015540427 0.0641209 0.08095109 -0.02808747 -0.11742638 -0.025473008 -0.039370902
0.08199493 -0.099437244 -0.06705403 -0.005081633 0.018718109 -0.14192209 0.045104504 -0.023377117
0.01862461 -0.024275744 -0.08074134 -0.048653442 -0.13870014 -0.07216793 -0.13284944 -0.011478226
0.067976296 -0.009524128 0.09567718 -0.014851621 -0.067098156 0.09237378 -0.089627005 0.0772081
-0.023800064 -0.048070148 0.08152843 0.08273503 -0.1570571 -0.02280076 0.039038114 -0.04450871
-0.07932766 -0.026936417 -0.09138316 0.036910336 0.0067989714 -0.014628532 0.106322885 0.10503599
-0.0142522175 0.01323194 0.07674453 0.075449616 -0.0007565433 0.10314634 0.08632074 -0.06234563
-0.016924126 -0.029107189 -0.106220216 0.06685854 0.09537224 -0.11634205 -0.055697255 -0.018651955
-0.14508033 -0.10549338 -0.04567531 -0.11762937 -0.034124725 -0.05500468 0.049550977 0.049266517
-0.05784875 -0.105880424 -0.07968396 -0.11769143 -0.05687949 -0.14278977 -0.094282426 -0.014697803
-0.10465961 0.016336884 -0.057326507 -0.11148083 0.012333379 0.0797771 -0.09543723 -0.07156834
0.1105484 -0.12037513 -0.042991098 0.029199418 0.105170414 -0.07397039 -0.09153393 0.05725712
-0.008011502 -0.019762028 0.077360526 -0.07597436 0.002943255 -0.078311995 -0.11923279 -0.13117298
0.044575624 -0.06700803 -0.116841145 -0.07781753 -0.12547353 0.009437837 -0.12585224 0.1011787
-0.022221716 -0.07880951 0.027862355 0.003070411 0.06497202 -0.09079129 -0.05334384 -0.13541734

Q_net.linear2.bias f4 [50]
00000000: d3dc 0f3f a6b9 bdbe 1d3f 6cbf 289c d6bd
00000010: 96ed 763f 0167 a83e f2d0 073f 337e 08bf
00000020: 1115 013f 0854 58bf 3590 0bbf 4abe ee3e
00000030: 9488 243f 141d 593e 68e8 60bf d2f5 49be
00000040: 6329 a83e b9b5 80bf 5175 edbe 85e3 053f
00000050: f6e1 1a3e 306a 42bd 45b7 08bf a58c 753f
00000060: 0f88 253f 6beb a6be 906c 86bf 708e 05be
00000070: 7ab1 1d3f c853 60be ca7f 293f 33f8 b7bb
00000080: 3917 0a3f 05cb 62bf 4e36 11bf de9c 0a3f
00000090: bfb7 173f cdac 09bf 6af3 0f3f 2192 27be
000000a0: 6ff2 2b3f 962c 613f 0ca6 48bf b4d9 ab3e
000000b0: 538c 1abf 8c8f 703f 668a 4d3f 1ab7 3a3e
000000c0: 49f0 823f e7fe 12be
0.56196326 -0.370557 -0.92283803 -0.10479003 0.9645628 0.32891086 0.530532 -0.53317565
0.5042277 -0.8450322 -0.5451692 0.46629554 0.642709 0.21202499 -0.87854624 -0.1972268
0.32844076 -1.0055457 -0.46378568 0.5230029 0.1512526 -0.04746455 -0.5340465 0.9591773
0.64660734 -0.32601485 -1.0501881 -0.13042617 0.6159893 -0.2190696 0.66210616 -0.0056143044
0.53941685 -0.88591033 -0.5672349 0.5414561 0.5926475 -0.537793 0.56230795 -0.16364338
0.671668 0.8795866 -0.7837837 0.33564532 -0.6037037 0.93969035 0.80289304 0.1823391
1.0229579 -0.1435505

Q_net.fc_A.weight f4 [3, 50]
00000000: 1520 1ebd d5fe a2bd a9be 663a f2b4 a9bd
00000010: 8658 8e3d 6a06 8e3d 5ed5 433d f42d 343d
00000020: 41d9 d23d 6a1c 06be e8b0 d9bc 6d64 03be
00000030: 3cac a93c 8ac0 f439 5510 bd3d 441d 63bd
00000040: 8ca7 b43d fbb9 153d da59 7fbd dc8f 1b3d
00000050: 1863 4f3d 89ab 143d 0f5e 8d3d d5a2 5b3d
00000060: 3662 bc3d 6cb8 9bbc 8b23 833d a6ea 813d
00000070: 39cc 813d c154 bd3b df76 de3c 0ac6 52bc
00000080: c887 aa3d 3a81 45bd 1896 d2bd fe9f b9bd
00000090: cc1b 1e3d 1f82 893d 2603 4a3b eeb0 b43d
000000a0: d712 723d fe8e bb3d 2097 943d def5 ec3d
000000b0: 2023 a13d 7772 d5bd d655 d63c 743c bcbd
000000c0: 8c29 f33a c617 c33d b6eb b6bd 9301 9f3d
000000d0: 90d1 ee3c ba96 6dbd 3644 c33c 6750 74bd
000000e0: d7a1 b53b 518a 393d 0584 64bd 0bf0 0bbe
000000f0: ae2c 5ebd 7476 cbbd 7d59 bf3d fb38 0bbd
00000100: 74d6 7b3d 91cf 5b3c de33 e0bb 08f9 b93c
00000110: c928 ccbc 0d2a 623d 9f6b bfbd 026d 03bd
00000120: 57ab e03d 8fe7 f03d dcc2 103d 2e84 d43d
00000130: 3423 01bc e587 7bbd 1b94 d43c 1924 893c
00000140: d126 5e3c 7df2 773d f3e2 1d3c b2ce 94bd
00000150: 67e9 613d d331 07bd 8681 32bd ca7f d9bd
00000160: ac23 f93c aa28 e33c 50fa e93c 9430 883d
00000170: 034e 6a3d 94bc fb3b 72e2 493d f333 0cbe
00000180: 6ffd 0abd f7f9 f1bd 36e6 363b 01e1 0abd
00000190: 197c 0c3d b9f4 bdbd 67d3 95bd 0545 9b3d
000001a0: 886d 833d ed6f 46bd 907f 0fbb 43c7 15bd
000001b0: e204 a2bc 288d 8abc 6adc b13d fdb3 453c
000001c0: 60c9 94bd b10a 9f3d daeb 4cbd accf 9dbd
000001d0: 306d 9fbd 0c16 833d 89a1 28bd c541 9f3d
000001e0: c87a 993c 1c45 4a3d b23e 233c 5655 65bd
000001f0: e7c9 313d 7d83 c13d 9f9f ed3d 4af1 86bc
00000200: cb1c 663d f162 8f3d e39b b93d 2c42 f43d
00000210: d1df b8bd 6410 03be cff0 57bd c55c e23d
00000220: 266d 6f3c 11b6 df3d 1f15 a23d b5ea 093d
00000230: 3015 d2bd 9379 f83d 3c4e a83d 19ea 7c3d
00000240: e20a e6bd 9812 78bd 22f5 993d e7e6 aabd
00000250: b72e 6c3d 8fe6 5d3d
-0.038604815 -0.079587616 0.0008802214 -0.08286466 0.06950478 0.06934817 0.047810905 0.043989137
0.10295344 -0.13096777 -0.026573613 -0.12831278 0.02071201 0.0004668276 0.09231631 -0.05544783
0.088210195 0.036554318 -0.06234155 0.037978992 0.050631613 0.0362964 0.06902706 0.053622086
0.0919842 -0.019008838 0.06403264 0.06343584 0.063377805 0.0057779257 0.027156292 -0.012864599
0.083266795 -0.048218943 -0.10282534 -0.09063719 0.038600728 0.06714272 0.003082463 0.08822809
0.0591 0.09158133 0.07255387 0.11570333 0.07868028 -0.10422223 0.026163977 -0.09191218
0.0018551811 0.09526019 -0.08931677 0.07763972 0.029152662 -0.058005072 0.023836236 -0.05964699
0.0055429745 0.045297924 -0.055789966 -0.13665788 -0.05424183 -0.099347025 0.093432404 -0.033989888
0.061483815 0.013416187 -0.0068421206 0.022701755 -0.024921792 0.055215884 -0.09346699 -0.03208638
0.109701805 0.11762916 0.035342082 0.10376774 -0.007881928 -0.061408896 0.025949528 0.016740846
0.013559059 0.06053399 0.009636628 -0.072659865 0.05515423 -0.0330065 -0.043580554 -0.10620077
0.030412517 0.027729351 0.028561741 0.066498905 0.057203304 0.0076823924 0.04928822 -0.13691692
-0.0339331 -0.11815255 0.0027908213 -0.033905987 0.034298036 -0.09275193 -0.073157124 0.07581524
0.06417376 -0.048446584 -0.0021896102 -0.036566984 -0.019777719 -0.016913012 0.08684619 0.012066838
-0.07264972 0.07765711 -0.050029613 -0.07705626 -0.07784498 0.064006895 -0.041169677 0.077762164
0.018735304 0.049382314 0.009963678 -0.055989586 0.04340544 0.094489075 0.11602711 -0.016472477
0.056179803 0.070012935 0.09062936 0.11926684 -0.090270646 -0.12799221 -0.052719887 0.11052851
0.014613425 0.10923398 0.07914185 0.0336711 -0.102579474 0.121325634 0.08218047 0.06174669
-0.112325445 -0.060564607 0.075174585 -0.083448224 0.05766174 0.054174956

Q_net.fc_A.bias f4 [3]
00000000: 4353 273e b0d4 93be 355a 00bf
0.16340356 -0.28873205 -0.50137645

Q_net.fc_V.weight f4 [1, 50]
00000000: b9af 0c3d b5d1 71bd e735 b1bd 1a86 a839
00000010: 8d54 8d3d 1416 c53c 1677 583c 989a 1fbd
00000020: 8c77 c53d a789 eebd 1602 93bc 0a4c 5c3d
00000030: eabd 2a3c 00d4 733c 0b4c f2bd c39d a5bb
00000040: 6a10 96bb d019 99bd 7453 87bc f240 133c
00000050: 4ea0 95bb c600 c13a ebeb 3ebc 7d44 543d
00000060: bdcb 9e3d af36 40bd 8722 b9bd 9be8 23bd
00000070: d4a7 863d 5f55 973b f633 113d 9769 f63c
00000080: 5a20 ea3c fca1 82bd b74c 55bd 6ff4 b63d
00000090: c770 483d d33a b3bd 6989 243d 5944 c4bc
000000a0: 1ac4 be3d 418b 383d 57b6 79bc c34c 003c
000000b0: 939a 9fbd 923a b83d cb69 a33d 37f1 253a
000000c0: 8a47 933d 3231 00bd
0.03434727 -0.059037883 -0.08652859 0.0003214337 0.069008924 0.02405838 0.013211986 -0.03896579
0.096419424 -0.11647349 -0.01794533 0.053783454 0.010421256 0.014882088 -0.1183091 -0.005054207
-0.0045795934 -0.074756265 -0.016519286 0.008987652 -0.004566229 0.0014724962 -0.011652927 0.051823128
0.07753704 -0.04692715 -0.09039789 -0.04001675 0.065749794 0.0046183313 0.035449944 0.030079646
0.02857988 -0.06378552 -0.052075114 0.08933341 0.048935678 -0.08751454 0.040170107 -0.023958372
0.09314747 0.045054678 -0.015241227 0.007830801 -0.077931546 0.089955464 0.07979163 0.00063301943
0.07191379 -0.031296916

Target_Q_Net.linear1.weight f4 [50, 150]
00000000: c454 e93e c404 033f 4208 ea3e c1e5 173f
00000010: 066e eb3e c81a a0bd 3fbb 70bd 63e1 f63d
00000020: 34b5 043f 15a2 3ebd f4a0 e83e b440 ee3e
00000030: de83 f23e 66be 113f 69b2 0c3f 3794 a4bd
00000040: 0a3f 8a3a c8cc 143c 7a0c 0a3f 9ee6 b4bc
00000050: 0842 073f a53d fb3e 6e3f 0c3f c1e8 043f
00000060: 2431 f53e aaae f7bb f645 9fbd 945f 943c
00000070: b74b 163f ed4a 8f3d cdb4 183f 645b fd3e
00000080: de1b e83e 35de 0a3f 88d2 163f a090 203d
00000090: 7c06 4abd d6cb 4d3d 76ec f73e 2c93 b4bc
000000a0: 6f04 e93e 49ed fb3e 8a2a 143f 2685 ec3e
000000b0: 3229 123f 320d eb3d f90d 98bd 84e7 bd3d
000000c0: ce1a 003f 2064 abbd f70e 023f 65d0 0a3f
000000d0: 8f6d fd3e a72f 053f 273d ff3e af2c f83c
000000e0: efd5 88bd f37a 6abd 1262 0b3f 1980 90bc
000000f0: 394a 103f 2ffd 183f c346 053f de59 f83e
00000100: 9b9e 023f 1d8f b33d 6276 a03d 8cde 453c
00000110: c85e 163f 7063 a83d 8a54 073f 802a 1b3f
00000120: 631d 1a3f 0189 0b3f a3f2 203f 73d8 db3c
00000130: 5d98 873d 4c14 72bd 59e2 183f bf67 443d
00000140: d9c1 fe3e 0705 143f e484 113f 79b0 033f
00000150: 8072 233f e576 afbc 4d97 e83c c83c ae3d
00000160: 6043 183f bb34 10bc fc61 0a3f 68cd 043f
00000170: e0c2 f43e cf18 043f bca1 253f 450a 6cbd
00000180: 1e1b 033e 3e90 5fbd 46c4 113f 87d7 2abd
00000190: 48b7 183f 6209 173f 801c f53e 51be 013f
000001a0: e90b 2c3f a26a c53c 0475 f8bb 2cd2 133d
000001b0: afa5 193f 977a 42bd d0e3 003f cca1 173f
000001c0: b334 1c3f a5f6 143f 6535 183f 4b05 dd3c
000001d0: 452e 113e 86d0 2fbd a544 033f 9387 b13b
000001e0: d3a9 163f d613 013f c686 1f3f 5c7e 083f
000001f0: 62ce 223f 21c4 843d ed30 fd3d 3f78 d3bc
00000200: fe68 1b3f cd56 843c b986 ff3e 3237 013f
00000210: 47cc 0c3f 726e 0c3f 4679 123f 7bad a53d
00000220: 242b 2c3e 001b 0e3d dae1 143f dd2a 7d3d
00000230: ca33 103f c14a 1a3f 7b4b 1b3f cf51 143f
00000240: 9559 233f 5ca9 e93d 360a 953e 0ea1 463d
00000250: de83 093f 9bae 183d 31db 42bf cf53 5cbf
00000260: 7bcb 65bf 1c3e 4fbf 07a0 2dbf 8abd 7c3d
00000270: 8c7c 783d ad23 383d dd56 55bf 4b8b 6d3d
00000280: a813 5dbf d2a8 68bf 9750 49bf 3f72 61bf
00000290: 8c62 26bf 22b1 a3bd 2f68 9cbc a59a 8dbb
000002a0: a910 4fbf e95d 953c e0c6 5fbf 183c 59bf
000002b0: a0ac 59bf 7181 4dbf 5f9d 2ebf d61b 85bd
000002c0: 3049 05bc 7e86 793d 94e6 62bf 3eb7 5bbd
000002d0: 764d 42bf 69e4 5fbf 948a 3ebf eff4 58bf
000002e0: 7658 30bf a6c4 28bc 6247 1d3d 6913 4d3d
000002f0: 8137 4dbf 6269 443d 619f 4ebf aa99 64bf
00000300: 9471 40bf 918d 54bf 38cf 2bbf ef86 eebd
00000310: 14ac 6c3d 0e22 0a3e 90bc 47bf f568 213d
00000320: c405 42bf 3c2e 52bf 601a 47bf 5c64 50bf
00000330: 1392 14bf de69 613c 01f8 b93d 9d80 bf3d
00000340: 8633 5dbf b210 3ebd 9468 54bf 3a6b 5ebf
00000350: 9d1b 41bf daf7 5cbf e23e 0fbf 30ad 9b3b
00000360: 00a8 923d 64ac f23d 9227 5bbf ed3f 10bc
00000370: 8bde 45bf 0c4a 3ebf f425 3ebf 3246 49bf
00000380: a774 19bf 928c 1a3c 16e8 543d 26d0 623d
00000390: 2f1a 4abf 3a80 8dbc d00a 59bf 99e5 58bf
000003a0: 23be 57bf 522d 4cbf 8bdc 2ebf b249 c63c
000003b0: 7c83 e3bb 07a9 8a3d 2417 58bf 8ba6 05bd
000003c0: 0c12 5bbf 64ec 5cbf 0506 49bf 2566 4cbf
000003d0: f552 10bf 11a3 023e 0283 49bd b8a4 213d
000003e0: 13d0 62bf 6230 673b 4725 49bf 3659 44bf
000003f0: 4f3c 65bf d4ca 5ebf 6b2f 26bf 50a9 2c3d
0.45572484 0.51179147 0.45709425 0.5933495 0.4598238 -0.07817608 -0.05877232 0.12054708
0.51838994 -0.046541292 0.45435297 0.4653374 0.47366232 0.5693115 0.5495973 -0.08036082
0.0010547352 0.009082027 0.5392529 -0.022082623 0.5283513 0.4907047 0.54784286 0.51917654
0.47889054 -0.0075586634 -0.07777016 0.018111981 0.5870928 0.06996713 0.5965088 0.49483788
0.4533376 0.5424531 0.58914995 0.039200425 -0.04932259 0.05024322 0.48422593 -0.022042833
0.45511195 0.49204472 0.5787741 0.46195334 0.5709411 0.11477126 -0.0742454 0.09272674
0.500409 -0.08368707 0.50804085 0.54224235 0.4949765 0.52025837 0.49851343 0.030294744
-0.066814296 -0.05724616 0.5444652 -0.017639207 0.56363255 0.5976133 0.520611 0.48506063
0.5102326 0.08767531 0.0783508 0.012076985 0.58738375 0.08222091 0.5286337 0.60611725
0.6020109 0.54505926 0.62870234 0.02683661 0.06620858 -0.059101388 0.5972038 0.047950502
0.4975727 0.5782017 0.568434 0.5144115 0.6384659 -0.021418998 0.028392458 0.08507687
0.59477806 -0.008801634 0.5405576 0.51875925 0.47804928 0.51600355 0.6469991 -0.05762698
0.12803313 -0.05458092 0.56940114 -0.04170945 0.59654665 0.5899869 0.47873306 0.50681025
0.67205673 0.024098698 -0.0075823087 0.036089107 0.6001844 -0.047480192 0.50347614 0.5923126
0.6101791 0.5818885 0.59456474 0.026980063 0.14177807 -0.042923473 0.5127662 0.005417773
0.5885288 0.5042089 0.6231502 0.5331781 0.63596165 0.06482721 0.123628475 -0.025814174
0.6070708 0.016154671 0.49907473 0.50474846 0.549992 0.54856026 0.572163 0.080897294
0.16813332 0.034693718 0.5815712 0.061808456 0.56329024 0.60270315 0.6066205 0.5793733
0.63808566 0.11409256 0.29109353 0.048493437 0.5371684 0.03727589 -0.7611571 -0.8606538
-0.8976361 -0.80954146 -0.6782231 0.061704196 0.060665652 0.044955898 -0.8333567 0.05799417
-0.8635812 -0.908826 -0.78638595 -0.8806495 -0.6499412 -0.0799277 -0.019092647 -0.0043214136
-0.80884796 0.018233256 -0.87412834 -0.8485732 -0.8502903 -0.80275637 -0.6820888 -0.0649945
-0.008135125 0.060919277 -0.88633084 -0.05364155 -0.75899446 -0.874579 -0.74430203 -0.8474874
-0.6888498 -0.010300791 0.038398154 0.05006734 -0.8016282 0.047952063 -0.8071194 -0.8929697
-0.75173306 -0.83028513 -0.67113066 -0.1164683 0.057781294 0.13489553 -0.780221 0.039406735
-0.7579005 -0.821018 -0.7777462 -0.81403136 -0.5803539 0.013758151 0.09080506 0.09350703
-0.86406744 -0.04640264 -0.82972074 -0.86882365 -0.7543276 -0.8631569 -0.55955327 0.00475087
0.0716095 0.11849287 -0.85607255 -0.008804304 -0.772927 -0.74331737 -0.7427666 -0.78622735
-0.5994362 0.009432929 0.051979147 0.055374287 -0.78946203 -0.017273057 -0.84782124 -0.8472534
-0.842745 -0.79756653 -0.6830527 0.024205063 -0.0069431644 0.06770521 -0.8441031 -0.03262953
-0.8557441 -0.86298203 -0.7852481 -0.7984336 -0.5637658 0.12757517 -0.049197204 0.03946373
-0.88598746 0.003527664 -0.78572506 -0.76698625 -0.8954515 -0.8702824 -0.64916104 0.042153656

Target_Q_Net.linear1.bias f4 [50]
00000000: cdfe 133f 99a6 4fbf 3e75 7d3d f4f3 85be
00000010: 4ccd 8b3e ffe2 abbe 70c6 b5be 6754 6fbf
00000020: 66ea 98be 7367 ecbe 5628 9f3e cb57 a5bc
00000030: 4e0f 8e3e ff1f 253f 8798 c63e b488 613e
00000040: 60b3 43bf 6100 e23e 6c24 2fbf 7613 5bbd
00000050: a322 0d3f 4595 52bf e720 9bbe 13be afbd
00000060: 8325 aebc 42db 43bd cdd0 873d d289 4e3f
00000070: 24c7 2cbf f477 91be 729e b33e f1a7 c93d
00000080: 517d 6bbe 46b9 ef3e 573c 6b3e e1f6 21bf
00000090: 7efe 033f 62f4 6bbe 5363 503d 1709 90be
000000a0: 0b44 763f 13cf 1f3e 072e 13bf 631d 0b3e
000000b0: b719 c8bd e209 4abf 082c e5be ce35 4dbe
000000c0: d910 71bf 64a1 a6be
0.5781067 -0.8111358 0.06187939 -0.26162684 0.27305067 -0.33571622 -0.35502958 -0.9348816
-0.29866332 -0.46172675 0.3108546 -0.020183465 0.27746052 0.6450195 0.38788244 0.22024804
-0.7644558 0.44140914 -0.6841495 -0.053485356 0.55130976 -0.8225902 -0.3029854 -0.08581176
-0.021258121 -0.047816522 0.066316225 0.8067905 -0.67491364 -0.2841183 0.35081822 0.098464854
-0.22997023 0.4682104 0.22972237 -0.6326733 0.515602 -0.23042443 0.050875973 -0.28131935
0.96197575 0.15606336 -0.5749211 0.13585429 -0.0977053 -0.7892133 -0.44760156 -0.20040056
-0.9416633 -0.32545006

Target_Q_Net.linear2.weight f4 [50, 50]
00000000: f5ad 28bd dbfc 543d fc1c 6d3d 7c9e b13d
00000010: 4428 a6bd dfdb cbbd 8f7d aebc 358d cbbb
00000020: a92d be3b e4ea 303d bac0 e83d e896 e2bb
00000030: ddf4 ba3d 2cbf 013e f1e1 0bbc a81e f8bd
00000040: 24b7 b03d caf7 d93d c1fa ebbc 6465 3bbd
00000050: f919 98bd 5fcb b33d 63e2 02be a2c6 e2bd
00000060: d52b e2bd a375 a2bd 308f eebd b6e4 92bc
00000070: 7431 bdbd 9598 99bb ef56 d6bb 3027 51bd
00000080: 84f6 b33d 4548 f0bd c236 e0bc c2ba 25bd
00000090: b7b3 8b3d 7d20 52bc 6dcc 49bc 0796 22bc
000000a0: d5bb 513d 1e05 823d 1220 1ebd e3af 26bb
000000b0: 4958 ed3c b870 5abd 8487 f63d 418b b23d
000000c0: 06b8 bbbc 4df4 6cbc 6961 84bd 3d0e 923c
000000d0: 18a0 d83d faf8 a03d c892 6b3d bce9 46bd
000000e0: b8a2 ad3c d481 923d fab7 873d 991b f9bd
000000f0: 9cf3 ee3d d6c5 363d 25f9 ae3d bd75 95bd
00000100: fa14 06be 6652 8cbd 925c 92bc ee4e 4c3d
00000110: a947 4fbd 4faa 783d bb69 5e3d ca68 43bd
00000120: 07e6 1abe bce6 2c3d b239 2c3d f760 46bd
00000130: fb1c acbb 8947 81bb 4b4d 8c3d 8552 4e3d
00000140: 64e9 a03d dfa6 cb3c 63c2 91bb be7b 093e
00000150: abfa 66bc 6e8e 7cbd a624 cbbd b3a9 b6bd
00000160: 67a7 833c 8ed5 a33c 288e 823d cf2a bbbd
00000170: 76f9 6e3d 8d6c cabd 5b76 d03d 7707 85bc
00000180: dd6f 87bc 6f61 00be ab61 ff3d 7ae4 a93d
00000190: 52f1 c3bd 49bc bc3d 4bb8 86bc 7c8b 24bc
000001a0: b324 b73b afac 983d 3434 38bc b450 ccbd
000001b0: 3278 203d 29c9 c7bd 9cdf 783b ef5a 973d
000001c0: b16b 153d 458e b0bd 1d00 ca3d 4227 b9bc
000001d0: 9bba 8b3d bebf 99bd 6542 303d 403d e9bd
000001e0: 4ac1 053e ef90 c63d bbcd 0e3e 07ef 97bc
000001f0: 4316 babd fa41 22bd 532e dcbc aebc 8b3b
00000200: 9f31 cb3d 87ff 9dbd 417f e7bd 6d76 613d
00000210: 5539 e9bd 0b08 733c ddcb 10be cf78 8cbd
00000220: 1dfd 673d 3e0e 80bc 5e46 833d 0cc6 a53d
00000230: e837 e6bc bf72 f0bd 131b d0bc 6f6f 21bd
00000240: bef3 a73d 22c9 cbbd 3335 89bd 0bf7 a3bb
00000250: ef8f 993c 1454 11be 49eb 383d b286 bfbc
00000260: 3d1c 983c 7aaf c6bc 198c a5bd 0b64 47bd
00000270: f406 0ebe f4cc 93bd 9c07 08be 3e42 3cbc
00000280: 5e42 8b3d 5595 1cbc 9de3 c33d 3a8a 73bc
00000290: 0b79 89bd 1731 bd3d 8699 b7bd 782c 9e3d
000002a0: b3ca c2bc 49eb 44bd aa02 a73d 1165 a93d
000002b0: 8ad5 20be 6c95 babc 38dc 1f3d b032 36bd
000002c0: ad74 a2bd 43a5 dcbc 4b1d bbbd 9015 173d
000002d0: dcae de3b dd19 70bc 17c7 d93d 6d23 d73d
000002e0: 0977 67bc 5280 583c 9a35 9d3d f5a8 9a3d
000002f0: 931f 49ba 8444 d33d 4ec7 b03d d473 7fbd
00000300: 309b 8abc 0820 eebc 8294 d9bd f6d5 883d
00000310: ba51 c33d c132 eebd d723 64bd 6dbc 98bc
00000320: 938b 14be 7726 d8bd bf8d 3abd 96de f0bd
00000330: ab22 0bbd ca42 61bd 72d6 4a3d 9fd0 493d
00000340: 5c02 6dbd 62d3 d8bd de25 a3bd 6518 f1bd
00000350: 70cf 68bd 3633 12be db17 c1bd 45c4 70bc
00000360: 2358 d6bd 697b 853c a8c6 6abd 8045 e4bd
00000370: 8fba 483c a674 a33d ee8f c3bd 0670 92bd
00000380: c65e e23d 6f8f f6bd 170d 30bd ff01 ef3c
00000390: 5965 d73d 4ccc 97bd e97e bbbd 6fb8 6a3d
000003a0: 9aa8 03bc 729a a1bc df18 9e3d 1e7f 9bbd
000003b0: d218 413b 793d a0bd 8f24 f4bd 8751 06be
000003c0: 58a5 363d a242 89bd 2172 efbd 444e 9fbd
000003d0: 557e 00be 1bf0 1b3c e5ec 00be 1d0c cf3d
000003e0: 9b3c b6bc dc67 a1bd e92a e43c bce6 473b
000003f0: 413b 853d 48ef b9bd 7df3 59bd afa8 0abe
-0.041181523 0.051998954 0.05788897 0.086728066 -0.08113149 -0.099540465 -0.021300105 -0.0062119015
0.005803783 0.04319276 0.11364885 -0.006914962 0.09128735 0.12670583 -0.008537755 -0.12115222
0.08628681 0.10642965 -0.028806092 -0.04575099 -0.07426829 0.08779024 -0.12781672 -0.110730425
-0.110435165 -0.07932594 -0.116484046 -0.017931323 -0.09237948 -0.0046873786 -0.006541125 -0.051062763
0.087872535 -0.11732534 -0.02736986 -0.04046131 0.06821387 -0.012825129 -0.012316805 -0.009923465
0.05120452 0.06348632 -0.038604803 -0.0025434426 0.028972762 -0.053330153 0.12037566 0.08717967
-0.022914898 -0.014462543 -0.06463892 0.017829055 0.105774105 0.078599885 0.05751303 -0.04856275
0.021195754 0.07153669 0.066268876 -0.12163467 0.116675586 0.044622265 0.08543614 -0.072978474
-0.1309394 -0.06851654 -0.017866407 0.04987996 -0.05060545 0.060709294 0.05430005 -0.047707357
-0.15126811 0.042212233 0.04204721 -0.048432317 -0.005252478 -0.0039452952 0.0685068 0.050371666
0.07857016 0.024859844 -0.0044482215 0.1342611 -0.01409785 -0.06165927 -0.099190995 -0.08919086
0.016071035 0.019999292 0.063747704 -0.091390245 0.058343373 -0.09883986 0.101788245 -0.016238911
-0.016532833 -0.12537168 0.124698006 0.082955316 -0.095675126 0.092156 -0.0164453 -0.010043021
0.0055890917 0.07454812 -0.011242915 -0.099763304 0.039177127 -0.09755165 0.0037975078 0.07390391
0.036479656 -0.08620886 0.09863303 -0.022601727 0.068227015 -0.07507275 0.04303207 -0.11388636
0.13062015 0.09695613 0.13945667 -0.018546594 -0.09086277 -0.0396137 -0.026877558 0.0042644357
0.09921574 -0.077147536 -0.11303569 0.05504458 -0.11387888 0.014833461 -0.14140268 -0.0685898
0.056637872 -0.015631791 0.06409906 0.08094415 -0.02810283 -0.11740636 -0.025403535 -0.039412912
0.08200787 -0.099504724 -0.066996 -0.005003815 0.01874539 -0.1419223 0.04514626 -0.023379657
0.018568153 -0.024253596 -0.08083362 -0.048679393 -0.1386984 -0.07216826 -0.13284153 -0.011490403
0.06799768 -0.009557088 0.09564898 -0.014864499 -0.0671254 0.09237879 -0.08964829 0.077233255
-0.023778295 -0.048075948 0.08154805 0.0827123 -0.15706459 -0.022776328 0.039028376 -0.044481933
-0.079324104 -0.026934272 -0.091364466 0.036885798 0.006795747 -0.014654604 0.106336765 0.10504804
-0.014127501 0.013214188 0.07676239 0.07551757 -0.00076722464 0.10315803 0.08631764 -0.06236632
-0.016919702 -0.029068008 -0.10624029 0.06681435 0.095370725 -0.11630774 -0.055698242 -0.018644536
-0.14506368 -0.105542116 -0.045545336 -0.11761205 -0.03396861 -0.054995336 0.049520917 0.049271222
-0.05786358 -0.10587193 -0.07966207 -0.11772231 -0.056838453 -0.14277348 -0.09428378 -0.014695232
-0.104660295 0.016294198 -0.05731836 -0.111460686 0.01225151 0.07981233 -0.09548937 -0.07150273
0.11053233 -0.120390765 -0.042981233 0.029175756 0.105173774 -0.074120134 -0.091550656 0.057304796
-0.008035803 -0.019726966 0.077195875 -0.07592605 0.0029464257 -0.07824225 -0.119210355 -0.13117038
0.044591278 -0.06702162 -0.1169169 -0.077786 -0.12548192 0.009517695 -0.12590368 0.10109732
-0.022245696 -0.07881138 0.027852492 0.0030502519 0.065054424 -0.090788424 -0.053210724 -0.1354091

Target_Q_Net.linear2.bias f4 [50]
00000000: 6a1b 103f 9710 bebe 508f 6cbf e341 d6bd
00000010: 6532 773f 6d8a a83e 64e8 073f d0c9 08bf
00000020: bc41 013f ee89 58bf ca91 0bbf 3f5d ef3e
00000030: f97b 243f f7d8 593e a446 61bf 8d75 4abe
00000040: ab1b a83e 54d6 80bf dbd7 edbe 4707 063f
00000050: 5315 1b3e cac0 40bd bbe2 08bf 2ba6 753f
00000060: 6fbd 253f c031 a7be cb88 86bf 7015 06be
00000070: a5e8 1d3f bdfa 5fbe 7ace 293f f2c0 a2bb
00000080: a526 0a3f 7e29 63bf 6f60 11bf c2ef 0a3f
00000090: 6eea 173f cdd2 09bf 8a43 103f a615 28be
000000a0: cb1b 2c3f 3f71 613f bfd0 48bf 53fd ab3e
000000b0: 2ed8 1abf 95df 703f 79d9 4d3f f415 3b3e
000000c0: e11a 833f 8c42 13be
0.5629183 -0.37122032 -0.9240618 -0.10461786 0.9656127 0.3291811 0.53088975 -0.5343294
0.5049093 -0.84585464 -0.5451933 0.4675083 0.6425167 0.21274172 -0.87998414 -0.19771405
0.3283361 -1.0065408 -0.46453747 0.52354854 0.15144853 -0.047058858 -0.53470963 0.9595668
0.6474218 -0.32655144 -1.0510496 -0.13094115 0.6168311 -0.21872993 0.66330683 -0.0049668485
0.53965217 -0.8873519 -0.5678777 0.5427209 0.59342086 -0.5383728 0.56353056 -0.16414508
0.6722991 0.88063425 -0.7844352 0.3359171 -0.60486114 0.9409116 0.8040996 0.18270093
1.0242578 -0.14380854

Target_Q_Net.fc_A.weight f4 [3, 50]
00000000: cd24 1ebd 3cfe a2bd 2509 6b3a 06e4 a9bd
00000010: 025a 8e3d 2602 8e3d dfc9 433d ce3c 343d
00000020: ec00 d33d 5617 06be 8cae d9bc bb5f 03be
00000030: e083 a93c 47a1 0a3a 3f11 bd3d 27fa 62bd
00000040: 41a6 b43d 869a 153d f227 7fbd 2f76 1b3d
00000050: 698b 4f3d 25a9 143d 5f4d 8d3d 9fa2 5b3d
00000060: cc69 bc3d c89d 9bbc 8320 833d 69f7 813d
00000070: 7dd9 813d 5b48 bd3b 6a94 de3c 3c05 53bc
00000080: dc7f aa3d 6969 45bd d07d d2bd 91ad b9bd
00000090: 1c19 1e3d 5080 893d 9a3a 4d3b 88ad b43d
000000a0: fe26 723d f68d bb3d 9961 943d 3ae4 ec3d
000000b0: 591d a13d de89 d5bd a188 d63c 3455 bcbd
000000c0: 64f8 f13a 9214 c33d a7e5 b6bd ecf6 9e3d
000000d0: ffcb ee3c c89e 6dbd c216 c33c c774 74bd
000000e0: 399e b53b 84a5 393d 08be 64bd 56f1 0bbe
000000f0: 3d2b 5ebd 407c cbbd 8058 bf3d c46a 0bbd
00000100: 11df 7b3d 31fb 5b3c 64c5 dfbb c411 ba3c
00000110: b6dc ccbc 8024 623d fa7a bfbd 9860 03bd
00000120: 8db0 e03d a4f3 f03d 8abf 103d 9d7b d43d
00000130: 6a17 01bc 4a9d 7bbd 7568 d43c bb38 893c
00000140: d8d8 5d3c 0c06 783d fd3d 1e3c 0cd4 94bd
00000150: 3fdd 613d a1fb 06bd fd7a 32bd a375 d9bd
00000160: f3ac f83c a0f9 e23c 9fe6 e93c 712a 883d
00000170: 9498 6a3d 57b4 fb3b 29e3 493d f032 0cbe
00000180: 9aeb 0abd 3401 f2bd c51e 363b 14d4 0abd
00000190: 8077 0c3d b3eb bdbd 4de0 95bd c97d 9b3d
000001a0: 9f75 833d 2648 46bd 592e 0ebb b9f4 15bd
000001b0: 3837 a2bc 80b7 8abc 96da b13d 876b 453c
000001c0: 32bd 94bd 62f6 9e3d 56f6 4cbd 7ce1 9dbd
000001d0: 7f71 9fbd 2026 833d f392 28bd 3352 9f3d
000001e0: 5f58 993c e23d 4a3d 0407 243c 4b6a 65bd
000001f0: b1bc 313d a182 c13d afa2 ed3d 9300 87bc
00000200: 9012 663d ba5f 8f3d f098 b93d 7a45 f43d
00000210: 56de b8bd 6d18 03be b122 58bd da57 e23d
00000220: 6c66 6f3c ffae df3d 050b a23d 6801 0a3d
00000230: 2721 d2bd 7a80 f83d 125d a83d 9e0c 7d3d
00000240: 9800 e6bd f6eb 77bd c9e4 993d edc4 aabd
00000250: 9349 6c3d 61e0 5d3d
-0.038609315 -0.079586476 0.0008965901 -0.08295445 0.069507614 0.069340035 0.04779994 0.0440033
0.1030291 -0.1309484 -0.026572488 -0.12829487 0.020692766 0.00052883144 0.09231805 -0.055414345
0.08820773 0.03652432 -0.062293954 0.037954506 0.05067006 0.03629412 0.06899523 0.053621884
0.09199867 -0.018996134 0.064026855 0.06346018 0.06340311 0.0057764477 0.027170379 -0.012879666
0.083251685 -0.04819623 -0.10277903 -0.09066308 0.038598165 0.06713927 0.0031315447 0.08822161
0.059119217 0.09157936 0.07245178 0.11566968 0.07866926 -0.10426687 0.026188197 -0.09195939
0.0018460867 0.09525408 -0.089305215 0.0776194 0.029150007 -0.058012754 0.023814563 -0.05968168
0.0055425433 0.045323864 -0.05584529 -0.13666281 -0.054240454 -0.09935808 0.09343052 -0.034037367
0.06149203 0.013426588 -0.0068289507 0.02271355 -0.025007587 0.05521059 -0.09349628 -0.03207454
0.109711744 0.11765221 0.035338916 0.1037514 -0.0078791175 -0.0614293 0.025928715 0.016750684
0.013540469 0.06055264 0.009658334 -0.07267007 0.055142637 -0.032954816 -0.043574322 -0.106181405
0.030355906 0.027706921 0.028552352 0.0664872 0.057274416 0.0076814103 0.049288902 -0.13691306
-0.033916093 -0.11816636 0.0027789336 -0.03389366 0.03429365 -0.09273472 -0.073181726 0.07592351
0.06418919 -0.04840865 -0.0021695106 -0.03661034 -0.019801721 -0.016933203 0.0868427 0.012049562
-0.07262649 0.077618375 -0.05003961 -0.07709023 -0.077853195 0.06403756 -0.041155767 0.0777935
0.018718896 0.049375422 0.010011438 -0.056009572 0.04339284 0.094487436 0.11603295 -0.016479766
0.056170046 0.0700068 0.09062374 0.11927314 -0.09026782 -0.12802286 -0.05276746 0.110519126
0.014611822 0.1092205 0.07912258 0.033692747 -0.102602296 0.1213388 0.08220877 0.06177961
-0.11230582 -0.060527764 0.075143404 -0.08338342 0.057687353 0.054169063

Target_Q_Net.fc_A.bias f4 [3]
00000000: 246d 273e e103 94be 8348 00bf
0.16350228 -0.2890921 -0.50110644

Target_Q_Net.fc_V.weight f4 [1, 50]
00000000: 6c98 0c3d 69ec 71bd bb2f b1bd d349 c839
00000010: 654e 8d3d 78fc c53c 49fa 583c 036f 1fbd
00000020: 059f c53d 5169 eebd b007 93bc 594d 5c3d
00000030: 1c52 2a3c 89c8 743c 9d60 f2bd 1998 a2bb
00000040: 9477 95bb 1c23 99bd 0dae 86bc 8e21 123c
00000050: fcd5 94bb b7ed bf3a 1de5 3ebc 4391 543d
00000060: 34c4 9e3d 3426 40bd 5522 b9bd 10c7 23bd
00000070: 5b86 863d 3844 973b 9a5c 113d ab98 f63c
00000080: 8cfe e83c c79e 82bd 1358 55bd 9be8 b63d
00000090: 6193 483d a53e b3bd 2188 243d 6d5d c4bc
000000a0: 70dc be3d b589 383d 8f23 79bc 9d89 ff3b
000000b0: 1fab 9fbd 963a b83d 7b5d a33d 763e 253a
000000c0: 0444 933d ff49 00bd
0.03432505 -0.05906335 -0.08651682 0.00038201976 0.06899718 0.024168238 0.013243266 -0.03892423
0.09649471 -0.11641181 -0.017948002 0.053784702 0.010395553 0.014940389 -0.11834834 -0.004961979
-0.004561374 -0.074774 -0.016440416 0.008919133 -0.0045421105 0.0014642988 -0.011651305 0.051896345
0.077522665 -0.046911433 -0.090397514 -0.039984763 0.06568595 0.0046162866 0.035488702 0.030102095
0.02844169 -0.063779406 -0.052085947 0.08931085 0.048968676 -0.08752183 0.040168885 -0.02397033
0.09319389 0.045053203 -0.015206232 0.007798387 -0.07796311 0.089955494 0.07976814 0.0006303558
0.07190707 -0.03132057
