Model/ILQN/result/DDQN/agent_ddqn_600750_SH_0_5.pt (torch_old, 85145 bytes, 14 tensors)

Q_net.linear1.weight f4 [50, 150]
0.099645786 0.041922245 0.038016174 -0.020615906 0.014267702 -0.12089393 -0.070496455 -0.10230138
-0.0374801 0.04467114 -0.04622728 -0.0496284 -0.03438818 0.032603294 -0.033516336 0.056333482
0.015220444 -0.05907935 0.024651268 -0.07984026 -0.014294938 0.02230821 -0.042827796 -0.026540183
0.07428828 -0.04104071 -0.012607347 -0.044681977 -0.06087384 0.05804422 0.026333136 0.021498201
0.0083613405 0.088884324 0.03376057 -0.0035258608 0.030768296 -0.07146394 0.018882709 -0.049533464
-0.037571438 0.0678253 0.08599069 -0.060693514 -0.032594975 -0.061598253 0.023574771 -0.042315613
0.008138009 0.031040562 -0.045280702 0.08194976 -0.040299192 -0.005952702 0.06201984 0.06853193
0.03733489 0.038431786 0.08379913 0.031327568 0.09235424 0.075236894 -0.027950656 0.04302833
0.09164204 0.0036613226 0.07597663 0.0029887352 0.018788254 -0.015284873 -0.015732542 0.023467317
0.0406519 0.038180675 0.029007856 0.0036014486 -0.072496064 0.05362008 -0.020181315 -0.028839257
0.062236156 -0.0477306 0.0046209046 0.08857349 -0.009720721 -0.0046481392 0.0017557346 -0.070413776
0.1010553 -0.03626996 0.081270665 0.08558487 -0.010540674 0.051826954 0.0141781075 -0.01349529
-0.16462664 -0.026804697 0.021686278 0.050271027 0.040929515 0.0003853293 -0.057415914 0.035363026
-0.040734123 0.0024364085 -0.017486867 -0.03647883 0.05968409 -0.04313004 0.042272918 0.016416773
-0.019059468 -0.0561002 0.09145877 -0.01979324 0.054270197 -0.11073303 0.00362104 0.018835595
-0.010441306 0.08288124 0.006609334 0.08979237 -0.049426343 0.021048566 -0.041001834 -0.096138425
0.033882014 -0.045445826 0.073771715 -0.059949044 -0.033766054 -0.03292251 -0.04687308 -0.0045205066
0.14981677 0.07185918 0.05902858 0.07640013 0.0855399 -0.0026836803 -0.016008865 0.08631132
0.074145325 0.047900464 -0.03148931 -0.03960767 0.0040886067 0.043443263 -0.15180601 -0.13177972
-0.03386699 -0.13636412 -0.11351008 0.08397556 -0.010305412 -0.17340438 -0.0799063 -0.0364445
-0.07251662 -0.08601799 -0.09066119 -0.16157788 -0.1457958 0.05474443 0.045550928 -0.13750131
-0.094189 0.028942144 -0.15917715 -0.16667089 -0.15028316 -0.09476511 -0.11190498 0.035957064
-0.027284501 -0.09758738 -0.055843264 0.069366015 -0.05395286 -0.123430364 -0.078074455 -0.12811647
-0.1121599 -0.0031962784 0.016672343 -0.008944053 -0.16195132 -0.003115049 -0.12113809 -0.11066497
-0.12032713 -0.12047145 -0.09131489 0.13602385 0.0165972 0.011783327 -0.121057495 0.028144263
-0.095233865 -0.15445007 -0.08151951 -0.061380897 -0.048901964 0.04673473 0.028621743 0.0013987839
-0.083540484 0.006853203 -0.17360327 -0.103423804 -0.10209557 -0.054566 -0.066972844 0.10646414
-0.023056662 0.08348387 -0.1669197 -0.04213369 -0.15733238 -0.06524116 -0.18209285 -0.117861375
-0.051432475 0.13887542 0.055567056 0.02524284 -0.13735752 0.050661452 -0.13155566 -0.029385408
-0.10523053 -0.06307685 -0.11960897 0.08311653 0.023448335 0.021023063 -0.040066157 0.08202724
-0.09393548 -0.17959996 -0.16164471 -0.09937985 -0.14861152 0.073316805 0.0031046937 0.102878004
-0.14877185 -0.07529577 -0.055622038 -0.05419442 -0.12894195 -0.0639802 -0.0970843 0.1693814
00000000: 1713 cc3d a9b6 2b3d d9b6 1b3d b0e2 a8bc
00000010: 14c3 693c 3d97 f7bd 7260 90bd 6383 d1bd
00000020: bc84 19bd 16f9 363d d158 3dbd 2647 4bbd
00000030: 9fda 0cbd 088b 053d 6d48 09bd f0bd 663d
00000040: 2b5f 793c 30fd 71bd 75f1 c93c 4a83 a3bd
00000050: 5135 6abc b5bf b63c 336c 2fbd cc6a d9bc
00000060: 7424 983d 4e1a 28bd 0c8f 4ebc 7304 37bd
00000070: d956 79bd c7bf 6d3d 97b8 d73c ff1c b03c
00000080: 01fe 083c fc08 b63d 8648 0a3d 2112 67bb
00000090: cb0d fc3c b05b 92bd e9af 9a3c 9ae3 4abd
000000a0: 82e4 19bd fee7 8a3d e31b b03d c399 78bd
000000b0: 4f82 05bd 734e 7cbd e11f c13c 2353 2dbd
000000c0: 4955 053c c748 fe3c 4278 39bd 47d5 a73d
000000d0: c410 25bd e20e c3bb 8408 7e3d 785a 8c3d
000000e0: 78ec 183d a66a 1d3d e19e ab3d 5651 003d
000000f0: 3824 bd3d cd15 9a3d c6f8 e4bc 793e 303d
00000100: d2ae bb3d cdf2 6f3b a399 9b3d a8de 433b
00000110: d3e9 993c 676d 7abc 88e1 80bc 883e c03c
00000120: 9b82 263d 5763 1c3d e2a1 ed3c 4806 6c3b
00000130: d178 94bd bba0 5b3d 4953 a5bc 4e40 ecbc
00000140: 57eb 7e3d 2981 43bd f56a 973b 0566 b53d
00000150: a943 1fbc 6b4f 98bb ad20 e63a 1935 90bd
00000160: 15f6 ce3d cf8f 14bd 3c71 a63d 1f47 af3d
00000170: cbb2 2cbc 8048 543d 4b4b 683c 591b 5dbc
00000180: e393 28be 8695 dbbc 6ca7 b13c fee8 4d3d
00000190: b5a5 273d 0606 ca39 f32c 6bbd d2d8 103d
000001a0: d3d8 26bd 27ac 1f3b 9e40 8fbc d36a 15bd
000001b0: 4e77 743d 20a9 30bd 5e26 2d3d 787c 863c
000001c0: 9a22 9cbc 53c9 65bd bc4e bb3d 6f25 a2bc
000001d0: 6d4a 5e3d 00c8 e2bd f84e 6d3b 1b4d 9a3c
000001e0: 0312 2bbc a4bd a93d 1d93 d83b 10e5 b73d
000001f0: 4773 4abd 0b6e ac3c 8af1 27bd 39e4 c4bd
00000200: dec7 0a3d 6725 3abd a015 973d 218d 75bd
00000210: 464e 0abd c1d9 06bd fdfd 3fbd c220 94bb
00000220: 9169 193e e82a 933d f4c7 713d ac77 9c3d
00000230: 8b2f af3d afe0 2fbb 0625 83bc fdc3 b03d
00000240: 81d9 973d 4733 443d effa 00bd a73b 22bd
00000250: b8f9 853b 90f1 313d 0973 1bbe 43f1 06be
00000260: 1db8 0abd 09a3 0bbe f977 e8bd 61fb ab3d
00000270: 08d8 28bc eb90 31be eaa5 a3bd d446 15bd
00000280: 9883 94bd 332a b0bd 93ac b9bd ac74 25be
00000290: 7f4b 15be b23b 603d 9c93 3a3d 25cd 0cbe
000002a0: 2ae6 c0bd 1318 ed3c 56ff 22be c6ab 2abe
000002b0: d4e3 19be 3614 c2bd 702e e5bd b747 133d
000002c0: bf83 dfbc e4db c7bd e8bb 64bd c50f 8e3d
000002d0: adfd 5cbd 0fc9 fcbd 80e5 9fbd f730 03be
000002e0: 17b4 e5bd a778 51bb 7094 883c 148a 12bc
000002f0: 91d6 25be da25 4cbb 3f17 f8bd 51a4 e2bd
00000300: 126e f6bd bcb9 f6bd 4d03 bbbd d649 0b3e
00000310: daf6 873c db0e 413c feec f7bd cc8e e63c
00000320: f909 c3bd 2928 1ebe b3f3 a6bd 896a 7bbd
00000330: 6d4d 48bd eb6c 3f3d 2578 ea3c 6657 b73a
00000340: 4617 abbd d590 e03b 0ec5 31be dccf d3bd
00000350: 7b17 d1bd 9980 5fbd 0f29 89bd df09 da3d
00000360: 53e1 bcbc 97f9 aa3d ffec 2abe 6094 2cbd
00000370: bd1b 21be 289d 85bd 8c76 3abe 4e61 f1bd
00000380: dcaa 52bd 5c35 0e3e 489a 633d 13ca ce3c
00000390: 73a7 0cbe 6282 4f3d 87b6 06be abb9 f0bc
000003a0: 1b83 d7bd 6f2e 81bd 8cf5 f4bd 0039 aa3d
000003b0: b916 c03c 8f38 ac3c 691c 24bd e6fd a73d
000003c0: 3f61 c0bd 0de9 37be 3186 25be aa87 cbbd
000003d0: 9e2d 18be 1f27 963d 1e78 4b3b b4b1 d23d
000003e0: a657 18be ab34 9abd efd3 63bd f8fa 5dbd
000003f0: 5c09 04be 0d08 83bd 22d4 c6bd 5172 2d3e

Q_net.linear1.bias f4 [50]
0.031273406 -0.1206876 0.061103184 -0.02870797 -0.08414627 -0.11109383 -0.010699883 0.12103555
-0.11675928 0.1273346 0.107282765 -0.057057463 -0.18946941 0.13036945 0.074055545 -0.019382942
-0.07949067 0.12719056 -0.009649712 0.09871162 -0.061711144 0.011733975 0.18294679 0.08767789
-0.10355165 -0.082654655 -0.109408036 -0.11742427 0.17158878 0.1268668 -0.025962288 0.06339229
-0.114777856 -0.08560473 0.075770125 0.08936576 -0.06092477 -0.09968172 0.12598693 0.13415328
0.08099773 0.0070777438 0.066200666 -0.013000378 0.09371324 0.15969293 -0.16503406 -0.045783523
0.020833857 -0.034103755
00000000: 8b18 003d 0f2b f7bd 5547 7a3d fa2c ebbc
00000010: e154 acbd 2985 e3bd 904e 2fbc 7de1 f73d
00000020: 7d1f efbd 0064 023e 11b7 db3d 16b5 69bd
00000030: 4504 42be 927f 053e 6faa 973d fac8 9ebc
00000040: 01cc a2bd 3e3e 023e d319 1ebc 5129 ca3d
00000050: d3c4 7cbd dc3f 403c 6756 3b3e 7790 b33d
00000060: e312 d4bd d846 a9bd 5211 e0bd 237c f0bd
00000070: f8b4 2f3e 5fe9 013e ddae d4bc d1d3 813d
00000080: a710 ebbd 8851 afbd 5e2d 9b3d 6505 b73d
00000090: 408c 79bd ee25 ccbd b802 013e 7a5f 093e
000000a0: 23e2 a53d 6bec e73b 3794 873d 8aff 54bc
000000b0: baec bf3d 8b86 233e b0fe 28be 8187 3bbd
000000c0: c4ab aa3c 61b0 0bbd

Q_net.linear2.weight f4 [50, 50]
-0.033783067 -0.13052495 0.10865148 -0.08475895 -0.13003288 -0.07449652 0.102313064 -0.035878606
0.07045093 -0.013152819 -0.035579495 0.027754307 -0.10091511 0.0924838 0.13122146 0.07072294
0.08206226 -0.00044229577 0.13122232 -0.08546624 -0.060012773 -0.03378638 0.09218912 0.054385766
-0.04794263 0.0017125347 0.044519626 -0.02960039 -0.08419515 0.11437344 -0.062021174 -0.0006332793
0.054670274 0.0224155 -0.048439987 0.07466923 -0.016021201 -0.02019545 -0.045594398 0.06670255
-0.047771715 -0.05589213 0.019219942 0.0731593 0.108171925 0.09564004 -0.121749766 -0.007942673
0.13496001 0.082178056 -0.07560555 0.09904229 -0.11237406 0.09165484 0.113844745 -0.005037758
-0.09700045 0.13255075 0.11763218 -0.030528683 0.13104178 0.0186438 -0.08363549 -0.026451582
0.037201878 -0.059017286 0.07938122 0.0111027 0.09677653 0.028442567 0.058259416 -0.07673588
-0.043239508 -0.074425474 -0.07047325 0.10537648 -0.029756775 -0.055007856 -0.03603605 -0.10344951
-0.122738786 0.06902036 0.020678375 0.02120333 0.07785503 0.1309291 0.040083215 0.090746716
-0.08435746 -0.0073092673 -0.05721987 -0.0517389 0.038650375 0.09899234 0.0124870865 -0.092855565
-0.120462075 0.09379791 0.022560092 0.078250445 0.034104787 -0.110709436 0.0067994967 0.10155118
-0.07398575 -0.11917618 -0.026332201 -0.05553703 -0.066257305 0.1335234 0.07431809 0.08905472
0.0040014987 0.032615267 -0.07050016 -0.0920682 0.0038597554 -0.12352799 -0.06574479 -0.0022805613
-0.042030957 0.027426664 0.11296923 -0.008053952 -0.109684594 0.012679809 -0.0811502 -0.070796765
-0.12989993 -0.0354209 0.064372316 0.00756806 -0.1304267 0.040505026 0.08627402 0.077576496
0.08632885 -0.022071727 0.065031275 0.098692104 0.060241345 -0.014788992 0.05156496 0.045061935
0.042917363 -0.004186825 -0.043653246 0.12662461 0.114920214 0.12833901 -0.057128847 -0.11986539
-0.104256436 0.1039073 0.10731752 0.077528924 -0.07677379 -0.114810854 0.10552082 0.048794147
0.028447913 -0.08360726 -0.024566585 -0.055949852 -0.031084428 -0.117955476 -0.114558466 -0.07213593
0.12138238 -0.028722633 -0.05376705 -0.029072085 0.14595756 -0.07739553 0.13668643 0.07723995
0.088158555 -0.02482055 0.048708618 0.050289202 0.018180765 -0.02740802 -0.094473265 -0.047249056
0.094628744 0.09229248 0.12714125 0.035918616 0.041582234 -0.10125866 -0.08062787 0.009215672
0.011321358 -0.06105159 -0.06409224 0.074382946 -0.011074989 0.079742506 0.070970036 0.07095385
0.11631231 0.12503181 0.077517845 0.012836083 -0.112611376 -0.087046474 0.113270245 -0.054269284
0.1333698 0.13111717 0.0065608746 -0.108192675 0.05008192 -0.027823389 0.01968097 -0.11145295
-0.11117258 0.1250239 0.031875852 0.07622795 -0.039905943 0.12329199 0.051335175 0.05442682
0.015319273 -0.03811831 -0.030269325 0.06477337 0.12410341 -0.11963131 -0.10364867 0.084529825
-0.015682431 -0.07497657 -0.06454085 0.06437595 -0.030448325 -0.050041206 0.101133876 -0.016474947
0.057259914 -0.017325738 -0.02265632 -0.092617534 0.023746494 0.026440475 -0.008445661 -0.09478587
-0.1305965 -0.05348513 0.06482105 0.024126612 0.057200335 -0.029585227 -0.04981784 -0.12503622
00000000: 1d60 0abd 55a8 05be ab84 de3d 1a96 adbd
00000010: 5727 05be a291 98bd 8389 d13d 72f5 12bd
00000020: 9448 903d ec7e 57bc cebb 11bd 005d e33c
00000030: 95ac cebd 2668 bd3d eb5e 063e 30d7 903d
00000040: 4210 a83d efe3 e7b9 255f 063e ed08 afbd
00000050: f4cf 75bd 9663 0abd a6cd bc3d 9cc3 5e3d
00000060: 7e5f 44bd 2177 e03a 365a 363d 847c f2bc
00000070: 826e acbd 9f3c ea3d ea09 7ebd a802 26ba
00000080: f0ed 5f3d b6a0 b73c 0269 46bd 2eec 983d
00000090: e53e 83bc ee70 a5bc 31c1 3abd 599b 883d
000000a0: 46ac 43bd 25ef 64bd 2473 9d3c 8bd4 953d
000000b0: 3e89 dd3d edde c33d f157 f9bd fc21 02bc
000000c0: f532 0a3e f84c a83d 15d7 9abd afd6 ca3d
000000d0: 5f24 e6bd 88b5 bb3d 6f27 e93d c713 a5bb
000000e0: 2ca8 c6bd 62bb 073e 24e9 f03d 4a17 fabc
000000f0: d12f 063e e2ba 983c 1549 abbd fdb0 d8bc
00000100: ff60 183d 1cbc 71bd 9f92 a23d 19e8 353c
00000110: c632 c63d 6300 e93c 6da1 6e3d b327 9dbd
00000120: e91b 31bd 626c 98bd 4754 90bd a0cf d73d
00000130: 7bc4 f3bc eb4f 61bd 8a9a 13bd 56dd d3bd
00000140: 795e fbbd 8c5a 8d3d b265 a93c 9bb2 ad3c
00000150: 7572 9f3d 4712 063e 4c2e 243d 6ad9 b93d
00000160: 9bc3 acbd 9482 efbb 625f 6abd 2bec 53bd
00000170: db4f 1e3d 7fbc ca3d a396 4c3c 0f2b bebd
00000180: d2b4 f6bd 1e19 c03d f1cf b83c c541 a03d
00000190: 76b1 0b3d a1bb e2bd 50ce de3b 11fa cf3d
000001a0: d785 97bd a412 f4bd a1b6 d7bc cc7a 63bd
000001b0: e9b1 87bd 5cba 083e 1534 983d 5262 b63d
000001c0: 011f 833b 9697 053d 6362 90bd 418e bcbd
000001d0: f3f3 7c3b 3efc fcbd 34a5 86bd 7875 15bb
000001e0: a728 2cbd e2ad e03c 695c e73d b9f4 03bc
000001f0: 51a2 e0bd f9be 4f3c 1332 a6bd e5fd 90bd
00000200: 7d04 05be 8115 11bd a2d5 833d 7dfd f73b
00000210: 948e 05be 99e8 253d 6fb0 b03d 6de0 9e3d
00000220: 2ecd b03d c4cf b4bc 1e2f 853d 161f ca3d
00000230: a1bf 763d 874d 72bc c835 533d dd92 383d
00000240: 1eca 2f3d a231 89bb bfcd 32bd e2a9 013e
00000250: 4a5b eb3d 4d6b 033e f0ff 69bd fc7b f5bd
00000260: 6684 d5bd 5acd d43d 4ac9 db3d 7cc7 9e3d
00000270: 943b 9dbd f421 ebbd 4d1b d83d 5fdc 473d
00000280: 990b e93c 483a abbd dd3f c9bc ac2b 65bd
00000290: c5a4 febc a492 f1bd a19d eabd 01bc 93bd
000002a0: 5397 f83d ba4b ebbc d73a 5cbd 9528 eebc
000002b0: e675 153e 8c81 9ebd 87f7 0b3e fb2f 9e3d
000002c0: 798c b43d 7754 cbbc b082 473d 0dfc 4d3d
000002d0: d4ef 943c c986 e0bc 337b c1bd 3a88 41bd
000002e0: b7cc c13d d703 bd3d 5131 023e 661f 133d
000002f0: 2252 2a3d b360 cfbd 3a20 a5bd 54fd 163c
00000300: 387d 393c 3b11 7abd cb42 83bd 1656 983d
00000310: df73 35bc 0a50 a33d bd58 913d 4150 913d
00000320: 2635 ee3d 5708 003e adc1 9e3d 6f4e 523c
00000330: cba0 e6bd 6c45 b2bd 3bfa e73d 7849 5ebd
00000340: 1892 083e 9443 063e 9bfc d63b 1f94 ddbd
00000350: b322 4d3d e0ed e3bc fc39 a13c 7241 e4bd
00000360: 73ae e3bd 4406 003e 4190 023d 661d 9c3d
00000370: 6a74 23bd 8380 fc3d d544 523d a8ee 5e3d
00000380: b0fd 7a3c f221 1cbd 60f7 f7bc e7a7 843d
00000390: ee29 fe3d 4301 f5bd c145 d4bd f91d ad3d
000003a0: 7178 80bc 518d 99bd fe2d 84bd 8ad7 833d
000003b0: c46e f9bc 02f8 4cbd 471f cf3d 78f6 86bc
000003c0: 5f89 6a3d b5ee 8dbc bf99 b9bc 43ae bdbd
000003d0: 0288 c23c b299 d83c ab5f 0abc 181f c2bd
000003e0: 17bb 05be 3913 5bbd e6c0 843d 2ca5 c53c
000003f0: e64a 6a3d b85c f2bc cb0d 4cbd 7f09 00be

Q_net.linear2.bias f4 [50]
0.2448922 -0.18916208 0.24308206 -0.06307797 0.25051224 -0.0965651 -0.03511058 -0.025892856
0.08260803 0.13668764 0.0047475724 0.1066834 -0.20112312 -0.09552749 0.07587577 0.021799983
-0.049850147 -0.105799474 0.17159337 -0.042786974 0.039148364 -0.14370918 -0.06346941 0.08720387
-0.012331741 0.1086336 0.08875012 0.21221893 -0.09322163 0.06644973 -0.13053665 0.16770972
0.24573794 0.030638851 -0.21723704 -0.17697008 -0.007008679 0.0073625008 0.004426993 0.15143913
-0.055849206 -0.175535 -0.02786306 -0.1144333 -0.1341829 -0.20348504 -0.009667162 -0.16291381
0.051173814 -0.05191184
00000000: 05c5 7a3e b4b3 41be 81ea 783e 062f 81bd
00000010: 2443 803e ecc3 c5bd 1dd0 0fbd 411d d4bc
00000020: 662e a93d d8f7 0b3e 8691 9b3b d47c da3d
00000030: 38f3 4dbe eba3 c3bd c164 9b3d e195 b23c
00000040: ab2f 4cbd 65ad d8bd 2cb6 2f3e 6541 2fbd
00000050: 095a 203d 8028 13be 40fc 81bd f197 b23d
00000060: 120b 4abc 4b7b de3d 9fc2 b53d eb4f 593e
00000070: fbea bebd cc16 883d 66ab 05be 19bc 2b3e
00000080: baa2 7b3e 54fe fa3c 6373 5ebe a537 35be
00000090: 10a9 e5bb 2241 f13b 4f10 913b dc12 1b3e
000000a0: 23c2 64bd 72bf 33be 1241 e4bc 025c eabd
000000b0: 3e67 09be 625e 50be 0463 1ebc e1d2 26be
000000c0: a29b 513d 82a1 54bd

Q_net.fc_A.weight f4 [3, 50]
-0.11414048 -0.11123973 0.027120259 -0.00544522 -0.06619506 0.09048807 0.10853186 -0.06119187
-0.027789898 0.117508054 -0.009566705 0.110398665 -0.04825714 -0.09261515 -0.02885369 -0.12508053
-0.101243384 -0.028527757 0.03395991 -0.03440516 0.002843613 -0.11972403 -0.104871504 -0.0066370484
-0.017877571 -0.048971206 0.037059825 -0.024666606 0.082811624 0.033741493 0.06905451 -0.02508149
-0.08822344 -0.00531355 -0.008456906 -0.048556387 -0.13328993 0.093654126 0.047314826 -0.0066354983
-0.0952326 -0.049188312 0.07248642 -0.09014371 -0.018303633 0.044463046 -0.03407824 -0.104848206
0.08690684 -0.015421016 0.08716015 -0.12127938 -0.07944526 -0.0550996 -0.0017712469 0.095245704
-0.10729164 -0.09074714 0.06944217 0.009199296 -0.0533401 -0.05427462 0.08489553 -0.12217021
0.10967334 -0.07023419 0.031980827 0.08030881 0.044912163 0.0070555094 0.09687184 0.13111007
-0.104401246 -0.05989967 0.07843307 -0.11386492 0.10145092 -0.051196266 -0.040588282 -0.14274804
0.044510037 -0.029464627 -0.043812755 0.129047 0.022567684 0.04402437 -0.007519775 0.026696745
-0.03699977 -0.04516588 -0.118769996 0.007244031 0.1314284 0.06422941 -0.0322619 0.09704289
0.07805686 0.102569245 -0.049246512 -0.081221156 -0.00583958 -0.085931174 -0.028874854 0.024875177
-0.09630494 -0.035866868 0.027225867 -0.09327914 -0.069803804 -0.062236745 0.0610585 -0.0023116043
-0.043224152 0.08846265 0.12440195 -0.009740043 -0.07066116 -0.031373423 0.10269915 0.086203754
-0.060885854 -0.12717539 0.092574246 -0.019093651 0.012952003 -0.046952296 0.102494895 -0.035056368
0.050038524 0.012252013 0.096783616 -0.027594758 -0.08271732 -0.043535836 0.09426542 -0.043091204
-0.11849415 0.0034745813 0.09415363 0.058150288 -0.1421025 -0.09215965 0.0016437132 0.10855939
0.044453207 0.099865586 0.041084263 0.069536075 -0.09938564 0.07691306
00000000: 7cc2 e9bd a8d1 e3bd 4e2b de3c d16d b2bb
00000010: 4791 87bd cf51 b93d f445 de3d 54a4 7abd
00000020: a4a7 e3bc 10a8 f03d abbd 1cbc b218 e23d
00000030: 47a9 45bd 03ad bdbd 935e ecbc 1c15 00be
00000040: b158 cfbd 0bb3 e9bc 8c19 0b3d 6dec 0cbd
00000050: e95b 3a3b df31 f5bd dfc6 d6bd 997b d9bb
00000060: fc73 92bc 0896 48bd 0bcc 173d 9f11 cabc
00000070: 2499 a93d 8534 0a3d 736c 8d3d b277 cdbc
00000080: 7eae b4bd 4a1d aebb d68e 0abc 10e3 46bd
00000090: 287d 08be bccd bf3d 31cd 413d 986e d9bb
000000a0: 4f09 c3bd af79 49bd c373 943d 449d b8bd
000000b0: 80f1 95bc e21e 363d a095 0bbd a8ba d6bd
000000c0: 37fc b13d 6ea8 7cbc 0581 b23d 5361 f8bd
000000d0: 32b4 a2bd 1eb0 61bd 2f29 e8ba 2e10 c33d
000000e0: b8bb dbbd a3d9 b9bd b237 8e3d a5b8 163c
000000f0: 267b 5abd 104f 5ebd b5dd ad3d 6034 fabd
00000100: 6b9c e03d f1d6 8fbd 54fe 023d f278 a43d
00000110: d1f5 373d e731 e73b be64 c63d b841 063e
00000120: 52d0 d5bd 5b59 75bd 84a1 a03d 0332 e9bd
00000130: 80c5 cf3d 2db3 51bd e63f 26bd 8b2c 12be
00000140: 2850 363d cd5f f1bc 0175 33bd e624 043e
00000150: dddf b83c e652 343d 7268 f6bb 22b3 da3c
00000160: 128d 17bd dcff 38bd af3d f3bd 565f ed3b
00000170: 2b95 063e b58a 833d 0e25 04bd 6cbe c63d
00000180: 46dc 9f3d d30f d23d b6b6 49bd 4757 a6bd
00000190: f359 bfbb affc afbd f58a ecbc 07c7 cb3c
000001a0: 863b c5bd 23e9 12bd c808 df3c 2209 bfbd
000001b0: 4cf5 8ebd f5eb 7ebd 7a18 7a3d 497e 17bb
000001c0: cf0b 31bd e82b b53d 73c6 fe3d b494 1fbc
000001d0: ccb6 90bd 6b81 00bd ef53 d23d 988b b03d
000001e0: 7263 79bd 443a 02be 9197 bd3d 4a6a 9cbc
000001f0: a334 543c 0d51 40bd d8e8 d13d 4497 0fbd
00000200: 32f5 4c3d abbc 483c 7d36 c63d 670e e2bc
00000210: b367 a9bd a252 32bd 3b0e c13d 6780 30bd
00000220: 10ad f2bd cdb5 633b 9ed3 c03d ff2e 6e3d
00000230: 5183 11be 33be bcbd dd71 d73a 6354 de3d
00000240: 9114 363d 5486 cc3d f947 283d ee68 8e3d
00000250: b38a cbbd 9884 9d3d

Q_net.fc_A.bias f4 [3]
0.022900267 -0.11201848 -0.066826686
00000000: 5799 bb3c f269 e5bd 6edc 88bd

Q_net.fc_V.weight f4 [1, 50]
0.075655475 -0.06437287 0.113180965 -0.06245689 0.09763173 -0.02558312 0.09508162 -0.06956989
0.03757248 0.048593197 -0.09144731 0.05224707 -0.075173825 0.021398691 0.11174583 -0.011995384
-0.021061989 -0.06415248 0.056227162 -0.097480275 -0.06383256 -0.108990766 0.008627079 0.027819647
0.021832213 0.07009145 -0.00072619616 0.02978783 -0.055990092 0.11881222 -0.01199008 -0.00092665333
0.10747816 -0.05359032 -0.07799488 -0.115217395 -0.09437014 0.007860067 0.06258886 0.015723752
-0.02069273 -0.023437155 -0.07716984 -0.04803326 -0.069526345 -0.0224013 0.010914795 -0.066258796
0.006479225 0.039991345
00000000: 42f1 9a3d ecd5 83bd 6ccb e73d ccd2 7fbd
00000010: 25f3 c73d b193 d1bc 27ba c23d a97a 8ebd
00000020: 9ae5 193d a909 473d ba48 bbbd 0601 563d
00000030: bcf4 99bd 4f4c af3c ffda e43d 4988 44bc
00000040: 318a acbc 6062 83bd 744e 663d bda3 c7bd
00000050: a5ba 82bd 8d36 dfbd 9858 0d3c 07e6 e33c
00000060: 78d9 b23c 1b8c 8f3d 335e 3eba 9b05 f43c
00000070: de55 65bd d253 f33d 0a72 44bc a7ea 72ba
00000080: 821d dc3d 8681 5bbd c8bb 9fbd 19f7 ebbd
00000090: 2245 c1bd 83c7 003c 972e 803d 19cf 803c
000000a0: cd83 a9bc 47ff bfbc 390b 9ebd 86be 44bd
000000b0: d463 8ebd ee82 b7bc f8d3 323c b1b2 87bd
000000c0: ae4f d43b f7cd 233d

Target_Q_Net.linear1.weight f4 [50, 150]
0.099645786 0.041922245 0.038016174 -0.020615906 0.014267702 -0.12089393 -0.070496455 -0.10230138
-0.0374801 0.04467114 -0.04622728 -0.0496284 -0.03438818 0.032603294 -0.033516336 0.056333482
0.015220444 -0.05907935 0.024651268 -0.07984026 -0.014294938 0.02230821 -0.042827796 -0.026540183
0.07428828 -0.04104071 -0.012607347 -0.044681977 -0.06087384 0.05804422 0.026333136 0.021498201
0.0083613405 0.088884324 0.03376057 -0.0035258608 0.030768296 -0.07146394 0.018882709 -0.049533464
-0.037571438 0.0678253 0.08599069 -0.060693514 -0.032594975 -0.061598253 0.023574771 -0.042315613
0.008138009 0.031040562 -0.045280702 0.08194976 -0.040299192 -0.005952702 0.06201984 0.06853193
0.03733489 0.038431786 0.08379913 0.031327568 0.09235424 0.075236894 -0.027950656 0.04302833
0.09164204 0.0036613226 0.07597663 0.0029887352 0.018788254 -0.015284873 -0.015732542 0.023467317
0.0406519 0.038180675 0.029007856 0.0036014486 -0.072496064 0.05362008 -0.020181315 -0.028839257
0.062236156 -0.0477306 0.0046209046 0.08857349 -0.009720721 -0.0046481392 0.0017557346 -0.070413776
0.1010553 -0.03626996 0.081270665 0.08558487 -0.010540674 0.051826954 0.0141781075 -0.01349529
-0.16462664 -0.026804697 0.021686278 0.050271027 0.040929515 0.0003853293 -0.057415914 0.035363026
-0.040734123 0.0024364085 -0.017486867 -0.03647883 0.05968409 -0.04313004 0.042272918 0.016416773
-0.019059468 -0.0561002 0.09145877 -0.01979324 0.054270197 -0.11073303 0.00362104 0.018835595
-0.010441306 0.08288124 0.006609334 0.08979237 -0.049426343 0.021048566 -0.041001834 -0.096138425
0.033882014 -0.045445826 0.073771715 -0.059949044 -0.033766054 -0.03292251 -0.04687308 -0.0045205066
0.14981677 0.07185918 0.05902858 0.07640013 0.0855399 -0.0026836803 -0.016008865 0.08631132
0.074145325 0.047900464 -0.03148931 -0.03960767 0.0040886067 0.043443263 -0.15180601 -0.13177972
-0.03386699 -0.13636412 -0.11351008 0.08397556 -0.010305412 -0.17340438 -0.0799063 -0.0364445
-0.07251662 -0.08601799 -0.09066119 -0.16157788 -0.1457958 0.05474443 0.045550928 -0.13750131
-0.094189 0.028942144 -0.15917715 -0.16667089 -0.15028316 -0.09476511 -0.11190498 0.035957064
-0.027284501 -0.09758738 -0.055843264 0.069366015 -0.05395286 -0.123430364 -0.078074455 -0.12811647
-0.1121599 -0.0031962784 0.016672343 -0.008944053 -0.16195132 -0.003115049 -0.12113809 -0.11066497
-0.12032713 -0.12047145 -0.09131489 0.13602385 0.0165972 0.011783327 -0.121057495 0.028144263
-0.095233865 -0.15445007 -0.08151951 -0.061380897 -0.048901964 0.04673473 0.028621743 0.0013987839
-0.083540484 0.006853203 -0.17360327 -0.103423804 -0.10209557 -0.054566 -0.066972844 0.10646414
-0.023056662 0.08348387 -0.1669197 -0.04213369 -0.15733238 -0.06524116 -0.18209285 -0.117861375
-0.051432475 0.13887542 0.055567056 0.02524284 -0.13735752 0.050661452 -0.13155566 -0.029385408
-0.10523053 -0.06307685 -0.11960897 0.08311653 0.023448335 0.021023063 -0.040066157 0.08202724
-0.09393548 -0.17959996 -0.16164471 -0.09937985 -0.14861152 0.073316805 0.0031046937 0.102878004
-0.14877185 -0.07529577 -0.055622038 -0.05419442 -0.12894195 -0.0639802 -0.0970843 0.1693814
00000000: 1713 cc3d a9b6 2b3d d9b6 1b3d b0e2 a8bc
00000010: 14c3 693c 3d97 f7bd 7260 90bd 6383 d1bd
00000020: bc84 19bd 16f9 363d d158 3dbd 2647 4bbd
00000030: 9fda 0cbd 088b 053d 6d48 09bd f0bd 663d
00000040: 2b5f 793c 30fd 71bd 75f1 c93c 4a83 a3bd
00000050: 5135 6abc b5bf b63c 336c 2fbd cc6a d9bc
00000060: 7424 983d 4e1a 28bd 0c8f 4ebc 7304 37bd
00000070: d956 79bd c7bf 6d3d 97b8 d73c ff1c b03c
00000080: 01fe 083c fc08 b63d 8648 0a3d 2112 67bb
00000090: cb0d fc3c b05b 92bd e9af 9a3c 9ae3 4abd
000000a0: 82e4 19bd fee7 8a3d e31b b03d c399 78bd
000000b0: 4f82 05bd 734e 7cbd e11f c13c 2353 2dbd
000000c0: 4955 053c c748 fe3c 4278 39bd 47d5 a73d
000000d0: c410 25bd e20e c3bb 8408 7e3d 785a 8c3d
000000e0: 78ec 183d a66a 1d3d e19e ab3d 5651 003d
000000f0: 3824 bd3d cd15 9a3d c6f8 e4bc 793e 303d
00000100: d2ae bb3d cdf2 6f3b a399 9b3d a8de 433b
00000110: d3e9 993c 676d 7abc 88e1 80bc 883e c03c
00000120: 9b82 263d 5763 1c3d e2a1 ed3c 4806 6c3b
00000130: d178 94bd bba0 5b3d 4953 a5bc 4e40 ecbc
00000140: 57eb 7e3d 2981 43bd f56a 973b 0566 b53d
00000150: a943 1fbc 6b4f 98bb ad20 e63a 1935 90bd
00000160: 15f6 ce3d cf8f 14bd 3c71 a63d 1f47 af3d
00000170: cbb2 2cbc 8048 543d 4b4b 683c 591b 5dbc
00000180: e393 28be 8695 dbbc 6ca7 b13c fee8 4d3d
00000190: b5a5 273d 0606 ca39 f32c 6bbd d2d8 103d
000001a0: d3d8 26bd 27ac 1f3b 9e40 8fbc d36a 15bd
000001b0: 4e77 743d 20a9 30bd 5e26 2d3d 787c 863c
000001c0: 9a22 9cbc 53c9 65bd bc4e bb3d 6f25 a2bc
000001d0: 6d4a 5e3d 00c8 e2bd f84e 6d3b 1b4d 9a3c
000001e0: 0312 2bbc a4bd a93d 1d93 d83b 10e5 b73d
000001f0: 4773 4abd 0b6e ac3c 8af1 27bd 39e4 c4bd
00000200: dec7 0a3d 6725 3abd a015 973d 218d 75bd
00000210: 464e 0abd c1d9 06bd fdfd 3fbd c220 94bb
00000220: 9169 193e e82a 933d f4c7 713d ac77 9c3d
00000230: 8b2f af3d afe0 2fbb 0625 83bc fdc3 b03d
00000240: 81d9 973d 4733 443d effa 00bd a73b 22bd
00000250: b8f9 853b 90f1 313d 0973 1bbe 43f1 06be
00000260: 1db8 0abd 09a3 0bbe f977 e8bd 61fb ab3d
00000270: 08d8 28bc eb90 31be eaa5 a3bd d446 15bd
00000280: 9883 94bd 332a b0bd 93ac b9bd ac74 25be
00000290: 7f4b 15be b23b 603d 9c93 3a3d 25cd 0cbe
000002a0: 2ae6 c0bd 1318 ed3c 56ff 22be c6ab 2abe
000002b0: d4e3 19be 3614 c2bd 702e e5bd b747 133d
000002c0: bf83 dfbc e4db c7bd e8bb 64bd c50f 8e3d
000002d0: adfd 5cbd 0fc9 fcbd 80e5 9fbd f730 03be
000002e0: 17b4 e5bd a778 51bb 7094 883c 148a 12bc
000002f0: 91d6 25be da25 4cbb 3f17 f8bd 51a4 e2bd
00000300: 126e f6bd bcb9 f6bd 4d03 bbbd d649 0b3e
00000310: daf6 873c db0e 413c feec f7bd cc8e e63c
00000320: f909 c3bd 2928 1ebe b3f3 a6bd 896a 7bbd
00000330: 6d4d 48bd eb6c 3f3d 2578 ea3c 6657 b73a
00000340: 4617 abbd d590 e03b 0ec5 31be dccf d3bd
00000350: 7b17 d1bd 9980 5fbd 0f29 89bd df09 da3d
00000360: 53e1 bcbc 97f9 aa3d ffec 2abe 6094 2cbd
00000370: bd1b 21be 289d 85bd 8c76 3abe 4e61 f1bd
00000380: dcaa 52bd 5c35 0e3e 489a 633d 13ca ce3c
00000390: 73a7 0cbe 6282 4f3d 87b6 06be abb9 f0bc
000003a0: 1b83 d7bd 6f2e 81bd 8cf5 f4bd 0039 aa3d
000003b0: b916 c03c 8f38 ac3c 691c 24bd e6fd a73d
000003c0: 3f61 c0bd 0de9 37be 3186 25be aa87 cbbd
000003d0: 9e2d 18be 1f27 963d 1e78 4b3b b4b1 d23d
000003e0: a657 18be ab34 9abd efd3 63bd f8fa 5dbd
000003f0: 5c09 04be 0d08 83bd 22d4 c6bd 5172 2d3e

Target_Q_Net.linear1.bias f4 [50]
0.031273406 -0.1206876 0.061103184 -0.02870797 -0.08414627 -0.11109383 -0.010699883 0.12103555
-0.11675928 0.1273346 0.107282765 -0.057057463 -0.18946941 0.13036945 0.074055545 -0.019382942
-0.07949067 0.12719056 -0.009649712 0.09871162 -0.061711144 0.011733975 0.18294679 0.08767789
-0.10355165 -0.082654655 -0.109408036 -0.11742427 0.17158878 0.1268668 -0.025962288 0.06339229
-0.114777856 -0.08560473 0.075770125 0.08936576 -0.06092477 -0.09968172 0.12598693 0.13415328
0.08099773 0.0070777438 0.066200666 -0.013000378 0.09371324 0.15969293 -0.16503406 -0.045783523
0.020833857 -0.034103755
00000000: 8b18 003d 0f2b f7bd 5547 7a3d fa2c ebbc
00000010: e154 acbd 2985 e3bd 904e 2fbc 7de1 f73d
00000020: 7d1f efbd 0064 023e 11b7 db3d 16b5 69bd
00000030: 4504 42be 927f 053e 6faa 973d fac8 9ebc
00000040: 01cc a2bd 3e3e 023e d319 1ebc 5129 ca3d
00000050: d3c4 7cbd dc3f 403c 6756 3b3e 7790 b33d
00000060: e312 d4bd d846 a9bd 5211 e0bd 237c f0bd
00000070: f8b4 2f3e 5fe9 013e ddae d4bc d1d3 813d
00000080: a710 ebbd 8851 afbd 5e2d 9b3d 6505 b73d
00000090: 408c 79bd ee25 ccbd b802 013e 7a5f 093e
000000a0: 23e2 a53d 6bec e73b 3794 873d 8aff 54bc
000000b0: baec bf3d 8b86 233e b0fe 28be 8187 3bbd
000000c0: c4ab aa3c 61b0 0bbd

Target_Q_Net.linear2.weight f4 [50, 50]
-0.033783067 -0.13052495 0.10865148 -0.08475895 -0.13003288 -0.07449652 0.102313064 -0.035878606
0.07045093 -0.013152819 -0.035579495 0.027754307 -0.10091511 0.0924838 0.13122146 0.07072294
0.08206226 -0.00044229577 0.13122232 -0.08546624 -0.060012773 -0.03378638 0.09218912 0.054385766
-0.04794263 0.0017125347 0.044519626 -0.02960039 -0.08419515 0.11437344 -0.062021174 -0.0006332793
0.054670274 0.0224155 -0.048439987 0.07466923 -0.016021201 -0.02019545 -0.045594398 0.06670255
-0.047771715 -0.05589213 0.019219942 0.0731593 0.108171925 0.09564004 -0.121749766 -0.007942673
0.13496001 0.082178056 -0.07560555 0.09904229 -0.11237406 0.09165484 0.113844745 -0.005037758
-0.09700045 0.13255075 0.11763218 -0.030528683 0.13104178 0.0186438 -0.08363549 -0.026451582
0.037201878 -0.059017286 0.07938122 0.0111027 0.09677653 0.028442567 0.058259416 -0.07673588
-0.043239508 -0.074425474 -0.07047325 0.10537648 -0.029756775 -0.055007856 -0.03603605 -0.10344951
-0.122738786 0.06902036 0.020678375 0.02120333 0.07785503 0.1309291 0.040083215 0.090746716
-0.08435746 -0.0073092673 -0.05721987 -0.0517389 0.038650375 0.09899234 0.0124870865 -0.092855565
-0.120462075 0.09379791 0.022560092 0.078250445 0.034104787 -0.110709436 0.0067994967 0.10155118
-0.07398575 -0.11917618 -0.026332201 -0.05553703 -0.066257305 0.1335234 0.07431809 0.08905472
0.0040014987 0.032615267 -0.07050016 -0.0920682 0.0038597554 -0.12352799 -0.06574479 -0.0022805613
-0.042030957 0.027426664 0.11296923 -0.008053952 -0.109684594 0.012679809 -0.0811502 -0.070796765
-0.12989993 -0.0354209 0.064372316 0.00756806 -0.1304267 0.040505026 0.08627402 0.077576496
0.08632885 -0.022071727 0.065031275 0.098692104 0.060241345 -0.014788992 0.05156496 0.045061935
0.042917363 -0.004186825 -0.043653246 0.12662461 0.114920214 0.12833901 -0.057128847 -0.11986539
-0.104256436 0.1039073 0.10731752 0.077528924 -0.07677379 -0.114810854 0.10552082 0.048794147
0.028447913 -0.08360726 -0.024566585 -0.055949852 -0.031084428 -0.117955476 -0.114558466 -0.07213593
0.12138238 -0.028722633 -0.05376705 -0.029072085 0.14595756 -0.07739553 0.13668643 0.07723995
0.088158555 -0.02482055 0.048708618 0.050289202 0.018180765 -0.02740802 -0.094473265 -0.047249056
0.094628744 0.09229248 0.12714125 0.035918616 0.041582234 -0.10125866 -0.08062787 0.009215672
0.011321358 -0.06105159 -0.06409224 0.074382946 -0.011074989 0.079742506 0.070970036 0.07095385
0.11631231 0.12503181 0.077517845 0.012836083 -0.112611376 -0.087046474 0.113270245 -0.054269284
0.1333698 0.13111717 0.0065608746 -0.108192675 0.05008192 -0.027823389 0.01968097 -0.11145295
-0.11117258 0.1250239 0.031875852 0.07622795 -0.039905943 0.12329199 0.051335175 0.05442682
0.015319273 -0.03811831 -0.030269325 0.06477337 0.12410341 -0.11963131 -0.10364867 0.084529825
-0.015682431 -0.07497657 -0.06454085 0.06437595 -0.030448325 -0.050041206 0.101133876 -0.016474947
0.057259914 -0.017325738 -0.02265632 -0.092617534 0.023746494 0.026440475 -0.008445661 -0.09478587
-0.1305965 -0.05348513 0.06482105 0.024126612 0.057200335 -0.029585227 -0.04981784 -0.12503622
00000000: 1d60 0abd 55a8 05be ab84 de3d 1a96 adbd
00000010: 5727 05be a291 98bd 8389 d13d 72f5 12bd
00000020: 9448 903d ec7e 57bc cebb 11bd 005d e33c
00000030: 95ac cebd 2668 bd3d eb5e 063e 30d7 903d
00000040: 4210 a83d efe3 e7b9 255f 063e ed08 afbd
00000050: f4cf 75bd 9663 0abd a6cd bc3d 9cc3 5e3d
00000060: 7e5f 44bd 2177 e03a 365a 363d 847c f2bc
00000070: 826e acbd 9f3c ea3d ea09 7ebd a802 26ba
00000080: f0ed 5f3d b6a0 b73c 0269 46bd 2eec 983d
00000090: e53e 83bc ee70 a5bc 31c1 3abd 599b 883d
000000a0: 46ac 43bd 25ef 64bd 2473 9d3c 8bd4 953d
000000b0: 3e89 dd3d edde c33d f157 f9bd fc21 02bc
000000c0: f532 0a3e f84c a83d 15d7 9abd afd6 ca3d
000000d0: 5f24 e6bd 88b5 bb3d 6f27 e93d c713 a5bb
000000e0: 2ca8 c6bd 62bb 073e 24e9 f03d 4a17 fabc
000000f0: d12f 063e e2ba 983c 1549 abbd fdb0 d8bc
00000100: ff60 183d 1cbc 71bd 9f92 a23d 19e8 353c
00000110: c632 c63d 6300 e93c 6da1 6e3d b327 9dbd
00000120: e91b 31bd 626c 98bd 4754 90bd a0cf d73d
00000130: 7bc4 f3bc eb4f 61bd 8a9a 13bd 56dd d3bd
00000140: 795e fbbd 8c5a 8d3d b265 a93c 9bb2 ad3c
00000150: 7572 9f3d 4712 063e 4c2e 243d 6ad9 b93d
00000160: 9bc3 acbd 9482 efbb 625f 6abd 2bec 53bd
00000170: db4f 1e3d 7fbc ca3d a396 4c3c 0f2b bebd
00000180: d2b4 f6bd 1e19 c03d f1cf b83c c541 a03d
00000190: 76b1 0b3d a1bb e2bd 50ce de3b 11fa cf3d
000001a0: d785 97bd a412 f4bd a1b6 d7bc cc7a 63bd
000001b0: e9b1 87bd 5cba 083e 1534 983d 5262 b63d
000001c0: 011f 833b 9697 053d 6362 90bd 418e bcbd
000001d0: f3f3 7c3b 3efc fcbd 34a5 86bd 7875 15bb
000001e0: a728 2cbd e2ad e03c 695c e73d b9f4 03bc
000001f0: 51a2 e0bd f9be 4f3c 1332 a6bd e5fd 90bd
00000200: 7d04 05be 8115 11bd a2d5 833d 7dfd f73b
00000210: 948e 05be 99e8 253d 6fb0 b03d 6de0 9e3d
00000220: 2ecd b03d c4cf b4bc 1e2f 853d 161f ca3d
00000230: a1bf 763d 874d 72bc c835 533d dd92 383d
00000240: 1eca 2f3d a231 89bb bfcd 32bd e2a9 013e
00000250: 4a5b eb3d 4d6b 033e f0ff 69bd fc7b f5bd
00000260: 6684 d5bd 5acd d43d 4ac9 db3d 7cc7 9e3d
00000270: 943b 9dbd f421 ebbd 4d1b d83d 5fdc 473d
00000280: 990b e93c 483a abbd dd3f c9bc ac2b 65bd
00000290: c5a4 febc a492 f1bd a19d eabd 01bc 93bd
000002a0: 5397 f83d ba4b ebbc d73a 5cbd 9528 eebc
000002b0: e675 153e 8c81 9ebd 87f7 0b3e fb2f 9e3d
000002c0: 798c b43d 7754 cbbc b082 473d 0dfc 4d3d
000002d0: d4ef 943c c986 e0bc 337b c1bd 3a88 41bd
000002e0: b7cc c13d d703 bd3d 5131 023e 661f 133d
000002f0: 2252 2a3d b360 cfbd 3a20 a5bd 54fd 163c
00000300: 387d 393c 3b11 7abd cb42 83bd 1656 983d
00000310: df73 35bc 0a50 a33d bd58 913d 4150 913d
00000320: 2635 ee3d 5708 003e adc1 9e3d 6f4e 523c
00000330: cba0 e6bd 6c45 b2bd 3bfa e73d 7849 5ebd
00000340: 1892 083e 9443 063e 9bfc d63b 1f94 ddbd
00000350: b322 4d3d e0ed e3bc fc39 a13c 7241 e4bd
00000360: 73ae e3bd 4406 003e 4190 023d 661d 9c3d
00000370: 6a74 23bd 8380 fc3d d544 523d a8ee 5e3d
00000380: b0fd 7a3c f221 1cbd 60f7 f7bc e7a7 843d
00000390: ee29 fe3d 4301 f5bd c145 d4bd f91d ad3d
000003a0: 7178 80bc 518d 99bd fe2d 84bd 8ad7 833d
000003b0: c46e f9bc 02f8 4cbd 471f cf3d 78f6 86bc
000003c0: 5f89 6a3d b5ee 8dbc bf99 b9bc 43ae bdbd
000003d0: 0288 c23c b299 d83c ab5f 0abc 181f c2bd
000003e0: 17bb 05be 3913 5bbd e6c0 843d 2ca5 c53c
000003f0: e64a 6a3d b85c f2bc cb0d 4cbd 7f09 00be

Target_Q_Net.linear2.bias f4 [50]
0.2448922 -0.18916208 0.24308206 -0.06307797 0.25051224 -0.0965651 -0.03511058 -0.025892856
0.08260803 0.13668764 0.0047475724 0.1066834 -0.20112312 -0.09552749 0.07587577 0.021799983
-0.049850147 -0.105799474 0.17159337 -0.042786974 0.039148364 -0.14370918 -0.06346941 0.08720387
-0.012331741 0.1086336 0.08875012 0.21221893 -0.09322163 0.06644973 -0.13053665 0.16770972
0.24573794 0.030638851 -0.21723704 -0.17697008 -0.007008679 0.0073625008 0.004426993 0.15143913
-0.055849206 -0.175535 -0.02786306 -0.1144333 -0.1341829 -0.20348504 -0.009667162 -0.16291381
0.051173814 -0.05191184
00000000: 05c5 7a3e b4b3 41be 81ea 783e 062f 81bd
00000010: 2443 803e ecc3 c5bd 1dd0 0fbd 411d d4bc
00000020: 662e a93d d8f7 0b3e 8691 9b3b d47c da3d
00000030: 38f3 4dbe eba3 c3bd c164 9b3d e195 b23c
00000040: ab2f 4cbd 65ad d8bd 2cb6 2f3e 6541 2fbd
00000050: 095a 203d 8028 13be 40fc 81bd f197 b23d
00000060: 120b 4abc 4b7b de3d 9fc2 b53d eb4f 593e
00000070: fbea bebd cc16 883d 66ab 05be 19bc 2b3e
00000080: baa2 7b3e 54fe fa3c 6373 5ebe a537 35be
00000090: 10a9 e5bb 2241 f13b 4f10 913b dc12 1b3e
000000a0: 23c2 64bd 72bf 33be 1241 e4bc 025c eabd
000000b0: 3e67 09be 625e 50be 0463 1ebc e1d2 26be
000000c0: a29b 513d 82a1 54bd

Target_Q_Net.fc_A.weight f4 [3, 50]
-0.11414048 -0.11123973 0.027120259 -0.00544522 -0.06619506 0.09048807 0.10853186 -0.06119187
-0.027789898 0.117508054 -0.009566705 0.110398665 -0.04825714 -0.09261515 -0.02885369 -0.12508053
-0.101243384 -0.028527757 0.03395991 -0.03440516 0.002843613 -0.11972403 -0.104871504 -0.0066370484
-0.017877571 -0.048971206 0.037059825 -0.024666606 0.082811624 0.033741493 0.06905451 -0.02508149
-0.08822344 -0.00531355 -0.008456906 -0.048556387 -0.13328993 0.093654126 0.047314826 -0.0066354983
-0.0952326 -0.049188312 0.07248642 -0.09014371 -0.018303633 0.044463046 -0.03407824 -0.104848206
0.08690684 -0.015421016 0.08716015 -0.12127938 -0.07944526 -0.0550996 -0.0017712469 0.095245704
-0.10729164 -0.09074714 0.06944217 0.009199296 -0.0533401 -0.05427462 0.08489553 -0.12217021
0.10967334 -0.07023419 0.031980827 0.08030881 0.044912163 0.0070555094 0.09687184 0.13111007
-0.104401246 -0.05989967 0.07843307 -0.11386492 0.10145092 -0.051196266 -0.040588282 -0.14274804
0.044510037 -0.029464627 -0.043812755 0.129047 0.022567684 0.04402437 -0.007519775 0.026696745
-0.03699977 -0.04516588 -0.118769996 0.007244031 0.1314284 0.06422941 -0.0322619 0.09704289
0.07805686 0.102569245 -0.049246512 -0.081221156 -0.00583958 -0.085931174 -0.028874854 0.024875177
-0.09630494 -0.035866868 0.027225867 -0.09327914 -0.069803804 -0.062236745 0.0610585 -0.0023116043
-0.043224152 0.08846265 0.12440195 -0.009740043 -0.07066116 -0.031373423 0.10269915 0.086203754
-0.060885854 -0.12717539 0.092574246 -0.019093651 0.012952003 -0.046952296 0.102494895 -0.035056368
0.050038524 0.012252013 0.096783616 -0.027594758 -0.08271732 -0.043535836 0.09426542 -0.043091204
-0.11849415 0.0034745813 0.09415363 0.058150288 -0.1421025 -0.09215965 0.0016437132 0.10855939
0.044453207 0.099865586 0.041084263 0.069536075 -0.09938564 0.07691306
00000000: 7cc2 e9bd a8d1 e3bd 4e2b de3c d16d b2bb
00000010: 4791 87bd cf51 b93d f445 de3d 54a4 7abd
00000020: a4a7 e3bc 10a8 f03d abbd 1cbc b218 e23d
00000030: 47a9 45bd 03ad bdbd 935e ecbc 1c15 00be
00000040: b158 cfbd 0bb3 e9bc 8c19 0b3d 6dec 0cbd
00000050: e95b 3a3b df31 f5bd dfc6 d6bd 997b d9bb
00000060: fc73 92bc 0896 48bd 0bcc 173d 9f11 cabc
00000070: 2499 a93d 8534 0a3d 736c 8d3d b277 cdbc
00000080: 7eae b4bd 4a1d aebb d68e 0abc 10e3 46bd
00000090: 287d 08be bccd bf3d 31cd 413d 986e d9bb
000000a0: 4f09 c3bd af79 49bd c373 943d 449d b8bd
000000b0: 80f1 95bc e21e 363d a095 0bbd a8ba d6bd
000000c0: 37fc b13d 6ea8 7cbc 0581 b23d 5361 f8bd
000000d0: 32b4 a2bd 1eb0 61bd 2f29 e8ba 2e10 c33d
000000e0: b8bb dbbd a3d9 b9bd b237 8e3d a5b8 163c
000000f0: 267b 5abd 104f 5ebd b5dd ad3d 6034 fabd
00000100: 6b9c e03d f1d6 8fbd 54fe 023d f278 a43d
00000110: d1f5 373d e731 e73b be64 c63d b841 063e
00000120: 52d0 d5bd 5b59 75bd 84a1 a03d 0332 e9bd
00000130: 80c5 cf3d 2db3 51bd e63f 26bd 8b2c 12be
00000140: 2850 363d cd5f f1bc 0175 33bd e624 043e
00000150: dddf b83c e652 343d 7268 f6bb 22b3 da3c
00000160: 128d 17bd dcff 38bd af3d f3bd 565f ed3b
00000170: 2b95 063e b58a 833d 0e25 04bd 6cbe c63d
00000180: 46dc 9f3d d30f d23d b6b6 49bd 4757 a6bd
00000190: f359 bfbb affc afbd f58a ecbc 07c7 cb3c
000001a0: 863b c5bd 23e9 12bd c808 df3c 2209 bfbd
000001b0: 4cf5 8ebd f5eb 7ebd 7a18 7a3d 497e 17bb
000001c0: cf0b 31bd e82b b53d 73c6 fe3d b494 1fbc
000001d0: ccb6 90bd 6b81 00bd ef53 d23d 988b b03d
000001e0: 7263 79bd 443a 02be 9197 bd3d 4a6a 9cbc
000001f0: a334 543c 0d51 40bd d8e8 d13d 4497 0fbd
00000200: 32f5 4c3d abbc 483c 7d36 c63d 670e e2bc
00000210: b367 a9bd a252 32bd 3b0e c13d 6780 30bd
00000220: 10ad f2bd cdb5 633b 9ed3 c03d ff2e 6e3d
00000230: 5183 11be 33be bcbd dd71 d73a 6354 de3d
00000240: 9114 363d 5486 cc3d f947 283d ee68 8e3d
00000250: b38a cbbd 9884 9d3d

Target_Q_Net.fc_A.bias f4 [3]
0.022900267 -0.11201848 -0.066826686
00000000: 5799 bb3c f269 e5bd 6edc 88bd

Target_Q_Net.fc_V.weight f4 [1, 50]
0.075655475 -0.06437287 0.113180965 -0.06245689 0.09763173 -0.02558312 0.09508162 -0.06956989
0.03757248 0.048593197 -0.09144731 0.05224707 -0.075173825 0.021398691 0.11174583 -0.011995384
-0.021061989 -0.06415248 0.056227162 -0.097480275 -0.06383256 -0.108990766 0.008627079 0.027819647
0.021832213 0.07009145 -0.00072619616 0.02978783 -0.055990092 0.11881222 -0.01199008 -0.00092665333
0.10747816 -0.05359032 -0.07799488 -0.115217395 -0.09437014 0.007860067 0.06258886 0.015723752
-0.02069273 -0.023437155 -0.07716984 -0.04803326 -0.069526345 -0.0224013 0.010914795 -0.066258796
0.006479225 0.039991345
00000000: 42f1 9a3d ecd5 83bd 6ccb e73d ccd2 7fbd
00000010: 25f3 c73d b193 d1bc 27ba c23d a97a 8ebd
00000020: 9ae5 193d a909 473d ba48 bbbd 0601 563d
00000030: bcf4 99bd 4f4c af3c ffda e43d 4988 44bc
00000040: 318a acbc 6062 83bd 744e 663d bda3 c7bd
00000050: a5ba 82bd 8d36 dfbd 9858 0d3c 07e6 e33c
00000060: 78d9 b23c 1b8c 8f3d 335e 3eba 9b05 f43c
00000070: de55 65bd d253 f33d 0a72 44bc a7ea 72ba
00000080: 821d dc3d 8681 5bbd c8bb 9fbd 19f7 ebbd
00000090: 2245 c1bd 83c7 003c 972e 803d 19cf 803c
000000a0: cd83 a9bc 47ff bfbc 390b 9ebd 86be 44bd
000000b0: d463 8ebd ee82 b7bc f8d3 323c b1b2 87bd
000000c0: ae4f d43b f7cd 233d
