Model/ILQN/result/DQN/agent_ddqn_002415_SZ_0_5.pt (torch_old, 84180 bytes, 12 tensors)

Q_net.linear1.weight f4 [50, 150]
000000 07 c6 df bd 9f 9a 08 be 7c d4 fe bd ae 71 c5 bd
       -0.109264426 -0.13340233 -0.12442872 -0.09640823
000010 c0 c4 f0 3d 51 68 2c be 9a ed 2b be 5c 14 8a 3d
       0.11756277 -0.16836669 -0.16789857 0.067421645
000020 20 37 fb bb d8 be 59 bd 48 1e 03 be c3 79 66 bd
       -0.0076664835 -0.05316052 -0.1280452 -0.056268465
000030 22 68 92 bc 2a cc 0d be fc e2 9f 3d 67 cd 47 be
       -0.01787192 -0.13847414 0.07806966 -0.19511949
000040 44 bf 09 be de 5a cd 3c d5 98 40 bd 82 f7 80 bc
       -0.13451868 0.025067743 -0.047020752 -0.01574302
000050 7e d6 80 bd 52 7c 77 bd df d6 53 3b f4 ce 45 bd
       -0.06290911 -0.060421295 0.0032324118 -0.04829307
000060 47 6e a4 3c 20 f6 70 be f6 98 f4 bd e2 cf 5c 3d
       0.020072116 -0.23531389 -0.119432375 0.05390919
000070 33 43 3a bd 73 ce f0 bb b9 11 bf bd c4 64 b7 bd
       -0.045474242 -0.0073488294 -0.09329552 -0.089547664
000080 08 5e c2 bd 07 14 c7 bd 64 85 91 3d 41 7e 9b be
       -0.09490591 -0.09720617 0.0710552 -0.30369762
000090 e3 dd 8b bd 8f 5c f7 3b b3 39 fb bd 69 ce 2b 3d
       -0.06829431 0.0075488756 -0.12266865 0.041944895
0000a0 bd a3 bc bb 11 b9 8e bd 94 33 02 be 5c a8 7b bd
       -0.005756824 -0.06968892 -0.12714988 -0.061439857
0000b0 71 62 1d 3d 49 fa 8a be c6 c7 0b be a6 07 fc 3c
       0.03842396 -0.27144077 -0.13650426 0.030765366
0000c0 c8 1c 31 bd f2 a9 49 bd 8a d4 a8 bd 4f 55 49 3c
       -0.04324034 -0.049234338 -0.082436636 0.012288406
0000d0 48 d7 0f be 90 cf e9 bb 10 63 0d 3e 84 b7 28 be
       -0.14046967 -0.007135339 0.1380732 -0.16476256
0000e0 bb 4e e2 bd 12 ac 2e bd c5 ae bd bb e5 03 8b 3c
       -0.11050173 -0.042644568 -0.0057886564 0.01696963
0000f0 29 bb d8 bd 7e 96 d3 bd c1 ef e8 bc e6 5b 3e 3c
       -0.10582573 -0.103314385 -0.028434636 0.01161859
000100 36 41 6e 3d 36 b6 4e be 37 18 01 be 64 23 2d 3c
       0.05816766 -0.20186695 -0.12606893 0.01056752
000110 be 7b a6 bd 87 6f 45 3d 2f 78 bd bd ee cf 02 bd
       -0.08129071 0.048202064 -0.09251439 -0.03193658
000120 e0 c9 c1 bd d1 17 3f bd 91 a7 ab 3d cd a7 2c be
       -0.09462333 -0.046653572 0.0838157 -0.16860886
000130 06 03 28 be 76 a2 cb bd e4 b1 09 bd 6b 07 e1 b9
       -0.16407403 -0.09943096 -0.033616915 -0.0004292087
000140 4e d1 67 bd b9 16 0b be 6b d6 bf bd c4 e2 6e bd
       -0.056596093 -0.13582887 -0.09367069 -0.05832173
000150 7f 96 b0 3d d5 a8 c1 bd 45 75 ec 3d 97 c1 e7 bd
       0.08622455 -0.0945603 0.11545805 -0.11316221
000160 0c 18 f0 bd b2 eb 88 3c 75 58 c0 bc 38 b5 c6 bb
       -0.117233366 0.01671395 -0.02347968 -0.0060640834
000170 21 e4 fe bd fc f2 d5 bd 35 53 9b 3d e3 2a 1b be
       -0.12445856 -0.10446736 0.0758423 -0.15153079
000180 03 e4 8a 3c e1 6f 00 bd f7 80 60 bd 27 61 90 bd
       0.016954428 -0.031356696 -0.05481049 -0.0704978
000190 66 5e 0e be 8e 96 b2 bd 8d 41 3f bd 2a 7d 23 bd
       -0.13903198 -0.08720122 -0.046693373 -0.039914288
0001a0 f1 c6 f8 bc 59 0f 89 be 42 95 de bd e1 18 99 3c
       -0.0303683 -0.26769522 -0.108683124 0.018688621
0001b0 a3 ed 93 bd 21 31 98 bc 57 52 18 bc 36 b9 43 bd
       -0.0722306 -0.018578114 -0.009296975 -0.047784053
0001c0 90 88 d5 bd 02 a8 2f bd 67 9e 98 3c 87 36 33 be
       -0.10426438 -0.042884834 0.01863022 -0.1750127
0001d0 b0 ea 5c be fb cc e7 bd 58 51 89 bd 27 1b 43 3d
       -0.21573901 -0.11318394 -0.06704968 0.047633316
0001e0 cb 60 ac bd e2 11 1e be e4 03 0b be c1 b2 96 bc
       -0.08416899 -0.15436509 -0.13575703 -0.018395783
0001f0 d3 ec e2 bc e8 b2 8c be 6c a8 e4 bd 9d 79 30 bd
       -0.027700817 -0.27480245 -0.111649364 -0.04308473
000200 3f 37 81 bd 64 1b 0b 3b dc 1a 49 bd 48 ca 3e bd
       -0.063093655 0.0021226043 -0.04909788 -0.04657963
000210 d1 d2 18 bd c8 25 26 be f6 d4 cb 3d 05 6e 59 be
       -0.037310425 -0.1622535 0.099527285 -0.21233375
000220 06 e3 3e be 5e aa 05 be f0 34 9c bd 56 b3 80 3d
       -0.1864129 -0.13053271 -0.076272845 0.062842056
000230 35 76 8b bd cf dd 0e be 19 05 68 bd 73 54 3e bd
       -0.068096556 -0.13951801 -0.056645487 -0.046467256
000240 52 00 f8 3d fb 3a 19 be d7 f2 be 3d fe 31 bb bd
       0.12109436 -0.14963906 0.09323662 -0.09140395
000250 7a 6d 0e bd d8 3a ac bd d5 c7 29 bd ea 0f 03 bc
       -0.034772374 -0.08409661 -0.04145034 -0.0079994
000260 7b 88 aa bd b8 3d 1d 3d 3d 0b cc 3c 5e de a2 3d
       -0.08326813 0.038388938 0.024907703 0.079525694
000270 a7 95 01 bd 6c be 70 3d 49 8f 17 bc 01 da 18 3d
       -0.03163686 0.05877535 -0.00925047 0.03731728
000280 44 8f 17 3d 44 ce a9 3c e9 de eb 3c 1a 6e d8 bd
       0.037001863 0.020728238 0.028792815 -0.10567875
000290 97 2a d2 bd ed 9f 2a 3e 0e 64 5a 3e 71 a4 33 3e
       -0.102620296 0.1666257 0.2132723 0.17543198
0002a0 08 b8 4d bd a0 3f 97 3d 49 8e 41 3c 55 82 87 3c
       -0.050224334 0.073851824 0.011813709 0.01654164
0002b0 c1 f9 b7 bd 29 f3 2b bd 07 ff 97 bd 6b 08 81 3d
       -0.08983184 -0.041979942 -0.074216895 0.06300434
0002c0 2c 67 80 3e db ce 35 3e 0f 77 1d 3d e2 60 3e 3d
       0.25078714 0.1775469 0.03844362 0.046479113
0002d0 35 b4 26 3c 2c b4 4d 3c 71 8b 22 bc 1e ea d6 3c
       0.010174801 0.012555163 -0.009920941 0.026234683
0002e0 82 31 33 bd 7e 92 06 3e e3 f6 4b 3d b9 75 bd 3d
       -0.043748386 0.1314182 0.049795996 0.092509694
0002f0 2f 87 94 bd b7 0d d9 bb 93 c4 27 3d 6a 06 02 bd
       -0.07252347 -0.0066239494 0.040958952 -0.0317444
000300 c2 fe 7c bb 55 1c bd bd 3c 46 73 bd cd 71 d7 3d
       -0.0038603996 -0.092339195 -0.059393153 0.10519753
000310 70 72 3c bc a4 b6 a7 3c ca 7a b2 3c 73 8a 37 bc
       -0.011501893 0.020472832 0.021787066 -0.011202442
000320 7c cc db 3c 56 90 97 bd 8e af 54 bd 38 df 9c bd
       0.026830904 -0.07400577 -0.051925234 -0.07659763
000330 4e 1b 4a bd 02 10 c6 bb 24 15 0b bc f5 86 c3 ba
       -0.049342446 -0.0060443887 -0.008488927 -0.001491754
000340 ca 8b 52 bd a0 11 78 bc 69 c6 ba bd 11 9a 4f bc
       -0.051402844 -0.015140921 -0.09119875 -0.01267101
000350 cf 9e c0 3c cf 5c 43 3c 62 b9 a4 bd ab c2 8c 3c
       0.023513226 0.011923983 -0.080431715 0.017182669
000360 ee d6 5a bd 6c 31 c7 3d ec b0 1e 3d 93 e0 74 bd
       -0.05342763 0.09726223 0.038742945 -0.059784483
000370 2d 55 e3 bd 57 42 e8 bd cb 70 45 bd f4 91 b7 bd
       -0.1110023 -0.11340778 -0.04820327 -0.08963385
000380 a4 df 4d 3b 30 55 0b be b1 95 8f bd 5f 18 01 3e
       0.0031413818 -0.13606715 -0.07010973 0.12606953
000390 47 b2 3c bc ff 9c 1f 3d 35 be 32 3c a4 86 d4 bd
       -0.011517114 0.038968083 0.010909607 -0.10377243
0003a0 f6 5c 64 bd cd 12 df 3c 4d 0a 4f bd ff a6 ca bd
       -0.055752717 0.027230645 -0.050546933 -0.09895133
0003b0 48 68 86 bd b9 81 ef 3c 98 73 ef 3c 76 20 b6 bd
       -0.06562859 0.029236661 0.029229924 -0.0889291
0003c0 61 07 f2 bd e9 2a dc bd f9 16 f2 bd d5 59 84 bd
       -0.11817814 -0.10750372 -0.11820788 -0.064624466
0003d0 92 ca c1 b8 cc b2 66 bd e1 73 01 3d ae 00 9f 3d
       -9.240689e-05 -0.056322858 0.03160465 0.077638015
0003e0 58 63 0d bd 4a 8a 9d bd 8d dd 90 bc c7 f2 71 3c
       -0.03451857 -0.07692392 -0.017683769 0.014767355
0003f0 c8 70 00 3d e8 76 8a 3c 87 b7 08 be b2 0a 28 be
       0.031357557 0.016902402 -0.1335126 -0.1641033

Q_net.linear1.bias f4 [50]
000000 65 86 88 3d f4 b8 8d bd 23 f1 82 3c 67 e6 c5 bd
       0.06666259 -0.06920043 0.015984124 -0.096630864
000010 4a f5 8a bc 9e 0b 43 bc 48 dc 20 bd 8a 5a a7 bd
       -0.016962666 -0.011904625 -0.039272577 -0.08171566
000020 8e be 52 3e a3 45 cd bc ab 14 0c bd 28 2a 8c 3c
       0.20580503 -0.02505762 -0.034199398 0.017109945
000030 60 ac 8e 3d 3b ef 03 3e 3e a6 29 3e 2f 8e 1a 3e
       0.06966472 0.12884228 0.16567323 0.15093301
000040 65 af 36 3c 76 78 a5 bd 66 44 09 be 2e 8a e3 3d
       0.011150216 -0.08079617 -0.13404998 0.1111034
000050 a9 99 17 be 14 d6 e6 bd 68 4f 84 be ba 64 14 3d
       -0.1480471 -0.11271301 -0.25841832 0.036228873
000060 9e a6 eb 3c 03 61 c8 bd b1 93 32 bd f3 04 2b 3e
       0.028765973 -0.097841285 -0.04359788 0.16701107
000070 7e eb eb bd f5 04 aa 3d 7e 77 34 bd f7 10 4c 3e
       -0.11519526 0.08301727 -0.04405927 0.19928347
000080 fb ae b7 bd a7 d8 d1 3b c8 d5 10 3e cb 7e 18 3e
       -0.08968922 0.006404001 0.14144051 0.14892118
000090 ff 43 c3 bc bd f3 61 3d 86 93 dc 3d a0 4a 36 3d
       -0.023836134 0.055164088 0.10770325 0.04450476
0000a0 53 db 96 bd d2 da f9 bd bc ec 2a be bc 14 44 3e
       -0.073660515 -0.1219994 -0.1669187 0.19148535
0000b0 38 db 33 3d bd 88 a3 bd c4 1a 3f 3c 78 a0 34 3e
       0.043910235 -0.07985065 0.011664096 0.17639339
0000c0 fa 02 89 bc 57 d8 19 3e
       -0.016725052 0.15023933

Q_net.linear2.weight f4 [50, 50]
000000 6b c8 fa bc 1e 0f e3 3c 6a 06 9b bd 32 e4 f7 3d
       -0.030613145 0.02771717 -0.07569583 0.12104072
000010 c1 4e 46 bc e2 61 2e bd 70 6f af bd 5d c4 de bd
       -0.012103737 -0.042573817 -0.08566177 -0.10877297
000020 95 c7 98 3d 5d a3 8c bc af cc 9a bd 18 7f 3e bd
       0.07459942 -0.017167741 -0.075585715 -0.046507925
000030 71 d5 76 3c 28 ed 1e be 99 ff 6a be ac 15 76 bd
       0.015065537 -0.15520155 -0.22949065 -0.06007926
000040 ae 9e 09 be 97 8a 8e 3d 04 71 2d bd bb 25 0b 3e
       -0.13439438 0.06960028 -0.04234411 0.13588612
000050 a8 af ae 3d 00 c6 eb 3d ac 7d 0b 3e 97 38 34 bd
       0.085295975 0.11512375 0.13622159 -0.04399928
000060 3c 42 bf 3d a8 98 00 be f8 2a e1 bc 41 5b b6 bb
       0.09338805 -0.12558234 -0.02748631 -0.0055650775
000070 f8 c6 1c 3c 53 bf 0c 3e b9 c7 c5 bd 1b 24 41 3e
       0.009568922 0.1374486 -0.09657235 0.1886143
000080 50 e6 d8 3d b9 48 7c be 01 32 ce 3c 8e 3a 58 3b
       0.105908036 -0.24637116 0.025170328 0.0032993886
000090 77 f4 ee bd ad a6 56 bd 5d 02 f1 bc 6d 44 4e 3d
       -0.11667722 -0.05240505 -0.029420072 0.050358225
0000a0 86 50 89 bd 24 c2 78 3d ce 23 b3 bd b1 42 ee 3c
       -0.06704812 0.060732022 -0.087470636 0.029084535
0000b0 64 66 10 be 21 1b ff bd df 98 13 3e af de 1f 3d
       -0.14101559 -0.12456346 0.14413784 0.039030727
0000c0 0c 30 c2 bd 8a 01 dc 3d e9 a2 90 bd 9c dc aa 3d
       -0.094818205 0.10742481 -0.07062323 0.08342859
0000d0 f0 56 1c bd c5 01 2e bd 2f 31 6e 3d 71 f8 1b 3e
       -0.038168848 -0.042482156 0.058152374 0.15231492
0000e0 68 12 dd bd 66 16 81 bc 79 70 36 bd 2a 59 6b bc
       -0.10794526 -0.01575775 -0.044540856 -0.01436452
0000f0 cb 7b 0f be d6 d7 1f 3d 80 22 aa bc 14 44 2d 3d
       -0.14012067 0.039024197 -0.020768404 0.042301252
000100 83 a8 37 3d e4 3f 8a 3d 16 4c 07 3e 16 97 04 be
       0.04483844 0.067504674 0.13212618 -0.1294826
000110 09 2e fd bd 4b 1f 22 bd ad a2 0d bd ab 92 b5 bd
       -0.12362296 -0.039580625 -0.034578968 -0.08865865
000120 ed f2 0c be f6 61 49 bd b0 dc 58 3c c6 f0 25 3d
       -0.13764544 -0.04916569 0.01323621 0.040512823
000130 4e b6 c0 3c 97 9c df bd ca 5e a8 3b 79 56 a6 bd
       0.02352443 -0.10918539 0.005138253 -0.08121962
000140 05 70 d5 3d 37 77 8d 3c c3 73 0e 3d 80 94 98 bd
       0.10421757 0.01726876 0.034778368 -0.07450199
000150 8d 37 9b bc a5 76 97 3d 50 73 e4 bc 43 36 90 bd
       -0.018947387 0.073956765 -0.027887017 -0.070415996
000160 17 db de bd c6 d1 e2 3d c7 cd 03 3e be 58 b9 3d
       -0.10881632 0.11075167 0.12871467 0.09050129
000170 ef 45 50 bd b9 a4 20 bd 15 6a 11 bc a5 33 e3 3d
       -0.050847944 -0.03921959 -0.00887539 0.11093835
000180 4c da 80 bd 76 5e 46 3e af fc f6 bd 05 1a 5e bd
       -0.06291637 0.19371971 -0.12059914 -0.054224033
000190 6a f7 9c 3d c5 57 ac bb 6c 21 72 3c dd 9e f6 3c
       0.07664378 -0.0052594864 0.014778476 0.030105049
0001a0 41 42 38 3d ab e9 a5 bc 0f ec e0 bd ca bb bd bd
       0.04498506 -0.020253023 -0.109825246 -0.092643335
0001b0 29 61 f3 3d 76 18 ee bd 3b f7 5a bd 1e d0 ed bd
       0.11883766 -0.11625759 -0.053458434 -0.11611961
0001c0 1a 11 41 3d 13 6f d4 3c 55 a1 db 3d 13 a8 cb 3c
       0.04713545 0.02593187 0.10724131 0.024860417
0001d0 79 2b f1 3d a4 b1 04 bc df d0 75 3d b2 cd 8d 3d
       0.1177587 -0.008098993 0.060013648 0.06923999
0001e0 37 02 b4 bd ee 8f c0 bb 8f ae 9d bc 9b 7b 00 be
       -0.08789485 -0.0058765328 -0.019248275 -0.12547152
0001f0 95 01 88 3d 25 9e ed bd cd 1a 8b 3d 7c 19 ea bc
       0.06640927 -0.11602429 0.06792221 -0.028576605
000200 06 22 de bd ec f0 05 3e 50 0f 4c bc 3c 7e 01 be
       -0.10846333 0.13080186 -0.012454823 -0.12645811
000210 3b c9 55 3d 4e c1 ab 3d 41 83 b2 bd 56 08 10 3e
       0.05219386 0.08386479 -0.08716441 0.1406568
000220 fe 58 c8 bd c0 22 cd 3d 82 b6 b0 3c 85 93 a3 3d
       -0.09782599 0.10016394 0.021571402 0.079871215
000230 40 e6 ad 3d 5f 18 c1 3c 56 34 5e 3d 72 95 0c 3d
       0.08491182 0.023571191 0.05424913 0.03432221
000240 cc 64 7b bd de 09 84 bd 52 ad e3 bd 1c eb 99 bc
       -0.061375424 -0.064471945 -0.111170426 -0.018788867
000250 8b 33 80 3d 4a ec aa 3d 49 b4 a4 3d a5 88 cb bc
       0.06259831 0.0834585 0.08042199 -0.02484543
000260 47 5a f0 bd ce 29 bb bc 74 e3 64 bd 93 ab 32 bc
       -0.11735969 -0.022847082 -0.05588098 -0.010905164
000270 68 fa be 3a fc db d7 3b 71 1c 75 3c 8d 1a fe bd
       0.0014570476 0.0065875035 0.014960394 -0.12407408
000280 c8 ed 01 3e 62 84 11 3e 69 e3 02 3e 8a 7a 52 3d
       0.12688363 0.14210656 0.12782063 0.051386394
000290 ec 4d ae 3d 20 cc 63 3d 52 bc 0e 3e 2f 8b b7 bd
       0.08510956 0.05561459 0.13939026 -0.08962094
0002a0 1e c2 21 bd a3 2f 15 3e e0 ca 21 3c 17 77 56 bd
       -0.039491765 0.14568953 0.009875029 -0.052359667
0002b0 9b 50 50 bd 95 20 42 bd 54 03 02 3e 46 8f 77 bd
       -0.05085812 -0.047394354 0.12696582 -0.06043937
0002c0 ac 5c 0b be 09 83 05 3d c4 df 06 3d 95 2e 42 3d
       -0.1360957 0.032595668 0.032928243 0.047407705
0002d0 55 42 b9 bd e8 de d0 3d 4c c7 ec bd 2e af ea bd
       -0.09045855 0.10198766 -0.1156145 -0.11459194
0002e0 81 a3 26 3e b1 37 3f 3d e8 a9 a4 bd 37 80 3e bd
       0.1627331 0.04668397 -0.080402195 -0.046508994
0002f0 e1 a0 a4 3d a3 32 e4 bd 50 ab f3 3d 99 ef f0 bd
       0.08038498 -0.11142471 0.1189791 -0.117644496
000300 98 1d 1f 3c f6 09 ff 3d 4d 1e f4 3d 75 ed 06 3e
       0.009711646 0.12453072 0.11919842 0.1317652
000310 44 6e 01 be ee 9c 67 bd 91 73 0f 3e ff d0 a4 3d
       -0.12639719 -0.056546144 0.14008929 0.08047675
000320 bc 58 0a bd 6a 6f 09 bc 33 09 0c 3e 9d ee ac bd
       -0.03377603 -0.00838838 0.13675384 -0.08443949
000330 1d d8 92 3d 3d e9 2d bd 81 73 f1 bd 19 00 05 3e
       0.071701266 -0.04245876 -0.11789609 0.12988319
000340 a6 15 d5 bc 2f 80 9b bd d9 a7 51 be 48 84 77 bc
       -0.0260113 -0.075928085 -0.20474185 -0.015107222
000350 a5 7f 15 3e e2 c3 41 bd 36 fe cd 3d c6 36 2d be
       0.14599474 -0.04730595 0.100582525 -0.16915426
000360 22 67 5d 3d 57 50 31 bd 2f ad df bd 35 10 f0 3d
       0.054053433 -0.04328951 -0.10921704 0.11721841
000370 bc 9b e9 bd ee 6e 9b bd 36 a4 60 ba b6 99 da 3d
       -0.11406657 -0.075895175 -0.0008569391 0.10673849
000380 d7 20 d0 3c cb 2f de bd 30 2d 1c be e9 04 da bc
       0.025406284 -0.108489595 -0.15251613 -0.02661367
000390 7e 35 54 bd 95 a1 be 3d 8d fe 15 3c e4 1a bb 3c
       -0.051808827 0.09308163 0.009154928 0.02283997
0003a0 02 70 32 bc 3a 4d cb bb 92 d4 0c 3d ef 83 0b be
       -0.010890963 -0.0062042745 0.03438241 -0.13624547
0003b0 f7 da b1 bd aa a3 37 3e 00 ae cf bc ea 0f 87 bc
       -0.08684342 0.17933527 -0.025351524 -0.01648708
0003c0 92 15 2e bc 00 4d 92 bd 29 8d ac 3d 30 2e f1 3d
       -0.01062526 -0.07143593 0.08425362 0.11776388
0003d0 85 d5 03 3e c9 88 63 bd 83 9a 7a bd 4f 41 c6 3d
       0.1287442 -0.05555037 -0.06118251 0.096804254
0003e0 4e 84 1d be 81 34 3a 3d 81 86 95 bc 68 ef 42 bd
       -0.15382501 0.045460228 -0.018252613 -0.047591597
0003f0 06 1f 84 bd f2 fa f1 3d 53 40 da 3d 36 98 b5 bd
       -0.0645123 0.11815442 0.106568 -0.088669226

Q_net.linear2.bias f4 [50]
000000 25 30 f8 bc b0 2f 00 be a3 89 54 3e 1e 97 47 3e
       -0.030296395 -0.12518191 0.20755629 0.1949124
000010 3a 3b 13 3e 0f fe c0 bd 69 e6 7c 3d 76 6b 5f 3e
       0.14378062 -0.09423458 0.061743174 0.21818337
000020 fc 51 69 be 25 cf 1c 3d 44 48 db bd ec 65 b3 bd
       -0.22785181 0.038283486 -0.10707143 -0.087596744
000030 58 36 6c 3e 4c f3 f0 bd df 31 63 3d 73 a0 26 be
       0.23067605 -0.11765155 0.055467483 -0.16272144
000040 b3 f2 f2 bb 58 a1 76 3d 1f 95 3c 3e 4d 9d 2f be
       -0.007414186 0.060212463 0.1841626 -0.17149849
000050 64 8b 83 be 7c 3a 98 3e 8b 55 2c 3e b8 a3 8b be
       -0.25692284 0.2973212 0.16829507 -0.27273345
000060 21 98 3d 3d 6b 00 67 be 21 85 f7 bd 58 4f 13 be
       0.04628766 -0.22558753 -0.12085939 -0.14385736
000070 7d 33 69 3e 51 aa 62 3e aa 03 cc bd a0 e1 f2 bd
       0.22773547 0.22135283 -0.09961636 -0.11859441
000080 7c 28 64 3e 7d ff 12 3d 78 07 05 3c 97 39 3e 3e
       0.22281069 0.035888184 0.0081194565 0.18576656
000090 c0 20 06 be 3a 27 80 3e 9b 7b 10 be 61 c9 85 bd
       -0.1309843 0.25029927 -0.14109652 -0.065325506
0000a0 38 3f 5e 3d 9b e8 39 3e 01 23 98 3d 86 81 dc 3d
       0.05425951 0.18155138 0.074285515 0.10766892
0000b0 3c 75 d2 3d f6 fc 1b 3c c2 1f 1a 3d c4 4b f4 bd
       0.10276267 0.00952076 0.037627943 -0.11928514
0000c0 4c d0 ac 3b 7c 41 1e 3e
       0.0052738544 0.15454668

Q_net.linear3.weight f4 [3, 50]
000000 49 11 3b 3c 6a eb e1 3d 95 e6 f2 bc 6e ec 0b 3e
       0.011417695 0.1103123 -0.029650966 0.1366441
000010 91 f2 9b bd 8e 8e eb 3d 08 55 10 bd 53 33 01 3e
       -0.07614625 0.115017995 -0.035237342 0.12617235
000020 a6 9f 52 3d e3 8c ff 3d 64 55 18 3d 3a 5a ab bc
       0.051421784 0.12478044 0.03719081 -0.020917047
000030 20 23 e5 bd a2 b6 97 3d 15 45 cb 3d 29 fe ec bd
       -0.1118834 0.07407881 0.09925286 -0.11571915
000040 6d 7d 6f bd 74 94 06 3e 94 20 f4 3d ce ca 88 bd
       -0.058469225 0.13142568 0.11920276 -0.06679307
000050 32 03 a7 bc ca f8 97 bc eb 8f 3a 3d 6a 4f 00 be
       -0.020387266 -0.018551249 0.045547407 -0.12530294
000060 e3 75 7f bc 21 d0 53 3d d8 99 04 3d 96 94 b2 bd
       -0.015592071 0.05171216 0.03237328 -0.08719747
000070 87 76 68 3c 21 e6 98 3d 14 07 4f bc c3 6a 6d bd
       0.014188415 0.074657686 -0.012635965 -0.057963144
000080 dc 49 fd 3d ee a1 79 bd a2 0f b1 3d 77 80 28 3d
       0.12367603 -0.060945444 0.0864556 0.04113814
000090 f3 d0 cc bd 39 9d 66 3d b5 fd b9 3d 17 22 be 3d
       -0.100007914 0.056302283 0.09081594 0.09283846
0000a0 03 31 78 bd 50 3c aa 3d ea c5 7b bd 62 83 b0 3d
       -0.060593616 0.08312285 -0.061468042 0.08618809
0000b0 83 77 0b bd b0 89 97 3d 1c f2 a8 bd 31 4f be bd
       -0.034049522 0.07399309 -0.08249304 -0.09292448
0000c0 60 5a 84 bd 97 1d 03 3d 29 03 66 be db 44 f0 3d
       -0.0646255 0.03201064 -0.22462143 0.11731883
0000d0 db de 80 bd c9 f0 39 3d fe 74 5c bc 02 86 b1 bd
       -0.06292506 0.045395646 -0.0134556275 -0.08668138
0000e0 4f 03 b2 bd ab d9 a0 3c 2a 41 7a bd 90 ab c3 3d
       -0.08692037 0.019635042 -0.0610973 0.09554207
0000f0 ce 29 09 3e cf 35 2e 3d 15 5f c7 3c a9 53 58 3e
       0.13394853 0.042531785 0.02433733 0.21125664
000100 6c 9e 70 bd 5c 0c f3 bd 5b 70 f3 bd f2 24 c5 bc
       -0.058744833 -0.11867592 -0.118866645 -0.024065468
000110 fc 8d b7 3d ff a3 8e 3d ec ac db 3c 73 ba 6d 3d
       0.08962628 0.069648735 0.026815854 0.05803914
000120 71 b8 a1 bd a7 a9 86 3d ba f0 e9 bd b2 8a 82 bd
       -0.078965075 0.06575327 -0.11422868 -0.0637411
000130 fb 8b 3e 3d f2 7e be 3d 73 c6 ee 3d 50 26 4a 3c
       0.046520215 0.09301557 0.11658945 0.012338236
000140 e7 c9 b7 bc 18 6c af 3d 3e 28 45 bc fe 20 9a 3d
       -0.022435142 0.08565539 -0.01203352 0.07525824
000150 8f 00 c7 3d b7 0f cc bd e3 a1 20 3e 25 81 8a 3d
       0.097169034 -0.09963935 0.15686755 0.067629136
000160 39 b6 28 bc 20 ab c5 3d 1c 14 93 bd 51 22 e6 3d
       -0.0102973515 0.0965178 -0.0718157 0.11237014
000170 2f b4 d2 bc a4 ea c3 3d 8d 0d a4 3d c7 f7 c3 3c
       -0.025720684 0.095662385 0.08010397 0.02392186
000180 02 77 11 3c 12 45 d8 3d 8b e1 aa 3d c2 d5 34 bc
       0.008878471 0.10560049 0.083438 -0.011037292
000190 0f 17 9f bd 9f f4 66 bd ac f4 d8 3d 11 18 3a 3c
       -0.0776807 -0.056385633 0.105935425 0.011358277
0001a0 bc fe cb 3d 7f 80 45 bd 16 ea e9 3d a7 b5 d0 38
       0.09960696 -0.048218247 0.114216015 9.952048e-05
0001b0 d4 6a 09 be 84 da 79 bd ba e1 54 bc 50 9c dd bc
       -0.13419658 -0.06099941 -0.0129932705 -0.027052075
0001c0 82 cf 1c 3e de 88 e9 bd 49 f2 d1 3d 3e d5 08 3d
       0.15313533 -0.114030585 0.1025129 0.03340649
0001d0 83 40 f7 3c ff fe 56 3d 2c 57 9d 3d 97 e5 11 be
       0.030182129 0.052489277 0.07682642 -0.14247738
0001e0 ff f0 30 bd eb c9 24 3e e1 cc 00 3e 25 35 94 bd
       -0.04319858 0.1609265 0.12578155 -0.07236699
0001f0 5f 8e 40 3d 47 3e ea bc 80 ba 94 bc a3 e7 5c 3c
       0.047010776 -0.02859415 -0.018155336 0.013482961
000200 e5 63 e6 3d 53 8e c5 3d 11 a2 ae bd 24 c1 80 bc
       0.11249522 0.09646287 -0.085270055 -0.015717097
000210 47 10 cf bb 8c f8 e6 bd 9a fb cd bc a1 10 c7 3d
       -0.006319079 -0.11277875 -0.025144387 0.097199686
000220 17 32 21 bd b0 1d 1d 3e 96 f0 2d bd 04 b6 9e bd
       -0.03935441 0.15343356 -0.04246577 -0.077495605
000230 1f 07 28 3d ac b5 8d 3d 0b 43 a9 3c 6d 08 ea 3c
       0.041022416 0.06919417 0.020661851 0.02856847
000240 16 c6 85 3d 60 b3 b6 bd 3c 2a a2 3d 56 a6 b9 3c
       0.065319225 -0.08920932 0.07918212 0.022662323
000250 78 30 f6 3d 29 43 0b 3d
       0.120209634 0.033999596

Q_net.linear3.bias f4 [3]
000000 ee eb 5e 3e b3 c4 1e 3e 0d 19 ab 3e
       0.21769688 0.15504722 0.3341755

Target_Q_Net.linear1.weight f4 [50, 150]
000000 07 c6 df bd 9f 9a 08 be 7c d4 fe bd ae 71 c5 bd
       -0.109264426 -0.13340233 -0.12442872 -0.09640823
000010 c0 c4 f0 3d 51 68 2c be 9a ed 2b be 5c 14 8a 3d
       0.11756277 -0.16836669 -0.16789857 0.067421645
000020 20 37 fb bb d8 be 59 bd 48 1e 03 be c3 79 66 bd
       -0.0076664835 -0.05316052 -0.1280452 -0.056268465
000030 22 68 92 bc 2a cc 0d be fc e2 9f 3d 67 cd 47 be
       -0.01787192 -0.13847414 0.07806966 -0.19511949
000040 44 bf 09 be de 5a cd 3c d5 98 40 bd 82 f7 80 bc
       -0.13451868 0.025067743 -0.047020752 -0.01574302
000050 7e d6 80 bd 52 7c 77 bd df d6 53 3b f4 ce 45 bd
       -0.06290911 -0.060421295 0.0032324118 -0.04829307
000060 47 6e a4 3c 20 f6 70 be f6 98 f4 bd e2 cf 5c 3d
       0.020072116 -0.23531389 -0.119432375 0.05390919
000070 33 43 3a bd 73 ce f0 bb b9 11 bf bd c4 64 b7 bd
       -0.045474242 -0.0073488294 -0.09329552 -0.089547664
000080 08 5e c2 bd 07 14 c7 bd 64 85 91 3d 41 7e 9b be
       -0.09490591 -0.09720617 0.0710552 -0.30369762
000090 e3 dd 8b bd 8f 5c f7 3b b3 39 fb bd 69 ce 2b 3d
       -0.06829431 0.0075488756 -0.12266865 0.041944895
0000a0 bd a3 bc bb 11 b9 8e bd 94 33 02 be 5c a8 7b bd
       -0.005756824 -0.06968892 -0.12714988 -0.061439857
0000b0 71 62 1d 3d 49 fa 8a be c6 c7 0b be a6 07 fc 3c
       0.03842396 -0.27144077 -0.13650426 0.030765366
0000c0 c8 1c 31 bd f2 a9 49 bd 8a d4 a8 bd 4f 55 49 3c
       -0.04324034 -0.049234338 -0.082436636 0.012288406
0000d0 48 d7 0f be 90 cf e9 bb 10 63 0d 3e 84 b7 28 be
       -0.14046967 -0.007135339 0.1380732 -0.16476256
0000e0 bb 4e e2 bd 12 ac 2e bd c5 ae bd bb e5 03 8b 3c
       -0.11050173 -0.042644568 -0.0057886564 0.01696963
0000f0 29 bb d8 bd 7e 96 d3 bd c1 ef e8 bc e6 5b 3e 3c
       -0.10582573 -0.103314385 -0.028434636 0.01161859
000100 36 41 6e 3d 36 b6 4e be 37 18 01 be 64 23 2d 3c
       0.05816766 -0.20186695 -0.12606893 0.01056752
000110 be 7b a6 bd 87 6f 45 3d 2f 78 bd bd ee cf 02 bd
       -0.08129071 0.048202064 -0.09251439 -0.03193658
000120 e0 c9 c1 bd d1 17 3f bd 91 a7 ab 3d cd a7 2c be
       -0.09462333 -0.046653572 0.0838157 -0.16860886
000130 06 03 28 be 76 a2 cb bd e4 b1 09 bd 6b 07 e1 b9
       -0.16407403 -0.09943096 -0.033616915 -0.0004292087
000140 4e d1 67 bd b9 16 0b be 6b d6 bf bd c4 e2 6e bd
       -0.056596093 -0.13582887 -0.09367069 -0.05832173
000150 7f 96 b0 3d d5 a8 c1 bd 45 75 ec 3d 97 c1 e7 bd
       0.08622455 -0.0945603 0.11545805 -0.11316221
000160 0c 18 f0 bd b2 eb 88 3c 75 58 c0 bc 38 b5 c6 bb
       -0.117233366 0.01671395 -0.02347968 -0.0060640834
000170 21 e4 fe bd fc f2 d5 bd 35 53 9b 3d e3 2a 1b be
       -0.12445856 -0.10446736 0.0758423 -0.15153079
000180 03 e4 8a 3c e1 6f 00 bd f7 80 60 bd 27 61 90 bd
       0.016954428 -0.031356696 -0.05481049 -0.0704978
000190 66 5e 0e be 8e 96 b2 bd 8d 41 3f bd 2a 7d 23 bd
       -0.13903198 -0.08720122 -0.046693373 -0.039914288
0001a0 f1 c6 f8 bc 59 0f 89 be 42 95 de bd e1 18 99 3c
       -0.0303683 -0.26769522 -0.108683124 0.018688621
0001b0 a3 ed 93 bd 21 31 98 bc 57 52 18 bc 36 b9 43 bd
       -0.0722306 -0.018578114 -0.009296975 -0.047784053
0001c0 90 88 d5 bd 02 a8 2f bd 67 9e 98 3c 87 36 33 be
       -0.10426438 -0.042884834 0.01863022 -0.1750127
0001d0 b0 ea 5c be fb cc e7 bd 58 51 89 bd 27 1b 43 3d
       -0.21573901 -0.11318394 -0.06704968 0.047633316
0001e0 cb 60 ac bd e2 11 1e be e4 03 0b be c1 b2 96 bc
       -0.08416899 -0.15436509 -0.13575703 -0.018395783
0001f0 d3 ec e2 bc e8 b2 8c be 6c a8 e4 bd 9d 79 30 bd
       -0.027700817 -0.27480245 -0.111649364 -0.04308473
000200 3f 37 81 bd 64 1b 0b 3b dc 1a 49 bd 48 ca 3e bd
       -0.063093655 0.0021226043 -0.04909788 -0.04657963
000210 d1 d2 18 bd c8 25 26 be f6 d4 cb 3d 05 6e 59 be
       -0.037310425 -0.1622535 0.099527285 -0.21233375
000220 06 e3 3e be 5e aa 05 be f0 34 9c bd 56 b3 80 3d
       -0.1864129 -0.13053271 -0.076272845 0.062842056
000230 35 76 8b bd cf dd 0e be 19 05 68 bd 73 54 3e bd
       -0.068096556 -0.13951801 -0.056645487 -0.046467256
000240 52 00 f8 3d fb 3a 19 be d7 f2 be 3d fe 31 bb bd
       0.12109436 -0.14963906 0.09323662 -0.09140395
000250 7a 6d 0e bd d8 3a ac bd d5 c7 29 bd ea 0f 03 bc
       -0.034772374 -0.08409661 -0.04145034 -0.0079994
000260 7b 88 aa bd b8 3d 1d 3d 3d 0b cc 3c 5e de a2 3d
       -0.08326813 0.038388938 0.024907703 0.079525694
000270 a7 95 01 bd 6c be 70 3d 49 8f 17 bc 01 da 18 3d
       -0.03163686 0.05877535 -0.00925047 0.03731728
000280 44 8f 17 3d 44 ce a9 3c e9 de eb 3c 1a 6e d8 bd
       0.037001863 0.020728238 0.028792815 -0.10567875
000290 97 2a d2 bd ed 9f 2a 3e 0e 64 5a 3e 71 a4 33 3e
       -0.102620296 0.1666257 0.2132723 0.17543198
0002a0 08 b8 4d bd a0 3f 97 3d 49 8e 41 3c 55 82 87 3c
       -0.050224334 0.073851824 0.011813709 0.01654164
0002b0 c1 f9 b7 bd 29 f3 2b bd 07 ff 97 bd 6b 08 81 3d
       -0.08983184 -0.041979942 -0.074216895 0.06300434
0002c0 2c 67 80 3e db ce 35 3e 0f 77 1d 3d e2 60 3e 3d
       0.25078714 0.1775469 0.03844362 0.046479113
0002d0 35 b4 26 3c 2c b4 4d 3c 71 8b 22 bc 1e ea d6 3c
       0.010174801 0.012555163 -0.009920941 0.026234683
0002e0 82 31 33 bd 7e 92 06 3e e3 f6 4b 3d b9 75 bd 3d
       -0.043748386 0.1314182 0.049795996 0.092509694
0002f0 2f 87 94 bd b7 0d d9 bb 93 c4 27 3d 6a 06 02 bd
       -0.07252347 -0.0066239494 0.040958952 -0.0317444
000300 c2 fe 7c bb 55 1c bd bd 3c 46 73 bd cd 71 d7 3d
       -0.0038603996 -0.092339195 -0.059393153 0.10519753
000310 70 72 3c bc a4 b6 a7 3c ca 7a b2 3c 73 8a 37 bc
       -0.011501893 0.020472832 0.021787066 -0.011202442
000320 7c cc db 3c 56 90 97 bd 8e af 54 bd 38 df 9c bd
       0.026830904 -0.07400577 -0.051925234 -0.07659763
000330 4e 1b 4a bd 02 10 c6 bb 24 15 0b bc f5 86 c3 ba
       -0.049342446 -0.0060443887 -0.008488927 -0.001491754
000340 ca 8b 52 bd a0 11 78 bc 69 c6 ba bd 11 9a 4f bc
       -0.051402844 -0.015140921 -0.09119875 -0.01267101
000350 cf 9e c0 3c cf 5c 43 3c 62 b9 a4 bd ab c2 8c 3c
       0.023513226 0.011923983 -0.080431715 0.017182669
000360 ee d6 5a bd 6c 31 c7 3d ec b0 1e 3d 93 e0 74 bd
       -0.05342763 0.09726223 0.038742945 -0.059784483
000370 2d 55 e3 bd 57 42 e8 bd cb 70 45 bd f4 91 b7 bd
       -0.1110023 -0.11340778 -0.04820327 -0.08963385
000380 a4 df 4d 3b 30 55 0b be b1 95 8f bd 5f 18 01 3e
       0.0031413818 -0.13606715 -0.07010973 0.12606953
000390 47 b2 3c bc ff 9c 1f 3d 35 be 32 3c a4 86 d4 bd
       -0.011517114 0.038968083 0.010909607 -0.10377243
0003a0 f6 5c 64 bd cd 12 df 3c 4d 0a 4f bd ff a6 ca bd
       -0.055752717 0.027230645 -0.050546933 -0.09895133
0003b0 48 68 86 bd b9 81 ef 3c 98 73 ef 3c 76 20 b6 bd
       -0.06562859 0.029236661 0.029229924 -0.0889291
0003c0 61 07 f2 bd e9 2a dc bd f9 16 f2 bd d5 59 84 bd
       -0.11817814 -0.10750372 -0.11820788 -0.064624466
0003d0 92 ca c1 b8 cc b2 66 bd e1 73 01 3d ae 00 9f 3d
       -9.240689e-05 -0.056322858 0.03160465 0.077638015
0003e0 58 63 0d bd 4a 8a 9d bd 8d dd 90 bc c7 f2 71 3c
       -0.03451857 -0.07692392 -0.017683769 0.014767355
0003f0 c8 70 00 3d e8 76 8a 3c 87 b7 08 be b2 0a 28 be
       0.031357557 0.016902402 -0.1335126 -0.1641033

Target_Q_Net.linear1.bias f4 [50]
000000 65 86 88 3d f4 b8 8d bd 23 f1 82 3c 67 e6 c5 bd
       0.06666259 -0.06920043 0.015984124 -0.096630864
000010 4a f5 8a bc 9e 0b 43 bc 48 dc 20 bd 8a 5a a7 bd
       -0.016962666 -0.011904625 -0.039272577 -0.08171566
000020 8e be 52 3e a3 45 cd bc ab 14 0c bd 28 2a 8c 3c
       0.20580503 -0.02505762 -0.034199398 0.017109945
000030 60 ac 8e 3d 3b ef 03 3e 3e a6 29 3e 2f 8e 1a 3e
       0.06966472 0.12884228 0.16567323 0.15093301
000040 65 af 36 3c 76 78 a5 bd 66 44 09 be 2e 8a e3 3d
       0.011150216 -0.08079617 -0.13404998 0.1111034
000050 a9 99 17 be 14 d6 e6 bd 68 4f 84 be ba 64 14 3d
       -0.1480471 -0.11271301 -0.25841832 0.036228873
000060 9e a6 eb 3c 03 61 c8 bd b1 93 32 bd f3 04 2b 3e
       0.028765973 -0.097841285 -0.04359788 0.16701107
000070 7e eb eb bd f5 04 aa 3d 7e 77 34 bd f7 10 4c 3e
       -0.11519526 0.08301727 -0.04405927 0.19928347
000080 fb ae b7 bd a7 d8 d1 3b c8 d5 10 3e cb 7e 18 3e
       -0.08968922 0.006404001 0.14144051 0.14892118
000090 ff 43 c3 bc bd f3 61 3d 86 93 dc 3d a0 4a 36 3d
       -0.023836134 0.055164088 0.10770325 0.04450476
0000a0 53 db 96 bd d2 da f9 bd bc ec 2a be bc 14 44 3e
       -0.073660515 -0.1219994 -0.1669187 0.19148535
0000b0 38 db 33 3d bd 88 a3 bd c4 1a 3f 3c 78 a0 34 3e
       0.043910235 -0.07985065 0.011664096 0.17639339
0000c0 fa 02 89 bc 57 d8 19 3e
       -0.016725052 0.15023933

Target_Q_Net.linear2.weight f4 [50, 50]
000000 6b c8 fa bc 1e 0f e3 3c 6a 06 9b bd 32 e4 f7 3d
       -0.030613145 0.02771717 -0.07569583 0.12104072
000010 c1 4e 46 bc e2 61 2e bd 70 6f af bd 5d c4 de bd
       -0.012103737 -0.042573817 -0.08566177 -0.10877297
000020 95 c7 98 3d 5d a3 8c bc af cc 9a bd 18 7f 3e bd
       0.07459942 -0.017167741 -0.075585715 -0.046507925
000030 71 d5 76 3c 28 ed 1e be 99 ff 6a be ac 15 76 bd
       0.015065537 -0.15520155 -0.22949065 -0.06007926
000040 ae 9e 09 be 97 8a 8e 3d 04 71 2d bd bb 25 0b 3e
       -0.13439438 0.06960028 -0.04234411 0.13588612
000050 a8 af ae 3d 00 c6 eb 3d ac 7d 0b 3e 97 38 34 bd
       0.085295975 0.11512375 0.13622159 -0.04399928
000060 3c 42 bf 3d a8 98 00 be f8 2a e1 bc 41 5b b6 bb
       0.09338805 -0.12558234 -0.02748631 -0.0055650775
000070 f8 c6 1c 3c 53 bf 0c 3e b9 c7 c5 bd 1b 24 41 3e
       0.009568922 0.1374486 -0.09657235 0.1886143
000080 50 e6 d8 3d b9 48 7c be 01 32 ce 3c 8e 3a 58 3b
       0.105908036 -0.24637116 0.025170328 0.0032993886
000090 77 f4 ee bd ad a6 56 bd 5d 02 f1 bc 6d 44 4e 3d
       -0.11667722 -0.05240505 -0.029420072 0.050358225
0000a0 86 50 89 bd 24 c2 78 3d ce 23 b3 bd b1 42 ee 3c
       -0.06704812 0.060732022 -0.087470636 0.029084535
0000b0 64 66 10 be 21 1b ff bd df 98 13 3e af de 1f 3d
       -0.14101559 -0.12456346 0.14413784 0.039030727
0000c0 0c 30 c2 bd 8a 01 dc 3d e9 a2 90 bd 9c dc aa 3d
       -0.094818205 0.10742481 -0.07062323 0.08342859
0000d0 f0 56 1c bd c5 01 2e bd 2f 31 6e 3d 71 f8 1b 3e
       -0.038168848 -0.042482156 0.058152374 0.15231492
0000e0 68 12 dd bd 66 16 81 bc 79 70 36 bd 2a 59 6b bc
       -0.10794526 -0.01575775 -0.044540856 -0.01436452
0000f0 cb 7b 0f be d6 d7 1f 3d 80 22 aa bc 14 44 2d 3d
       -0.14012067 0.039024197 -0.020768404 0.042301252
000100 83 a8 37 3d e4 3f 8a 3d 16 4c 07 3e 16 97 04 be
       0.04483844 0.067504674 0.13212618 -0.1294826
000110 09 2e fd bd 4b 1f 22 bd ad a2 0d bd ab 92 b5 bd
       -0.12362296 -0.039580625 -0.034578968 -0.08865865
000120 ed f2 0c be f6 61 49 bd b0 dc 58 3c c6 f0 25 3d
       -0.13764544 -0.04916569 0.01323621 0.040512823
000130 4e b6 c0 3c 97 9c df bd ca 5e a8 3b 79 56 a6 bd
       0.02352443 -0.10918539 0.005138253 -0.08121962
000140 05 70 d5 3d 37 77 8d 3c c3 73 0e 3d 80 94 98 bd
       0.10421757 0.01726876 0.034778368 -0.07450199
000150 8d 37 9b bc a5 76 97 3d 50 73 e4 bc 43 36 90 bd
       -0.018947387 0.073956765 -0.027887017 -0.070415996
000160 17 db de bd c6 d1 e2 3d c7 cd 03 3e be 58 b9 3d
       -0.10881632 0.11075167 0.12871467 0.09050129
000170 ef 45 50 bd b9 a4 20 bd 15 6a 11 bc a5 33 e3 3d
       -0.050847944 -0.03921959 -0.00887539 0.11093835
000180 4c da 80 bd 76 5e 46 3e af fc f6 bd 05 1a 5e bd
       -0.06291637 0.19371971 -0.12059914 -0.054224033
000190 6a f7 9c 3d c5 57 ac bb 6c 21 72 3c dd 9e f6 3c
       0.07664378 -0.0052594864 0.014778476 0.030105049
0001a0 41 42 38 3d ab e9 a5 bc 0f ec e0 bd ca bb bd bd
       0.04498506 -0.020253023 -0.109825246 -0.092643335
0001b0 29 61 f3 3d 76 18 ee bd 3b f7 5a bd 1e d0 ed bd
       0.11883766 -0.11625759 -0.053458434 -0.11611961
0001c0 1a 11 41 3d 13 6f d4 3c 55 a1 db 3d 13 a8 cb 3c
       0.04713545 0.02593187 0.10724131 0.024860417
0001d0 79 2b f1 3d a4 b1 04 bc df d0 75 3d b2 cd 8d 3d
       0.1177587 -0.008098993 0.060013648 0.06923999
0001e0 37 02 b4 bd ee 8f c0 bb 8f ae 9d bc 9b 7b 00 be
       -0.08789485 -0.0058765328 -0.019248275 -0.12547152
0001f0 95 01 88 3d 25 9e ed bd cd 1a 8b 3d 7c 19 ea bc
       0.06640927 -0.11602429 0.06792221 -0.028576605
000200 06 22 de bd ec f0 05 3e 50 0f 4c bc 3c 7e 01 be
       -0.10846333 0.13080186 -0.012454823 -0.12645811
000210 3b c9 55 3d 4e c1 ab 3d 41 83 b2 bd 56 08 10 3e
       0.05219386 0.08386479 -0.08716441 0.1406568
000220 fe 58 c8 bd c0 22 cd 3d 82 b6 b0 3c 85 93 a3 3d
       -0.09782599 0.10016394 0.021571402 0.079871215
000230 40 e6 ad 3d 5f 18 c1 3c 56 34 5e 3d 72 95 0c 3d
       0.08491182 0.023571191 0.05424913 0.03432221
000240 cc 64 7b bd de 09 84 bd 52 ad e3 bd 1c eb 99 bc
       -0.061375424 -0.064471945 -0.111170426 -0.018788867
000250 8b 33 80 3d 4a ec aa 3d 49 b4 a4 3d a5 88 cb bc
       0.06259831 0.0834585 0.08042199 -0.02484543
000260 47 5a f0 bd ce 29 bb bc 74 e3 64 bd 93 ab 32 bc
       -0.11735969 -0.022847082 -0.05588098 -0.010905164
000270 68 fa be 3a fc db d7 3b 71 1c 75 3c 8d 1a fe bd
       0.0014570476 0.0065875035 0.014960394 -0.12407408
000280 c8 ed 01 3e 62 84 11 3e 69 e3 02 3e 8a 7a 52 3d
       0.12688363 0.14210656 0.12782063 0.051386394
000290 ec 4d ae 3d 20 cc 63 3d 52 bc 0e 3e 2f 8b b7 bd
       0.08510956 0.05561459 0.13939026 -0.08962094
0002a0 1e c2 21 bd a3 2f 15 3e e0 ca 21 3c 17 77 56 bd
       -0.039491765 0.14568953 0.009875029 -0.052359667
0002b0 9b 50 50 bd 95 20 42 bd 54 03 02 3e 46 8f 77 bd
       -0.05085812 -0.047394354 0.12696582 -0.06043937
0002c0 ac 5c 0b be 09 83 05 3d c4 df 06 3d 95 2e 42 3d
       -0.1360957 0.032595668 0.032928243 0.047407705
0002d0 55 42 b9 bd e8 de d0 3d 4c c7 ec bd 2e af ea bd
       -0.09045855 0.10198766 -0.1156145 -0.11459194
0002e0 81 a3 26 3e b1 37 3f 3d e8 a9 a4 bd 37 80 3e bd
       0.1627331 0.04668397 -0.080402195 -0.046508994
0002f0 e1 a0 a4 3d a3 32 e4 bd 50 ab f3 3d 99 ef f0 bd
       0.08038498 -0.11142471 0.1189791 -0.117644496
000300 98 1d 1f 3c f6 09 ff 3d 4d 1e f4 3d 75 ed 06 3e
       0.009711646 0.12453072 0.11919842 0.1317652
000310 44 6e 01 be ee 9c 67 bd 91 73 0f 3e ff d0 a4 3d
       -0.12639719 -0.056546144 0.14008929 0.08047675
000320 bc 58 0a bd 6a 6f 09 bc 33 09 0c 3e 9d ee ac bd
       -0.03377603 -0.00838838 0.13675384 -0.08443949
000330 1d d8 92 3d 3d e9 2d bd 81 73 f1 bd 19 00 05 3e
       0.071701266 -0.04245876 -0.11789609 0.12988319
000340 a6 15 d5 bc 2f 80 9b bd d9 a7 51 be 48 84 77 bc
       -0.0260113 -0.075928085 -0.20474185 -0.015107222
000350 a5 7f 15 3e e2 c3 41 bd 36 fe cd 3d c6 36 2d be
       0.14599474 -0.04730595 0.100582525 -0.16915426
000360 22 67 5d 3d 57 50 31 bd 2f ad df bd 35 10 f0 3d
       0.054053433 -0.04328951 -0.10921704 0.11721841
000370 bc 9b e9 bd ee 6e 9b bd 36 a4 60 ba b6 99 da 3d
       -0.11406657 -0.075895175 -0.0008569391 0.10673849
000380 d7 20 d0 3c cb 2f de bd 30 2d 1c be e9 04 da bc
       0.025406284 -0.108489595 -0.15251613 -0.02661367
000390 7e 35 54 bd 95 a1 be 3d 8d fe 15 3c e4 1a bb 3c
       -0.051808827 0.09308163 0.009154928 0.02283997
0003a0 02 70 32 bc 3a 4d cb bb 92 d4 0c 3d ef 83 0b be
       -0.010890963 -0.0062042745 0.03438241 -0.13624547
0003b0 f7 da b1 bd aa a3 37 3e 00 ae cf bc ea 0f 87 bc
       -0.08684342 0.17933527 -0.025351524 -0.01648708
0003c0 92 15 2e bc 00 4d 92 bd 29 8d ac 3d 30 2e f1 3d
       -0.01062526 -0.07143593 0.08425362 0.11776388
0003d0 85 d5 03 3e c9 88 63 bd 83 9a 7a bd 4f 41 c6 3d
       0.1287442 -0.05555037 -0.06118251 0.096804254
0003e0 4e 84 1d be 81 34 3a 3d 81 86 95 bc 68 ef 42 bd
       -0.15382501 0.045460228 -0.018252613 -0.047591597
0003f0 06 1f 84 bd f2 fa f1 3d 53 40 da 3d 36 98 b5 bd
       -0.0645123 0.11815442 0.106568 -0.088669226

Target_Q_Net.linear2.bias f4 [50]
000000 25 30 f8 bc b0 2f 00 be a3 89 54 3e 1e 97 47 3e
       -0.030296395 -0.12518191 0.20755629 0.1949124
000010 3a 3b 13 3e 0f fe c0 bd 69 e6 7c 3d 76 6b 5f 3e
       0.14378062 -0.09423458 0.061743174 0.21818337
000020 fc 51 69 be 25 cf 1c 3d 44 48 db bd ec 65 b3 bd
       -0.22785181 0.038283486 -0.10707143 -0.087596744
000030 58 36 6c 3e 4c f3 f0 bd df 31 63 3d 73 a0 26 be
       0.23067605 -0.11765155 0.055467483 -0.16272144
000040 b3 f2 f2 bb 58 a1 76 3d 1f 95 3c 3e 4d 9d 2f be
       -0.007414186 0.060212463 0.1841626 -0.17149849
000050 64 8b 83 be 7c 3a 98 3e 8b 55 2c 3e b8 a3 8b be
       -0.25692284 0.2973212 0.16829507 -0.27273345
000060 21 98 3d 3d 6b 00 67 be 21 85 f7 bd 58 4f 13 be
       0.04628766 -0.22558753 -0.12085939 -0.14385736
000070 7d 33 69 3e 51 aa 62 3e aa 03 cc bd a0 e1 f2 bd
       0.22773547 0.22135283 -0.09961636 -0.11859441
000080 7c 28 64 3e 7d ff 12 3d 78 07 05 3c 97 39 3e 3e
       0.22281069 0.035888184 0.0081194565 0.18576656
000090 c0 20 06 be 3a 27 80 3e 9b 7b 10 be 61 c9 85 bd
       -0.1309843 0.25029927 -0.14109652 -0.065325506
0000a0 38 3f 5e 3d 9b e8 39 3e 01 23 98 3d 86 81 dc 3d
       0.05425951 0.18155138 0.074285515 0.10766892
0000b0 3c 75 d2 3d f6 fc 1b 3c c2 1f 1a 3d c4 4b f4 bd
       0.10276267 0.00952076 0.037627943 -0.11928514
0000c0 4c d0 ac 3b 7c 41 1e 3e
       0.0052738544 0.15454668

Target_Q_Net.linear3.weight f4 [3, 50]
000000 49 11 3b 3c 6a eb e1 3d 95 e6 f2 bc 6e ec 0b 3e
       0.011417695 0.1103123 -0.029650966 0.1366441
000010 91 f2 9b bd 8e 8e eb 3d 08 55 10 bd 53 33 01 3e
       -0.07614625 0.115017995 -0.035237342 0.12617235
000020 a6 9f 52 3d e3 8c ff 3d 64 55 18 3d 3a 5a ab bc
       0.051421784 0.12478044 0.03719081 -0.020917047
000030 20 23 e5 bd a2 b6 97 3d 15 45 cb 3d 29 fe ec bd
       -0.1118834 0.07407881 0.09925286 -0.11571915
000040 6d 7d 6f bd 74 94 06 3e 94 20 f4 3d ce ca 88 bd
       -0.058469225 0.13142568 0.11920276 -0.06679307
000050 32 03 a7 bc ca f8 97 bc eb 8f 3a 3d 6a 4f 00 be
       -0.020387266 -0.018551249 0.045547407 -0.12530294
000060 e3 75 7f bc 21 d0 53 3d d8 99 04 3d 96 94 b2 bd
       -0.015592071 0.05171216 0.03237328 -0.08719747
000070 87 76 68 3c 21 e6 98 3d 14 07 4f bc c3 6a 6d bd
       0.014188415 0.074657686 -0.012635965 -0.057963144
000080 dc 49 fd 3d ee a1 79 bd a2 0f b1 3d 77 80 28 3d
       0.12367603 -0.060945444 0.0864556 0.04113814
000090 f3 d0 cc bd 39 9d 66 3d b5 fd b9 3d 17 22 be 3d
       -0.100007914 0.056302283 0.09081594 0.09283846
0000a0 03 31 78 bd 50 3c aa 3d ea c5 7b bd 62 83 b0 3d
       -0.060593616 0.08312285 -0.061468042 0.08618809
0000b0 83 77 0b bd b0 89 97 3d 1c f2 a8 bd 31 4f be bd
       -0.034049522 0.07399309 -0.08249304 -0.09292448
0000c0 60 5a 84 bd 97 1d 03 3d 29 03 66 be db 44 f0 3d
       -0.0646255 0.03201064 -0.22462143 0.11731883
0000d0 db de 80 bd c9 f0 39 3d fe 74 5c bc 02 86 b1 bd
       -0.06292506 0.045395646 -0.0134556275 -0.08668138
0000e0 4f 03 b2 bd ab d9 a0 3c 2a 41 7a bd 90 ab c3 3d
       -0.08692037 0.019635042 -0.0610973 0.09554207
0000f0 ce 29 09 3e cf 35 2e 3d 15 5f c7 3c a9 53 58 3e
       0.13394853 0.042531785 0.02433733 0.21125664
000100 6c 9e 70 bd 5c 0c f3 bd 5b 70 f3 bd f2 24 c5 bc
       -0.058744833 -0.11867592 -0.118866645 -0.024065468
000110 fc 8d b7 3d ff a3 8e 3d ec ac db 3c 73 ba 6d 3d
       0.08962628 0.069648735 0.026815854 0.05803914
000120 71 b8 a1 bd a7 a9 86 3d ba f0 e9 bd b2 8a 82 bd
       -0.078965075 0.06575327 -0.11422868 -0.0637411
000130 fb 8b 3e 3d f2 7e be 3d 73 c6 ee 3d 50 26 4a 3c
       0.046520215 0.09301557 0.11658945 0.012338236
000140 e7 c9 b7 bc 18 6c af 3d 3e 28 45 bc fe 20 9a 3d
       -0.022435142 0.08565539 -0.01203352 0.07525824
000150 8f 00 c7 3d b7 0f cc bd e3 a1 20 3e 25 81 8a 3d
       0.097169034 -0.09963935 0.15686755 0.067629136
000160 39 b6 28 bc 20 ab c5 3d 1c 14 93 bd 51 22 e6 3d
       -0.0102973515 0.0965178 -0.0718157 0.11237014
000170 2f b4 d2 bc a4 ea c3 3d 8d 0d a4 3d c7 f7 c3 3c
       -0.025720684 0.095662385 0.08010397 0.02392186
000180 02 77 11 3c 12 45 d8 3d 8b e1 aa 3d c2 d5 34 bc
       0.008878471 0.10560049 0.083438 -0.011037292
000190 0f 17 9f bd 9f f4 66 bd ac f4 d8 3d 11 18 3a 3c
       -0.0776807 -0.056385633 0.105935425 0.011358277
0001a0 bc fe cb 3d 7f 80 45 bd 16 ea e9 3d a7 b5 d0 38
       0.09960696 -0.048218247 0.114216015 9.952048e-05
0001b0 d4 6a 09 be 84 da 79 bd ba e1 54 bc 50 9c dd bc
       -0.13419658 -0.06099941 -0.0129932705 -0.027052075
0001c0 82 cf 1c 3e de 88 e9 bd 49 f2 d1 3d 3e d5 08 3d
       0.15313533 -0.114030585 0.1025129 0.03340649
0001d0 83 40 f7 3c ff fe 56 3d 2c 57 9d 3d 97 e5 11 be
       0.030182129 0.052489277 0.07682642 -0.14247738
0001e0 ff f0 30 bd eb c9 24 3e e1 cc 00 3e 25 35 94 bd
       -0.04319858 0.1609265 0.12578155 -0.07236699
0001f0 5f 8e 40 3d 47 3e ea bc 80 ba 94 bc a3 e7 5c 3c
       0.047010776 -0.02859415 -0.018155336 0.013482961
000200 e5 63 e6 3d 53 8e c5 3d 11 a2 ae bd 24 c1 80 bc
       0.11249522 0.09646287 -0.085270055 -0.015717097
000210 47 10 cf bb 8c f8 e6 bd 9a fb cd bc a1 10 c7 3d
       -0.006319079 -0.11277875 -0.025144387 0.097199686
000220 17 32 21 bd b0 1d 1d 3e 96 f0 2d bd 04 b6 9e bd
       -0.03935441 0.15343356 -0.04246577 -0.077495605
000230 1f 07 28 3d ac b5 8d 3d 0b 43 a9 3c 6d 08 ea 3c
       0.041022416 0.06919417 0.020661851 0.02856847
000240 16 c6 85 3d 60 b3 b6 bd 3c 2a a2 3d 56 a6 b9 3c
       0.065319225 -0.08920932 0.07918212 0.022662323
000250 78 30 f6 3d 29 43 0b 3d
       0.120209634 0.033999596

Target_Q_Net.linear3.bias f4 [3]
000000 ee eb 5e 3e b3 c4 1e 3e 0d 19 ab 3e
       0.21769688 0.15504722 0.3341755
