Model/ILQN/result/DQN/agent_ddqn_002594_SZ_0_5.pt (torch_old, 84180 bytes, 12 tensors)

Q_net.linear1.weight f4 [50, 150]
-0.014455473 -0.11324442 -0.061925236 0.013854012 -0.09249019 -0.033570837 0.059727635 0.054395046
-0.11120724 -0.058993395 -0.009670305 -0.058438417 -0.010599722 0.020820934 -0.107060574 -0.01364744
0.012146468 -0.047733005 -0.018696323 -0.03344017 -0.12447385 -0.12050687 -0.0038064814 -0.10842587
-0.09310878 0.092223585 -0.032744918 0.043753844 -0.031589407 0.07242197 -7.7139186e-05 -0.007336091
-0.11201283 -0.08420465 -0.06456636 -0.0243229 -0.039289176 -0.023821153 0.009609187 0.04923251
-0.116980016 -0.06794052 -0.0625605 -0.119144775 -0.0388265 -0.043202847 0.0164471 -0.024608053
0.0121833775 -0.018519735 0.0051165856 -0.048207987 0.002692248 -0.0022798772 -0.090186484 0.021204615
0.026584603 0.0028830345 -0.06359496 -0.037023906 -0.11640867 0.018055223 -0.05824175 0.026628908
-0.09445418 0.06056131 -0.001765203 -0.018131716 -0.052726895 0.07699697 -0.09097649 -0.049857087
-0.10609611 -0.09200437 -0.015100333 0.08350698 -0.07949988 -0.025185747 0.019023037 0.019310543
-0.0048958035 -0.03052706 0.009506665 -0.008510381 -0.033112757 -0.06756126 0.023237389 0.0033896528
-0.06594734 -0.035358876 0.026267732 -0.084106885 -0.056619044 -0.06364448 0.0011058938 0.051545404
-0.0025934957 0.040562972 -0.0041091996 0.020162277 0.030482657 -0.07271397 -0.002691685 -0.060365707
-0.10968462 0.0682028 -0.07993068 0.0460937 0.018739277 -0.013987669 -0.016152522 -0.058572985
0.0043680537 0.01925422 -0.08145976 -0.03845506 -0.06782226 0.0008627114 -0.035079937 0.07580182
-0.025798436 -0.009248803 -0.09672087 -0.10636595 -0.11072888 0.059275534 0.031856533 0.04521299
-0.07324383 -0.057203434 -0.100115865 -0.016322074 0.0071203387 -0.007937584 -0.057873465 0.076502495
0.07771697 -0.0586027 0.017757704 0.015294023 -0.048027635 -0.07759432 -0.10899658 -0.058810603
-0.110222764 -0.03843519 -0.030628653 0.010904163 0.018340407 -0.024981378 0.070016295 -0.014863892
0.029808214 -0.03523651 0.046284232 -0.062175736 -0.054690864 0.0018234857 -0.0038801394 0.04183967
0.07182094 0.017043013 -0.037332576 0.08494278 0.05479232 -0.03923104 -0.20097587 0.02687212
-0.02797738 0.010500862 -0.0048144558 -0.024643248 0.060937744 0.103485644 0.052728392 -0.022136306
-0.13541386 -0.015894683 0.056887727 -0.055042546 0.04299844 -0.049767174 0.01064262 0.05138542
0.08442231 -0.13687691 -0.08719466 -0.04701843 0.06007326 -0.010196621 -0.032100298 0.08161583
0.0601125 0.062291134 0.10379595 -0.04939082 0.17135136 0.09035348 0.014057014 -0.041826867
0.093337 -0.01068521 -0.031639323 0.11004674 0.12180521 0.11397341 0.029602991 0.042195562
0.07634189 -0.022425214 -0.005495809 0.033683922 0.09533939 -0.02044956 -0.011055154 0.09062299
-0.061153587 0.087614715 0.062371787 -0.056105103 -0.04096251 0.027923262 0.08208408 0.0062822225
0.10272573 -0.054556027 -0.03740843 0.029227832 0.06814764 0.03031969 0.0021276881 -0.0140384715
0.066569306 0.022767654 -0.029952258 -0.068370275 -0.17969824 0.033951223 -0.019944664 0.045113828
0.098765574 0.029249087 -0.002240223 0.04542295 0.04075169 -0.13254735 -0.017501505 0.0126011595
0.08856846 0.047411606 -0.007897732 -0.022486757 -0.031269226 -0.032092202 0.077024266 -0.15534692
00000000: a6d6 6cbc b1ec e7bd 51a5 7dbd f0fb 623c
00000010: 7f6b bdbd 9381 09bd f7a4 743d 57cd 5e3d
00000020: 9fc0 e3bd 0fa3 71bd 3370 1ebc 1f5d 6fbd
00000030: 75aa 2dbc aa90 aa3c 9342 dbbd 8399 5fbc
00000040: fb01 473c af83 43bd 0829 99bc 8ff8 08bd
00000050: 25ec febd 4ecc f6bd 2976 79bb 620e debd
00000060: d1af bebd b8df bc3d 891f 06bd 3b37 333d
00000070: e563 01bd f851 943d c9c5 a1b8 9763 f0bb
00000080: fc66 e5bd 7d73 acbd 5e3b 84bd d240 c7bc
00000090: b0ed 20bd 9424 c3bc da6f 1d3c 07a8 493d
000000a0: 3893 efbd 6624 8bbd b81f 80bd 2d02 f4bd
000000b0: 8908 1fbd 78f5 30bd 12bc 863c d496 c9bc
000000c0: ca9c 473c b3b6 97bc 08a9 a73b bd75 45bd
000000d0: 6d70 303b fe69 15bb b1b3 b8bd 4db5 ad3c
000000e0: f4c7 d93c 4bf1 3c3b 133e 82bd 61a6 17bd
000000f0: ab67 eebd 8ce8 933c e78e 6ebd de24 da3c
00000100: 3171 c1bd 230f 783d 625e e7ba f788 94bc
00000110: 28f8 57bd 96b0 9d3d e251 babd f236 4cbd
00000120: eb48 d9bd ca6c bcbd 6367 77bc b505 ab3d
00000130: d5d0 a2bd 5752 cebc 33d6 9b3c 2531 9e3c
00000140: fa6c a0bb e313 fabc d8c1 1b3c 206f 0bbc
00000150: 3ea1 07bd 8f5d 8abd 565c be3c f024 5e3b
00000160: 660f 87bd 78d4 10bd 6d2f d73c 3b40 acbd
00000170: 5fe9 67bd 0a58 82bd a3f3 903a 4621 533d
00000180: a3f7 29bb 5c25 263d 77a6 86bb 5c2b a53c
00000190: c4b6 f93c 10eb 94bd fb66 30bb 0842 77bd
000001a0: 54a2 e0bd e9ad 8b3d b2b2 a3bd bfcc 3c3d
000001b0: 1d83 993c 892c 65bc 4b52 84bc 3aea 6fbd
000001c0: e421 8f3b 07bb 9d3c 60d4 a6bd 0e83 1dbd
000001d0: 66e6 8abd 9527 623a fbaf 0fbd fc3d 9b3d
000001e0: 3e57 d3bc 4b88 17bc 9715 c6bd 64d6 d9bd
000001f0: d3c5 e2bd e7ca 723d ff7b 023d 4231 393d
00000200: dc00 96bd 264e 6abd 8c09 cdbd dfb5 85bc
00000210: bb51 e93b a40c 02bc ba0c 6dbd 57ad 9c3d
00000220: 132a 9f3d 6209 70bd 9b78 913c c893 7a3c
00000230: a0b8 44bd c5e9 9ebd 9939 dfbd 63e3 70bd
00000240: 79bc e1bd 386e 1dbd f1e8 fabc 60a7 323c
00000250: 9f3e 963c bfa5 ccbc b464 8f3d af87 73bc
00000260: 5b30 f43c 2954 10bd 8994 3d3d fcab 7ebd
00000270: 8703 60bd 0702 ef3a f049 7ebb 1360 2b3d
00000280: db16 933d ca9d 8b3c 0bea 18bd 7bf6 ad3d
00000290: e96d 603d bab0 20bd 9ecc 4dbe ec22 dc3c
000002a0: d230 e5bc cf0b 2c3c 95c2 9dbb a3e0 c9bc
000002b0: db99 793d 48f0 d33d baf9 573d 3357 b5bc
000002c0: eea9 0abe 9135 82bc 1b03 693d 4b74 61bd
000002d0: 221f 303d aad8 4bbd 625e 2e3c 8579 523d
000002e0: 9be5 ac3d 7629 0cbe 1d93 b2bd 6696 40bd
000002f0: 610f 763d ba0f 27bc 9a7b 03bd 3326 a73d
00000300: 8638 763d fd24 7f3d f992 d43d 074e 4abd
00000310: bb76 2f3e 3f0b b93d 644f 663c a652 2bbd
00000320: 7827 bf3d 0511 2fbc 3c98 01bd 2f60 e13d
00000330: 0375 f93d e46a e93d f981 f23c 41d5 2c3d
00000340: 2359 9c3d 15b5 b7bc 3016 b4bb 27f8 093d
00000350: 4c41 c33d d685 a7bc ad20 35bc 8c98 b93d
00000360: 2f7c 7abd 586f b33d 8f79 7f3d 77ce 65bd
00000370: 4ec8 27bd 53bf e43c b31b a83d 1adb cd3b
00000380: de61 d23d 2476 5fbd 9539 19bd 356f ef3c
00000390: fd90 8b3d 0061 f83c af70 0b3b 9e01 66bc
000003a0: 7d55 883d 3b83 ba3c 705e f5bc b705 8cbd
000003b0: d102 38be 7010 0b3d fe62 a3bc 47c9 383d
000003c0: 9b45 ca3d c89b ef3c b5d0 12bb 6a0d 3a3d
000003d0: 3eeb 263d 7eba 07be 515f 8fbc 1875 4e3c
000003e0: 6163 b53d ac32 423d 7d65 01bc 2636 b8bc
000003f0: 2914 00bd 1d73 03bd e6be 9d3d 4313 1fbe

Q_net.linear1.bias f4 [50]
-0.0018644991 0.06427145 0.12228927 -0.03477751 0.030784817 0.0073502674 0.0057816687 -0.0952874
-0.018276522 0.01637323 0.013356905 -0.006285829 0.001818229 -0.01182865 0.040974744 -0.01953179
0.052700024 0.0318204 0.05874729 0.0064568818 -0.051615268 0.034414764 -0.012532219 0.031177098
0.11080425 0.017268449 0.052472442 -0.13165034 0.026528032 -0.03841238 0.091513954 0.017790265
-0.030769201 0.016176313 0.09310496 0.006683125 0.005589829 0.058733378 -0.04948411 0.060595255
-0.026444053 -0.052499074 -0.014206338 0.095689096 -0.085332505 0.062396996 0.05899912 0.03413957
0.053157672 -0.016312843
00000000: 3562 f4ba c0a0 833d cc72 fa3d dd72 0ebd
00000010: 7130 fc3c 83da f03b 2774 bd3b 0a26 c3bd
00000020: a5b8 95bc 2721 863c ecd6 5a3c 5bf9 cdbb
00000030: a451 ee3a f4cc 41bc 22d5 273d 2201 a0bc
00000040: fbdb 573d 1c56 023d 00a1 703d 4094 d33b
00000050: 886a 53bd 7ff6 0c3d f053 4dbc 1d67 ff3c
00000060: 57ed e23d 9076 8d3c 58ed 563d 59cf 06be
00000070: 5151 d93c 4d56 1dbd ab6b bb3d e4bc 913c
00000080: b10f fcbc 3084 843c d0ad be3d 1efe da3b
00000090: e22a b73b 6992 703d daaf 4abd bb32 783d
000000a0: 33a1 d8bc 4509 57bd b3c1 68bc a5f8 c33d
000000b0: cfc2 aebd fe93 7f3d 10a9 713d efd5 0b3d
000000c0: dcbb 593d 83a2 85bc

Q_net.linear2.weight f4 [50, 50]
0.06899722 0.13269764 0.12195308 0.13006966 0.08009803 -0.059817273 -0.015883613 0.017605264
0.03646905 0.042915713 0.056273002 -0.051149454 0.14589262 0.0097279735 -0.122022174 0.076375164
-0.011390813 -0.012715089 0.043240815 0.14473465 -0.11316647 0.040054638 0.020578202 0.059147205
0.08130335 -0.014709602 -0.06447977 -0.022151962 0.03946804 0.06436037 -0.03802623 0.038669683
-0.12506169 0.08119607 0.07195629 -0.085076004 -0.122047074 0.008031415 -0.055171918 -0.02643812
-0.06438206 0.0046668025 0.022841146 -0.02697138 0.086387336 0.044632815 -0.030254403 0.033520266
0.1400198 -0.086155206 0.09358868 -0.09126887 -0.052696448 0.09890332 0.048521068 -0.087797865
0.123045675 -0.12239896 -0.15218776 0.0101691 0.029929262 0.04655426 -0.15189171 -0.07098962
0.04951797 -0.08130694 -0.115343906 -0.1683607 -0.06370304 0.0735401 -0.10420583 0.07467469
0.080622435 0.010604718 0.0055944524 -0.08703686 0.0060713897 -0.0381387 0.08165738 -0.04179898
0.06772979 0.08097573 -0.093164064 0.04291382 -0.06914593 0.08735057 0.055395924 0.02911305
0.00031164978 0.009515679 0.12365614 -0.07107664 -0.05772493 -0.107321784 0.10160994 0.012171768
0.08943094 0.08079232 0.13471219 -0.08322032 -0.11489599 0.068068236 0.037323073 -0.10861889
-0.12996775 -0.07243998 -0.12668535 0.15093188 -0.14878763 -0.1251229 0.008118537 0.044904776
-0.016124222 -0.029134715 -0.033196356 0.1270798 -0.0728902 -0.013162468 0.061737493 0.048266213
-0.1403485 0.03610449 0.027475996 -0.098910175 -0.09108986 -0.068116814 -0.045480028 -0.08465643
0.03871066 -0.08308527 0.08130766 0.12389 0.069027096 -0.10031684 -0.14573796 0.07161534
-0.12890118 0.08255526 -0.013076142 -0.16354796 0.08627046 0.0869599 0.024952391 0.1199857
-0.11250273 0.04952898 0.06764099 0.00852806 -0.11506696 -0.14856313 -0.20791803 0.11988682
-0.082650945 0.02058803 -0.07108845 -0.017209744 0.16512342 -0.06597419 -0.15673026 -0.063846566
-0.0033555184 -0.03937395 0.087724656 0.09990041 -0.014810701 -0.11682869 -0.011779237 0.0834587
0.096197 0.05105719 0.08007519 0.003441816 0.0738406 0.0067216116 0.06302233 -0.0013743363
0.116372295 -0.12024531 -0.16645241 -0.14128199 0.07377011 0.07023793 -0.024537189 -0.10562094
0.06912768 0.14119332 0.08898108 -0.07090089 0.11872758 -0.04684828 0.018068466 0.1082953
-0.070803285 -0.0024271049 -0.031364176 0.10867505 -0.053465504 -0.012568682 -0.069265515 0.021617476
-0.025133274 0.12940595 -0.08578726 5.62963e-05 -0.12057395 -0.01538867 0.030764686 -0.07923933
0.04017803 -0.100406475 0.07456052 0.003808807 -0.051267337 -0.012114122 -0.06120098 0.056567375
-0.05884314 0.027062744 -0.016255127 0.1318154 0.022215603 -0.078694016 -0.13073169 -0.066704154
0.050938983 -0.078977086 -0.14668016 -0.09461242 -0.025225202 0.058582615 0.038554955 0.12597194
-0.054872043 -0.09923138 0.045408238 -0.112403154 0.096610725 -0.10616805 -0.06641941 -0.0039321193
0.033561874 0.05150674 0.08071869 -0.07333019 -0.09401414 -0.0116438735 -0.06527011 0.021369813
0.009628741 0.09843284 0.0555029 -0.08797121 0.0893704 -0.0026087489 -0.0802806 -0.015466388
00000000: 6a4e 8d3d e4e1 073e 89c2 f93d fb30 053e
00000010: 700a a43d f502 75bd 5a1e 82bc ea38 903c
00000020: 9260 153d 63c8 2f3d 857e 663d 1782 51bd
00000030: e064 153e 1462 1f3c c3e6 f9bd 956a 9c3d
00000040: 88a0 3abc f352 50bc 481d 313d 5235 143e
00000050: d2c3 e7bd 5510 243d 9e93 a83c 5744 723d
00000060: 5f82 a63d 8b00 71bc f80d 84bd 0878 b5bc
00000070: 3da9 213d 5fcf 833d 64c1 1bbd 1a64 1e3d
00000080: 2c10 00be 204a a63d d25d 933d 543c aebd
00000090: d1f3 f9bd 3296 033c f3fb 61bd c294 d8bc
000000a0: beda 83bd faeb 983b 5b1d bb3c 15f3 dcbc
000000b0: d8eb b03d e6d0 363d 15d8 f7bc 8c4c 093d
000000c0: 5a61 0f3e 2472 b0bd 6cab bf3d 2ceb babd
000000d0: 3bd8 57bd d38d ca3d 07be 463d 5ecf b3bd
000000e0: 5fff fb3d 4eac fabd 1cd7 1bbe 4c9c 263c
000000f0: 362e f53c aeaf 3e3d 8089 1bbe 0263 91bd
00000100: 5bd3 4a3d 4184 a6bd 6d39 ecbd bf66 2cbe
00000110: bd76 82bd 319c 963d de69 d5bd 0bef 983d
00000120: 601d a53d 69bf 2d3c ab51 b73b 6240 b2bd
00000130: 82f2 c63b 5337 1cbd fc3b a73d 6835 2bbd
00000140: ebb5 8a3d 9bd6 a53d cdcc bebd 67c6 2f3d
00000150: 629c 8dbd dbe4 b23d d6e6 623d 7e7e ee3c
00000160: ed64 a339 a7e7 1b3c 6e3f fd3d a190 91bd
00000170: fa70 6cbd 86cb dbbd df18 d03d 186c 473c
00000180: 9227 b73d 7276 a53d fef1 093e 6a6f aabd
00000190: 974e ebbd 5c67 8b3d 14e0 183d 9573 debd
000001a0: 4416 05be 6a5b 94bd ceb9 01be e38d 1a3e
000001b0: c95b 18be 3820 00be 9d03 053c 12ee 373d
000001c0: f216 84bc edab eebc e7f8 07bd 3521 023e
000001d0: 7547 95bd 64a7 57bc 74e0 7c3d cbb2 453d
000001e0: 84b7 0fbe 4de2 133d 5715 e13c 6b91 cabd
000001f0: 528d babd d480 8bbd 4449 3abd 5a60 adbd
00000200: 128f 1e3d 9c28 aabd a184 a63d 0aba fd3d
00000210: 145e 8d3d ea72 cdbd 553c 15be 10ab 923d
00000220: acfe 03be bb12 a93d 513d 56bc 1e79 27be
00000230: 91ae b03d 0818 b23d f568 cc3c 10bb f53d
00000240: d567 e6bd e6de 4a3d 5c87 8a3d 47b9 0b3c
00000250: 3aa8 ebbd ef20 18be 77e8 54be 3987 f53d
00000260: e644 a9bd 3aa8 a83c d296 91bd 73fb 8cbc
00000270: 1d16 293e 7a1d 87bd e67d 20be fdc1 82bd
00000280: 42e8 5bbb 9446 21bd fca8 b33d 9698 cc3d
00000290: 95a8 72bc e143 efbd b3fd 40bc 65ec aa3d
000002a0: ef02 c53d 5821 513d 76fe a33d 1790 613b
000002b0: be39 973d f740 dc3b da11 813d 1323 b4ba
000002c0: 9954 ee3d 2c43 f6bd 8072 2abe 3aac 10be
000002d0: c914 973d e7d8 8f3d 3702 c9bc cb4f d8bd
000002e0: d092 8d3d fb94 103e b63b b63d 7c34 91bd
000002f0: 7227 f33d fbe3 3fbd 5204 943c edc9 dd3d
00000300: 5001 91bd 1010 1fbb b977 00bd 0691 de3d
00000310: a5fe 5abd e0ec 4dbc 14db 8dbd 2217 b13c
00000320: 4ce4 cdbc fe82 043e 3bb1 afbd b11f 6c38
00000330: 7aef f6bd c320 7cbc 3906 fc3c 3b48 a2bd
00000340: b891 243d e9a1 cdbd 30b3 983d 2e9d 793b
00000350: b3fd 51bd 4f7a 46bc e1ad 7abd 31b3 673d
00000360: 8105 71bd b0b2 dd3c 7929 85bc 9efa 063e
00000370: 7ffd b53c 542a a1bd 87de 05be 309c 88bd
00000380: 65a5 503d bdbe a1bd 5333 16be 28c4 c1bd
00000390: 15a5 cebc 53f4 6f3d cdeb 1d3d cafe 003e
000003a0: 82c1 60bd d239 cbbd fdfd 393d a033 e6bd
000003b0: d8db c53d a26e d9bd e606 88bd 02d9 80bb
000003c0: 2d78 093d bbf8 523d d74f a53d 232e 96bd
000003d0: 7c8a c0bd f2c5 3ebc 56ac 85bd bf0f af3c
000003e0: dec1 1d3c 2897 c93d 0257 633d 402a b4bd
000003f0: d407 b73d 8bf7 2abb 286a a4bd bc66 7dbc

Q_net.linear2.bias f4 [50]
0.050109893 0.025317175 0.009877787 0.1765934 -0.011080359 -0.17642592 -0.014427495 0.005245092
0.0048380774 -0.17624566 0.20962507 -0.0609811 0.13560817 -0.10615129 0.08471302 -0.10073165
0.124484695 0.1406734 0.0025613378 0.07574953 0.07077597 0.119867906 -0.061130136 -0.09107492
-0.018282982 0.11822121 -0.0043349233 -0.07934445 0.12033387 0.024262272 -0.14296493 0.0050018677
-0.056013815 -0.04292668 0.09720877 0.0127470875 0.13598922 0.066910535 0.026714738 0.15569262
0.052450433 -0.09584335 -0.1400247 -0.068838365 -0.024820006 -0.033947404 -0.028288543 -0.062295537
-0.075166024 -0.05919343
00000000: 0840 4d3d f765 cf3c 71d6 213c e6d4 343e
00000010: 658a 35bc ffa8 34be 4d61 6cbc 05df ab3b
00000020: bc88 9e3b be79 34be f4a7 563e 51c7 79bd
00000030: dedc 0a3e d965 d9bd 057e ad3d 654c cebd
00000040: d5f1 fe3d b00c 103e 1edc 273b 9222 9b3d
00000050: fef2 903d 4e7d f53d 9863 7abd 7d85 babd
00000060: 31c6 95bc f61d f23d f90b 8ebb 587f a2bd
00000070: 9b71 f63d acc1 c63c 6665 12be b5e6 a33b
00000080: be6e 65bd e3d3 2fbd 6415 c73d 29d9 503c
00000090: c240 0b3e 6408 893d ded8 da3c e36d 1f3e
000000a0: 44d6 563d 8549 c4bd a362 0fbe 21fb 8cbd
000000b0: 5353 cbbc 6f0c 0bbd 60bd e7bc 9b29 7fbd
000000c0: a5f0 99bd cf74 72bd

Q_net.linear3.weight f4 [3, 50]
0.10938722 0.007460871 -0.13921894 0.026400484 -0.0012140062 0.023152059 -0.017227164 0.011484503
0.055126317 -0.11740185 0.10170118 -0.06503756 0.20367526 0.07157842 0.12384522 -0.05744285
0.15250315 0.06252734 -0.021346133 -0.035248395 0.116265625 0.041430924 -0.10489962 0.027329864
-0.021469964 -0.09268206 0.0045123463 -0.044589326 0.018955616 0.031282436 0.023390831 0.16893035
0.12705201 0.048411634 0.085397676 -0.045807324 0.11732876 0.08549904 0.018053249 -0.020955779
-0.10646082 -0.13030364 0.033099756 -0.030461561 0.009370894 -0.06294531 -0.032644093 -0.05950861
-0.022834644 -0.04437495 -0.061349887 -0.12374693 -0.07121772 0.037584774 0.06273586 -0.11723208
-0.017613394 0.05798639 0.058265757 -0.063342504 0.029137533 -0.008804546 0.0585986 0.105150305
0.120374456 -0.093559556 0.013307246 0.10811423 -0.08981748 -0.006135663 0.03489648 0.05758156
-0.10001849 -0.074475214 0.039338537 -0.011662792 0.024408199 0.10830582 -0.08603892 0.008823144
-0.011144061 0.041217174 0.1372629 0.1851074 0.013896602 -0.11074247 0.081468835 0.053159013
-0.07445823 0.07720834 0.035146244 -0.018235682 -0.05773507 -0.055698644 0.0067715365 -0.0978446
-0.11077883 -0.06166329 0.101687044 0.05869895 0.12853053 -0.04423185 -0.015317951 0.095555
-0.10757556 -0.0520542 -0.03037595 -0.012645767 -0.06203778 0.0474973 0.013293152 -0.11659407
0.18428443 -0.095993206 0.029321004 0.0058909687 -0.06428731 -0.07920935 -0.00033499775 0.010567467
0.13559964 0.0064819 -0.021538764 0.08413224 -0.09238933 0.24881992 0.040718324 0.028343849
0.12773444 0.11579404 -0.035058394 0.16360265 0.060124714 0.1818153 -0.097625 0.06461631
-0.000789406 0.1049003 0.05316652 0.07458731 0.056085292 -0.008560023 -0.114714414 0.058305122
-0.07676692 -0.070681736 -0.095535606 0.10181467 -0.031243518 0.069303714
00000000: 6806 e03d 527a f43b 698f 0ebe d445 d83c
00000010: 4a1f 9fba 63a9 bd3c fb1f 8dbc 7f29 3c3c
00000020: 22cc 613d 6270 f0bd b548 d03d 6a32 85bd
00000030: 3f90 503e b597 923d 90a2 fd3d 3249 6bbd
00000040: c929 1c3e 560e 803d 16de aebc 9f60 10bd
00000050: ac1c ee3d 79b3 293d 9dd5 d6bd e1e2 df3c
00000060: c7e1 afbc 18d0 bdbd 4edc 933b 4ca3 36bd
00000070: cf48 9b3c 0322 003d 219e bf3c 14fc 2c3e
00000080: ec19 023e 474b 463d fae4 ae3d 76a0 3bbd
00000090: 104a f03d 1f1a af3d 68e4 933c 74ab abbc
000000a0: 2108 dabd 516e 05be 9c93 073d 868a f9bc
000000b0: 6188 193c 78e9 80bd d0b5 05bd 4dbf 73bd
000000c0: b80f bbbc 82c2 35bd 054a 7bbd 086f fdbd
000000d0: 99da 91bd 7ef2 193d a97b 803d 5f17 f0bd
000000e0: f749 90bc 2383 6d3d 13a8 6e3d b7b9 81bd
000000f0: d6b1 ee3c f140 10bc 1605 703d 0b59 d73d
00000100: e286 f63d 279c bfbd a306 5a3c fe6a dd3d
00000110: 3af2 b7bd ac0d c9bb 9def 0e3d a4da 6b3d
00000120: 7ed6 ccbd 7686 98bd 7221 213d 4c15 3fbc
00000130: b4f3 c73c 71cf dd3d 2c35 b0bd f38e 103c
00000140: 9495 36bc 57d3 283d a58e 0c3e cb8c 3d3e
00000150: 93ae 633c f3cc e2bd 22d9 a63d 44bd 593d
00000160: 8e7d 98bd 681f 9e3d 82f5 0f3d ff62 95bc
00000170: 9c7b 6cbd 4324 64bd c4e3 dd3b c062 c8bd
00000180: 03e0 e2bd a592 7cbd 4c41 d03d 4f6e 703d
00000190: 829d 033e 752c 35bd 25f8 7abc 57b2 c33d
000001a0: 9350 dcbd c936 55bd fcd6 f8bc 3130 4fbc
000001b0: 541b 7ebd 878c 423d 85cb 593c dfc8 eebd
000001c0: 0fb5 3c3e 1698 c4bd 9a32 f03c 0709 c13b
000001d0: 11a9 83bd 8338 a2bd a3a2 afb9 2b23 2d3c
000001e0: a2da 0a3e 1e66 d43b 1072 b0bc 864d ac3d
000001f0: 9e36 bdbd a6ca 7e3e 42c8 263d 5c31 e83c
00000200: d1cc 023e 6d25 ed3d 6499 0fbd 7487 273e
00000210: 5545 763d ca2d 3a3e 9eef c7bd 8e55 843d
00000220: 24f0 4eba f8d5 d63d 23c5 593d 3bc1 983d
00000230: b1b9 653d 573f 0cbc 64ef eabd 5ad1 6e3d
00000240: fa37 9dbd 96c1 90bd 2ca8 c3bd 3684 d03d
00000250: 68f2 ffbc 1bef 8d3d

Q_net.linear3.bias f4 [3]
0.21197961 0.1956065 0.039515197
00000000: 2f11 593e 124d 483e b0da 213d

Target_Q_Net.linear1.weight f4 [50, 150]
-0.014455473 -0.11324442 -0.061925236 0.013854012 -0.09249019 -0.033570837 0.059727635 0.054395046
-0.11120724 -0.058993395 -0.009670305 -0.058438417 -0.010599722 0.020820934 -0.107060574 -0.01364744
0.012146468 -0.047733005 -0.018696323 -0.03344017 -0.12447385 -0.12050687 -0.0038064814 -0.10842587
-0.09310878 0.092223585 -0.032744918 0.043753844 -0.031589407 0.07242197 -7.7139186e-05 -0.007336091
-0.11201283 -0.08420465 -0.06456636 -0.0243229 -0.039289176 -0.023821153 0.009609187 0.04923251
-0.116980016 -0.06794052 -0.0625605 -0.119144775 -0.0388265 -0.043202847 0.0164471 -0.024608053
0.0121833775 -0.018519735 0.0051165856 -0.048207987 0.002692248 -0.0022798772 -0.090186484 0.021204615
0.026584603 0.0028830345 -0.06359496 -0.037023906 -0.11640867 0.018055223 -0.05824175 0.026628908
-0.09445418 0.06056131 -0.001765203 -0.018131716 -0.052726895 0.07699697 -0.09097649 -0.049857087
-0.10609611 -0.09200437 -0.015100333 0.08350698 -0.07949988 -0.025185747 0.019023037 0.019310543
-0.0048958035 -0.03052706 0.009506665 -0.008510381 -0.033112757 -0.06756126 0.023237389 0.0033896528
-0.06594734 -0.035358876 0.026267732 -0.084106885 -0.056619044 -0.06364448 0.0011058938 0.051545404
-0.0025934957 0.040562972 -0.0041091996 0.020162277 0.030482657 -0.07271397 -0.002691685 -0.060365707
-0.10968462 0.0682028 -0.07993068 0.0460937 0.018739277 -0.013987669 -0.016152522 -0.058572985
0.0043680537 0.01925422 -0.08145976 -0.03845506 -0.06782226 0.0008627114 -0.035079937 0.07580182
-0.025798436 -0.009248803 -0.09672087 -0.10636595 -0.11072888 0.059275534 0.031856533 0.04521299
-0.07324383 -0.057203434 -0.100115865 -0.016322074 0.0071203387 -0.007937584 -0.057873465 0.076502495
0.07771697 -0.0586027 0.017757704 0.015294023 -0.048027635 -0.07759432 -0.10899658 -0.058810603
-0.110222764 -0.03843519 -0.030628653 0.010904163 0.018340407 -0.024981378 0.070016295 -0.014863892
0.029808214 -0.03523651 0.046284232 -0.062175736 -0.054690864 0.0018234857 -0.0038801394 0.04183967
0.07182094 0.017043013 -0.037332576 0.08494278 0.05479232 -0.03923104 -0.20097587 0.02687212
-0.02797738 0.010500862 -0.0048144558 -0.024643248 0.060937744 0.103485644 0.052728392 -0.022136306
-0.13541386 -0.015894683 0.056887727 -0.055042546 0.04299844 -0.049767174 0.01064262 0.05138542
0.08442231 -0.13687691 -0.08719466 -0.04701843 0.06007326 -0.010196621 -0.032100298 0.08161583
0.0601125 0.062291134 0.10379595 -0.04939082 0.17135136 0.09035348 0.014057014 -0.041826867
0.093337 -0.01068521 -0.031639323 0.11004674 0.12180521 0.11397341 0.029602991 0.042195562
0.07634189 -0.022425214 -0.005495809 0.033683922 0.09533939 -0.02044956 -0.011055154 0.09062299
-0.061153587 0.087614715 0.062371787 -0.056105103 -0.04096251 0.027923262 0.08208408 0.0062822225
0.10272573 -0.054556027 -0.03740843 0.029227832 0.06814764 0.03031969 0.0021276881 -0.0140384715
0.066569306 0.022767654 -0.029952258 -0.068370275 -0.17969824 0.033951223 -0.019944664 0.045113828
0.098765574 0.029249087 -0.002240223 0.04542295 0.04075169 -0.13254735 -0.017501505 0.0126011595
0.08856846 0.047411606 -0.007897732 -0.022486757 -0.031269226 -0.032092202 0.077024266 -0.15534692
00000000: a6d6 6cbc b1ec e7bd 51a5 7dbd f0fb 623c
00000010: 7f6b bdbd 9381 09bd f7a4 743d 57cd 5e3d
00000020: 9fc0 e3bd 0fa3 71bd 3370 1ebc 1f5d 6fbd
00000030: 75aa 2dbc aa90 aa3c 9342 dbbd 8399 5fbc
00000040: fb01 473c af83 43bd 0829 99bc 8ff8 08bd
00000050: 25ec febd 4ecc f6bd 2976 79bb 620e debd
00000060: d1af bebd b8df bc3d 891f 06bd 3b37 333d
00000070: e563 01bd f851 943d c9c5 a1b8 9763 f0bb
00000080: fc66 e5bd 7d73 acbd 5e3b 84bd d240 c7bc
00000090: b0ed 20bd 9424 c3bc da6f 1d3c 07a8 493d
000000a0: 3893 efbd 6624 8bbd b81f 80bd 2d02 f4bd
000000b0: 8908 1fbd 78f5 30bd 12bc 863c d496 c9bc
000000c0: ca9c 473c b3b6 97bc 08a9 a73b bd75 45bd
000000d0: 6d70 303b fe69 15bb b1b3 b8bd 4db5 ad3c
000000e0: f4c7 d93c 4bf1 3c3b 133e 82bd 61a6 17bd
000000f0: ab67 eebd 8ce8 933c e78e 6ebd de24 da3c
00000100: 3171 c1bd 230f 783d 625e e7ba f788 94bc
00000110: 28f8 57bd 96b0 9d3d e251 babd f236 4cbd
00000120: eb48 d9bd ca6c bcbd 6367 77bc b505 ab3d
00000130: d5d0 a2bd 5752 cebc 33d6 9b3c 2531 9e3c
00000140: fa6c a0bb e313 fabc d8c1 1b3c 206f 0bbc
00000150: 3ea1 07bd 8f5d 8abd 565c be3c f024 5e3b
00000160: 660f 87bd 78d4 10bd 6d2f d73c 3b40 acbd
00000170: 5fe9 67bd 0a58 82bd a3f3 903a 4621 533d
00000180: a3f7 29bb 5c25 263d 77a6 86bb 5c2b a53c
00000190: c4b6 f93c 10eb 94bd fb66 30bb 0842 77bd
000001a0: 54a2 e0bd e9ad 8b3d b2b2 a3bd bfcc 3c3d
000001b0: 1d83 993c 892c 65bc 4b52 84bc 3aea 6fbd
000001c0: e421 8f3b 07bb 9d3c 60d4 a6bd 0e83 1dbd
000001d0: 66e6 8abd 9527 623a fbaf 0fbd fc3d 9b3d
000001e0: 3e57 d3bc 4b88 17bc 9715 c6bd 64d6 d9bd
000001f0: d3c5 e2bd e7ca 723d ff7b 023d 4231 393d
00000200: dc00 96bd 264e 6abd 8c09 cdbd dfb5 85bc
00000210: bb51 e93b a40c 02bc ba0c 6dbd 57ad 9c3d
00000220: 132a 9f3d 6209 70bd 9b78 913c c893 7a3c
00000230: a0b8 44bd c5e9 9ebd 9939 dfbd 63e3 70bd
00000240: 79bc e1bd 386e 1dbd f1e8 fabc 60a7 323c
00000250: 9f3e 963c bfa5 ccbc b464 8f3d af87 73bc
00000260: 5b30 f43c 2954 10bd 8994 3d3d fcab 7ebd
00000270: 8703 60bd 0702 ef3a f049 7ebb 1360 2b3d
00000280: db16 933d ca9d 8b3c 0bea 18bd 7bf6 ad3d
00000290: e96d 603d bab0 20bd 9ecc 4dbe ec22 dc3c
000002a0: d230 e5bc cf0b 2c3c 95c2 9dbb a3e0 c9bc
000002b0: db99 793d 48f0 d33d baf9 573d 3357 b5bc
000002c0: eea9 0abe 9135 82bc 1b03 693d 4b74 61bd
000002d0: 221f 303d aad8 4bbd 625e 2e3c 8579 523d
000002e0: 9be5 ac3d 7629 0cbe 1d93 b2bd 6696 40bd
000002f0: 610f 763d ba0f 27bc 9a7b 03bd 3326 a73d
00000300: 8638 763d fd24 7f3d f992 d43d 074e 4abd
00000310: bb76 2f3e 3f0b b93d 644f 663c a652 2bbd
00000320: 7827 bf3d 0511 2fbc 3c98 01bd 2f60 e13d
00000330: 0375 f93d e46a e93d f981 f23c 41d5 2c3d
00000340: 2359 9c3d 15b5 b7bc 3016 b4bb 27f8 093d
00000350: 4c41 c33d d685 a7bc ad20 35bc 8c98 b93d
00000360: 2f7c 7abd 586f b33d 8f79 7f3d 77ce 65bd
00000370: 4ec8 27bd 53bf e43c b31b a83d 1adb cd3b
00000380: de61 d23d 2476 5fbd 9539 19bd 356f ef3c
00000390: fd90 8b3d 0061 f83c af70 0b3b 9e01 66bc
000003a0: 7d55 883d 3b83 ba3c 705e f5bc b705 8cbd
000003b0: d102 38be 7010 0b3d fe62 a3bc 47c9 383d
000003c0: 9b45 ca3d c89b ef3c b5d0 12bb 6a0d 3a3d
000003d0: 3eeb 263d 7eba 07be 515f 8fbc 1875 4e3c
000003e0: 6163 b53d ac32 423d 7d65 01bc 2636 b8bc
000003f0: 2914 00bd 1d73 03bd e6be 9d3d 4313 1fbe

Target_Q_Net.linear1.bias f4 [50]
-0.0018644991 0.06427145 0.12228927 -0.03477751 0.030784817 0.0073502674 0.0057816687 -0.0952874
-0.018276522 0.01637323 0.013356905 -0.006285829 0.001818229 -0.01182865 0.040974744 -0.01953179
0.052700024 0.0318204 0.05874729 0.0064568818 -0.051615268 0.034414764 -0.012532219 0.031177098
0.11080425 0.017268449 0.052472442 -0.13165034 0.026528032 -0.03841238 0.091513954 0.017790265
-0.030769201 0.016176313 0.09310496 0.006683125 0.005589829 0.058733378 -0.04948411 0.060595255
-0.026444053 -0.052499074 -0.014206338 0.095689096 -0.085332505 0.062396996 0.05899912 0.03413957
0.053157672 -0.016312843
00000000: 3562 f4ba c0a0 833d cc72 fa3d dd72 0ebd
00000010: 7130 fc3c 83da f03b 2774 bd3b 0a26 c3bd
00000020: a5b8 95bc 2721 863c ecd6 5a3c 5bf9 cdbb
00000030: a451 ee3a f4cc 41bc 22d5 273d 2201 a0bc
00000040: fbdb 573d 1c56 023d 00a1 703d 4094 d33b
00000050: 886a 53bd 7ff6 0c3d f053 4dbc 1d67 ff3c
00000060: 57ed e23d 9076 8d3c 58ed 563d 59cf 06be
00000070: 5151 d93c 4d56 1dbd ab6b bb3d e4bc 913c
00000080: b10f fcbc 3084 843c d0ad be3d 1efe da3b
00000090: e22a b73b 6992 703d daaf 4abd bb32 783d
000000a0: 33a1 d8bc 4509 57bd b3c1 68bc a5f8 c33d
000000b0: cfc2 aebd fe93 7f3d 10a9 713d efd5 0b3d
000000c0: dcbb 593d 83a2 85bc

Target_Q_Net.linear2.weight f4 [50, 50]
0.06899722 0.13269764 0.12195308 0.13006966 0.08009803 -0.059817273 -0.015883613 0.017605264
0.03646905 0.042915713 0.056273002 -0.051149454 0.14589262 0.0097279735 -0.122022174 0.076375164
-0.011390813 -0.012715089 0.043240815 0.14473465 -0.11316647 0.040054638 0.020578202 0.059147205
0.08130335 -0.014709602 -0.06447977 -0.022151962 0.03946804 0.06436037 -0.03802623 0.038669683
-0.12506169 0.08119607 0.07195629 -0.085076004 -0.122047074 0.008031415 -0.055171918 -0.02643812
-0.06438206 0.0046668025 0.022841146 -0.02697138 0.086387336 0.044632815 -0.030254403 0.033520266
0.1400198 -0.086155206 0.09358868 -0.09126887 -0.052696448 0.09890332 0.048521068 -0.087797865
0.123045675 -0.12239896 -0.15218776 0.0101691 0.029929262 0.04655426 -0.15189171 -0.07098962
0.04951797 -0.08130694 -0.115343906 -0.1683607 -0.06370304 0.0735401 -0.10420583 0.07467469
0.080622435 0.010604718 0.0055944524 -0.08703686 0.0060713897 -0.0381387 0.08165738 -0.04179898
0.06772979 0.08097573 -0.093164064 0.04291382 -0.06914593 0.08735057 0.055395924 0.02911305
0.00031164978 0.009515679 0.12365614 -0.07107664 -0.05772493 -0.107321784 0.10160994 0.012171768
0.08943094 0.08079232 0.13471219 -0.08322032 -0.11489599 0.068068236 0.037323073 -0.10861889
-0.12996775 -0.07243998 -0.12668535 0.15093188 -0.14878763 -0.1251229 0.008118537 0.044904776
-0.016124222 -0.029134715 -0.033196356 0.1270798 -0.0728902 -0.013162468 0.061737493 0.048266213
-0.1403485 0.03610449 0.027475996 -0.098910175 -0.09108986 -0.068116814 -0.045480028 -0.08465643
0.03871066 -0.08308527 0.08130766 0.12389 0.069027096 -0.10031684 -0.14573796 0.07161534
-0.12890118 0.08255526 -0.013076142 -0.16354796 0.08627046 0.0869599 0.024952391 0.1199857
-0.11250273 0.04952898 0.06764099 0.00852806 -0.11506696 -0.14856313 -0.20791803 0.11988682
-0.082650945 0.02058803 -0.07108845 -0.017209744 0.16512342 -0.06597419 -0.15673026 -0.063846566
-0.0033555184 -0.03937395 0.087724656 0.09990041 -0.014810701 -0.11682869 -0.011779237 0.0834587
0.096197 0.05105719 0.08007519 0.003441816 0.0738406 0.0067216116 0.06302233 -0.0013743363
0.116372295 -0.12024531 -0.16645241 -0.14128199 0.07377011 0.07023793 -0.024537189 -0.10562094
0.06912768 0.14119332 0.08898108 -0.07090089 0.11872758 -0.04684828 0.018068466 0.1082953
-0.070803285 -0.0024271049 -0.031364176 0.10867505 -0.053465504 -0.012568682 -0.069265515 0.021617476
-0.025133274 0.12940595 -0.08578726 5.62963e-05 -0.12057395 -0.01538867 0.030764686 -0.07923933
0.04017803 -0.100406475 0.07456052 0.003808807 -0.051267337 -0.012114122 -0.06120098 0.056567375
-0.05884314 0.027062744 -0.016255127 0.1318154 0.022215603 -0.078694016 -0.13073169 -0.066704154
0.050938983 -0.078977086 -0.14668016 -0.09461242 -0.025225202 0.058582615 0.038554955 0.12597194
-0.054872043 -0.09923138 0.045408238 -0.112403154 0.096610725 -0.10616805 -0.06641941 -0.0039321193
0.033561874 0.05150674 0.08071869 -0.07333019 -0.09401414 -0.0116438735 -0.06527011 0.021369813
0.009628741 0.09843284 0.0555029 -0.08797121 0.0893704 -0.0026087489 -0.0802806 -0.015466388
00000000: 6a4e 8d3d e4e1 073e 89c2 f93d fb30 053e
00000010: 700a a43d f502 75bd 5a1e 82bc ea38 903c
00000020: 9260 153d 63c8 2f3d 857e 663d 1782 51bd
00000030: e064 153e 1462 1f3c c3e6 f9bd 956a 9c3d
00000040: 88a0 3abc f352 50bc 481d 313d 5235 143e
00000050: d2c3 e7bd 5510 243d 9e93 a83c 5744 723d
00000060: 5f82 a63d 8b00 71bc f80d 84bd 0878 b5bc
00000070: 3da9 213d 5fcf 833d 64c1 1bbd 1a64 1e3d
00000080: 2c10 00be 204a a63d d25d 933d 543c aebd
00000090: d1f3 f9bd 3296 033c f3fb 61bd c294 d8bc
000000a0: beda 83bd faeb 983b 5b1d bb3c 15f3 dcbc
000000b0: d8eb b03d e6d0 363d 15d8 f7bc 8c4c 093d
000000c0: 5a61 0f3e 2472 b0bd 6cab bf3d 2ceb babd
000000d0: 3bd8 57bd d38d ca3d 07be 463d 5ecf b3bd
000000e0: 5fff fb3d 4eac fabd 1cd7 1bbe 4c9c 263c
000000f0: 362e f53c aeaf 3e3d 8089 1bbe 0263 91bd
00000100: 5bd3 4a3d 4184 a6bd 6d39 ecbd bf66 2cbe
00000110: bd76 82bd 319c 963d de69 d5bd 0bef 983d
00000120: 601d a53d 69bf 2d3c ab51 b73b 6240 b2bd
00000130: 82f2 c63b 5337 1cbd fc3b a73d 6835 2bbd
00000140: ebb5 8a3d 9bd6 a53d cdcc bebd 67c6 2f3d
00000150: 629c 8dbd dbe4 b23d d6e6 623d 7e7e ee3c
00000160: ed64 a339 a7e7 1b3c 6e3f fd3d a190 91bd
00000170: fa70 6cbd 86cb dbbd df18 d03d 186c 473c
00000180: 9227 b73d 7276 a53d fef1 093e 6a6f aabd
00000190: 974e ebbd 5c67 8b3d 14e0 183d 9573 debd
000001a0: 4416 05be 6a5b 94bd ceb9 01be e38d 1a3e
000001b0: c95b 18be 3820 00be 9d03 053c 12ee 373d
000001c0: f216 84bc edab eebc e7f8 07bd 3521 023e
000001d0: 7547 95bd 64a7 57bc 74e0 7c3d cbb2 453d
000001e0: 84b7 0fbe 4de2 133d 5715 e13c 6b91 cabd
000001f0: 528d babd d480 8bbd 4449 3abd 5a60 adbd
00000200: 128f 1e3d 9c28 aabd a184 a63d 0aba fd3d
00000210: 145e 8d3d ea72 cdbd 553c 15be 10ab 923d
00000220: acfe 03be bb12 a93d 513d 56bc 1e79 27be
00000230: 91ae b03d 0818 b23d f568 cc3c 10bb f53d
00000240: d567 e6bd e6de 4a3d 5c87 8a3d 47b9 0b3c
00000250: 3aa8 ebbd ef20 18be 77e8 54be 3987 f53d
00000260: e644 a9bd 3aa8 a83c d296 91bd 73fb 8cbc
00000270: 1d16 293e 7a1d 87bd e67d 20be fdc1 82bd
00000280: 42e8 5bbb 9446 21bd fca8 b33d 9698 cc3d
00000290: 95a8 72bc e143 efbd b3fd 40bc 65ec aa3d
000002a0: ef02 c53d 5821 513d 76fe a33d 1790 613b
000002b0: be39 973d f740 dc3b da11 813d 1323 b4ba
000002c0: 9954 ee3d 2c43 f6bd 8072 2abe 3aac 10be
000002d0: c914 973d e7d8 8f3d 3702 c9bc cb4f d8bd
000002e0: d092 8d3d fb94 103e b63b b63d 7c34 91bd
000002f0: 7227 f33d fbe3 3fbd 5204 943c edc9 dd3d
00000300: 5001 91bd 1010 1fbb b977 00bd 0691 de3d
00000310: a5fe 5abd e0ec 4dbc 14db 8dbd 2217 b13c
00000320: 4ce4 cdbc fe82 043e 3bb1 afbd b11f 6c38
00000330: 7aef f6bd c320 7cbc 3906 fc3c 3b48 a2bd
00000340: b891 243d e9a1 cdbd 30b3 983d 2e9d 793b
00000350: b3fd 51bd 4f7a 46bc e1ad 7abd 31b3 673d
00000360: 8105 71bd b0b2 dd3c 7929 85bc 9efa 063e
00000370: 7ffd b53c 542a a1bd 87de 05be 309c 88bd
00000380: 65a5 503d bdbe a1bd 5333 16be 28c4 c1bd
00000390: 15a5 cebc 53f4 6f3d cdeb 1d3d cafe 003e
000003a0: 82c1 60bd d239 cbbd fdfd 393d a033 e6bd
000003b0: d8db c53d a26e d9bd e606 88bd 02d9 80bb
000003c0: 2d78 093d bbf8 523d d74f a53d 232e 96bd
000003d0: 7c8a c0bd f2c5 3ebc 56ac 85bd bf0f af3c
000003e0: dec1 1d3c 2897 c93d 0257 633d 402a b4bd
000003f0: d407 b73d 8bf7 2abb 286a a4bd bc66 7dbc

Target_Q_Net.linear2.bias f4 [50]
0.050109893 0.025317175 0.009877787 0.1765934 -0.011080359 -0.17642592 -0.014427495 0.005245092
0.0048380774 -0.17624566 0.20962507 -0.0609811 0.13560817 -0.10615129 0.08471302 -0.10073165
0.124484695 0.1406734 0.0025613378 0.07574953 0.07077597 0.119867906 -0.061130136 -0.09107492
-0.018282982 0.11822121 -0.0043349233 -0.07934445 0.12033387 0.024262272 -0.14296493 0.0050018677
-0.056013815 -0.04292668 0.09720877 0.0127470875 0.13598922 0.066910535 0.026714738 0.15569262
0.052450433 -0.09584335 -0.1400247 -0.068838365 -0.024820006 -0.033947404 -0.028288543 -0.062295537
-0.075166024 -0.05919343
00000000: 0840 4d3d f765 cf3c 71d6 213c e6d4 343e
00000010: 658a 35bc ffa8 34be 4d61 6cbc 05df ab3b
00000020: bc88 9e3b be79 34be f4a7 563e 51c7 79bd
00000030: dedc 0a3e d965 d9bd 057e ad3d 654c cebd
00000040: d5f1 fe3d b00c 103e 1edc 273b 9222 9b3d
00000050: fef2 903d 4e7d f53d 9863 7abd 7d85 babd
00000060: 31c6 95bc f61d f23d f90b 8ebb 587f a2bd
00000070: 9b71 f63d acc1 c63c 6665 12be b5e6 a33b
00000080: be6e 65bd e3d3 2fbd 6415 c73d 29d9 503c
00000090: c240 0b3e 6408 893d ded8 da3c e36d 1f3e
000000a0: 44d6 563d 8549 c4bd a362 0fbe 21fb 8cbd
000000b0: 5353 cbbc 6f0c 0bbd 60bd e7bc 9b29 7fbd
000000c0: a5f0 99bd cf74 72bd

Target_Q_Net.linear3.weight f4 [3, 50]
0.10938722 0.007460871 -0.13921894 0.026400484 -0.0012140062 0.023152059 -0.017227164 0.011484503
0.055126317 -0.11740185 0.10170118 -0.06503756 0.20367526 0.07157842 0.12384522 -0.05744285
0.15250315 0.06252734 -0.021346133 -0.035248395 0.116265625 0.041430924 -0.10489962 0.027329864
-0.021469964 -0.09268206 0.0045123463 -0.044589326 0.018955616 0.031282436 0.023390831 0.16893035
0.12705201 0.048411634 0.085397676 -0.045807324 0.11732876 0.08549904 0.018053249 -0.020955779
-0.10646082 -0.13030364 0.033099756 -0.030461561 0.009370894 -0.06294531 -0.032644093 -0.05950861
-0.022834644 -0.04437495 -0.061349887 -0.12374693 -0.07121772 0.037584774 0.06273586 -0.11723208
-0.017613394 0.05798639 0.058265757 -0.063342504 0.029137533 -0.008804546 0.0585986 0.105150305
0.120374456 -0.093559556 0.013307246 0.10811423 -0.08981748 -0.006135663 0.03489648 0.05758156
-0.10001849 -0.074475214 0.039338537 -0.011662792 0.024408199 0.10830582 -0.08603892 0.008823144
-0.011144061 0.041217174 0.1372629 0.1851074 0.013896602 -0.11074247 0.081468835 0.053159013
-0.07445823 0.07720834 0.035146244 -0.018235682 -0.05773507 -0.055698644 0.0067715365 -0.0978446
-0.11077883 -0.06166329 0.101687044 0.05869895 0.12853053 -0.04423185 -0.015317951 0.095555
-0.10757556 -0.0520542 -0.03037595 -0.012645767 -0.06203778 0.0474973 0.013293152 -0.11659407
0.18428443 -0.095993206 0.029321004 0.0058909687 -0.06428731 -0.07920935 -0.00033499775 0.010567467
0.13559964 0.0064819 -0.021538764 0.08413224 -0.09238933 0.24881992 0.040718324 0.028343849
0.12773444 0.11579404 -0.035058394 0.16360265 0.060124714 0.1818153 -0.097625 0.06461631
-0.000789406 0.1049003 0.05316652 0.07458731 0.056085292 -0.008560023 -0.114714414 0.058305122
-0.07676692 -0.070681736 -0.095535606 0.10181467 -0.031243518 0.069303714
00000000: 6806 e03d 527a f43b 698f 0ebe d445 d83c
00000010: 4a1f 9fba 63a9 bd3c fb1f 8dbc 7f29 3c3c
00000020: 22cc 613d 6270 f0bd b548 d03d 6a32 85bd
00000030: 3f90 503e b597 923d 90a2 fd3d 3249 6bbd
00000040: c929 1c3e 560e 803d 16de aebc 9f60 10bd
00000050: ac1c ee3d 79b3 293d 9dd5 d6bd e1e2 df3c
00000060: c7e1 afbc 18d0 bdbd 4edc 933b 4ca3 36bd
00000070: cf48 9b3c 0322 003d 219e bf3c 14fc 2c3e
00000080: ec19 023e 474b 463d fae4 ae3d 76a0 3bbd
00000090: 104a f03d 1f1a af3d 68e4 933c 74ab abbc
000000a0: 2108 dabd 516e 05be 9c93 073d 868a f9bc
000000b0: 6188 193c 78e9 80bd d0b5 05bd 4dbf 73bd
000000c0: b80f bbbc 82c2 35bd 054a 7bbd 086f fdbd
000000d0: 99da 91bd 7ef2 193d a97b 803d 5f17 f0bd
000000e0: f749 90bc 2383 6d3d 13a8 6e3d b7b9 81bd
000000f0: d6b1 ee3c f140 10bc 1605 703d 0b59 d73d
00000100: e286 f63d 279c bfbd a306 5a3c fe6a dd3d
00000110: 3af2 b7bd ac0d c9bb 9def 0e3d a4da 6b3d
00000120: 7ed6 ccbd 7686 98bd 7221 213d 4c15 3fbc
00000130: b4f3 c73c 71cf dd3d 2c35 b0bd f38e 103c
00000140: 9495 36bc 57d3 283d a58e 0c3e cb8c 3d3e
00000150: 93ae 633c f3cc e2bd 22d9 a63d 44bd 593d
00000160: 8e7d 98bd 681f 9e3d 82f5 0f3d ff62 95bc
00000170: 9c7b 6cbd 4324 64bd c4e3 dd3b c062 c8bd
00000180: 03e0 e2bd a592 7cbd 4c41 d03d 4f6e 703d
00000190: 829d 033e 752c 35bd 25f8 7abc 57b2 c33d
000001a0: 9350 dcbd c936 55bd fcd6 f8bc 3130 4fbc
000001b0: 541b 7ebd 878c 423d 85cb 593c dfc8 eebd
000001c0: 0fb5 3c3e 1698 c4bd 9a32 f03c 0709 c13b
000001d0: 11a9 83bd 8338 a2bd a3a2 afb9 2b23 2d3c
000001e0: a2da 0a3e 1e66 d43b 1072 b0bc 864d ac3d
000001f0: 9e36 bdbd a6ca 7e3e 42c8 263d 5c31 e83c
00000200: d1cc 023e 6d25 ed3d 6499 0fbd 7487 273e
00000210: 5545 763d ca2d 3a3e 9eef c7bd 8e55 843d
00000220: 24f0 4eba f8d5 d63d 23c5 593d 3bc1 983d
00000230: b1b9 653d 573f 0cbc 64ef eabd 5ad1 6e3d
00000240: fa37 9dbd 96c1 90bd 2ca8 c3bd 3684 d03d
00000250: 68f2 ffbc 1bef 8d3d

Target_Q_Net.linear3.bias f4 [3]
0.21197961 0.1956065 0.039515197
00000000: 2f11 593e 124d 483e b0da 213d
