Model/ILQN/result/DQN/agent_ddqn_000776_SZ_0_5.pt (torch_old, 84180 bytes, 12 tensors)

Q_net.linear1.weight f4 [50, 150]
00000000: 6bd6 03bb b5ed 8bbd da54 c2bc eda3 353d
00000010: d146 293d f570 dfbd a027 0ebb 73bc 8dbd
00000020: 5de1 a2bc 0fed 363d 45a6 debd 19b1 bdbd
00000030: b5bb 69bd 17d9 643a e4bb 313d 1c53 9ebc
00000040: 5b88 7cbb c12d 603d 6168 583b 4c09 933c
00000050: b9d4 283d b3d2 7cbc f546 acbd 5eda 18bd
00000060: 02cb ae3d d5ed 5abd 1479 0c3d a0ed b53d
00000070: b456 9ebd 3808 3ebc 6c64 a4bd 4477 cfbc
00000080: 6eab 12bc 5834 81bd 3251 933b 54c4 0dbd
00000090: 004c 2d3a 481d 84bc 2ed1 33bc 657e 183d
000000a0: 69cc a8bc c665 60bd 4eca c6bd 3d8e c5bd
000000b0: 221c 4fbd fec5 16bd 25f8 0dbe 5938 a73d
000000c0: 85af fbbc 0a9a 123d a856 1ebc 22b3 9c3c
000000d0: 49bd 1cbc ef53 75bd 2db3 1c3d bde9 bc3d
000000e0: 04c5 42bd ed1a 043b 74ab 90bc 5439 7e3d
000000f0: f39f d2bd 21ad a5bb e3fb 3abd 1ee6 ca3b
00000100: 6c20 703d b4ea 29bd dcc3 df3b 035c 5cbd
00000110: 863f 83bc 09b4 4f3c 06cf 8f3c 01a9 27bc
00000120: 41b0 123d 8d01 503c ddff 8a3d 0fb2 293d
00000130: 1e47 76bd 4551 3dba cc39 5d3b 1e10 6f3d
00000140: f0c2 afbd c159 a43c 4533 023d 9a6e 27bd
00000150: 148e bb3c 0cf5 ef3c 7899 a43d bf3a ec3c
00000160: 22eb 1c3d 10f7 53bd b4ce 8ebd e05b 57bc
00000170: 5218 b6bd 782f 82bd 2eec a7bb f83a 853d
00000180: fb5b aa3b 4bd2 3dbd db40 d6ba b482 97bc
00000190: 2edc 59ba 0504 1c3d 66e8 89bd 2e42 2dbd
000001a0: 4d65 94bd 7a72 d33d c165 ba3d 93aa 963d
000001b0: bbc2 343d f22d 633c 4b75 0d3d c048 9dba
000001c0: aee3 2ebd 7280 5f3d fbde e8bc da94 debb
000001d0: d06d ea3c a39b 723c c74c bebd 74d2 5a3c
000001e0: 7a21 093c 5389 b5bd 0c65 fd3c 712c a13b
000001f0: 52c0 fcbc 30c4 493d cde7 dc3d 9a82 1cba
00000200: 78aa 2d3d 62b3 b0bc 5ee3 c6bb 2d0f 9fbd
00000210: 3fae b03c 09c2 6bbd 56a4 a53d 17bd dc3d
00000220: 3ae6 e23d e79e 2ebc 657b fa3a 2d25 24bd
00000230: cdce dabb 96d5 18bd ff73 31b9 bd69 93bd
00000240: 37db 803a 213d e13d d706 ea3d c5c6 bfbc
00000250: adda 463d e5a1 1fbd 6b0b 73bd d4bf f9bc
00000260: 6c03 69bc a32b b9bd 4f93 18bd 62f1 e3bd
00000270: 3abf 20be c133 53bd acb8 be3b 1cbd a4bc
00000280: 3b00 3dbb 87ca ccbd 2241 803b 4dd5 a6bc
00000290: 0bf7 b8bc 13a9 9ebc 9f91 d1bd b881 453d
000002a0: 3cab d33c 0258 c33c 7252 4fbd df9a fcbd
000002b0: ddf6 bd3c 8a53 b8bc f947 623d 6545 86bd
000002c0: fe2a e2bc 1bae 1cbd 06e1 88bc cc5d 793d
000002d0: e87c cabb 8ab4 253d 1b19 82bd 2e36 5cba
000002e0: b2c2 003d 9365 aebd 9280 10bc 7ed2 773c
000002f0: 8e72 85bc bfe3 063d ad6b 75bc 5706 96bd
00000300: a53c 143d 8688 8d3c 621e 283d 26dc 683d
00000310: c6a9 303c c090 9fbc 6ded b3bb b100 ba3d
00000320: 5fd9 ca3c 76d8 94bd 7cd4 5dbd b3d9 efbd
00000330: 4bcc 97bd d2f7 5a3d 0c3d b33c 7e54 873c
00000340: 8241 043d 7011 7dbd ff74 723b a074 82bd
00000350: e065 64bb 8696 dbbb 385c bebc 754b 52bd
00000360: 360f 623d ea7f fa3c 33c8 5b3c a11e 06bd
00000370: 31fe a5bd cac4 09bd 2446 99bb 8649 f8bc
00000380: a4cf c4bd 5bce a23c 53a7 0abc 156c d73c
00000390: a0c9 c5bd 44df 77bc e4cf a4bd 7fdd 81bd
000003a0: 90a6 0bbd 4819 1fbd bfbf aabc 1b1b 30bd
000003b0: 0e0e 133d bb71 50bd c250 67bd 7084 de3c
000003c0: d2c9 e2bd 524c 96bb 4f7a 023d cb32 0a3d
000003d0: 938b 92bd 35c8 12bc 22ed cf3d 089e e93a
000003e0: 252a 2c3d 1030 843d 2158 c93c cb23 90bd
000003f0: d526 21bc 8f39 b1bd 9e24 31bd ff00 c33c
-0.0020116817 -0.068324484 -0.023722101 0.044345785 0.0413273 -0.10910217 -0.0021691099 -0.069207095
-0.019882852 0.04465967 -0.10871557 -0.09262294 -0.057063777 0.00087298587 0.043392077 -0.019326739
-0.0038533423 0.054731134 0.00330212 0.017948769 0.041218493 -0.015431094 -0.084119715 -0.037317626
0.085348144 -0.05344947 0.034295157 0.08883214 -0.07731381 -0.011598639 -0.080269665 -0.025325425
-0.008952005 -0.06308812 0.004495763 -0.03461106 0.0006610751 -0.016127244 -0.010975165 0.037229914
-0.020605283 -0.05478456 -0.09706555 -0.096462704 -0.05056394 -0.036809914 -0.13864191 0.08165044
-0.030723343 0.035791434 -0.009664215 0.019128386 -0.0095666135 -0.0598945 0.038256813 0.092242695
-0.04755117 0.002015765 -0.01765988 0.06206639 -0.10284414 -0.005056039 -0.045650374 0.006191983
0.05862467 -0.041483596 0.006828768 -0.053798687 -0.016021501 0.012677201 0.017554771 -0.010233165
0.03581262 0.012695682 0.06787083 0.041429576 -0.060126416 -0.0007221888 0.0033756373 0.05836498
-0.08582103 0.02006233 0.031787176 -0.040876962 0.022894897 0.029291652 0.08037084 0.028836606
0.038310178 -0.05174929 -0.06973019 -0.013144463 -0.088913575 -0.0635671 -0.0051245904 0.06505388
0.005198953 -0.04634313 -0.0016346233 -0.018494941 -0.00083107024 0.03808977 -0.067337796 -0.042299442
-0.07245884 0.10324569 0.09101439 0.07356753 0.044131022 0.013865935 0.034535687 -0.0011999831
-0.0426976 0.054565854 -0.028426638 -0.006792647 0.028616816 0.0148076145 -0.09291988 0.01335584
0.008369798 -0.08864083 0.030931972 0.004918628 -0.030853424 0.049259365 0.107864 -0.0005970389
0.0423989 -0.021569911 -0.0060695847 -0.077665664 0.021567462 -0.057558093 0.08087985 0.107782535
0.110790685 -0.010658002 0.0019110261 -0.040074516 -0.0066774846 -0.037313066 -0.00016923247 -0.07197902
0.0009830956 0.109979875 0.11427086 -0.02341021 0.04854839 -0.038972754 -0.05933706 -0.030486979
-0.014222007 -0.09041526 -0.03724986 -0.111300245 -0.15697947 -0.05156303 0.0058203544 -0.020109706
-0.0028839249 -0.099995665 0.0039140144 -0.020365382 -0.022578737 -0.01936773 -0.10232853 0.048219413
0.025838487 0.023845676 -0.050615735 -0.12334227 0.023189003 -0.022500772 0.05524442 -0.06556205
-0.02760839 -0.038251977 -0.016708862 0.060880467 -0.0061794408 0.04045538 -0.06352445 -0.00084004074
0.031435676 -0.085154675 -0.008819716 0.015125869 -0.016289975 0.03293204 -0.014979285 -0.07325428
0.036190648 0.017277014 0.0410446 0.056850575 0.010782665 -0.019478202 -0.00549095 0.09082163
0.024761854 -0.07267849 -0.05415772 -0.11711445 -0.07412013 0.053458996 0.021879695 0.016519781
0.032289036 -0.061784208 0.0036996005 -0.06369901 -0.0034850761 -0.0067012934 -0.023237333 -0.051341493
0.055190288 0.030578572 0.01341443 -0.032744054 -0.08105124 -0.03363494 -0.004677551 -0.030308496
-0.09609917 0.019873789 -0.008462745 0.026296655 -0.096575975 -0.015128914 -0.080474645 -0.06341075
-0.034094393 -0.03884247 -0.020843385 -0.0429946 0.035902075 -0.05088971 -0.0564735 0.02716276
-0.110736504 -0.004586735 0.031854924 0.033739846 -0.07155528 -0.008958866 0.10152651 0.0017823586
0.04203238 0.0645448 0.024578156 -0.07038077 -0.009835918 -0.086535566 -0.04324781 0.023804186

Q_net.linear1.bias f4 [50]
00000000: 5ce2 e6bc c2a6 34bd 7b1b 9fbb 7309 00be
00000010: ce59 59bc 2538 f53d 24cd 7b3c 4486 d53d
00000020: 039f a23d fdcb a03d 0780 8dbc b5a8 093d
00000030: f713 053e 7703 eb3d 3809 433c 11ed f7bc
00000040: 3ece cd3d 5362 2ebe 0ca5 b4bc b664 013e
00000050: 670d 083e f080 113e a53a c3bd 194e b7bb
00000060: 2d53 983d 3cf3 883d d4af aa3d 5c42 533e
00000070: b38d 19bd 95dc 113c 2e40 8e3d c5e1 633c
00000080: 17bf ab3c 264d 933d 7f10 4b3d d0b0 243a
00000090: 0310 27bc 67ea 86bd 4064 8ebd 7ebd a1bd
000000a0: f64b 68bc ee2c edbc cdf9 0b3e d85a 28bc
000000b0: 3f15 a0bd 75ba 173d 0e58 193d fdfb d53d
000000c0: dc13 1a3e 0c15 84bb
-0.028184108 -0.044104345 -0.004855571 -0.12503605 -0.01326604 0.11973599 0.015368734 0.10426
0.07940485 0.07851408 -0.017272962 0.033608157 0.12995897 0.1147527 0.011904053 -0.03026441
0.10049103 -0.17029695 -0.022051357 0.12636074 0.13286363 0.14209342 -0.0953267 -0.0055940268
0.074377395 0.06687018 0.08334318 0.20630783 -0.03748865 0.0089026885 0.06945835 0.013908808
0.020965142 0.07192449 0.04957628 0.00062824506 -0.010196689 -0.065876774 -0.06952715 -0.07897471
-0.014178267 -0.028952088 0.1366951 -0.010275565 -0.07816552 0.037043054 0.03743749 0.104484536
0.15046638 -0.0040308293

Q_net.linear2.weight f4 [50, 50]
00000000: a0fd 2a3d 6aa6 a53d ca4a 883d 0d36 033e
00000010: 72ce b83d 3415 303d 048e d43d 815c b2bd
00000020: 51e8 b9bd 6d38 6e3d 7929 043e 27a2 b23d
00000030: 58e3 fcbd 39e5 b33d f606 1a3c 4bca e8bd
00000040: 700c cc3c efae 7bbc 7650 d53d f1b8 09bd
00000050: 2444 98bd dd71 a93c 8c01 a43d ea88 83bd
00000060: dd3f 9f3c 06c0 023e 35ad 6bbd 4459 8abd
00000070: 0804 0ebe ef9f 05bd 6ceb 993d 0ae3 893d
00000080: a599 ee3c 1f1d 34bc eafb 08bc b099 063e
00000090: f4c0 443d d6dc 66bc c0a8 23bd a591 1bbb
000000a0: 9606 18bd 7771 8e3d 095e 963d 8cdf a73d
000000b0: 02d7 153e c504 04bd 888a 903d 73ab 90bd
000000c0: 357b 363c a6a0 bdbd 044e 3bbb 1d8e 623d
000000d0: 9526 123e 5aa5 0a3d 0d7b ca3d 5173 e13d
000000e0: 9ccd 8b3d 2350 01be 94c8 7dbc b130 16be
000000f0: 2688 e4bc 559d 093e c01b 93bc 4561 b0bd
00000100: a625 ca3d eb09 00be 7147 5bbd 39a6 efbd
00000110: 3b61 7fbc d23d d13c f89e e5bd a872 f33d
00000120: 8e99 303d f02a 1e3d b197 d3bd 1649 3d3d
00000130: 9aad 303d 2af6 ad3d 65f7 d53d 4a81 0d3d
00000140: 4ff4 93bd 1ff5 e73c aa59 0f3e 8375 e0bd
00000150: 1096 c03d 239c f43d 881d 853d e2f7 0c3e
00000160: 4bb0 3fbd e2d6 ddbc c1e9 c7bd 4fac 0c3d
00000170: 4b3e 53bc 79c1 e93d 3334 32bd ec19 36bc
00000180: 938f a2bd 5a4b 1e3d 21cd 113e ec64 5c3d
00000190: 97f9 913d 237c 15bd 5847 a93d 41b6 3a3d
000001a0: 934a 2bbd e1ce e0bd a85e e03d 57f1 83bd
000001b0: c7a3 f5bd 749e 25bd 6699 03bd 8b0c 96bd
000001c0: e523 d6bd e2d8 c1bc f17d 923d d829 9bbc
000001d0: 0d55 073b 86f6 07be 8156 9dbd 871f ab3c
000001e0: e4cb 2b3d a199 223e 28f8 10bd 8feb 0ebd
000001f0: 1496 fb3c 9add 6c3d 67ed 3abd 7405 f83c
00000200: f601 1c3c 29f0 1ebe 1f95 bf3d 4f00 7d3d
00000210: 7a89 d73d 92ec 1c3d b9d8 eb3d 2f87 bfbd
00000220: b6b0 0b3e 1af5 b4bd b088 063d c812 db3d
00000230: e5d8 9fbc 1d99 5bbc bfdd 96bd f5a4 ef3c
00000240: fd68 a53d 21e1 9abb ef61 19be a3c4 153d
00000250: 2598 513c 5c34 c8bb 88e3 f43d f54c 3dbd
00000260: 9ce9 a03d 283a ae3d 878b 1d3d f045 03bd
00000270: 834c edbd 3fe9 483d b961 c1bd e7ab a83c
00000280: 2457 0fbe a22e 283d aded 25be 044e 70bd
00000290: 27b9 c93d 776a 0f3c 816a 283e dec4 413d
000002a0: f173 183d 6bce 1cbe d014 9e3c f7ed 1fbe
000002b0: 9165 103e 9e5a bcbd 5680 ef3d 1595 08bd
000002c0: 27c9 d4bc c8ef a8bd 0d55 a33d 949e b43d
000002d0: 4b51 c73d b31a 9d3d dfe3 06be dd7b 40bd
000002e0: e0e4 f33d 4def 2f3d 58cb 003d 531b 17be
000002f0: a7d4 f2bd 1be1 41bd 6823 95bc 48e8 e13d
00000300: 5fa8 be3c da1b bf3d c65b 49bd 434f 9bbd
00000310: 9593 ee3d a2a7 a2bb eafd 4c3d c511 bb3d
00000320: 75be 12bc 743d 7a3d ddfd c73d e6fb c6bd
00000330: 1d60 073e 7362 063e 2040 a1bd dcdc f63d
00000340: c282 d53d 572d 35bd 4e49 c8bc 2a0a db3d
00000350: 008e f23d 898c 62bd 0d26 04be 2a3f 5d3d
00000360: 7b4b b7bd a750 473c 0dfe bfbd 581c 113e
00000370: 3769 07bd af42 9abd d15e 483d a0ca 91bd
00000380: 51c8 a3bd ba80 8ebc ccb2 863d 409d c1bd
00000390: 8834 8ebd e165 1fbe 8eb4 50bd d6d4 cebc
000003a0: d972 34bd adbb 1f3e fb32 e53d 623d 063e
000003b0: 353a 4dbd 4681 2d3c cb9d 6e3c f36e a3bd
000003c0: 65e9 a2bd 5f90 ae3d d62d e7bc 1596 d3bd
000003d0: 16d9 c4bc 63a3 f4bd 9cd8 743c 9257 813d
000003e0: fcee 473d 4870 08be 15e6 1ebe 4c13 babd
000003f0: cc58 e0bd 13ad b6bc a66f 643d 3aef 293d
0.041745782 0.080883816 0.0665489 0.12813587 0.09023751 0.04298897 0.1037865 -0.0870905
-0.09077514 0.05815928 0.12906446 0.08722334 -0.1234805 0.08783955 0.009401074 -0.11366709
0.024908274 -0.015361532 0.10415737 -0.03362364 -0.07434872 0.020684177 0.080081075 -0.06422599
0.019439632 0.12768564 -0.05753823 -0.06755307 -0.13868725 -0.032623228 0.07515606 0.067327574
0.029125998 -0.010993271 -0.008360842 0.13144565 0.048035577 -0.014090737 -0.039955854 -0.0023737934
-0.037115656 0.069552355 0.073421545 0.08196935 0.146328 -0.03223111 0.07057673 -0.07063951
0.011137773 -0.09259157 -0.0028580436 0.05531131 0.1427253 0.033849098 0.09886751 0.11008323
0.06826326 -0.12628226 -0.015489716 -0.14667012 -0.027896952 0.13438924 -0.017957568 -0.08612303
0.09870462 -0.12503783 -0.05353493 -0.11701626 -0.015587146 0.025542174 -0.112119615 0.11887103
0.04311519 0.038615167 -0.10331667 0.04621228 0.04313431 0.08494218 0.104475774 0.034547128
-0.072243325 0.028315125 0.13999048 -0.109599136 0.09403622 0.11943843 0.06499773 0.13766435
-0.046798985 -0.027080003 -0.09761382 0.034344014 -0.01289327 0.11413855 -0.043506812 -0.011114579
-0.07937541 0.03864608 0.14238407 0.053807184 0.071276836 -0.03649534 0.08265561 0.045583967
-0.041819166 -0.10976959 0.10955554 -0.06442516 -0.11994129 -0.040434316 -0.032128714 -0.07326611
-0.10456065 -0.023662988 0.07152928 -0.018940851 0.002065006 -0.13277635 -0.07682515 0.020889057
0.041942492 0.15878917 -0.03539291 -0.034892615 0.030711211 0.057828523 -0.04563656 0.030276038
0.009521952 -0.15521301 0.093546145 0.061767872 0.105242684 0.03831155 0.11515946 -0.09351956
0.13641629 -0.08835812 0.0328452 0.106969416 -0.019512603 -0.013403204 -0.073665135 0.029253462
0.080766656 -0.0047265445 -0.14978765 0.03656448 0.012792622 -0.0061097573 0.11957461 -0.04621597
0.078570575 0.08507186 0.03846314 -0.03204912 -0.11586859 0.049050566 -0.09442467 0.020589782
-0.13998085 0.041060098 -0.16203947 -0.05866815 0.09849768 0.008753411 0.16446878 0.047306888
0.037219945 -0.15313117 0.019297034 -0.1561812 0.14101245 -0.09196971 0.116944 -0.0333453
-0.025974823 -0.0824886 0.079752065 0.08819309 0.09732302 0.07671108 -0.13172863 -0.046993125
0.11908889 0.042952824 0.031443924 -0.14756517 -0.118569665 -0.047333818 -0.01820536 0.11030632
0.023273645 0.09331484 -0.049159788 -0.07583477 0.11649243 -0.004963831 0.05004684 0.09134249
-0.008956541 0.061093763 0.097652175 -0.097160146 0.13220258 0.13123493 -0.07873559 0.12053844
0.10425331 -0.044232693 -0.024449017 0.10695298 0.118434906 -0.055309806 -0.1290514 0.054015316
-0.08949944 0.012165225 -0.09374628 0.14170969 -0.033059325 -0.0753225 0.04891855 -0.07118726
-0.07997192 -0.017395366 0.065770715 -0.09453821 -0.06943613 -0.15566207 -0.05095344 -0.025247972
-0.04405484 0.15598936 0.111913644 0.13109353 -0.05010434 0.010589903 0.014563988 -0.07980146
-0.07954673 0.0852363 -0.028220098 -0.1033136 -0.024029296 -0.11945226 0.014944222 0.06315531
0.048811898 -0.13324082 -0.15517457 -0.09085712 -0.10954437 -0.022299325 0.05577054 0.04148791

Q_net.linear2.bias f4 [50]
00000000: b4f9 44bd e024 60be f956 da3b db12 503e
00000010: b7dc a0bd 6e27 f83d acbe 0a3e 3f10 72bd
00000020: 9be1 4ebe 867f 8e3d 6ee8 eb3d 3c55 833d
00000030: adf3 78be cb5b 9fbd 9f81 42bc 7374 9b3d
00000040: 5459 d4bd 1ce8 8fbd c9cd 643d 4505 fabc
00000050: 3ab5 e13d ecdb f63d 67dc 08bd 221c 4c3c
00000060: 8960 01bd 3b67 3a3e a57d ccbc 2ae3 50bd
00000070: 4491 a6bd 9f46 343d b775 98be 70dc d2bd
00000080: 6b4c 813e 88d9 de3d 2bc2 913d e9af 6cbe
00000090: 6de6 493d da99 7b3d af31 f4bc 6000 07be
000000a0: b04f 213e 74c3 55be 073a bdbd f9a7 763e
000000b0: a471 b339 5681 563e 49b3 9e3d ec15 0a3e
000000c0: eadc b23c c6c9 52bd
-0.048089698 -0.21889067 0.0066632 0.20319693 -0.07854598 0.121168956 0.13549298 -0.059097525
-0.20203249 0.06957917 0.11518942 0.064127415 -0.24311705 -0.0778118 -0.011871724 0.0759057
-0.103686005 -0.07026693 0.055860315 -0.03052009 0.11020894 0.120536655 -0.033413317 0.012457879
-0.031586204 0.18203442 -0.024962256 -0.05099789 -0.08133176 0.044012662 -0.2977731 -0.10295951
0.25253615 0.108813345 0.07117113 -0.2311398 0.049292017 0.06142602 -0.029808847 -0.13183737
0.15753055 -0.2087534 -0.092395835 0.24087514 0.0003422621 0.20947775 0.0774904 0.13484925
0.021833856 -0.051461957

Q_net.linear3.weight f4 [3, 50]
00000000: e2af 42bc 7a1c b4bc ffee 653c de00 d43c
00000010: c08e 6c3d a71b 953d 1a3a df3d d14d debd
00000020: d5ef b1bd c69c 5bbe 65af bf3c c229 383d
00000030: a5b2 adbd b10b 04bd ef26 2e3d ca25 933d
00000040: d327 d0bd 00d5 0a3e 9806 733d b750 ad3d
00000050: 0db9 e53d c28b 9a3c 974a 46bc 2511 b03c
00000060: 2bd6 953d d636 aa3d afd9 febc bbac a8bc
00000070: 0748 c1bd 2a25 01be f749 9bbd ff42 17bd
00000080: 7c40 703d a8c2 913d b213 123e ecc7 d2bd
00000090: 4dbd e73d 933d 48bd bf91 09be 60b0 acbd
000000a0: 52f3 b73d 2cbe 07bd 93ce 09be 542e f03d
000000b0: eaac 633e 826c ba3d 9603 fe3d 41af e53d
000000c0: 6b80 80bc 24de efbc 8194 0b3e 0a7d b5bd
000000d0: cfdc b2bb 35d5 44bd fb1e 0a3e 1d8c 0ebc
000000e0: 7cb0 7a3d c8e7 97bc 0518 1dbe b00f c4bd
000000f0: b2ba d5bc f734 a83d 9804 353d c1bd 023d
00000100: bd9a d63d d6c5 653d 3aee 603d 928d 133e
00000110: 2602 fa3c 85bb dbbd 9773 713d e4bc aa3c
00000120: 7f51 1abd 15e9 d3bc 54a1 a53d 37ef a73c
00000130: 1252 dbbc 494e 873c 8081 f3bd e102 03be
00000140: 9747 083e 12db e63d 86a4 27bc 64aa aa3d
00000150: f896 0b3d 2ba1 0ebe cfcd 053e 84ce 9cbd
00000160: 71df 9b3d 632a 1dbe e704 763c 2cfc 6b3d
00000170: e0c5 433e 0d37 e0bc cfae 0f3e 6fff a63d
00000180: 44fa bc3d f1e0 3cbd 0f01 8a3d bdb8 0bb8
00000190: 8ba9 d5bd 829e 0f3d 2792 8e3d 0f16 113d
000001a0: dc52 f03d a69e 6f3d 97f9 743d 247a 843d
000001b0: dc99 e8bb 03bc 1d3e b869 a83d f280 c13c
000001c0: ab54 4e3c 0cfc f53d 6e4b 8cbd d9d5 b6bd
000001d0: b18c c5bd 3b62 4f3b 3d3d b63c 2a23 c43c
000001e0: 6d4a ee3d 9bd2 ab3d f063 b43d 16e9 a4bd
000001f0: 529e 89bd 153b cc3c 1490 aa3b 3198 d5bd
00000200: 07ff cdbd e1e1 f0bd 4ff8 bbbd faf6 2bbd
00000210: 4a12 3dbb f743 a03d 593e f0bb 0218 8f3d
00000220: 6cf6 283d 9909 c63c 4d5a bd3c 6a7d 97bd
00000230: 9f8a 36bd 0483 f7ba 59da fb3c fa76 8c3c
00000240: ab38 a23d efcb a53d c8d1 b93d 0582 bfbc
00000250: 4008 463d 6c16 bb3d
-0.011882754 -0.021986235 0.014034032 0.02587932 0.057753325 0.07280665 0.10899754 -0.10854686
-0.086883225 -0.21446523 0.023399064 0.0449617 -0.08481339 -0.032237712 0.0425176 0.07184942
-0.10163846 0.13557816 0.05933246 0.08462661 0.11216936 0.01886547 -0.012102745 0.02149255
0.0731624 0.083112404 -0.031109659 -0.020590177 -0.09437566 -0.12611833 -0.07582467 -0.036929127
0.058655247 0.07117206 0.14265326 -0.10292038 0.11315403 -0.048886847 -0.13434504 -0.08432078
0.089819565 -0.033140346 -0.13457708 0.117275864 0.2223393 0.091027275 0.12403028 0.11215068
-0.015686234 -0.02928073 0.13630868 -0.0886174 -0.0054584513 -0.048054893 0.1348838 -0.008700398
0.061203465 -0.01854314 -0.15341194 -0.09573305 -0.02609 0.08213227 0.044193834 0.031919245
0.10478733 0.056096874 0.05491469 0.14409474 0.030518603 -0.10729126 0.058948126 0.020842023
-0.037675377 -0.025867978 0.080874115 0.020499809 -0.026772533 0.016516821 -0.118899345 -0.12794067
0.1330856 0.11272253 -0.010232097 0.08333281 0.034079522 -0.13928668 0.13066791 -0.07656577
0.076109774 -0.153482 0.015015817 0.057613537 0.19118452 -0.02737 0.14031528 0.08154189
0.09227422 -0.04611296 0.06738483 -3.3312233e-05 -0.104327284 0.035063274 0.0696147 0.035421427
0.11734554 0.05850091 0.05980834 0.06468609 -0.0070984196 0.15403752 0.08223289 0.023621056
0.012593429 0.12010965 -0.068503246 -0.08927507 -0.096459754 0.0031644243 0.022245998 0.023942549
0.11635289 0.08389779 0.08808124 -0.0805227 -0.0671965 0.024930516 0.0052051637 -0.10429419
-0.10058408 -0.11761833 -0.091782205 -0.041983582 -0.0028850012 0.07825463 -0.007331651 0.06987001
0.04125063 0.024174498 0.023114348 -0.07396968 -0.044565793 -0.001888365 0.030743765 0.017146576
0.07920965 0.08095538 0.09073216 -0.023377428 0.04834771 0.09135136

Q_net.linear3.bias f4 [3]
00000000: abb8 783e 68c4 c63d 14f4 293e
0.24289195 0.0970543 0.16597015

Target_Q_Net.linear1.weight f4 [50, 150]
00000000: 6bd6 03bb b5ed 8bbd da54 c2bc eda3 353d
00000010: d146 293d f570 dfbd a027 0ebb 73bc 8dbd
00000020: 5de1 a2bc 0fed 363d 45a6 debd 19b1 bdbd
00000030: b5bb 69bd 17d9 643a e4bb 313d 1c53 9ebc
00000040: 5b88 7cbb c12d 603d 6168 583b 4c09 933c
00000050: b9d4 283d b3d2 7cbc f546 acbd 5eda 18bd
00000060: 02cb ae3d d5ed 5abd 1479 0c3d a0ed b53d
00000070: b456 9ebd 3808 3ebc 6c64 a4bd 4477 cfbc
00000080: 6eab 12bc 5834 81bd 3251 933b 54c4 0dbd
00000090: 004c 2d3a 481d 84bc 2ed1 33bc 657e 183d
000000a0: 69cc a8bc c665 60bd 4eca c6bd 3d8e c5bd
000000b0: 221c 4fbd fec5 16bd 25f8 0dbe 5938 a73d
000000c0: 85af fbbc 0a9a 123d a856 1ebc 22b3 9c3c
000000d0: 49bd 1cbc ef53 75bd 2db3 1c3d bde9 bc3d
000000e0: 04c5 42bd ed1a 043b 74ab 90bc 5439 7e3d
000000f0: f39f d2bd 21ad a5bb e3fb 3abd 1ee6 ca3b
00000100: 6c20 703d b4ea 29bd dcc3 df3b 035c 5cbd
00000110: 863f 83bc 09b4 4f3c 06cf 8f3c 01a9 27bc
00000120: 41b0 123d 8d01 503c ddff 8a3d 0fb2 293d
00000130: 1e47 76bd 4551 3dba cc39 5d3b 1e10 6f3d
00000140: f0c2 afbd c159 a43c 4533 023d 9a6e 27bd
00000150: 148e bb3c 0cf5 ef3c 7899 a43d bf3a ec3c
00000160: 22eb 1c3d 10f7 53bd b4ce 8ebd e05b 57bc
00000170: 5218 b6bd 782f 82bd 2eec a7bb f83a 853d
00000180: fb5b aa3b 4bd2 3dbd db40 d6ba b482 97bc
00000190: 2edc 59ba 0504 1c3d 66e8 89bd 2e42 2dbd
000001a0: 4d65 94bd 7a72 d33d c165 ba3d 93aa 963d
000001b0: bbc2 343d f22d 633c 4b75 0d3d c048 9dba
000001c0: aee3 2ebd 7280 5f3d fbde e8bc da94 debb
000001d0: d06d ea3c a39b 723c c74c bebd 74d2 5a3c
000001e0: 7a21 093c 5389 b5bd 0c65 fd3c 712c a13b
000001f0: 52c0 fcbc 30c4 493d cde7 dc3d 9a82 1cba
00000200: 78aa 2d3d 62b3 b0bc 5ee3 c6bb 2d0f 9fbd
00000210: 3fae b03c 09c2 6bbd 56a4 a53d 17bd dc3d
00000220: 3ae6 e23d e79e 2ebc 657b fa3a 2d25 24bd
00000230: cdce dabb 96d5 18bd ff73 31b9 bd69 93bd
00000240: 37db 803a 213d e13d d706 ea3d c5c6 bfbc
00000250: adda 463d e5a1 1fbd 6b0b 73bd d4bf f9bc
00000260: 6c03 69bc a32b b9bd 4f93 18bd 62f1 e3bd
00000270: 3abf 20be c133 53bd acb8 be3b 1cbd a4bc
00000280: 3b00 3dbb 87ca ccbd 2241 803b 4dd5 a6bc
00000290: 0bf7 b8bc 13a9 9ebc 9f91 d1bd b881 453d
000002a0: 3cab d33c 0258 c33c 7252 4fbd df9a fcbd
000002b0: ddf6 bd3c 8a53 b8bc f947 623d 6545 86bd
000002c0: fe2a e2bc 1bae 1cbd 06e1 88bc cc5d 793d
000002d0: e87c cabb 8ab4 253d 1b19 82bd 2e36 5cba
000002e0: b2c2 003d 9365 aebd 9280 10bc 7ed2 773c
000002f0: 8e72 85bc bfe3 063d ad6b 75bc 5706 96bd
00000300: a53c 143d 8688 8d3c 621e 283d 26dc 683d
00000310: c6a9 303c c090 9fbc 6ded b3bb b100 ba3d
00000320: 5fd9 ca3c 76d8 94bd 7cd4 5dbd b3d9 efbd
00000330: 4bcc 97bd d2f7 5a3d 0c3d b33c 7e54 873c
00000340: 8241 043d 7011 7dbd ff74 723b a074 82bd
00000350: e065 64bb 8696 dbbb 385c bebc 754b 52bd
00000360: 360f 623d ea7f fa3c 33c8 5b3c a11e 06bd
00000370: 31fe a5bd cac4 09bd 2446 99bb 8649 f8bc
00000380: a4cf c4bd 5bce a23c 53a7 0abc 156c d73c
00000390: a0c9 c5bd 44df 77bc e4cf a4bd 7fdd 81bd
000003a0: 90a6 0bbd 4819 1fbd bfbf aabc 1b1b 30bd
000003b0: 0e0e 133d bb71 50bd c250 67bd 7084 de3c
000003c0: d2c9 e2bd 524c 96bb 4f7a 023d cb32 0a3d
000003d0: 938b 92bd 35c8 12bc 22ed cf3d 089e e93a
000003e0: 252a 2c3d 1030 843d 2158 c93c cb23 90bd
000003f0: d526 21bc 8f39 b1bd 9e24 31bd ff00 c33c
-0.0020116817 -0.068324484 -0.023722101 0.044345785 0.0413273 -0.10910217 -0.0021691099 -0.069207095
-0.019882852 0.04465967 -0.10871557 -0.09262294 -0.057063777 0.00087298587 0.043392077 -0.019326739
-0.0038533423 0.054731134 0.00330212 0.017948769 0.041218493 -0.015431094 -0.084119715 -0.037317626
0.085348144 -0.05344947 0.034295157 0.08883214 -0.07731381 -0.011598639 -0.080269665 -0.025325425
-0.008952005 -0.06308812 0.004495763 -0.03461106 0.0006610751 -0.016127244 -0.010975165 0.037229914
-0.020605283 -0.05478456 -0.09706555 -0.096462704 -0.05056394 -0.036809914 -0.13864191 0.08165044
-0.030723343 0.035791434 -0.009664215 0.019128386 -0.0095666135 -0.0598945 0.038256813 0.092242695
-0.04755117 0.002015765 -0.01765988 0.06206639 -0.10284414 -0.005056039 -0.045650374 0.006191983
0.05862467 -0.041483596 0.006828768 -0.053798687 -0.016021501 0.012677201 0.017554771 -0.010233165
0.03581262 0.012695682 0.06787083 0.041429576 -0.060126416 -0.0007221888 0.0033756373 0.05836498
-0.08582103 0.02006233 0.031787176 -0.040876962 0.022894897 0.029291652 0.08037084 0.028836606
0.038310178 -0.05174929 -0.06973019 -0.013144463 -0.088913575 -0.0635671 -0.0051245904 0.06505388
0.005198953 -0.04634313 -0.0016346233 -0.018494941 -0.00083107024 0.03808977 -0.067337796 -0.042299442
-0.07245884 0.10324569 0.09101439 0.07356753 0.044131022 0.013865935 0.034535687 -0.0011999831
-0.0426976 0.054565854 -0.028426638 -0.006792647 0.028616816 0.0148076145 -0.09291988 0.01335584
0.008369798 -0.08864083 0.030931972 0.004918628 -0.030853424 0.049259365 0.107864 -0.0005970389
0.0423989 -0.021569911 -0.0060695847 -0.077665664 0.021567462 -0.057558093 0.08087985 0.107782535
0.110790685 -0.010658002 0.0019110261 -0.040074516 -0.0066774846 -0.037313066 -0.00016923247 -0.07197902
0.0009830956 0.109979875 0.11427086 -0.02341021 0.04854839 -0.038972754 -0.05933706 -0.030486979
-0.014222007 -0.09041526 -0.03724986 -0.111300245 -0.15697947 -0.05156303 0.0058203544 -0.020109706
-0.0028839249 -0.099995665 0.0039140144 -0.020365382 -0.022578737 -0.01936773 -0.10232853 0.048219413
0.025838487 0.023845676 -0.050615735 -0.12334227 0.023189003 -0.022500772 0.05524442 -0.06556205
-0.02760839 -0.038251977 -0.016708862 0.060880467 -0.0061794408 0.04045538 -0.06352445 -0.00084004074
0.031435676 -0.085154675 -0.008819716 0.015125869 -0.016289975 0.03293204 -0.014979285 -0.07325428
0.036190648 0.017277014 0.0410446 0.056850575 0.010782665 -0.019478202 -0.00549095 0.09082163
0.024761854 -0.07267849 -0.05415772 -0.11711445 -0.07412013 0.053458996 0.021879695 0.016519781
0.032289036 -0.061784208 0.0036996005 -0.06369901 -0.0034850761 -0.0067012934 -0.023237333 -0.051341493
0.055190288 0.030578572 0.01341443 -0.032744054 -0.08105124 -0.03363494 -0.004677551 -0.030308496
-0.09609917 0.019873789 -0.008462745 0.026296655 -0.096575975 -0.015128914 -0.080474645 -0.06341075
-0.034094393 -0.03884247 -0.020843385 -0.0429946 0.035902075 -0.05088971 -0.0564735 0.02716276
-0.110736504 -0.004586735 0.031854924 0.033739846 -0.07155528 -0.008958866 0.10152651 0.0017823586
0.04203238 0.0645448 0.024578156 -0.07038077 -0.009835918 -0.086535566 -0.04324781 0.023804186

Target_Q_Net.linear1.bias f4 [50]
00000000: 5ce2 e6bc c2a6 34bd 7b1b 9fbb 7309 00be
00000010: ce59 59bc 2538 f53d 24cd 7b3c 4486 d53d
00000020: 039f a23d fdcb a03d 0780 8dbc b5a8 093d
00000030: f713 053e 7703 eb3d 3809 433c 11ed f7bc
00000040: 3ece cd3d 5362 2ebe 0ca5 b4bc b664 013e
00000050: 670d 083e f080 113e a53a c3bd 194e b7bb
00000060: 2d53 983d 3cf3 883d d4af aa3d 5c42 533e
00000070: b38d 19bd 95dc 113c 2e40 8e3d c5e1 633c
00000080: 17bf ab3c 264d 933d 7f10 4b3d d0b0 243a
00000090: 0310 27bc 67ea 86bd 4064 8ebd 7ebd a1bd
000000a0: f64b 68bc ee2c edbc cdf9 0b3e d85a 28bc
000000b0: 3f15 a0bd 75ba 173d 0e58 193d fdfb d53d
000000c0: dc13 1a3e 0c15 84bb
-0.028184108 -0.044104345 -0.004855571 -0.12503605 -0.01326604 0.11973599 0.015368734 0.10426
0.07940485 0.07851408 -0.017272962 0.033608157 0.12995897 0.1147527 0.011904053 -0.03026441
0.10049103 -0.17029695 -0.022051357 0.12636074 0.13286363 0.14209342 -0.0953267 -0.0055940268
0.074377395 0.06687018 0.08334318 0.20630783 -0.03748865 0.0089026885 0.06945835 0.013908808
0.020965142 0.07192449 0.04957628 0.00062824506 -0.010196689 -0.065876774 -0.06952715 -0.07897471
-0.014178267 -0.028952088 0.1366951 -0.010275565 -0.07816552 0.037043054 0.03743749 0.104484536
0.15046638 -0.0040308293

Target_Q_Net.linear2.weight f4 [50, 50]
00000000: a0fd 2a3d 6aa6 a53d ca4a 883d 0d36 033e
00000010: 72ce b83d 3415 303d 048e d43d 815c b2bd
00000020: 51e8 b9bd 6d38 6e3d 7929 043e 27a2 b23d
00000030: 58e3 fcbd 39e5 b33d f606 1a3c 4bca e8bd
00000040: 700c cc3c efae 7bbc 7650 d53d f1b8 09bd
00000050: 2444 98bd dd71 a93c 8c01 a43d ea88 83bd
00000060: dd3f 9f3c 06c0 023e 35ad 6bbd 4459 8abd
00000070: 0804 0ebe ef9f 05bd 6ceb 993d 0ae3 893d
00000080: a599 ee3c 1f1d 34bc eafb 08bc b099 063e
00000090: f4c0 443d d6dc 66bc c0a8 23bd a591 1bbb
000000a0: 9606 18bd 7771 8e3d 095e 963d 8cdf a73d
000000b0: 02d7 153e c504 04bd 888a 903d 73ab 90bd
000000c0: 357b 363c a6a0 bdbd 044e 3bbb 1d8e 623d
000000d0: 9526 123e 5aa5 0a3d 0d7b ca3d 5173 e13d
000000e0: 9ccd 8b3d 2350 01be 94c8 7dbc b130 16be
000000f0: 2688 e4bc 559d 093e c01b 93bc 4561 b0bd
00000100: a625 ca3d eb09 00be 7147 5bbd 39a6 efbd
00000110: 3b61 7fbc d23d d13c f89e e5bd a872 f33d
00000120: 8e99 303d f02a 1e3d b197 d3bd 1649 3d3d
00000130: 9aad 303d 2af6 ad3d 65f7 d53d 4a81 0d3d
00000140: 4ff4 93bd 1ff5 e73c aa59 0f3e 8375 e0bd
00000150: 1096 c03d 239c f43d 881d 853d e2f7 0c3e
00000160: 4bb0 3fbd e2d6 ddbc c1e9 c7bd 4fac 0c3d
00000170: 4b3e 53bc 79c1 e93d 3334 32bd ec19 36bc
00000180: 938f a2bd 5a4b 1e3d 21cd 113e ec64 5c3d
00000190: 97f9 913d 237c 15bd 5847 a93d 41b6 3a3d
000001a0: 934a 2bbd e1ce e0bd a85e e03d 57f1 83bd
000001b0: c7a3 f5bd 749e 25bd 6699 03bd 8b0c 96bd
000001c0: e523 d6bd e2d8 c1bc f17d 923d d829 9bbc
000001d0: 0d55 073b 86f6 07be 8156 9dbd 871f ab3c
000001e0: e4cb 2b3d a199 223e 28f8 10bd 8feb 0ebd
000001f0: 1496 fb3c 9add 6c3d 67ed 3abd 7405 f83c
00000200: f601 1c3c 29f0 1ebe 1f95 bf3d 4f00 7d3d
00000210: 7a89 d73d 92ec 1c3d b9d8 eb3d 2f87 bfbd
00000220: b6b0 0b3e 1af5 b4bd b088 063d c812 db3d
00000230: e5d8 9fbc 1d99 5bbc bfdd 96bd f5a4 ef3c
00000240: fd68 a53d 21e1 9abb ef61 19be a3c4 153d
00000250: 2598 513c 5c34 c8bb 88e3 f43d f54c 3dbd
00000260: 9ce9 a03d 283a ae3d 878b 1d3d f045 03bd
00000270: 834c edbd 3fe9 483d b961 c1bd e7ab a83c
00000280: 2457 0fbe a22e 283d aded 25be 044e 70bd
00000290: 27b9 c93d 776a 0f3c 816a 283e dec4 413d
000002a0: f173 183d 6bce 1cbe d014 9e3c f7ed 1fbe
000002b0: 9165 103e 9e5a bcbd 5680 ef3d 1595 08bd
000002c0: 27c9 d4bc c8ef a8bd 0d55 a33d 949e b43d
000002d0: 4b51 c73d b31a 9d3d dfe3 06be dd7b 40bd
000002e0: e0e4 f33d 4def 2f3d 58cb 003d 531b 17be
000002f0: a7d4 f2bd 1be1 41bd 6823 95bc 48e8 e13d
00000300: 5fa8 be3c da1b bf3d c65b 49bd 434f 9bbd
00000310: 9593 ee3d a2a7 a2bb eafd 4c3d c511 bb3d
00000320: 75be 12bc 743d 7a3d ddfd c73d e6fb c6bd
00000330: 1d60 073e 7362 063e 2040 a1bd dcdc f63d
00000340: c282 d53d 572d 35bd 4e49 c8bc 2a0a db3d
00000350: 008e f23d 898c 62bd 0d26 04be 2a3f 5d3d
00000360: 7b4b b7bd a750 473c 0dfe bfbd 581c 113e
00000370: 3769 07bd af42 9abd d15e 483d a0ca 91bd
00000380: 51c8 a3bd ba80 8ebc ccb2 863d 409d c1bd
00000390: 8834 8ebd e165 1fbe 8eb4 50bd d6d4 cebc
000003a0: d972 34bd adbb 1f3e fb32 e53d 623d 063e
000003b0: 353a 4dbd 4681 2d3c cb9d 6e3c f36e a3bd
000003c0: 65e9 a2bd 5f90 ae3d d62d e7bc 1596 d3bd
000003d0: 16d9 c4bc 63a3 f4bd 9cd8 743c 9257 813d
000003e0: fcee 473d 4870 08be 15e6 1ebe 4c13 babd
000003f0: cc58 e0bd 13ad b6bc a66f 643d 3aef 293d
0.041745782 0.080883816 0.0665489 0.12813587 0.09023751 0.04298897 0.1037865 -0.0870905
-0.09077514 0.05815928 0.12906446 0.08722334 -0.1234805 0.08783955 0.009401074 -0.11366709
0.024908274 -0.015361532 0.10415737 -0.03362364 -0.07434872 0.020684177 0.080081075 -0.06422599
0.019439632 0.12768564 -0.05753823 -0.06755307 -0.13868725 -0.032623228 0.07515606 0.067327574
0.029125998 -0.010993271 -0.008360842 0.13144565 0.048035577 -0.014090737 -0.039955854 -0.0023737934
-0.037115656 0.069552355 0.073421545 0.08196935 0.146328 -0.03223111 0.07057673 -0.07063951
0.011137773 -0.09259157 -0.0028580436 0.05531131 0.1427253 0.033849098 0.09886751 0.11008323
0.06826326 -0.12628226 -0.015489716 -0.14667012 -0.027896952 0.13438924 -0.017957568 -0.08612303
0.09870462 -0.12503783 -0.05353493 -0.11701626 -0.015587146 0.025542174 -0.112119615 0.11887103
0.04311519 0.038615167 -0.10331667 0.04621228 0.04313431 0.08494218 0.104475774 0.034547128
-0.072243325 0.028315125 0.13999048 -0.109599136 0.09403622 0.11943843 0.06499773 0.13766435
-0.046798985 -0.027080003 -0.09761382 0.034344014 -0.01289327 0.11413855 -0.043506812 -0.011114579
-0.07937541 0.03864608 0.14238407 0.053807184 0.071276836 -0.03649534 0.08265561 0.045583967
-0.041819166 -0.10976959 0.10955554 -0.06442516 -0.11994129 -0.040434316 -0.032128714 -0.07326611
-0.10456065 -0.023662988 0.07152928 -0.018940851 0.002065006 -0.13277635 -0.07682515 0.020889057
0.041942492 0.15878917 -0.03539291 -0.034892615 0.030711211 0.057828523 -0.04563656 0.030276038
0.009521952 -0.15521301 0.093546145 0.061767872 0.105242684 0.03831155 0.11515946 -0.09351956
0.13641629 -0.08835812 0.0328452 0.106969416 -0.019512603 -0.013403204 -0.073665135 0.029253462
0.080766656 -0.0047265445 -0.14978765 0.03656448 0.012792622 -0.0061097573 0.11957461 -0.04621597
0.078570575 0.08507186 0.03846314 -0.03204912 -0.11586859 0.049050566 -0.09442467 0.020589782
-0.13998085 0.041060098 -0.16203947 -0.05866815 0.09849768 0.008753411 0.16446878 0.047306888
0.037219945 -0.15313117 0.019297034 -0.1561812 0.14101245 -0.09196971 0.116944 -0.0333453
-0.025974823 -0.0824886 0.079752065 0.08819309 0.09732302 0.07671108 -0.13172863 -0.046993125
0.11908889 0.042952824 0.031443924 -0.14756517 -0.118569665 -0.047333818 -0.01820536 0.11030632
0.023273645 0.09331484 -0.049159788 -0.07583477 0.11649243 -0.004963831 0.05004684 0.09134249
-0.008956541 0.061093763 0.097652175 -0.097160146 0.13220258 0.13123493 -0.07873559 0.12053844
0.10425331 -0.044232693 -0.024449017 0.10695298 0.118434906 -0.055309806 -0.1290514 0.054015316
-0.08949944 0.012165225 -0.09374628 0.14170969 -0.033059325 -0.0753225 0.04891855 -0.07118726
-0.07997192 -0.017395366 0.065770715 -0.09453821 -0.06943613 -0.15566207 -0.05095344 -0.025247972
-0.04405484 0.15598936 0.111913644 0.13109353 -0.05010434 0.010589903 0.014563988 -0.07980146
-0.07954673 0.0852363 -0.028220098 -0.1033136 -0.024029296 -0.11945226 0.014944222 0.06315531
0.048811898 -0.13324082 -0.15517457 -0.09085712 -0.10954437 -0.022299325 0.05577054 0.04148791

Target_Q_Net.linear2.bias f4 [50]
00000000: b4f9 44bd e024 60be f956 da3b db12 503e
00000010: b7dc a0bd 6e27 f83d acbe 0a3e 3f10 72bd
00000020: 9be1 4ebe 867f 8e3d 6ee8 eb3d 3c55 833d
00000030: adf3 78be cb5b 9fbd 9f81 42bc 7374 9b3d
00000040: 5459 d4bd 1ce8 8fbd c9cd 643d 4505 fabc
00000050: 3ab5 e13d ecdb f63d 67dc 08bd 221c 4c3c
00000060: 8960 01bd 3b67 3a3e a57d ccbc 2ae3 50bd
00000070: 4491 a6bd 9f46 343d b775 98be 70dc d2bd
00000080: 6b4c 813e 88d9 de3d 2bc2 913d e9af 6cbe
00000090: 6de6 493d da99 7b3d af31 f4bc 6000 07be
000000a0: b04f 213e 74c3 55be 073a bdbd f9a7 763e
000000b0: a471 b339 5681 563e 49b3 9e3d ec15 0a3e
000000c0: eadc b23c c6c9 52bd
-0.048089698 -0.21889067 0.0066632 0.20319693 -0.07854598 0.121168956 0.13549298 -0.059097525
-0.20203249 0.06957917 0.11518942 0.064127415 -0.24311705 -0.0778118 -0.011871724 0.0759057
-0.103686005 -0.07026693 0.055860315 -0.03052009 0.11020894 0.120536655 -0.033413317 0.012457879
-0.031586204 0.18203442 -0.024962256 -0.05099789 -0.08133176 0.044012662 -0.2977731 -0.10295951
0.25253615 0.108813345 0.07117113 -0.2311398 0.049292017 0.06142602 -0.029808847 -0.13183737
0.15753055 -0.2087534 -0.092395835 0.24087514 0.0003422621 0.20947775 0.0774904 0.13484925
0.021833856 -0.051461957

Target_Q_Net.linear3.weight f4 [3, 50]
00000000: e2af 42bc 7a1c b4bc ffee 653c de00 d43c
00000010: c08e 6c3d a71b 953d 1a3a df3d d14d debd
00000020: d5ef b1bd c69c 5bbe 65af bf3c c229 383d
00000030: a5b2 adbd b10b 04bd ef26 2e3d ca25 933d
00000040: d327 d0bd 00d5 0a3e 9806 733d b750 ad3d
00000050: 0db9 e53d c28b 9a3c 974a 46bc 2511 b03c
00000060: 2bd6 953d d636 aa3d afd9 febc bbac a8bc
00000070: 0748 c1bd 2a25 01be f749 9bbd ff42 17bd
00000080: 7c40 703d a8c2 913d b213 123e ecc7 d2bd
00000090: 4dbd e73d 933d 48bd bf91 09be 60b0 acbd
000000a0: 52f3 b73d 2cbe 07bd 93ce 09be 542e f03d
000000b0: eaac 633e 826c ba3d 9603 fe3d 41af e53d
000000c0: 6b80 80bc 24de efbc 8194 0b3e 0a7d b5bd
000000d0: cfdc b2bb 35d5 44bd fb1e 0a3e 1d8c 0ebc
000000e0: 7cb0 7a3d c8e7 97bc 0518 1dbe b00f c4bd
000000f0: b2ba d5bc f734 a83d 9804 353d c1bd 023d
00000100: bd9a d63d d6c5 653d 3aee 603d 928d 133e
00000110: 2602 fa3c 85bb dbbd 9773 713d e4bc aa3c
00000120: 7f51 1abd 15e9 d3bc 54a1 a53d 37ef a73c
00000130: 1252 dbbc 494e 873c 8081 f3bd e102 03be
00000140: 9747 083e 12db e63d 86a4 27bc 64aa aa3d
00000150: f896 0b3d 2ba1 0ebe cfcd 053e 84ce 9cbd
00000160: 71df 9b3d 632a 1dbe e704 763c 2cfc 6b3d
00000170: e0c5 433e 0d37 e0bc cfae 0f3e 6fff a63d
00000180: 44fa bc3d f1e0 3cbd 0f01 8a3d bdb8 0bb8
00000190: 8ba9 d5bd 829e 0f3d 2792 8e3d 0f16 113d
000001a0: dc52 f03d a69e 6f3d 97f9 743d 247a 843d
000001b0: dc99 e8bb 03bc 1d3e b869 a83d f280 c13c
000001c0: ab54 4e3c 0cfc f53d 6e4b 8cbd d9d5 b6bd
000001d0: b18c c5bd 3b62 4f3b 3d3d b63c 2a23 c43c
000001e0: 6d4a ee3d 9bd2 ab3d f063 b43d 16e9 a4bd
000001f0: 529e 89bd 153b cc3c 1490 aa3b 3198 d5bd
00000200: 07ff cdbd e1e1 f0bd 4ff8 bbbd faf6 2bbd
00000210: 4a12 3dbb f743 a03d 593e f0bb 0218 8f3d
00000220: 6cf6 283d 9909 c63c 4d5a bd3c 6a7d 97bd
00000230: 9f8a 36bd 0483 f7ba 59da fb3c fa76 8c3c
00000240: ab38 a23d efcb a53d c8d1 b93d 0582 bfbc
00000250: 4008 463d 6c16 bb3d
-0.011882754 -0.021986235 0.014034032 0.02587932 0.057753325 0.07280665 0.10899754 -0.10854686
-0.086883225 -0.21446523 0.023399064 0.0449617 -0.08481339 -0.032237712 0.0425176 0.07184942
-0.10163846 0.13557816 0.05933246 0.08462661 0.11216936 0.01886547 -0.012102745 0.02149255
0.0731624 0.083112404 -0.031109659 -0.020590177 -0.09437566 -0.12611833 -0.07582467 -0.036929127
0.058655247 0.07117206 0.14265326 -0.10292038 0.11315403 -0.048886847 -0.13434504 -0.08432078
0.089819565 -0.033140346 -0.13457708 0.117275864 0.2223393 0.091027275 0.12403028 0.11215068
-0.015686234 -0.02928073 0.13630868 -0.0886174 -0.0054584513 -0.048054893 0.1348838 -0.008700398
0.061203465 -0.01854314 -0.15341194 -0.09573305 -0.02609 0.08213227 0.044193834 0.031919245
0.10478733 0.056096874 0.05491469 0.14409474 0.030518603 -0.10729126 0.058948126 0.020842023
-0.037675377 -0.025867978 0.080874115 0.020499809 -0.026772533 0.016516821 -0.118899345 -0.12794067
0.1330856 0.11272253 -0.010232097 0.08333281 0.034079522 -0.13928668 0.13066791 -0.07656577
0.076109774 -0.153482 0.015015817 0.057613537 0.19118452 -0.02737 0.14031528 0.08154189
0.09227422 -0.04611296 0.06738483 -3.3312233e-05 -0.104327284 0.035063274 0.0696147 0.035421427
0.11734554 0.05850091 0.05980834 0.06468609 -0.0070984196 0.15403752 0.08223289 0.023621056
0.012593429 0.12010965 -0.068503246 -0.08927507 -0.096459754 0.0031644243 0.022245998 0.023942549
0.11635289 0.08389779 0.08808124 -0.0805227 -0.0671965 0.024930516 0.0052051637 -0.10429419
-0.10058408 -0.11761833 -0.091782205 -0.041983582 -0.0028850012 0.07825463 -0.007331651 0.06987001
0.04125063 0.024174498 0.023114348 -0.07396968 -0.044565793 -0.001888365 0.030743765 0.017146576
0.07920965 0.08095538 0.09073216 -0.023377428 0.04834771 0.09135136

Target_Q_Net.linear3.bias f4 [3]
00000000: abb8 783e 68c4 c63d 14f4 293e
0.24289195 0.0970543 0.16597015
