Model/ILQN/result/DQN/agent_dqn_000651_SZ_0_5.pt (torch_old, 46580 bytes, 12 tensors)

Q_net.linear1.weight f4 [30, 150]
00000000: 980c 2cbb e35f b43d 995a 57bd b1b3 59bd
00000010: cb70 39bd cd13 01bc c355 cf3d 6976 8f3d
00000020: 6fce 493d 0284 7abd ab02 553d b494 363d
00000030: 43a9 dc3c 50cf 6a3d 8a45 aabb 3775 4e3d
00000040: edcf c13d 54c1 2e3c 920d e53c 6abb 9fbb
00000050: 94ff 80bc a3f4 0abc d828 c53c 58cd 30bc
00000060: 0da4 e23d e8e6 c43d 678d eb3d 8f72 873d
00000070: fc96 f63b db3b 903d 5c51 523b edc8 823d
00000080: 6b0a cc3d dd69 0bbd 44c5 e93c 9937 af3d
00000090: 7adc 163e 65ce 643d 29c4 7d3c cb55 57bc
000000a0: f5fb b53c def0 253c 7c09 1b3d b86c 9f3d
000000b0: ed7a 193d dbbc 413c 98d5 3fbd ffcd 443c
000000c0: ae2a 523b 2d70 ffbc ba5f 17bd fb3a 56bd
000000d0: e113 453c a9bb 793d f3cf e33d 26a4 c43b
000000e0: a5f9 d8bd 27e4 4f3d bf67 8c3d 63cf 87bd
000000f0: b0fd b33d 6966 973a 5950 b23c 1d40 bc3d
00000100: 620c 193d c3a7 f23d 010b 7bbc 0cc3 9d3d
00000110: 3f31 b33c e21e 6ebd b45e a13c e6c9 923d
00000120: b72f 9e3d b6dd 0fbd 3ca4 af3d 8026 743c
00000130: 8cb7 77bd 102b a23d 2b5d b0bc 8a21 693d
00000140: 010c b03c 2b11 1dbd 4815 3dbc d3df 933d
00000150: db12 bb3d 24e2 e03d e417 2fbd fd27 ad3d
00000160: abeb 8fbc 8c95 babc f76a c53c a836 15bb
00000170: 00e4 963d 1a42 f03c b5f3 c83d a619 6ebc
00000180: 19ed 4dbd 890c cd3c 0e7b 343b 8329 0f3d
00000190: 608f df3c 4a04 913b e140 b13d 5053 5e3d
000001a0: e77b e93d 2169 403d 9b59 253d 976e 0cbd
000001b0: 82a1 38bd 02a8 9f3d 8743 8e3b eeeb a83d
000001c0: d459 0ebd 8181 823c 17e0 43bc 8a07 b13b
000001d0: f5ab 35bd bd56 b0bb e3f9 f53c 9e99 d0bc
000001e0: 034c efbc 2ee6 a9bc 09cb 0fbd bc54 33bd
000001f0: af0a 803c 4ed6 7cbd 6c38 1bbe 2975 a63d
00000200: b07b a9bc 0d79 b4bb 23e3 7c3c 56b5 b23c
00000210: 58d3 973d bf68 2bbd 1792 533d ec76 35bc
00000220: ba85 7ebd 8ce9 f43c 0061 9d3d 278a adbc
00000230: 928e 783d 98ce cc3d 8a2f 913d 8fac 88bc
00000240: 10db 313d a7ec edbd a29d b2bd ed43 013d
00000250: 8903 0bbd b0f1 9c3b 90eb a03d 69f1 c83d
00000260: d482 0a3e 122f ff3d 8a3e fc3d 5f7d ffbc
00000270: 5e59 5abc fe10 70bd e8ce 383e fb11 e2bd
00000280: 67f7 843d 361b 873d dc22 373e 3c52 203e
00000290: e238 253e 60f0 7bbd 663f 9a3d 6fa6 4d3c
000002a0: f21e 153e e24e 89bd b1a7 8d3d 3416 1c3e
000002b0: 08f7 403e d8d2 ba3d 3d23 a63d 3d46 493c
000002c0: f71e 923d e8a4 82bd 2421 473e 42a0 23bd
000002d0: ffe7 5b3e 618a 3f3e 2895 ab3d 7d68 bf3d
000002e0: eed9 fb3d 67b4 efbc 37f8 fabc 9133 67bb
000002f0: 975a 3f3e 2dde 8a3c ae5e 333e 4e15 ab3d
00000300: b8f1 a73d 9531 3b3e 509f 323e 7a57 463c
00000310: 1460 aebb 29a6 6bbd 9da2 f33d 1fa9 a23d
00000320: 7e87 633d 9a81 0a3e 0467 2d3e 902e 7b3d
00000330: 005e 0d3e fd37 4c3d 09d5 8b3d d3d1 3cbd
00000340: f79d 113e 9a90 e63c 97ef 613d 56dd cc3d
00000350: ed13 7c3d 93a8 403e 2737 fd3d 962e 873d
00000360: 7c06 3fbc c8db 75bc eb77 063e 9c42 a4bd
00000370: 7edc 353e 29f8 a93d a834 413e 2a56 4e3e
00000380: 94ee 6e3d 7dea 34bd 5118 91bd 740a 1ebd
00000390: f3ea 393e 3589 053d 5221 0d3e 8ea3 093e
000003a0: 8b7e 313e cd79 fc3d 3ca4 6d3d f772 fdbc
000003b0: 90a8 40bd 0ad9 823d df75 323e e053 a23c
000003c0: 73ea d13d 9d3d 4f3e 9100 ba3d 8f7c f23d
000003d0: 7aea 153e 4561 d83c ed3b 473d 32fe 5dbd
000003e0: 6473 f43d a9e9 903d b753 ff3d a912 183e
000003f0: 2ac5 233e 0886 0f3e b522 f93c c1fa 03bd
-0.0026252624 0.088073514 -0.052576635 -0.053149883 -0.045273583 -0.007878256 0.101237796 0.07005007
0.049269136 -0.06116105 0.052004497 0.044575408 0.026936179 0.057326615 -0.005196278 0.050404754
0.09463487 0.01066621 0.027960572 -0.0048746364 -0.01574687 -0.0084811775 0.024067327 -0.010791145
0.110664465 0.09614354 0.1150158 0.06613647 0.007525323 0.070426665 0.003209195 0.0638598
0.099629246 -0.034036506 0.028536446 0.08555526 0.14732543 0.055860896 0.015488663 -0.013143013
0.022214869 0.010128228 0.037850842 0.07784408 0.037470747 0.011824812 -0.04683456 0.012012004
0.0032068896 -0.03118142 -0.036956526 -0.052302342 0.012028665 0.060969982 0.111236475 0.0060010133
-0.10594491 0.050754692 0.068557255 -0.06631353 0.087886214 0.0011550906 0.021766828 0.09191916
0.037365325 0.11848404 -0.015322448 0.07703218 0.021874068 -0.05813492 0.019698478 0.07167415
0.07723945 -0.03512355 0.08576247 0.014901757 -0.06047778 0.0791837 -0.021528801 0.05691675
0.021490099 -0.03834645 -0.011540718 0.072204255 0.09134456 0.10980633 -0.042747393 0.08454893
-0.01756843 -0.022776388 0.024098856 -0.0022768173 0.07367706 0.029328395 0.098121084 -0.014532482
-0.050274942 0.025030391 0.0027539167 0.034951698 0.027290046 0.00442556 0.08654953 0.05427867
0.114005856 0.04697526 0.040368658 -0.034285154 -0.0450759 0.07795717 0.004341546 0.08248125
-0.034753636 0.015930893 -0.011955283 0.00540251 -0.044353444 -0.0053814338 0.030026382 -0.025463875
-0.02921105 -0.020739641 -0.03510574 -0.04378198 0.015630094 -0.061727814 -0.15158242 0.08127815
-0.020688862 -0.0055075944 0.015435013 0.021814983 0.074133575 -0.04184794 0.051652994 -0.0110757165
-0.06213925 0.02989652 0.07684517 -0.02118404 0.06068284 0.10000342 0.070891455 -0.016683845
0.043421805 -0.116174035 -0.08721472 0.03155892 -0.03393892 0.0047895536 0.0785743 0.0981167
0.1352647 0.1246015 0.12316616 -0.031187711 -0.013326971 -0.058609955 0.18047678 -0.11038586
0.06492501 0.06596987 0.17884392 0.1565637 0.1613498 -0.061508536 0.075316235 0.012551888
0.14562586 -0.06704499 0.0691675 0.15242845 0.18844235 0.091222465 0.0811219 0.0122848125
0.07134812 -0.063791096 0.19446236 -0.039947756 0.21475218 0.18705131 0.08378059 0.093461014
0.12297426 -0.029260827 -0.030635936 -0.0035278539 0.18686901 0.016951645 0.17516586 0.08353673
0.08200401 0.18280633 0.17443585 0.012105817 -0.005321512 -0.05753151 0.118962504 0.079424135
0.055549137 0.13526002 0.16933829 0.061323702 0.1380539 0.049858082 0.068277426 -0.04609854
0.14220415 0.028145123 0.05516013 0.10003154 0.06154244 0.18814306 0.12364035 0.066006824
-0.011659261 -0.015006013 0.13131683 -0.08020517 0.17759892 0.08299286 0.18867743 0.20150056
0.058332995 -0.044168938 -0.07084716 -0.038584188 0.18156032 0.032601554 0.13782242 0.13441297
0.17333429 0.12327919 0.058017954 -0.030938609 -0.047035754 0.06389053 0.17427777 0.019815385
0.10249796 0.20238347 0.09082139 0.11840164 0.14640227 0.02641357 0.048641134 -0.054197498
0.119360715 0.07075817 0.12467139 0.14850868 0.15993181 0.14015973 0.030412057 -0.03222156

Q_net.linear1.bias f4 [30]
00000000: 5ed3 923d 2079 fc3c 27b5 6b3d 9642 613d
00000010: 1b3f 6cbd 1340 86bd ad7d a2bd 5ec5 8e3d
00000020: 6be4 6b3c b2ba bb3d c0dd b03d c968 823c
00000030: e2f3 8e3c 7ac2 babd 5e07 7bbd 7b28 8bbb
00000040: 4b84 a13c 0d04 2bbc d61c 91bc 963d 91bc
00000050: 4e1e 8dbc 86d2 963d 1956 08bc 3fac dc3c
00000060: 48db 653c ef6e db3c 1fb4 28bc e7c4 4c3c
00000070: b80c 7bbd 34eb 633c
0.07169221 0.030819476 0.057545807 0.054995142 -0.05767737 -0.0655519 -0.07934127 0.069712386
0.014397721 0.09166469 0.086360455 0.015919106 0.017450277 -0.09119125 -0.061286323 -0.004246769
0.019716403 -0.0104379775 -0.017713945 -0.017729562 -0.017226364 0.07364373 -0.0083213085 0.026937602
0.0140293315 0.026786296 -0.01029685 0.012498117 -0.061291426 0.013911057

Q_net.linear2.weight f4 [30, 30]
00000000: 4126 2cbe 60e5 eb3d c56e b13d e1c3 fd3d
00000010: 9716 283d 8003 823d 3574 133e b062 213d
00000020: 805a d9bd 398c 8b3d a457 453e cee3 1ebd
00000030: 49ba 7bbe 8963 d43d 08cd 2abe 8197 50bd
00000040: 43c2 3bbe 9c16 073e 3247 853d 3697 2fbe
00000050: fa28 94bc 7677 29be 1f59 34be 0e5c c1bd
00000060: 39a6 83bd e579 8f3d 0594 dc3d 0cd8 0abe
00000070: 7eed 3fbe bf78 80be a4a6 c53d 196e e03d
00000080: 6479 3d3e 9612 393e adf3 2c3e 484f 04be
00000090: 3b54 893d 1b8d d13d c289 10be 9257 f1bd
000000a0: 13dc adbd d254 05be 1562 163c d780 38be
000000b0: 0714 883d 639e 35bd 7125 163c 4244 703d
000000c0: 87fd 6a3d 33a6 2ebe bdcd 22bd d2c4 e5bd
000000d0: b617 943c 0a05 da3d c43d 95bd f70b 50bd
000000e0: 94b3 1f3e 5f6a d8bc 8bd0 f2bd 7985 c1bc
000000f0: c5e4 013e 42ef 6abd a097 edbd 620b fa3d
00000100: 60b8 023e 8e40 f63c e7c5 2d3a 3134 5d3d
00000110: 41b5 223e 2e62 003e adfa 563e ebc4 263e
00000120: 4294 88bd c0e1 523e d6bc 4f3e 10bd c73c
00000130: e27d 053e 3e2b fcbd c445 f43d 5842 0a3e
00000140: c0c1 0f3e 3285 093e 1c90 43bc a505 debd
00000150: 8c81 a4bd a43d 6cbd c16f 653e be48 193d
00000160: e931 0fbd 7dee 873d 9672 f63d 5a24 023e
00000170: 2402 cdbb 68c8 853d fac6 ae3d 163f 37bd
00000180: 4380 88bb 29de 243e 366c 31be 7228 1fbe
00000190: fc39 a93d 52aa 1cbe 4340 72be cf18 353e
000001a0: de4d 5fbc da88 013e f164 3abe b8c4 973d
000001b0: c270 2c3e 7dcf be3c c7e1 273e a308 d5bd
000001c0: 6750 483d 12f2 d4bc 6b71 293e 0f2d 413c
000001d0: c15c e5bd 2df4 65bd 4d91 8bbb 14e7 21be
000001e0: b69f c93c c2b6 02be c183 c23a 7201 e0bd
000001f0: 26d6 b93d c957 2bbe b3ad 8a3c e016 913d
00000200: aba0 eebd 69a3 ec3c 58cb 153d f523 133d
00000210: a0cb 183e 4784 003e 2877 8f3d b3ef e4bd
00000220: c2af abbc 2098 cbbd 87ee 0ebe 77ad 19be
00000230: e9bf 3bbb e08e 39be 7b40 a5bd d9d7 ebbc
00000240: 9d2c 0bbe 12f8 133d f964 b63c 10c6 b2bd
00000250: 6d8f 273e d59d 6b3d 8731 c63d 84ce 2fbe
00000260: 6c1c 23be fc5c a93c c251 163e d108 68bd
00000270: 303d 403c a125 353d cdb4 33be c468 f33b
00000280: 3637 a33d c0ff 1cbe 4c38 f7bd ecd5 c4bd
00000290: 6c9b 49bd 8ca5 593d 2aeb 4bbd 955d 26bd
000002a0: b077 0dbe 2c7a 7e3d 981e 063e 5fd6 243e
000002b0: ab5f 9e3c bfaf cebc 4082 f43d e47f 5e3c
000002c0: 8c01 a13c 68c9 46bd cca1 203d 98d0 453d
000002d0: 8344 abbd 45e5 4f3e cc69 6b3d ac27 103e
000002e0: f78e 7e3e 6a05 a93d 70b4 483e 62cf 633d
000002f0: 1fe0 02be c8ba 4c3e 227f 2b3e 638c fc3d
00000300: e02b 043d 48fd d0bd 12ed 01be 277d 403e
00000310: 1f47 b23c 3240 153d 1161 db3d 5e4b 3e3e
00000320: 7c54 083d 1e45 053d a53a dcbd 977c 473d
00000330: d4b6 393d a62a 2b3d 6c89 773c 03d9 a83d
00000340: 1a6c 1b3d 468a 20be b12f 2e3d d64b 453d
00000350: 6fb1 99bd f800 753d 186a 32be 486b 30be
00000360: 5fa0 27be 9b14 e83d bb70 4ebe 2800 6e3d
00000370: 9ef4 32be a023 373a 4585 4dbe 38e8 063e
00000380: b5e9 c2bd 8823 a7bd 1890 a93c 18b8 08be
00000390: a124 74bd 432c 29be c44e a63d dd09 38bd
000003a0: a542 16bd 23e4 4ebc 7fd4 223b aeab c2bd
000003b0: 819c cfbd ab72 d23c 50eb 2bbe a7a6 a1bc
000003c0: 4dea 093c acf6 7f3d 4af9 1cbe dc33 e4bc
000003d0: ef43 8f3d 056d 17be ee61 173d 7ef4 f9bd
000003e0: 0448 263e 3285 44be 0e9a 593d bf9b e4bd
000003f0: 10ca cb3c 49fc 90bd ab11 e73d 5d1d babb
-0.16811468 0.11518359 0.08663706 0.123908766 0.04103717 0.06348324 0.14399798 0.039400756
-0.10612965 0.06813855 0.19271713 -0.03879147 -0.24582781 0.10370547 -0.16679776 -0.050925735
-0.18335824 0.13192219 0.0650772 -0.17147526 -0.018085945 -0.16549477 -0.17612122 -0.09441386
-0.06428189 0.070056714 0.1077042 -0.13558978 -0.1874294 -0.25092122 0.09650925 0.109584995
0.18503338 0.18073496 0.1688983 -0.12920868 0.06705519 0.10231992 -0.1411505 -0.11784281
-0.084892415 -0.13020638 0.009178658 -0.18017898 0.06644445 -0.044340502 0.0091642 0.058658846
0.05737069 -0.17055587 -0.03974699 -0.11219181 0.018077713 0.106454924 -0.072871715 -0.05079266
0.15595847 -0.02641791 -0.11856183 -0.023623215 0.12684925 -0.05735708 -0.11601186 0.12209202
0.12765646 0.030060079 0.0006628916 0.05400485 0.15889455 0.12537453 0.20994063 0.16286056
-0.06668903 0.2059393 0.20286879 0.024382144 0.13036302 -0.12312935 0.11927369 0.1350187
0.14038754 0.13429716 -0.011936214 -0.1084092 -0.080325216 -0.057675973 0.22405912 0.037422888
-0.034959707 0.06637285 0.12033574 0.1270918 -0.0062563587 0.06532365 0.085340455 -0.044737898
-0.0041656806 0.16100372 -0.17326435 -0.15542772 0.08263013 -0.15299347 -0.23657326 0.17685245
-0.013629405 0.12649861 -0.18202569 0.07410568 0.16839889 0.023292297 0.16394721 -0.10402038
0.048904803 -0.025994334 0.16547172 0.011790528 -0.11199332 -0.056141067 -0.0042592646 -0.15810806
0.024612289 -0.12765029 0.0014840291 -0.10937776 0.09074049 -0.16732706 0.01692853 0.07084441
-0.11651739 0.028886514 0.036570877 0.035922963 0.14921427 0.1255046 0.07005149 -0.111785315
-0.020957831 -0.09941125 -0.13958178 -0.15007578 -0.0028648323 -0.18120909 -0.08068939 -0.028789448
-0.13591237 0.03612525 0.022264944 -0.08729184 0.16363306 0.057523567 0.09677415 -0.17168623
-0.15928811 0.020674221 0.14679626 -0.056649033 0.011733338 0.04422534 -0.17549439 0.0074282605
0.07969515 -0.15331936 -0.12071285 -0.09611115 -0.049220487 0.053136393 -0.049784817 -0.04061659
-0.13815188 0.06212823 0.13097608 0.16097401 0.019332727 -0.025230287 0.11938906 0.013580296
0.019654058 -0.04853192 0.0392168 0.048294634 -0.08362677 0.20302303 0.057473943 0.14077634
0.24859224 0.08252986 0.19600081 0.055617698 -0.12780808 0.19993126 0.16747716 0.12331464
0.032268405 -0.102045596 -0.12688091 0.18797742 0.021762429 0.036438175 0.10711873 0.18583438
0.033283696 0.03253662 -0.10753373 0.048702803 0.045340374 0.04178872 0.0151084475 0.08244517
0.03794489 -0.15677747 0.04252595 0.048168026 -0.07504546 0.059815377 -0.17423284 -0.17228425
-0.1636977 0.11332055 -0.20160191 0.058105618 -0.17476127 0.00069862045 -0.2007037 0.13174522
-0.09517232 -0.08161074 0.020698592 -0.13351476 -0.059605245 -0.16520791 0.08120492 -0.04493128
-0.03668465 -0.012627634 0.0024845896 -0.095054016 -0.101372726 0.025689444 -0.16788983 -0.019732786
0.008417678 0.062491104 -0.15329471 -0.02785676 0.06995379 -0.14787681 0.036958627 -0.12204836
0.1623841 -0.19191435 0.053125434 -0.11162519 0.024876624 -0.070793696 0.11282667 -0.00567977

Q_net.linear2.bias f4 [30]
00000000: 8638 8b3d 3744 d73d f016 b2bd 518f 41be
00000010: f6ce abbd 2e2d 143d e727 bdbd 7943 57bc
00000020: 7fa8 1f3c 33b3 2fbc 778f 1bbd 3b0d 1dbe
00000030: 8057 9f3d 951c 2abe 492e 55be 0de5 d4bd
00000040: c152 373e 449f c93d 00a7 6c3d fdea a5bd
00000050: a6db 13be c995 103e 5584 f23d bd11 7b3d
00000060: 1444 7a3d 3a2f 6abd 826c f4bd 06e5 a1bd
00000070: 4f25 d1bb ea78 123e
0.0679789 0.10511058 -0.08695781 -0.18902327 -0.08389084 0.0361759 -0.092361264 -0.013138645
0.009744762 -0.010723877 -0.037978616 -0.15337078 0.07780361 -0.16612466 -0.20818438 -0.103952505
0.17902662 0.09844831 0.05777645 -0.08101461 -0.14439258 0.14119639 0.118416466 0.061296213
0.06110008 -0.057173945 -0.11934759 -0.07905011 -0.0063826214 0.14303938

Q_net.linear3.weight f4 [3, 30]
00000000: f827 563b 3d57 02be 6ed1 20bd 8201 f83c
00000010: 31e1 2ebe 8dde 883d 9dbd 25bd e315 083e
00000020: ada7 233e 65d8 f6bd 1578 113d 2788 2ebe
00000030: d501 c73d 4f98 af3d 5b00 c33d 30c3 413d
00000040: 6609 32be 7356 193e 1980 27be 887a 103d
00000050: e1f8 a3bd b27e 24be 3834 083d eb4d 27be
00000060: 187d 12bd 3d8c d03d c203 02bd 4aa2 da3d
00000070: 0acf d6bd e654 943d 7539 653b 1210 a33d
00000080: 31f3 3ebe 7661 5dbc 4410 123e 6a75 493e
00000090: ae84 6abe 6cf7 093e 06f4 3e3c bf13 f3bd
000000a0: 0736 64be 2c8a de3d 82e0 7dbc 4c57 26bd
000000b0: ffa8 4c3d c9aa 8b3d 9902 f0bd eea1 febd
000000c0: 20be 2c3e 0e17 4fbe dec5 afbd 1ce9 46bd
000000d0: 7fa9 773c 63f2 213d cd66 a2bd 2294 543d
000000e0: 7e4d 46be 8757 223d aa28 4fbe cf9b 20bd
000000f0: 00e0 76ba a76b 73bc 85c0 2fbe ca75 cbbd
00000100: e8e6 08be 9b9f c3bd bd97 0ebd 1c42 cd3d
00000110: 8483 d23d 3cc7 c23d 98e6 613d 405c cd3b
00000120: 5262 bbbd 8d05 7b3a 809f e1bc de52 acbd
00000130: b977 debc 85b8 2f3d 961a 463d f47c 3abd
00000140: 112e ef3d 989a bd3c 868a 04bd 9342 f83c
00000150: e543 313a 821c 69bd fa9a 38be 53d7 39be
00000160: 7fc6 38be fb59 b5bd
0.0032677632 -0.12728591 -0.039262228 0.030274156 -0.17078091 0.06683073 -0.040464032 0.13289599
0.15981932 -0.12052993 0.03551491 -0.17044125 0.09717146 0.085739724 0.09521552 0.047305286
-0.17386398 0.14974384 -0.16357459 0.035273105 -0.08006454 -0.16063955 0.033252925 -0.16338317
-0.03576383 0.10182998 -0.031741865 0.106754854 -0.10488708 0.072427556 0.0034976874 0.079620495
-0.18647458 -0.013512006 0.14264017 0.19673696 -0.22902176 0.1347329 0.011654859 -0.11869001
-0.22286235 0.10866198 -0.015495421 -0.040610597 0.049965855 0.06819684 -0.117192455 -0.124332294
0.16869402 -0.20223638 -0.08582662 -0.048562154 0.015116095 0.0395378 -0.07929764 0.051899083
-0.19365498 0.039634254 -0.20230356 -0.03921109 -0.0009417534 -0.014857209 -0.17163284 -0.09934576
-0.13369334 -0.09551927 -0.034812678 0.10022375 0.10278991 0.09510657 0.055151552 0.0062671006
-0.091496125 0.0009575717 -0.027541876 -0.08414243 -0.027156698 0.04290058 0.048365198 -0.04552932
0.11678708 0.023145005 -0.03235867 0.030305183 0.0006762131 -0.056911953 -0.18027869 -0.18148546
-0.1804447 -0.08855053

Q_net.linear3.bias f4 [3]
00000000: 61f5 0e3e 5314 7abd 5443 e63d
0.13960792 -0.06105454 0.112433106

Target_Q_Net.linear1.weight f4 [30, 150]
00000000: 980c 2cbb e35f b43d 995a 57bd b1b3 59bd
00000010: cb70 39bd cd13 01bc c355 cf3d 6976 8f3d
00000020: 6fce 493d 0284 7abd ab02 553d b494 363d
00000030: 43a9 dc3c 50cf 6a3d 8a45 aabb 3775 4e3d
00000040: edcf c13d 54c1 2e3c 920d e53c 6abb 9fbb
00000050: 94ff 80bc a3f4 0abc d828 c53c 58cd 30bc
00000060: 0da4 e23d e8e6 c43d 678d eb3d 8f72 873d
00000070: fc96 f63b db3b 903d 5c51 523b edc8 823d
00000080: 6b0a cc3d dd69 0bbd 44c5 e93c 9937 af3d
00000090: 7adc 163e 65ce 643d 29c4 7d3c cb55 57bc
000000a0: f5fb b53c def0 253c 7c09 1b3d b86c 9f3d
000000b0: ed7a 193d dbbc 413c 98d5 3fbd ffcd 443c
000000c0: ae2a 523b 2d70 ffbc ba5f 17bd fb3a 56bd
000000d0: e113 453c a9bb 793d f3cf e33d 26a4 c43b
000000e0: a5f9 d8bd 27e4 4f3d bf67 8c3d 63cf 87bd
000000f0: b0fd b33d 6966 973a 5950 b23c 1d40 bc3d
00000100: 620c 193d c3a7 f23d 010b 7bbc 0cc3 9d3d
00000110: 3f31 b33c e21e 6ebd b45e a13c e6c9 923d
00000120: b72f 9e3d b6dd 0fbd 3ca4 af3d 8026 743c
00000130: 8cb7 77bd 102b a23d 2b5d b0bc 8a21 693d
00000140: 010c b03c 2b11 1dbd 4815 3dbc d3df 933d
00000150: db12 bb3d 24e2 e03d e417 2fbd fd27 ad3d
00000160: abeb 8fbc 8c95 babc f76a c53c a836 15bb
00000170: 00e4 963d 1a42 f03c b5f3 c83d a619 6ebc
00000180: 19ed 4dbd 890c cd3c 0e7b 343b 8329 0f3d
00000190: 608f df3c 4a04 913b e140 b13d 5053 5e3d
000001a0: e77b e93d 2169 403d 9b59 253d 976e 0cbd
000001b0: 82a1 38bd 02a8 9f3d 8743 8e3b eeeb a83d
000001c0: d459 0ebd 8181 823c 17e0 43bc 8a07 b13b
000001d0: f5ab 35bd bd56 b0bb e3f9 f53c 9e99 d0bc
000001e0: 034c efbc 2ee6 a9bc 09cb 0fbd bc54 33bd
000001f0: af0a 803c 4ed6 7cbd 6c38 1bbe 2975 a63d
00000200: b07b a9bc 0d79 b4bb 23e3 7c3c 56b5 b23c
00000210: 58d3 973d bf68 2bbd 1792 533d ec76 35bc
00000220: ba85 7ebd 8ce9 f43c 0061 9d3d 278a adbc
00000230: 928e 783d 98ce cc3d 8a2f 913d 8fac 88bc
00000240: 10db 313d a7ec edbd a29d b2bd ed43 013d
00000250: 8903 0bbd b0f1 9c3b 90eb a03d 69f1 c83d
00000260: d482 0a3e 122f ff3d 8a3e fc3d 5f7d ffbc
00000270: 5e59 5abc fe10 70bd e8ce 383e fb11 e2bd
00000280: 67f7 843d 361b 873d dc22 373e 3c52 203e
00000290: e238 253e 60f0 7bbd 663f 9a3d 6fa6 4d3c
000002a0: f21e 153e e24e 89bd b1a7 8d3d 3416 1c3e
000002b0: 08f7 403e d8d2 ba3d 3d23 a63d 3d46 493c
000002c0: f71e 923d e8a4 82bd 2421 473e 42a0 23bd
000002d0: ffe7 5b3e 618a 3f3e 2895 ab3d 7d68 bf3d
000002e0: eed9 fb3d 67b4 efbc 37f8 fabc 9133 67bb
000002f0: 975a 3f3e 2dde 8a3c ae5e 333e 4e15 ab3d
00000300: b8f1 a73d 9531 3b3e 509f 323e 7a57 463c
00000310: 1460 aebb 29a6 6bbd 9da2 f33d 1fa9 a23d
00000320: 7e87 633d 9a81 0a3e 0467 2d3e 902e 7b3d
00000330: 005e 0d3e fd37 4c3d 09d5 8b3d d3d1 3cbd
00000340: f79d 113e 9a90 e63c 97ef 613d 56dd cc3d
00000350: ed13 7c3d 93a8 403e 2737 fd3d 962e 873d
00000360: 7c06 3fbc c8db 75bc eb77 063e 9c42 a4bd
00000370: 7edc 353e 29f8 a93d a834 413e 2a56 4e3e
00000380: 94ee 6e3d 7dea 34bd 5118 91bd 740a 1ebd
00000390: f3ea 393e 3589 053d 5221 0d3e 8ea3 093e
000003a0: 8b7e 313e cd79 fc3d 3ca4 6d3d f772 fdbc
000003b0: 90a8 40bd 0ad9 823d df75 323e e053 a23c
000003c0: 73ea d13d 9d3d 4f3e 9100 ba3d 8f7c f23d
000003d0: 7aea 153e 4561 d83c ed3b 473d 32fe 5dbd
000003e0: 6473 f43d a9e9 903d b753 ff3d a912 183e
000003f0: 2ac5 233e 0886 0f3e b522 f93c c1fa 03bd
-0.0026252624 0.088073514 -0.052576635 -0.053149883 -0.045273583 -0.007878256 0.101237796 0.07005007
0.049269136 -0.06116105 0.052004497 0.044575408 0.026936179 0.057326615 -0.005196278 0.050404754
0.09463487 0.01066621 0.027960572 -0.0048746364 -0.01574687 -0.0084811775 0.024067327 -0.010791145
0.110664465 0.09614354 0.1150158 0.06613647 0.007525323 0.070426665 0.003209195 0.0638598
0.099629246 -0.034036506 0.028536446 0.08555526 0.14732543 0.055860896 0.015488663 -0.013143013
0.022214869 0.010128228 0.037850842 0.07784408 0.037470747 0.011824812 -0.04683456 0.012012004
0.0032068896 -0.03118142 -0.036956526 -0.052302342 0.012028665 0.060969982 0.111236475 0.0060010133
-0.10594491 0.050754692 0.068557255 -0.06631353 0.087886214 0.0011550906 0.021766828 0.09191916
0.037365325 0.11848404 -0.015322448 0.07703218 0.021874068 -0.05813492 0.019698478 0.07167415
0.07723945 -0.03512355 0.08576247 0.014901757 -0.06047778 0.0791837 -0.021528801 0.05691675
0.021490099 -0.03834645 -0.011540718 0.072204255 0.09134456 0.10980633 -0.042747393 0.08454893
-0.01756843 -0.022776388 0.024098856 -0.0022768173 0.07367706 0.029328395 0.098121084 -0.014532482
-0.050274942 0.025030391 0.0027539167 0.034951698 0.027290046 0.00442556 0.08654953 0.05427867
0.114005856 0.04697526 0.040368658 -0.034285154 -0.0450759 0.07795717 0.004341546 0.08248125
-0.034753636 0.015930893 -0.011955283 0.00540251 -0.044353444 -0.0053814338 0.030026382 -0.025463875
-0.02921105 -0.020739641 -0.03510574 -0.04378198 0.015630094 -0.061727814 -0.15158242 0.08127815
-0.020688862 -0.0055075944 0.015435013 0.021814983 0.074133575 -0.04184794 0.051652994 -0.0110757165
-0.06213925 0.02989652 0.07684517 -0.02118404 0.06068284 0.10000342 0.070891455 -0.016683845
0.043421805 -0.116174035 -0.08721472 0.03155892 -0.03393892 0.0047895536 0.0785743 0.0981167
0.1352647 0.1246015 0.12316616 -0.031187711 -0.013326971 -0.058609955 0.18047678 -0.11038586
0.06492501 0.06596987 0.17884392 0.1565637 0.1613498 -0.061508536 0.075316235 0.012551888
0.14562586 -0.06704499 0.0691675 0.15242845 0.18844235 0.091222465 0.0811219 0.0122848125
0.07134812 -0.063791096 0.19446236 -0.039947756 0.21475218 0.18705131 0.08378059 0.093461014
0.12297426 -0.029260827 -0.030635936 -0.0035278539 0.18686901 0.016951645 0.17516586 0.08353673
0.08200401 0.18280633 0.17443585 0.012105817 -0.005321512 -0.05753151 0.118962504 0.079424135
0.055549137 0.13526002 0.16933829 0.061323702 0.1380539 0.049858082 0.068277426 -0.04609854
0.14220415 0.028145123 0.05516013 0.10003154 0.06154244 0.18814306 0.12364035 0.066006824
-0.011659261 -0.015006013 0.13131683 -0.08020517 0.17759892 0.08299286 0.18867743 0.20150056
0.058332995 -0.044168938 -0.07084716 -0.038584188 0.18156032 0.032601554 0.13782242 0.13441297
0.17333429 0.12327919 0.058017954 -0.030938609 -0.047035754 0.06389053 0.17427777 0.019815385
0.10249796 0.20238347 0.09082139 0.11840164 0.14640227 0.02641357 0.048641134 -0.054197498
0.119360715 0.07075817 0.12467139 0.14850868 0.15993181 0.14015973 0.030412057 -0.03222156

Target_Q_Net.linear1.bias f4 [30]
00000000: 5ed3 923d 2079 fc3c 27b5 6b3d 9642 613d
00000010: 1b3f 6cbd 1340 86bd ad7d a2bd 5ec5 8e3d
00000020: 6be4 6b3c b2ba bb3d c0dd b03d c968 823c
00000030: e2f3 8e3c 7ac2 babd 5e07 7bbd 7b28 8bbb
00000040: 4b84 a13c 0d04 2bbc d61c 91bc 963d 91bc
00000050: 4e1e 8dbc 86d2 963d 1956 08bc 3fac dc3c
00000060: 48db 653c ef6e db3c 1fb4 28bc e7c4 4c3c
00000070: b80c 7bbd 34eb 633c
0.07169221 0.030819476 0.057545807 0.054995142 -0.05767737 -0.0655519 -0.07934127 0.069712386
0.014397721 0.09166469 0.086360455 0.015919106 0.017450277 -0.09119125 -0.061286323 -0.004246769
0.019716403 -0.0104379775 -0.017713945 -0.017729562 -0.017226364 0.07364373 -0.0083213085 0.026937602
0.0140293315 0.026786296 -0.01029685 0.012498117 -0.061291426 0.013911057

Target_Q_Net.linear2.weight f4 [30, 30]
00000000: 4126 2cbe 60e5 eb3d c56e b13d e1c3 fd3d
00000010: 9716 283d 8003 823d 3574 133e b062 213d
00000020: 805a d9bd 398c 8b3d a457 453e cee3 1ebd
00000030: 49ba 7bbe 8963 d43d 08cd 2abe 8197 50bd
00000040: 43c2 3bbe 9c16 073e 3247 853d 3697 2fbe
00000050: fa28 94bc 7677 29be 1f59 34be 0e5c c1bd
00000060: 39a6 83bd e579 8f3d 0594 dc3d 0cd8 0abe
00000070: 7eed 3fbe bf78 80be a4a6 c53d 196e e03d
00000080: 6479 3d3e 9612 393e adf3 2c3e 484f 04be
00000090: 3b54 893d 1b8d d13d c289 10be 9257 f1bd
000000a0: 13dc adbd d254 05be 1562 163c d780 38be
000000b0: 0714 883d 639e 35bd 7125 163c 4244 703d
000000c0: 87fd 6a3d 33a6 2ebe bdcd 22bd d2c4 e5bd
000000d0: b617 943c 0a05 da3d c43d 95bd f70b 50bd
000000e0: 94b3 1f3e 5f6a d8bc 8bd0 f2bd 7985 c1bc
000000f0: c5e4 013e 42ef 6abd a097 edbd 620b fa3d
00000100: 60b8 023e 8e40 f63c e7c5 2d3a 3134 5d3d
00000110: 41b5 223e 2e62 003e adfa 563e ebc4 263e
00000120: 4294 88bd c0e1 523e d6bc 4f3e 10bd c73c
00000130: e27d 053e 3e2b fcbd c445 f43d 5842 0a3e
00000140: c0c1 0f3e 3285 093e 1c90 43bc a505 debd
00000150: 8c81 a4bd a43d 6cbd c16f 653e be48 193d
00000160: e931 0fbd 7dee 873d 9672 f63d 5a24 023e
00000170: 2402 cdbb 68c8 853d fac6 ae3d 163f 37bd
00000180: 4380 88bb 29de 243e 366c 31be 7228 1fbe
00000190: fc39 a93d 52aa 1cbe 4340 72be cf18 353e
000001a0: de4d 5fbc da88 013e f164 3abe b8c4 973d
000001b0: c270 2c3e 7dcf be3c c7e1 273e a308 d5bd
000001c0: 6750 483d 12f2 d4bc 6b71 293e 0f2d 413c
000001d0: c15c e5bd 2df4 65bd 4d91 8bbb 14e7 21be
000001e0: b69f c93c c2b6 02be c183 c23a 7201 e0bd
000001f0: 26d6 b93d c957 2bbe b3ad 8a3c e016 913d
00000200: aba0 eebd 69a3 ec3c 58cb 153d f523 133d
00000210: a0cb 183e 4784 003e 2877 8f3d b3ef e4bd
00000220: c2af abbc 2098 cbbd 87ee 0ebe 77ad 19be
00000230: e9bf 3bbb e08e 39be 7b40 a5bd d9d7 ebbc
00000240: 9d2c 0bbe 12f8 133d f964 b63c 10c6 b2bd
00000250: 6d8f 273e d59d 6b3d 8731 c63d 84ce 2fbe
00000260: 6c1c 23be fc5c a93c c251 163e d108 68bd
00000270: 303d 403c a125 353d cdb4 33be c468 f33b
00000280: 3637 a33d c0ff 1cbe 4c38 f7bd ecd5 c4bd
00000290: 6c9b 49bd 8ca5 593d 2aeb 4bbd 955d 26bd
000002a0: b077 0dbe 2c7a 7e3d 981e 063e 5fd6 243e
000002b0: ab5f 9e3c bfaf cebc 4082 f43d e47f 5e3c
000002c0: 8c01 a13c 68c9 46bd cca1 203d 98d0 453d
000002d0: 8344 abbd 45e5 4f3e cc69 6b3d ac27 103e
000002e0: f78e 7e3e 6a05 a93d 70b4 483e 62cf 633d
000002f0: 1fe0 02be c8ba 4c3e 227f 2b3e 638c fc3d
00000300: e02b 043d 48fd d0bd 12ed 01be 277d 403e
00000310: 1f47 b23c 3240 153d 1161 db3d 5e4b 3e3e
00000320: 7c54 083d 1e45 053d a53a dcbd 977c 473d
00000330: d4b6 393d a62a 2b3d 6c89 773c 03d9 a83d
00000340: 1a6c 1b3d 468a 20be b12f 2e3d d64b 453d
00000350: 6fb1 99bd f800 753d 186a 32be 486b 30be
00000360: 5fa0 27be 9b14 e83d bb70 4ebe 2800 6e3d
00000370: 9ef4 32be a023 373a 4585 4dbe 38e8 063e
00000380: b5e9 c2bd 8823 a7bd 1890 a93c 18b8 08be
00000390: a124 74bd 432c 29be c44e a63d dd09 38bd
000003a0: a542 16bd 23e4 4ebc 7fd4 223b aeab c2bd
000003b0: 819c cfbd ab72 d23c 50eb 2bbe a7a6 a1bc
000003c0: 4dea 093c acf6 7f3d 4af9 1cbe dc33 e4bc
000003d0: ef43 8f3d 056d 17be ee61 173d 7ef4 f9bd
000003e0: 0448 263e 3285 44be 0e9a 593d bf9b e4bd
000003f0: 10ca cb3c 49fc 90bd ab11 e73d 5d1d babb
-0.16811468 0.11518359 0.08663706 0.123908766 0.04103717 0.06348324 0.14399798 0.039400756
-0.10612965 0.06813855 0.19271713 -0.03879147 -0.24582781 0.10370547 -0.16679776 -0.050925735
-0.18335824 0.13192219 0.0650772 -0.17147526 -0.018085945 -0.16549477 -0.17612122 -0.09441386
-0.06428189 0.070056714 0.1077042 -0.13558978 -0.1874294 -0.25092122 0.09650925 0.109584995
0.18503338 0.18073496 0.1688983 -0.12920868 0.06705519 0.10231992 -0.1411505 -0.11784281
-0.084892415 -0.13020638 0.009178658 -0.18017898 0.06644445 -0.044340502 0.0091642 0.058658846
0.05737069 -0.17055587 -0.03974699 -0.11219181 0.018077713 0.106454924 -0.072871715 -0.05079266
0.15595847 -0.02641791 -0.11856183 -0.023623215 0.12684925 -0.05735708 -0.11601186 0.12209202
0.12765646 0.030060079 0.0006628916 0.05400485 0.15889455 0.12537453 0.20994063 0.16286056
-0.06668903 0.2059393 0.20286879 0.024382144 0.13036302 -0.12312935 0.11927369 0.1350187
0.14038754 0.13429716 -0.011936214 -0.1084092 -0.080325216 -0.057675973 0.22405912 0.037422888
-0.034959707 0.06637285 0.12033574 0.1270918 -0.0062563587 0.06532365 0.085340455 -0.044737898
-0.0041656806 0.16100372 -0.17326435 -0.15542772 0.08263013 -0.15299347 -0.23657326 0.17685245
-0.013629405 0.12649861 -0.18202569 0.07410568 0.16839889 0.023292297 0.16394721 -0.10402038
0.048904803 -0.025994334 0.16547172 0.011790528 -0.11199332 -0.056141067 -0.0042592646 -0.15810806
0.024612289 -0.12765029 0.0014840291 -0.10937776 0.09074049 -0.16732706 0.01692853 0.07084441
-0.11651739 0.028886514 0.036570877 0.035922963 0.14921427 0.1255046 0.07005149 -0.111785315
-0.020957831 -0.09941125 -0.13958178 -0.15007578 -0.0028648323 -0.18120909 -0.08068939 -0.028789448
-0.13591237 0.03612525 0.022264944 -0.08729184 0.16363306 0.057523567 0.09677415 -0.17168623
-0.15928811 0.020674221 0.14679626 -0.056649033 0.011733338 0.04422534 -0.17549439 0.0074282605
0.07969515 -0.15331936 -0.12071285 -0.09611115 -0.049220487 0.053136393 -0.049784817 -0.04061659
-0.13815188 0.06212823 0.13097608 0.16097401 0.019332727 -0.025230287 0.11938906 0.013580296
0.019654058 -0.04853192 0.0392168 0.048294634 -0.08362677 0.20302303 0.057473943 0.14077634
0.24859224 0.08252986 0.19600081 0.055617698 -0.12780808 0.19993126 0.16747716 0.12331464
0.032268405 -0.102045596 -0.12688091 0.18797742 0.021762429 0.036438175 0.10711873 0.18583438
0.033283696 0.03253662 -0.10753373 0.048702803 0.045340374 0.04178872 0.0151084475 0.08244517
0.03794489 -0.15677747 0.04252595 0.048168026 -0.07504546 0.059815377 -0.17423284 -0.17228425
-0.1636977 0.11332055 -0.20160191 0.058105618 -0.17476127 0.00069862045 -0.2007037 0.13174522
-0.09517232 -0.08161074 0.020698592 -0.13351476 -0.059605245 -0.16520791 0.08120492 -0.04493128
-0.03668465 -0.012627634 0.0024845896 -0.095054016 -0.101372726 0.025689444 -0.16788983 -0.019732786
0.008417678 0.062491104 -0.15329471 -0.02785676 0.06995379 -0.14787681 0.036958627 -0.12204836
0.1623841 -0.19191435 0.053125434 -0.11162519 0.024876624 -0.070793696 0.11282667 -0.00567977

Target_Q_Net.linear2.bias f4 [30]
00000000: 8638 8b3d 3744 d73d f016 b2bd 518f 41be
00000010: f6ce abbd 2e2d 143d e727 bdbd 7943 57bc
00000020: 7fa8 1f3c 33b3 2fbc 778f 1bbd 3b0d 1dbe
00000030: 8057 9f3d 951c 2abe 492e 55be 0de5 d4bd
00000040: c152 373e 449f c93d 00a7 6c3d fdea a5bd
00000050: a6db 13be c995 103e 5584 f23d bd11 7b3d
00000060: 1444 7a3d 3a2f 6abd 826c f4bd 06e5 a1bd
00000070: 4f25 d1bb ea78 123e
0.0679789 0.10511058 -0.08695781 -0.18902327 -0.08389084 0.0361759 -0.092361264 -0.013138645
0.009744762 -0.010723877 -0.037978616 -0.15337078 0.07780361 -0.16612466 -0.20818438 -0.103952505
0.17902662 0.09844831 0.05777645 -0.08101461 -0.14439258 0.14119639 0.118416466 0.061296213
0.06110008 -0.057173945 -0.11934759 -0.07905011 -0.0063826214 0.14303938

Target_Q_Net.linear3.weight f4 [3, 30]
00000000: f827 563b 3d57 02be 6ed1 20bd 8201 f83c
00000010: 31e1 2ebe 8dde 883d 9dbd 25bd e315 083e
00000020: ada7 233e 65d8 f6bd 1578 113d 2788 2ebe
00000030: d501 c73d 4f98 af3d 5b00 c33d 30c3 413d
00000040: 6609 32be 7356 193e 1980 27be 887a 103d
00000050: e1f8 a3bd b27e 24be 3834 083d eb4d 27be
00000060: 187d 12bd 3d8c d03d c203 02bd 4aa2 da3d
00000070: 0acf d6bd e654 943d 7539 653b 1210 a33d
00000080: 31f3 3ebe 7661 5dbc 4410 123e 6a75 493e
00000090: ae84 6abe 6cf7 093e 06f4 3e3c bf13 f3bd
000000a0: 0736 64be 2c8a de3d 82e0 7dbc 4c57 26bd
000000b0: ffa8 4c3d c9aa 8b3d 9902 f0bd eea1 febd
000000c0: 20be 2c3e 0e17 4fbe dec5 afbd 1ce9 46bd
000000d0: 7fa9 773c 63f2 213d cd66 a2bd 2294 543d
000000e0: 7e4d 46be 8757 223d aa28 4fbe cf9b 20bd
000000f0: 00e0 76ba a76b 73bc 85c0 2fbe ca75 cbbd
00000100: e8e6 08be 9b9f c3bd bd97 0ebd 1c42 cd3d
00000110: 8483 d23d 3cc7 c23d 98e6 613d 405c cd3b
00000120: 5262 bbbd 8d05 7b3a 809f e1bc de52 acbd
00000130: b977 debc 85b8 2f3d 961a 463d f47c 3abd
00000140: 112e ef3d 989a bd3c 868a 04bd 9342 f83c
00000150: e543 313a 821c 69bd fa9a 38be 53d7 39be
00000160: 7fc6 38be fb59 b5bd
0.0032677632 -0.12728591 -0.039262228 0.030274156 -0.17078091 0.06683073 -0.040464032 0.13289599
0.15981932 -0.12052993 0.03551491 -0.17044125 0.09717146 0.085739724 0.09521552 0.047305286
-0.17386398 0.14974384 -0.16357459 0.035273105 -0.08006454 -0.16063955 0.033252925 -0.16338317
-0.03576383 0.10182998 -0.031741865 0.106754854 -0.10488708 0.072427556 0.0034976874 0.079620495
-0.18647458 -0.013512006 0.14264017 0.19673696 -0.22902176 0.1347329 0.011654859 -0.11869001
-0.22286235 0.10866198 -0.015495421 -0.040610597 0.049965855 0.06819684 -0.117192455 -0.124332294
0.16869402 -0.20223638 -0.08582662 -0.048562154 0.015116095 0.0395378 -0.07929764 0.051899083
-0.19365498 0.039634254 -0.20230356 -0.03921109 -0.0009417534 -0.014857209 -0.17163284 -0.09934576
-0.13369334 -0.09551927 -0.034812678 0.10022375 0.10278991 0.09510657 0.055151552 0.0062671006
-0.091496125 0.0009575717 -0.027541876 -0.08414243 -0.027156698 0.04290058 0.048365198 -0.04552932
0.11678708 0.023145005 -0.03235867 0.030305183 0.0006762131 -0.056911953 -0.18027869 -0.18148546
-0.1804447 -0.08855053

Target_Q_Net.linear3.bias f4 [3]
00000000: 61f5 0e3e 5314 7abd 5443 e63d
0.13960792 -0.06105454 0.112433106
