Model/ILQN/result/DQN/agent_ddqn_000651_SZ_0_5.pt (torch_old, 84180 bytes, 12 tensors)

Q_net.linear1.weight f4 [50, 150]
000000 f5 50 c3 3d 15 9b 08 3e f8 bd f5 3c 7f 87 da 3b
       0.09536926 0.13340409 0.02999781 0.0066689844
000010 60 34 01 3e 8b 2e 90 bd fa 82 fd 3d 6c 7c bd 3c
       0.12617636 -0.07040127 0.123784974 0.023130618
000020 09 1b 84 3d 44 d5 fa ba 3f b1 14 3c ab ea 04 3e
       0.06450469 -0.0019137044 0.009075462 0.12980144
000030 85 6f 9d 3d b0 61 36 3d c7 4c 83 3c 24 1d c1 3d
       0.07687286 0.044526756 0.016027821 0.09429386
000040 8a 94 0a 3e 7e 51 18 bc 79 92 ee 3d 18 7c 03 bb
       0.13533226 -0.009296773 0.11649031 -0.002006298
000050 c2 1a 0a bb 87 ac 8c 3c 75 f1 14 3e 33 7b 27 3c
       -0.0021073078 0.017172111 0.14545234 0.010222244
000060 e3 36 3c 3d 59 a5 48 bd 74 3a ab 3d b0 47 3d 3d
       0.04595078 -0.048985813 0.083607584 0.046210945
000070 f8 29 04 bb e8 75 2c 3d d6 2b 45 3d 82 6f be 3d
       -0.0020166617 0.04210463 0.04813751 0.09298612
000080 c7 d1 3c 3c 77 58 98 3c bd b4 0e 3e 79 8d d7 3d
       0.011524624 0.01859687 0.13936134 0.10525031
000090 1d be c5 3d 52 ae 87 3b c5 13 f0 3c e8 10 a5 3c
       0.09655402 0.0041406536 0.029306302 0.020149663
0000a0 88 42 08 3e db 4b bd 3d 2e 61 aa 3c a4 15 11 3c
       0.1330663 0.09242984 0.020798292 0.008855257
0000b0 24 ea d6 3d 3d a1 a4 3d 45 ae 33 3d ee dd 52 3d
       0.104938775 0.08038566 0.04386737 0.05148118
0000c0 84 e7 02 3e aa c8 dc bc 44 22 1d 3e c8 06 1e 3e
       0.12783629 -0.026951153 0.15345103 0.15432274
0000d0 9b 2c 49 3d 7e e6 9b 3d 76 1c 3f 3d b8 2d fa 3d
       0.049114805 0.07612322 0.046658 0.122157514
0000e0 d9 f8 fd 3c 42 18 84 bc 84 a6 c7 3d 9c 84 4a bd
       0.031002449 -0.016124848 0.09748557 -0.049442872
0000f0 8a d8 c1 3d d0 80 f1 3d d0 a7 d4 3d 60 cc df 3c
       0.0946513 0.11792147 0.1038357 0.027319133
000100 a5 8b 8a 3d c1 53 ed 3d 2b c5 6e 3d 2c 4a 4c bd
       0.06764916 0.115882404 0.058293503 -0.049875423
000110 13 cc 75 3d 47 df 86 bd a8 db 45 3d 1b 7f 55 3d
       0.060009073 -0.065855555 0.048305184 0.05212317
000120 26 52 4c 3d f9 92 fa bb c7 7a 0d 3e ac 8d 65 bd
       0.04988303 -0.007646915 0.13816367 -0.056043312
000130 e7 bf 4f bd dc c1 05 3c 4e 65 2e 3c 6a 72 3c 3d
       -0.05072012 0.008163895 0.01064427 0.04600755
000140 7c 06 fe 3d de 6a d2 3c a3 78 dd 3d 8b f9 27 3c
       0.124035805 0.025685724 0.10814025 0.010252367
000150 39 44 8c 3d 0f c7 94 3d 70 f0 d5 bb a1 b5 6f 3d
       0.0684895 0.0726453 -0.0065289065 0.058522824
000160 92 7f 00 3e cb 6f 32 bb b4 ad a3 3d 35 9b 2d 3d
       0.12548664 -0.0027227278 0.079921156 0.042384345
000170 a4 98 3e 3d 00 d8 15 3e 64 e0 3d 3d c1 76 aa 3d
       0.04653229 0.14633179 0.046356574 0.08323432
000180 9c c7 84 3d b7 81 c8 bb 84 dc 1c 3e da 21 51 bd
       0.06483385 -0.006118979 0.15318495 -0.051057674
000190 2a fc 8d 3c b1 c1 0f 3e a9 bf 12 3e aa a4 8b 3c
       0.017332155 0.14038731 0.14330925 0.017046291
0001a0 38 1b 8e 3c 2a b5 10 3e 09 ee 68 3d ae ac 87 bb
       0.017346963 0.14131609 0.056867633 -0.004140458
0001b0 49 fe e6 3d 98 98 8e 3d 2d 45 9e 3d 3c fc 68 3d
       0.1127897 0.06962699 0.07728038 0.056881174
0001c0 48 0c e5 3c bf 71 f2 3d bd d8 d7 3d cf 28 47 b9
       0.027959958 0.118381016 0.105393864 -0.00018993321
0001d0 b7 04 b7 bc ee 14 b2 bc df a4 af 3c 23 41 8c bd
       -0.022341115 -0.021738496 0.021440921 -0.06848361
0001e0 ec 6f df 3c eb 33 a4 3d ce 93 d9 3d 91 cf b2 3d
       0.027275048 0.08017715 0.10623895 0.087309964
0001f0 d8 96 cc 3b 75 f3 3d bd 91 ee fa ba 31 06 89 3b
       0.006243568 -0.046374757 -0.0019144585 0.0041816463
000200 6f 99 c9 3d 57 fa c1 3c 22 66 88 3c 1c a9 43 3d
       0.09843718 0.023678942 0.016650263 0.047768697
000210 f6 38 bd 3d 45 c2 a6 3c 3b 2f 8b 3d 7d 8a 1b bd
       0.0923938 0.020356307 0.06796118 -0.03797387
000220 b3 56 1c 3e fa 25 14 bd b5 38 bd 3d 46 bb 5d 3d
       0.15267448 -0.03616903 0.09239332 0.054133676
000230 af f1 03 3e db d2 7a 3c 1c ba ba 3d 46 c7 05 3e
       0.12885164 0.015309061 0.09117529 0.13064298
000240 32 d7 19 3e ce 8f 76 3d e9 a7 a3 3c 41 58 a2 b9
       0.15023497 0.060195737 0.019977527 -0.00030964802
000250 0c 21 3b 3d c4 18 bd 3d a0 c9 71 3c 5b e0 0f 3d
       0.045685813 0.09233239 0.014757544 0.03512607
000260 ab 59 b3 bd 1a df b6 bd 8c b3 27 3d 36 87 6c 3d
       -0.08757337 -0.08929272 0.040942714 0.057746135
000270 6e cb b0 bd 15 2e c0 3d a8 05 63 3d 6a 5d 51 bd
       -0.08632551 0.093837894 0.055425316 -0.051114477
000280 07 a4 b9 bd 8a b9 b4 3c f9 0c 8a 3d 98 e7 2e bd
       -0.09064489 0.022061128 0.067407556 -0.042701334
000290 aa c4 e7 3d 2f aa 0a 3d dd 83 ad bd 73 31 f1 3c
       0.113168076 0.033853706 -0.084724165 0.029442525
0002a0 c9 e3 2e bd a9 a5 8e 3d 9b 1b 01 3d a8 9d 85 bd
       -0.0426977 0.06965191 0.031520467 -0.06524211
0002b0 7d 3a 88 3d 6a a3 20 3b cc e5 39 3d 02 fb 11 bd
       0.06651781 0.0024511465 0.045385167 -0.03563977
0002c0 b1 de d4 bd 86 31 df bc 4c cb 7d bd e9 d6 4c 3d
       -0.103940375 -0.027245294 -0.061961457 0.05000964
0002d0 84 3c e5 3c 7f 2e bc bd 70 7e 8a bd c5 7b ae bd
       0.027982958 -0.09188556 -0.06762397 -0.08519701
0002e0 a8 71 da 3c 10 6f 05 3d d0 86 73 bc 63 c9 9e 3d
       0.026665524 0.03257662 -0.014863685 0.07753255
0002f0 c3 b6 ff 3a 68 e5 90 bd b9 9e 46 bd 7c cc e8 bc
       0.0019509423 -0.07075006 -0.048491213 -0.028417818
000300 6b dd 83 bb ce af 3c 39 2d 56 85 bc 78 ba 9d 3d
       -0.004024198 0.0001799457 -0.016276443 0.07701582
000310 a4 cd 9e bd ef 40 e0 3b 90 69 91 bc 2f c4 8e bc
       -0.077540666 0.006843678 -0.017750531 -0.017427532
000320 a0 63 49 bd 31 5d 7f bd 1a 6a 48 bd 96 80 77 bb
       -0.049167275 -0.062344734 -0.04892931 -0.0037765852
000330 91 a2 40 3d 78 13 87 bc b6 37 99 bc d5 5d e3 3d
       0.047030035 -0.016488776 -0.018703323 0.111018814
000340 2f fe 10 3d 52 91 b0 ba 01 39 12 3d 05 2a 34 bd
       0.03539866 -0.0013471043 0.035698894 -0.043985385
000350 2c cc c9 3b 17 11 86 3d 30 b8 87 3d 7c 10 f8 3c
       0.0061583724 0.065462284 0.06626928 0.030281298
000360 04 bd 40 bd 2c 84 2a 3d ba d1 49 3d a2 85 21 3d
       -0.04705526 0.041629955 0.049272276 0.039434083
000370 b0 6a 17 3d 1f 7d 97 bd fb 7d 86 bd fd 72 94 bd
       0.03696698 -0.07396912 -0.065669976 -0.07248495
000380 5c fe 7d 3c d0 ac e7 bc df 26 88 bd 99 1e 36 3d
       0.0155025385 -0.028280646 -0.06648039 0.044462774
000390 40 dc a6 bd ba 7c c6 bd cf da 4a bd be 22 c0 ba
       -0.08147478 -0.096917585 -0.04952508 -0.0014658791
0003a0 fa be 49 3d 87 f2 1e bd 99 0d 94 3c b0 fa 77 3d
       0.049254395 -0.03880551 0.01807289 0.06054181
0003b0 d8 61 6f bd f3 bc de 3c bc 3b 9f bd a2 8e 20 bd
       -0.05844292 0.027189707 -0.07775065 -0.039198525
0003c0 18 ca 36 bd 7b ee 65 3d 95 c9 70 3d 5e a1 2c 3d
       -0.044626325 0.056135636 0.058785994 0.04214608
0003d0 5c b0 22 bb a2 c4 ca 3d 6f 5b 06 bd d8 11 4b bd
       -0.0024824357 0.09900786 -0.03280204 -0.049577564
0003e0 a7 ba b4 bd fb 54 25 bd 58 db 74 3c 2d 2e 8c bd
       -0.088246636 -0.040364247 0.014944874 -0.06844745
0003f0 c6 e9 83 bd 65 a2 68 3d dc 9d fd 3d 29 d8 3d 3d
       -0.06441073 0.056795496 0.12383625 0.046348725

Q_net.linear1.bias f4 [50]
000000 9e 84 de 3d 09 6a 6a bb be d5 0c bd 9d 2c 47 3d
       0.108651385 -0.0035768768 -0.034383528 0.04862653
000010 3a 82 05 3e 93 27 97 bd 0c 2e 29 3c a0 43 c7 3d
       0.13037959 -0.07380595 0.01032592 0.09729695
000020 3d d0 50 3d b5 be 28 3e 9e 94 a8 3a 50 7e 83 3c
       0.05097984 0.16478999 0.0012861674 0.016051441
000030 7d f7 8a 3d 05 dd 2a bd 35 58 33 be 97 82 eb bc
       0.06785486 -0.041714687 -0.17514117 -0.028748794
000040 ed 0f 87 bd 60 d3 15 bd 37 01 a5 3d a5 73 ee 3b
       -0.065948345 -0.036578536 0.08056872 0.0072769695
000050 b6 70 e9 bd 3b 78 f1 3b 79 52 82 bd a3 b9 0c bd
       -0.11398451 0.007369069 -0.06363387 -0.034356724
000060 7e 23 74 bd 56 74 2d bd d2 74 aa bc 80 e8 7a bd
       -0.05960416 -0.042347275 -0.020807657 -0.061256886
000070 55 e9 9f 3c ca a9 13 3c 8e 80 50 3d 04 2d 86 bd
       0.019520441 0.009012649 0.05090385 -0.06551555
000080 c5 53 b4 3d 64 95 7b bd 60 d9 70 3d 32 0f 7b 3d
       0.0880504 -0.061421767 0.058801055 0.06129379
000090 5f 40 73 3d 96 37 b6 3d ec 1c 9e bd 16 ef 10 3c
       0.05938756 0.08897321 -0.0772036 0.008846065
0000a0 9b 29 96 3d 06 3d 12 bc 49 02 ea 3d 82 74 a9 bc
       0.07332154 -0.008925682 0.11426217 -0.020685438
0000b0 41 df a2 bb df 80 bc bd b3 66 57 3d 5b 77 4d bd
       -0.0049704616 -0.09204268 0.052588176 -0.050162654
0000c0 32 d1 06 3d 05 fd 96 bd
       0.032914348 -0.073724784

Q_net.linear2.weight f4 [50, 50]
000000 b0 e2 e1 bb 62 fc 2d bd 06 23 c3 3d 76 53 2b 3d
       -0.0068934783 -0.04247702 0.095281646 0.04182764
000010 d7 79 d1 bd 8e c1 b5 3d b6 43 88 3d bf 4f 03 3e
       -0.10228317 0.08874808 0.0665354 0.1282339
000020 e0 af b4 bd a9 4f aa 3d af 15 06 3e a0 5e 06 3e
       -0.08822608 0.08315975 0.13094209 0.13122034
000030 e2 fc 2f 3d 1d 3d 83 3d d1 96 06 3e fd d2 d8 bd
       0.042965777 0.06408141 0.1314347 -0.10587118
000040 bf ca 55 bd 10 1e 86 3d 05 46 8e bd 0d 52 43 3d
       -0.052195307 0.06548703 -0.06946949 0.04768567
000050 09 56 7a 3d 6b 99 0d 3e b6 c2 a7 3d 3b 51 ae 3d
       0.061117206 0.13828056 0.08191435 0.08511587
000060 da a2 f0 bb 61 dd 00 3c 31 dd da bc 67 7a 1a 3a
       -0.007343632 0.007865281 -0.0267168 0.0005892873
000070 80 f0 15 be 7b 0b c7 bd b1 81 44 bd 35 a7 7e 3d
       -0.14642525 -0.097189866 -0.047975246 0.06217118
000080 4c 3b e3 3d 9a 8a c5 3c c6 06 f8 3d 84 ec 77 3d
       0.11095294 0.024113942 0.12110667 0.060528293
000090 16 bf 11 be 37 5a aa bc b8 24 de 3d 44 45 84 3a
       -0.1423305 -0.02079497 0.10846847 0.0010091444
0000a0 24 a6 d8 3d f1 64 1e 3d 31 db 15 bc 64 af 36 3d
       0.10578564 0.038670484 -0.009146498 0.04460086
0000b0 ac fa 69 bc 46 6e 7f bd dd 51 a2 bd e4 f2 86 3d
       -0.014280956 -0.062361024 -0.079257704 0.065892965
0000c0 86 08 e0 3d 4b 2c 87 3d e6 bb 38 bd ae 9f 1a 3c
       0.10939126 0.06600245 -0.04510107 0.009437485
0000d0 c6 ff 93 3d 96 bd f7 3d 40 8f 2b 3d 37 25 e2 bb
       0.07226519 0.120967075 0.04188466 -0.006901409
0000e0 cf a8 a1 3d 92 83 e0 3b 4c ba 34 bd 8b 05 ce 3d
       0.07893526 0.006851622 -0.04412298 0.10059651
0000f0 dd f3 62 bd 72 c2 4a bd 3e 4d ff 3d 0a 05 75 bc
       -0.055408347 -0.049501844 0.12465905 -0.014954815
000100 ab 9f c9 bd 55 fd 9b bd 3e 73 b6 bd d5 ab 46 3d
       -0.098449074 -0.076166786 -0.089086995 0.048503716
000110 0a d7 e6 bb 13 e2 5f bd f1 69 f4 bc 37 ed 9a bb
       -0.0070446776 -0.05465896 -0.029835673 -0.0047279852
000120 d0 fd 4a 3e a9 0a d1 ba c2 1f 06 3e c0 87 cf bd
       0.19823384 -0.0015948612 0.13098052 -0.10133314
000130 75 05 1d bd 88 89 f6 bd 71 29 25 bd ba a3 5f bd
       -0.038335282 -0.12037951 -0.040322725 -0.0545995
000140 3a 60 3c be 0a 15 e3 bd ff 65 b1 bd 07 b1 a2 bd
       -0.18396083 -0.11087997 -0.08662032 -0.079439215
000150 55 85 ea 3d 7e 8f a5 3c 72 9e 9e 3d 1d 5e c6 3d
       0.11451212 0.020210024 0.07745065 0.096859194
000160 d5 f1 09 bd 72 a8 df bd 87 e9 99 bd 8a 09 17 3d
       -0.033677895 -0.109208 -0.07515245 0.03687433
000170 a7 7c dd bd 44 3a 5e bd 7c 3b 34 3d 4d 73 57 3c
       -0.10814791 -0.054254785 0.04400204 0.013150048
000180 15 9f 04 3e 7d ab 30 bd d5 f6 b3 bd f1 cc 23 bd
       0.1295131 -0.043132294 -0.08787314 -0.03999037
000190 f3 4f 02 be 9a d4 0d be d5 78 3c 3c 43 41 b4 bd
       -0.1272581 -0.13850632 0.011503418 -0.0880151
0001a0 37 bf f0 bd 0a c8 10 3e c5 db d4 3d ba f9 0f 3e
       -0.11755221 0.14138809 0.1039348 0.14060107
0001b0 fb d9 9a bc d8 69 11 bc 0d 8e fc bd 38 1b 8d bd
       -0.01890277 -0.008875333 -0.123317815 -0.06889957
0001c0 be 3d c2 3b 37 92 cd bd 2c 18 ac 3d bf 1a 16 bc
       0.0059277704 -0.10037654 0.08403048 -0.00916165
0001d0 b2 97 92 bd 66 09 bf 3c 00 9f d4 bd 91 8f b8 bd
       -0.0715784 0.023319911 -0.10381889 -0.09011758
0001e0 06 c3 89 3d 00 af 04 be b5 db 7d bd d3 bb 21 be
       0.06726651 -0.12957382 -0.061977107 -0.15794306
0001f0 3e 1a b4 bd 66 47 87 3d 98 08 ca 3c ea e1 83 3d
       -0.08794068 0.06605415 0.024662301 0.06439574
000200 66 f6 b1 3d 77 f4 4b bc 84 b5 d2 3d ab 79 1b be
       0.08689575 -0.012448422 0.102885276 -0.15183131
000210 0c fd d9 bc b4 cd 98 3d 76 e8 bd 3d 4b 7f 95 bd
       -0.02660992 0.0746111 0.09272854 -0.0729967
000220 8e 17 cb 3d 85 87 bb bd 12 ad e6 bd a7 c4 cb 3d
       0.09916602 -0.09156708 -0.11263479 0.09949618
000230 38 20 03 3c 88 82 29 bd 4f 6d a5 bc e7 51 03 bd
       0.008003287 -0.04138425 -0.020193724 -0.03206053
000240 a5 b3 5b bd 52 27 57 3c 27 3e da bb bf 7b 81 bc
       -0.05363812 0.013131933 -0.006660241 -0.015806077
000250 09 6d 89 bd 5b 18 a1 3c 33 79 b1 bd 68 89 e0 bc
       -0.0671025 0.019664934 -0.08665695 -0.02740927
000260 2e 71 b8 3d 44 87 3e be 3d 00 eb bd 58 42 35 3c
       0.09005962 -0.18606287 -0.11474655 0.011063181
000270 4b 06 28 bd 9d 7f 9a 3d 9a 9b 97 bc 45 3b ff 3d
       -0.041021626 0.075438716 -0.018506814 0.12462477
000280 76 2a b7 bd 50 0c 38 3d 4a 9b 92 bd 29 e2 5a bd
       -0.08943646 0.044933617 -0.07158525 -0.05343834
000290 40 98 91 bd 92 3a f8 bd 0e dc 01 bd 77 71 8f 3d
       -0.071091175 -0.121205464 -0.031704 0.070040636
0002a0 dd ec f7 bd 9d 68 11 3d 16 80 a6 3c fa 3e 85 bc
       -0.12105725 0.035500158 0.020324748 -0.016265381
0002b0 06 5b cf 3d 0f 66 68 3d 6b 5e f2 bd d1 d6 c5 bc
       0.10124783 0.056737956 -0.11834415 -0.024150284
0002c0 9a 65 1c 3d 21 ab a8 bc 26 da 50 3d a8 1b 66 bd
       0.038182832 -0.020589413 0.050989293 -0.05617872
0002d0 63 6a 08 be 19 3f 1a be 8b f9 33 bd 40 d5 fb 3d
       -0.13321833 -0.15063132 -0.043939155 0.122965336
0002e0 36 d0 1f 3e 1f 9b d8 bd ae 76 ef 3d 83 3d fe 3c
       0.1560677 -0.10576462 0.11692558 0.03103519
0002f0 43 59 a8 bd 54 f9 06 3c 28 1a c9 bd fe 45 cf bd
       -0.0822015 0.008238155 -0.09819442 -0.10120772
000300 31 77 ce bd 4e 5c 97 3c 3c a1 9b bd 5a d1 e4 bd
       -0.10081328 0.018476631 -0.075991124 -0.11172743
000310 b0 df c8 bd 29 f7 df bd 44 28 87 3d ee 44 22 bd
       -0.0980829 -0.10935814 0.06599477 -0.039616518
000320 55 7a e1 3d 7c 5e ff 3c fa fb 9f 3d 02 a6 00 3e
       0.11009661 0.031172983 0.078117326 0.12563327
000330 a1 c8 e6 3d d2 a2 ac bd 9c 86 b6 3c 80 f6 1c 3e
       0.11268736 -0.08429493 0.022280984 0.15328407
000340 2c 9e f1 3d b4 b2 c3 3d c1 f9 08 be 2b c1 ec bc
       0.11797747 0.09555569 -0.13376524 -0.028900703
000350 48 24 5c 3c 2b 95 d0 3d d8 d7 e2 3d e9 f8 85 3d
       0.0134363845 0.101847015 0.11076325 0.065416165
000360 52 6f 17 bd 79 0d 3a bd 00 65 59 3d a6 bf d6 bd
       -0.036971398 -0.045423005 0.053074837 -0.10485773
000370 a1 fa 0a be 8f 05 2d bb c0 60 fc bd 93 01 bc 3d
       -0.1357217 -0.0026401018 -0.12323141 0.09179988
000380 11 ac 5a 3a 2f 71 f5 3d a5 69 70 3d 23 7f b7 3d
       0.000834168 0.11984479 0.0586945 0.08959796
000390 94 90 bf 3d ff b6 f8 bd 0e e5 ed 3d 55 3d a3 bd
       0.09353748 -0.12144279 0.11615954 -0.079706825
0003a0 a8 f3 95 bc 18 58 26 be 54 fd 01 be 09 0d 21 3e
       -0.01830466 -0.16244543 -0.12694293 0.15727629
0003b0 b6 7e 24 3c 0f 3a d2 3d 5f d9 fe 3d 96 bc a1 bd
       0.010039976 0.1026498 0.12443804 -0.07897298
0003c0 29 b0 92 ba 56 d7 fa bc 69 e2 bc 3d 92 46 16 be
       -0.0011191416 -0.030620258 0.09222872 -0.14675358
0003d0 b8 ab fc 3d db 0c 69 b9 0a 48 78 bd 30 9e 0e bd
       0.1233744 -0.000222254 -0.060615577 -0.034818828
0003e0 89 d4 26 3d 49 3b 0c 3d 8c 85 1a 3e bb 00 13 3d
       0.040730033 0.034236226 0.15090007 0.03588937
0003f0 7c 43 2e 3e ae 74 30 3e 71 18 5b 3d 8a 3f e8 bd
       0.17017931 0.1723201 0.053490106 -0.11340244

Q_net.linear2.bias f4 [50]
000000 45 b7 c6 bd b2 37 09 3e 8d bd dd bd 2a f6 24 3c
       -0.09702925 0.13400152 -0.108271696 0.010068456
000010 93 7f cf bd d5 b7 cd 3d 3b 0f 85 bd 04 00 8f b8
       -0.10131755 0.10044829 -0.064970456 -6.818774e-05
000020 18 fb b4 bd 7a ad 11 be e3 cc 4e be 97 6a 4c bd
       -0.08836955 -0.14226332 -0.20195346 -0.04990634
000030 f5 b5 8e 3c a1 39 9f 3d f6 4b c8 3d b6 4e a6 bd
       0.017420748 0.07774664 0.097801134 -0.08120482
000040 b5 65 76 bc d5 d7 5f bd 7d 02 04 be 28 0c 3f bd
       -0.015038897 -0.054649193 -0.12891574 -0.046642452
000050 a4 bc 02 3d 2f 38 51 bd 92 14 39 be 9f 0c c4 3b
       0.031918183 -0.05107897 -0.18074253 0.00598295
000060 6e 5c 8a bc fc 39 98 bd ed d4 cb 3d 2e bb b0 bc
       -0.016889777 -0.07432935 0.09952722 -0.02157363
000070 14 ed b7 3d de 48 38 bc 32 8c 2e 3d 4d 87 18 3e
       0.08980766 -0.011247842 0.04261417 0.14895363
000080 06 f5 ba bd 7b dc c5 3d c5 61 c2 3d 8f 99 a9 bd
       -0.09128766 0.09661194 0.09491304 -0.08281242
000090 f0 3f 11 3e 3e 9c 12 3d fa 18 30 3d 49 32 55 3d
       0.14184546 0.035793535 0.04299257 0.05204991
0000a0 bb b2 25 bd c5 41 f1 bd bb e7 99 bd f4 24 16 3e
       -0.040453654 -0.11780123 -0.07514902 0.14662534
0000b0 39 42 20 3e 92 dd 0c bd 92 48 f5 3c 39 7f 29 be
       0.15650262 -0.034390993 0.02994183 -0.16552438
0000c0 db e0 25 3e ba 1d f7 3c
       0.16199057 0.030165542

Q_net.linear3.weight f4 [3, 50]
000000 89 75 a7 3d de b1 cf 3d c9 f0 ae bc 62 07 52 bd
       0.08176715 0.10141347 -0.02135505 -0.051276572
000010 9d 9c 3c bd 85 bf 1d 3e 3e eb 91 3d 06 1a 81 3d
       -0.046047796 0.1540509 0.07124947 0.06303792
000020 85 44 0d be 63 bb 57 bd b5 81 1e bd 22 67 18 3e
       -0.1379567 -0.05266894 -0.038697917 0.14883092
000030 3d 56 7a 3c 5a c2 8a 3d 15 72 97 3d 01 4a a0 bd
       0.01527935 0.06775351 0.07394806 -0.07826615
000040 7a e8 ed bd df 17 ee bc 4d f6 9e 3b f3 f4 0d 3e
       -0.11616607 -0.029064117 0.0048511387 0.13862972
000050 4e c8 eb 3c 57 af dd 3d b1 cc e6 bb d8 5e 48 bb
       0.028782036 0.10824459 -0.007043444 -0.003057411
000060 0a 2f 76 3d a3 68 d8 3d e2 36 0b 3e 89 ea 2f 3b
       0.060103454 0.10566833 0.13595155 0.0026842675
000070 d9 40 30 bc 2a 75 b1 3d 50 c8 ce 3d b2 0a 5e 3d
       -0.010757648 0.086649254 0.100968 0.05420942
000080 16 f9 f4 3c 1a fd e3 3d 64 6d 82 bd a5 c6 f1 3d
       0.02990393 0.1113226 -0.06368521 0.118054666
000090 f7 dc 04 3d 8b df 1a 3d 26 e3 27 3e 58 de 18 be
       0.03243729 0.037810843 0.16395244 -0.14928567
0000a0 56 d2 4e 3c 27 02 a4 3d 58 37 3f 3d 90 72 f5 3b
       0.01262339 0.08008223 0.04668364 0.0074904636
0000b0 b8 b2 1f 3e 95 ef ac bd 8b 90 5a bd 41 bc 2d 3c
       0.1559552 -0.08444134 -0.053360503 0.010603965
0000c0 ed 2b eb 3c e7 80 8a ba 04 70 34 bc ab 1b 49 3e
       0.028707469 -0.001056698 -0.011013035 0.1963946
0000d0 f7 04 e4 bd 70 c8 9e bd bb 56 e1 3c 54 c6 2d 3e
       -0.111337595 -0.07753074 0.027507177 0.16970187
0000e0 47 78 0e bd 73 36 0c 3d 08 f5 f2 bc 69 d4 59 bc
       -0.034782674 0.034231614 -0.029657856 -0.013295271
0000f0 9a 82 28 3e bc 46 d7 bd 18 c6 ad bd a8 b3 0c bd
       0.1645607 -0.105115384 -0.08485049 -0.03435102
000100 e9 ab c4 bd c8 79 ca 3d 1e 90 60 bd 58 d3 f0 3d
       -0.09603102 0.09886509 -0.05482494 0.117590606
000110 58 e6 db bc af 8b 09 3d f8 71 b2 3b b1 39 0b bd
       -0.026843235 0.03358048 0.005445715 -0.033990566
000120 fc a9 8c 3d 91 b1 09 3e 12 52 d7 bd 80 9e d6 3d
       0.068683594 0.13446642 -0.105137005 0.1047945
000130 e2 d8 19 3e a4 68 a9 bd 9a bd 14 bb 38 16 04 3e
       0.1502414 -0.08271912 -0.002269602 0.12899101
000140 9e f7 0f 3d c5 99 e6 3d 75 69 f2 bd 6d e2 76 3d
       0.035148256 0.11259798 -0.118365206 0.06027453
000150 ee d6 d7 3d 24 45 29 3d 5e b4 03 3e e6 3a 13 bd
       0.105390415 0.041325703 0.12861773 -0.03594484
000160 2d cf 18 3e bf 25 0c bd 35 7b 70 bd d1 43 af 3d
       0.14922781 -0.034215685 -0.05871125 0.08557857
000170 7c bd 72 3c 18 ac b2 3b 85 db cf bd 2d 65 ce 3c
       0.014815684 0.005452644 -0.10149292 0.025194729
000180 75 d2 fb bc 02 aa a1 3d e0 5a 88 3c e8 d6 f9 bd
       -0.030740002 0.078937545 0.016644895 -0.12199193
000190 3b d8 a4 bc f6 3b 50 bd 8c 34 58 bd ca 1a 40 3c
       -0.020122638 -0.050838433 -0.052784488 0.011725137
0001a0 b6 95 26 3d 5d 4a d8 3d 13 c5 07 3e de 13 38 3e
       0.04067012 0.10561059 0.13258772 0.17976329
0001b0 34 ca 08 be d7 01 58 bd d4 fc 91 3d ab 59 6a bd
       -0.13358384 -0.05273613 0.07128301 -0.05721442
0001c0 53 5e d9 bd 58 94 7b 3b c4 1c 91 3d 7e f9 b9 bc
       -0.10613694 0.003838798 0.07085565 -0.022701975
0001d0 c3 a0 12 3e c2 23 08 3e c2 c3 61 bd 70 c4 e5 3d
       0.14319138 0.1329489 -0.05511833 0.11219108
0001e0 b0 72 e8 3d 49 61 71 3d 04 48 f4 bd ed a4 64 3e
       0.1135 0.05893067 -0.119277984 0.22328539
0001f0 8c 79 12 bd 7a e4 24 bc 85 2f b8 3c 1e 71 e8 3b
       -0.035760447 -0.010064239 0.022483597 0.0070935627
000200 6b 54 f5 3d 3d b2 51 bc 45 a3 09 3c f9 09 00 3e
       0.11978992 -0.012798843 0.008400743 0.12503804
000210 b7 f3 46 bd de 01 05 bd 17 54 11 3c 7d 81 1d bd
       -0.04857227 -0.032472484 0.008870146 -0.038453568
000220 a8 11 1f 3d 73 c0 00 3d bc 37 c7 3d f0 0e ce bd
       0.038835198 0.031433534 0.09727427 -0.10061443
000230 86 38 12 3e bd 71 b7 bd 07 51 d3 3d b5 35 e6 bc
       0.14279374 -0.08957241 0.10318189 -0.028101781
000240 34 d9 ac 3d 56 75 e5 3d 51 22 a8 3d 9f d3 6c 3d
       0.08439866 0.11204021 0.0820967 0.057819005
000250 c3 ef 07 3e e8 0d 90 bd
       0.13275056 -0.070339024

Q_net.linear3.bias f4 [3]
000000 81 d7 b2 bd a4 74 be bd 7a 73 3b 3e
       -0.0873251 -0.09299591 0.1830577

Target_Q_Net.linear1.weight f4 [50, 150]
000000 f5 50 c3 3d 15 9b 08 3e f8 bd f5 3c 7f 87 da 3b
       0.09536926 0.13340409 0.02999781 0.0066689844
000010 60 34 01 3e 8b 2e 90 bd fa 82 fd 3d 6c 7c bd 3c
       0.12617636 -0.07040127 0.123784974 0.023130618
000020 09 1b 84 3d 44 d5 fa ba 3f b1 14 3c ab ea 04 3e
       0.06450469 -0.0019137044 0.009075462 0.12980144
000030 85 6f 9d 3d b0 61 36 3d c7 4c 83 3c 24 1d c1 3d
       0.07687286 0.044526756 0.016027821 0.09429386
000040 8a 94 0a 3e 7e 51 18 bc 79 92 ee 3d 18 7c 03 bb
       0.13533226 -0.009296773 0.11649031 -0.002006298
000050 c2 1a 0a bb 87 ac 8c 3c 75 f1 14 3e 33 7b 27 3c
       -0.0021073078 0.017172111 0.14545234 0.010222244
000060 e3 36 3c 3d 59 a5 48 bd 74 3a ab 3d b0 47 3d 3d
       0.04595078 -0.048985813 0.083607584 0.046210945
000070 f8 29 04 bb e8 75 2c 3d d6 2b 45 3d 82 6f be 3d
       -0.0020166617 0.04210463 0.04813751 0.09298612
000080 c7 d1 3c 3c 77 58 98 3c bd b4 0e 3e 79 8d d7 3d
       0.011524624 0.01859687 0.13936134 0.10525031
000090 1d be c5 3d 52 ae 87 3b c5 13 f0 3c e8 10 a5 3c
       0.09655402 0.0041406536 0.029306302 0.020149663
0000a0 88 42 08 3e db 4b bd 3d 2e 61 aa 3c a4 15 11 3c
       0.1330663 0.09242984 0.020798292 0.008855257
0000b0 24 ea d6 3d 3d a1 a4 3d 45 ae 33 3d ee dd 52 3d
       0.104938775 0.08038566 0.04386737 0.05148118
0000c0 84 e7 02 3e aa c8 dc bc 44 22 1d 3e c8 06 1e 3e
       0.12783629 -0.026951153 0.15345103 0.15432274
0000d0 9b 2c 49 3d 7e e6 9b 3d 76 1c 3f 3d b8 2d fa 3d
       0.049114805 0.07612322 0.046658 0.122157514
0000e0 d9 f8 fd 3c 42 18 84 bc 84 a6 c7 3d 9c 84 4a bd
       0.031002449 -0.016124848 0.09748557 -0.049442872
0000f0 8a d8 c1 3d d0 80 f1 3d d0 a7 d4 3d 60 cc df 3c
       0.0946513 0.11792147 0.1038357 0.027319133
000100 a5 8b 8a 3d c1 53 ed 3d 2b c5 6e 3d 2c 4a 4c bd
       0.06764916 0.115882404 0.058293503 -0.049875423
000110 13 cc 75 3d 47 df 86 bd a8 db 45 3d 1b 7f 55 3d
       0.060009073 -0.065855555 0.048305184 0.05212317
000120 26 52 4c 3d f9 92 fa bb c7 7a 0d 3e ac 8d 65 bd
       0.04988303 -0.007646915 0.13816367 -0.056043312
000130 e7 bf 4f bd dc c1 05 3c 4e 65 2e 3c 6a 72 3c 3d
       -0.05072012 0.008163895 0.01064427 0.04600755
000140 7c 06 fe 3d de 6a d2 3c a3 78 dd 3d 8b f9 27 3c
       0.124035805 0.025685724 0.10814025 0.010252367
000150 39 44 8c 3d 0f c7 94 3d 70 f0 d5 bb a1 b5 6f 3d
       0.0684895 0.0726453 -0.0065289065 0.058522824
000160 92 7f 00 3e cb 6f 32 bb b4 ad a3 3d 35 9b 2d 3d
       0.12548664 -0.0027227278 0.079921156 0.042384345
000170 a4 98 3e 3d 00 d8 15 3e 64 e0 3d 3d c1 76 aa 3d
       0.04653229 0.14633179 0.046356574 0.08323432
000180 9c c7 84 3d b7 81 c8 bb 84 dc 1c 3e da 21 51 bd
       0.06483385 -0.006118979 0.15318495 -0.051057674
000190 2a fc 8d 3c b1 c1 0f 3e a9 bf 12 3e aa a4 8b 3c
       0.017332155 0.14038731 0.14330925 0.017046291
0001a0 38 1b 8e 3c 2a b5 10 3e 09 ee 68 3d ae ac 87 bb
       0.017346963 0.14131609 0.056867633 -0.004140458
0001b0 49 fe e6 3d 98 98 8e 3d 2d 45 9e 3d 3c fc 68 3d
       0.1127897 0.06962699 0.07728038 0.056881174
0001c0 48 0c e5 3c bf 71 f2 3d bd d8 d7 3d cf 28 47 b9
       0.027959958 0.118381016 0.105393864 -0.00018993321
0001d0 b7 04 b7 bc ee 14 b2 bc df a4 af 3c 23 41 8c bd
       -0.022341115 -0.021738496 0.021440921 -0.06848361
0001e0 ec 6f df 3c eb 33 a4 3d ce 93 d9 3d 91 cf b2 3d
       0.027275048 0.08017715 0.10623895 0.087309964
0001f0 d8 96 cc 3b 75 f3 3d bd 91 ee fa ba 31 06 89 3b
       0.006243568 -0.046374757 -0.0019144585 0.0041816463
000200 6f 99 c9 3d 57 fa c1 3c 22 66 88 3c 1c a9 43 3d
       0.09843718 0.023678942 0.016650263 0.047768697
000210 f6 38 bd 3d 45 c2 a6 3c 3b 2f 8b 3d 7d 8a 1b bd
       0.0923938 0.020356307 0.06796118 -0.03797387
000220 b3 56 1c 3e fa 25 14 bd b5 38 bd 3d 46 bb 5d 3d
       0.15267448 -0.03616903 0.09239332 0.054133676
000230 af f1 03 3e db d2 7a 3c 1c ba ba 3d 46 c7 05 3e
       0.12885164 0.015309061 0.09117529 0.13064298
000240 32 d7 19 3e ce 8f 76 3d e9 a7 a3 3c 41 58 a2 b9
       0.15023497 0.060195737 0.019977527 -0.00030964802
000250 0c 21 3b 3d c4 18 bd 3d a0 c9 71 3c 5b e0 0f 3d
       0.045685813 0.09233239 0.014757544 0.03512607
000260 ab 59 b3 bd 1a df b6 bd 8c b3 27 3d 36 87 6c 3d
       -0.08757337 -0.08929272 0.040942714 0.057746135
000270 6e cb b0 bd 15 2e c0 3d a8 05 63 3d 6a 5d 51 bd
       -0.08632551 0.093837894 0.055425316 -0.051114477
000280 07 a4 b9 bd 8a b9 b4 3c f9 0c 8a 3d 98 e7 2e bd
       -0.09064489 0.022061128 0.067407556 -0.042701334
000290 aa c4 e7 3d 2f aa 0a 3d dd 83 ad bd 73 31 f1 3c
       0.113168076 0.033853706 -0.084724165 0.029442525
0002a0 c9 e3 2e bd a9 a5 8e 3d 9b 1b 01 3d a8 9d 85 bd
       -0.0426977 0.06965191 0.031520467 -0.06524211
0002b0 7d 3a 88 3d 6a a3 20 3b cc e5 39 3d 02 fb 11 bd
       0.06651781 0.0024511465 0.045385167 -0.03563977
0002c0 b1 de d4 bd 86 31 df bc 4c cb 7d bd e9 d6 4c 3d
       -0.103940375 -0.027245294 -0.061961457 0.05000964
0002d0 84 3c e5 3c 7f 2e bc bd 70 7e 8a bd c5 7b ae bd
       0.027982958 -0.09188556 -0.06762397 -0.08519701
0002e0 a8 71 da 3c 10 6f 05 3d d0 86 73 bc 63 c9 9e 3d
       0.026665524 0.03257662 -0.014863685 0.07753255
0002f0 c3 b6 ff 3a 68 e5 90 bd b9 9e 46 bd 7c cc e8 bc
       0.0019509423 -0.07075006 -0.048491213 -0.028417818
000300 6b dd 83 bb ce af 3c 39 2d 56 85 bc 78 ba 9d 3d
       -0.004024198 0.0001799457 -0.016276443 0.07701582
000310 a4 cd 9e bd ef 40 e0 3b 90 69 91 bc 2f c4 8e bc
       -0.077540666 0.006843678 -0.017750531 -0.017427532
000320 a0 63 49 bd 31 5d 7f bd 1a 6a 48 bd 96 80 77 bb
       -0.049167275 -0.062344734 -0.04892931 -0.0037765852
000330 91 a2 40 3d 78 13 87 bc b6 37 99 bc d5 5d e3 3d
       0.047030035 -0.016488776 -0.018703323 0.111018814
000340 2f fe 10 3d 52 91 b0 ba 01 39 12 3d 05 2a 34 bd
       0.03539866 -0.0013471043 0.035698894 -0.043985385
000350 2c cc c9 3b 17 11 86 3d 30 b8 87 3d 7c 10 f8 3c
       0.0061583724 0.065462284 0.06626928 0.030281298
000360 04 bd 40 bd 2c 84 2a 3d ba d1 49 3d a2 85 21 3d
       -0.04705526 0.041629955 0.049272276 0.039434083
000370 b0 6a 17 3d 1f 7d 97 bd fb 7d 86 bd fd 72 94 bd
       0.03696698 -0.07396912 -0.065669976 -0.07248495
000380 5c fe 7d 3c d0 ac e7 bc df 26 88 bd 99 1e 36 3d
       0.0155025385 -0.028280646 -0.06648039 0.044462774
000390 40 dc a6 bd ba 7c c6 bd cf da 4a bd be 22 c0 ba
       -0.08147478 -0.096917585 -0.04952508 -0.0014658791
0003a0 fa be 49 3d 87 f2 1e bd 99 0d 94 3c b0 fa 77 3d
       0.049254395 -0.03880551 0.01807289 0.06054181
0003b0 d8 61 6f bd f3 bc de 3c bc 3b 9f bd a2 8e 20 bd
       -0.05844292 0.027189707 -0.07775065 -0.039198525
0003c0 18 ca 36 bd 7b ee 65 3d 95 c9 70 3d 5e a1 2c 3d
       -0.044626325 0.056135636 0.058785994 0.04214608
0003d0 5c b0 22 bb a2 c4 ca 3d 6f 5b 06 bd d8 11 4b bd
       -0.0024824357 0.09900786 -0.03280204 -0.049577564
0003e0 a7 ba b4 bd fb 54 25 bd 58 db 74 3c 2d 2e 8c bd
       -0.088246636 -0.040364247 0.014944874 -0.06844745
0003f0 c6 e9 83 bd 65 a2 68 3d dc 9d fd 3d 29 d8 3d 3d
       -0.06441073 0.056795496 0.12383625 0.046348725

Target_Q_Net.linear1.bias f4 [50]
000000 9e 84 de 3d 09 6a 6a bb be d5 0c bd 9d 2c 47 3d
       0.108651385 -0.0035768768 -0.034383528 0.04862653
000010 3a 82 05 3e 93 27 97 bd 0c 2e 29 3c a0 43 c7 3d
       0.13037959 -0.07380595 0.01032592 0.09729695
000020 3d d0 50 3d b5 be 28 3e 9e 94 a8 3a 50 7e 83 3c
       0.05097984 0.16478999 0.0012861674 0.016051441
000030 7d f7 8a 3d 05 dd 2a bd 35 58 33 be 97 82 eb bc
       0.06785486 -0.041714687 -0.17514117 -0.028748794
000040 ed 0f 87 bd 60 d3 15 bd 37 01 a5 3d a5 73 ee 3b
       -0.065948345 -0.036578536 0.08056872 0.0072769695
000050 b6 70 e9 bd 3b 78 f1 3b 79 52 82 bd a3 b9 0c bd
       -0.11398451 0.007369069 -0.06363387 -0.034356724
000060 7e 23 74 bd 56 74 2d bd d2 74 aa bc 80 e8 7a bd
       -0.05960416 -0.042347275 -0.020807657 -0.061256886
000070 55 e9 9f 3c ca a9 13 3c 8e 80 50 3d 04 2d 86 bd
       0.019520441 0.009012649 0.05090385 -0.06551555
000080 c5 53 b4 3d 64 95 7b bd 60 d9 70 3d 32 0f 7b 3d
       0.0880504 -0.061421767 0.058801055 0.06129379
000090 5f 40 73 3d 96 37 b6 3d ec 1c 9e bd 16 ef 10 3c
       0.05938756 0.08897321 -0.0772036 0.008846065
0000a0 9b 29 96 3d 06 3d 12 bc 49 02 ea 3d 82 74 a9 bc
       0.07332154 -0.008925682 0.11426217 -0.020685438
0000b0 41 df a2 bb df 80 bc bd b3 66 57 3d 5b 77 4d bd
       -0.0049704616 -0.09204268 0.052588176 -0.050162654
0000c0 32 d1 06 3d 05 fd 96 bd
       0.032914348 -0.073724784

Target_Q_Net.linear2.weight f4 [50, 50]
000000 b0 e2 e1 bb 62 fc 2d bd 06 23 c3 3d 76 53 2b 3d
       -0.0068934783 -0.04247702 0.095281646 0.04182764
000010 d7 79 d1 bd 8e c1 b5 3d b6 43 88 3d bf 4f 03 3e
       -0.10228317 0.08874808 0.0665354 0.1282339
000020 e0 af b4 bd a9 4f aa 3d af 15 06 3e a0 5e 06 3e
       -0.08822608 0.08315975 0.13094209 0.13122034
000030 e2 fc 2f 3d 1d 3d 83 3d d1 96 06 3e fd d2 d8 bd
       0.042965777 0.06408141 0.1314347 -0.10587118
000040 bf ca 55 bd 10 1e 86 3d 05 46 8e bd 0d 52 43 3d
       -0.052195307 0.06548703 -0.06946949 0.04768567
000050 09 56 7a 3d 6b 99 0d 3e b6 c2 a7 3d 3b 51 ae 3d
       0.061117206 0.13828056 0.08191435 0.08511587
000060 da a2 f0 bb 61 dd 00 3c 31 dd da bc 67 7a 1a 3a
       -0.007343632 0.007865281 -0.0267168 0.0005892873
000070 80 f0 15 be 7b 0b c7 bd b1 81 44 bd 35 a7 7e 3d
       -0.14642525 -0.097189866 -0.047975246 0.06217118
000080 4c 3b e3 3d 9a 8a c5 3c c6 06 f8 3d 84 ec 77 3d
       0.11095294 0.024113942 0.12110667 0.060528293
000090 16 bf 11 be 37 5a aa bc b8 24 de 3d 44 45 84 3a
       -0.1423305 -0.02079497 0.10846847 0.0010091444
0000a0 24 a6 d8 3d f1 64 1e 3d 31 db 15 bc 64 af 36 3d
       0.10578564 0.038670484 -0.009146498 0.04460086
0000b0 ac fa 69 bc 46 6e 7f bd dd 51 a2 bd e4 f2 86 3d
       -0.014280956 -0.062361024 -0.079257704 0.065892965
0000c0 86 08 e0 3d 4b 2c 87 3d e6 bb 38 bd ae 9f 1a 3c
       0.10939126 0.06600245 -0.04510107 0.009437485
0000d0 c6 ff 93 3d 96 bd f7 3d 40 8f 2b 3d 37 25 e2 bb
       0.07226519 0.120967075 0.04188466 -0.006901409
0000e0 cf a8 a1 3d 92 83 e0 3b 4c ba 34 bd 8b 05 ce 3d
       0.07893526 0.006851622 -0.04412298 0.10059651
0000f0 dd f3 62 bd 72 c2 4a bd 3e 4d ff 3d 0a 05 75 bc
       -0.055408347 -0.049501844 0.12465905 -0.014954815
000100 ab 9f c9 bd 55 fd 9b bd 3e 73 b6 bd d5 ab 46 3d
       -0.098449074 -0.076166786 -0.089086995 0.048503716
000110 0a d7 e6 bb 13 e2 5f bd f1 69 f4 bc 37 ed 9a bb
       -0.0070446776 -0.05465896 -0.029835673 -0.0047279852
000120 d0 fd 4a 3e a9 0a d1 ba c2 1f 06 3e c0 87 cf bd
       0.19823384 -0.0015948612 0.13098052 -0.10133314
000130 75 05 1d bd 88 89 f6 bd 71 29 25 bd ba a3 5f bd
       -0.038335282 -0.12037951 -0.040322725 -0.0545995
000140 3a 60 3c be 0a 15 e3 bd ff 65 b1 bd 07 b1 a2 bd
       -0.18396083 -0.11087997 -0.08662032 -0.079439215
000150 55 85 ea 3d 7e 8f a5 3c 72 9e 9e 3d 1d 5e c6 3d
       0.11451212 0.020210024 0.07745065 0.096859194
000160 d5 f1 09 bd 72 a8 df bd 87 e9 99 bd 8a 09 17 3d
       -0.033677895 -0.109208 -0.07515245 0.03687433
000170 a7 7c dd bd 44 3a 5e bd 7c 3b 34 3d 4d 73 57 3c
       -0.10814791 -0.054254785 0.04400204 0.013150048
000180 15 9f 04 3e 7d ab 30 bd d5 f6 b3 bd f1 cc 23 bd
       0.1295131 -0.043132294 -0.08787314 -0.03999037
000190 f3 4f 02 be 9a d4 0d be d5 78 3c 3c 43 41 b4 bd
       -0.1272581 -0.13850632 0.011503418 -0.0880151
0001a0 37 bf f0 bd 0a c8 10 3e c5 db d4 3d ba f9 0f 3e
       -0.11755221 0.14138809 0.1039348 0.14060107
0001b0 fb d9 9a bc d8 69 11 bc 0d 8e fc bd 38 1b 8d bd
       -0.01890277 -0.008875333 -0.123317815 -0.06889957
0001c0 be 3d c2 3b 37 92 cd bd 2c 18 ac 3d bf 1a 16 bc
       0.0059277704 -0.10037654 0.08403048 -0.00916165
0001d0 b2 97 92 bd 66 09 bf 3c 00 9f d4 bd 91 8f b8 bd
       -0.0715784 0.023319911 -0.10381889 -0.09011758
0001e0 06 c3 89 3d 00 af 04 be b5 db 7d bd d3 bb 21 be
       0.06726651 -0.12957382 -0.061977107 -0.15794306
0001f0 3e 1a b4 bd 66 47 87 3d 98 08 ca 3c ea e1 83 3d
       -0.08794068 0.06605415 0.024662301 0.06439574
000200 66 f6 b1 3d 77 f4 4b bc 84 b5 d2 3d ab 79 1b be
       0.08689575 -0.012448422 0.102885276 -0.15183131
000210 0c fd d9 bc b4 cd 98 3d 76 e8 bd 3d 4b 7f 95 bd
       -0.02660992 0.0746111 0.09272854 -0.0729967
000220 8e 17 cb 3d 85 87 bb bd 12 ad e6 bd a7 c4 cb 3d
       0.09916602 -0.09156708 -0.11263479 0.09949618
000230 38 20 03 3c 88 82 29 bd 4f 6d a5 bc e7 51 03 bd
       0.008003287 -0.04138425 -0.020193724 -0.03206053
000240 a5 b3 5b bd 52 27 57 3c 27 3e da bb bf 7b 81 bc
       -0.05363812 0.013131933 -0.006660241 -0.015806077
000250 09 6d 89 bd 5b 18 a1 3c 33 79 b1 bd 68 89 e0 bc
       -0.0671025 0.019664934 -0.08665695 -0.02740927
000260 2e 71 b8 3d 44 87 3e be 3d 00 eb bd 58 42 35 3c
       0.09005962 -0.18606287 -0.11474655 0.011063181
000270 4b 06 28 bd 9d 7f 9a 3d 9a 9b 97 bc 45 3b ff 3d
       -0.041021626 0.075438716 -0.018506814 0.12462477
000280 76 2a b7 bd 50 0c 38 3d 4a 9b 92 bd 29 e2 5a bd
       -0.08943646 0.044933617 -0.07158525 -0.05343834
000290 40 98 91 bd 92 3a f8 bd 0e dc 01 bd 77 71 8f 3d
       -0.071091175 -0.121205464 -0.031704 0.070040636
0002a0 dd ec f7 bd 9d 68 11 3d 16 80 a6 3c fa 3e 85 bc
       -0.12105725 0.035500158 0.020324748 -0.016265381
0002b0 06 5b cf 3d 0f 66 68 3d 6b 5e f2 bd d1 d6 c5 bc
       0.10124783 0.056737956 -0.11834415 -0.024150284
0002c0 9a 65 1c 3d 21 ab a8 bc 26 da 50 3d a8 1b 66 bd
       0.038182832 -0.020589413 0.050989293 -0.05617872
0002d0 63 6a 08 be 19 3f 1a be 8b f9 33 bd 40 d5 fb 3d
       -0.13321833 -0.15063132 -0.043939155 0.122965336
0002e0 36 d0 1f 3e 1f 9b d8 bd ae 76 ef 3d 83 3d fe 3c
       0.1560677 -0.10576462 0.11692558 0.03103519
0002f0 43 59 a8 bd 54 f9 06 3c 28 1a c9 bd fe 45 cf bd
       -0.0822015 0.008238155 -0.09819442 -0.10120772
000300 31 77 ce bd 4e 5c 97 3c 3c a1 9b bd 5a d1 e4 bd
       -0.10081328 0.018476631 -0.075991124 -0.11172743
000310 b0 df c8 bd 29 f7 df bd 44 28 87 3d ee 44 22 bd
       -0.0980829 -0.10935814 0.06599477 -0.039616518
000320 55 7a e1 3d 7c 5e ff 3c fa fb 9f 3d 02 a6 00 3e
       0.11009661 0.031172983 0.078117326 0.12563327
000330 a1 c8 e6 3d d2 a2 ac bd 9c 86 b6 3c 80 f6 1c 3e
       0.11268736 -0.08429493 0.022280984 0.15328407
000340 2c 9e f1 3d b4 b2 c3 3d c1 f9 08 be 2b c1 ec bc
       0.11797747 0.09555569 -0.13376524 -0.028900703
000350 48 24 5c 3c 2b 95 d0 3d d8 d7 e2 3d e9 f8 85 3d
       0.0134363845 0.101847015 0.11076325 0.065416165
000360 52 6f 17 bd 79 0d 3a bd 00 65 59 3d a6 bf d6 bd
       -0.036971398 -0.045423005 0.053074837 -0.10485773
000370 a1 fa 0a be 8f 05 2d bb c0 60 fc bd 93 01 bc 3d
       -0.1357217 -0.0026401018 -0.12323141 0.09179988
000380 11 ac 5a 3a 2f 71 f5 3d a5 69 70 3d 23 7f b7 3d
       0.000834168 0.11984479 0.0586945 0.08959796
000390 94 90 bf 3d ff b6 f8 bd 0e e5 ed 3d 55 3d a3 bd
       0.09353748 -0.12144279 0.11615954 -0.079706825
0003a0 a8 f3 95 bc 18 58 26 be 54 fd 01 be 09 0d 21 3e
       -0.01830466 -0.16244543 -0.12694293 0.15727629
0003b0 b6 7e 24 3c 0f 3a d2 3d 5f d9 fe 3d 96 bc a1 bd
       0.010039976 0.1026498 0.12443804 -0.07897298
0003c0 29 b0 92 ba 56 d7 fa bc 69 e2 bc 3d 92 46 16 be
       -0.0011191416 -0.030620258 0.09222872 -0.14675358
0003d0 b8 ab fc 3d db 0c 69 b9 0a 48 78 bd 30 9e 0e bd
       0.1233744 -0.000222254 -0.060615577 -0.034818828
0003e0 89 d4 26 3d 49 3b 0c 3d 8c 85 1a 3e bb 00 13 3d
       0.040730033 0.034236226 0.15090007 0.03588937
0003f0 7c 43 2e 3e ae 74 30 3e 71 18 5b 3d 8a 3f e8 bd
       0.17017931 0.1723201 0.053490106 -0.11340244

Target_Q_Net.linear2.bias f4 [50]
000000 45 b7 c6 bd b2 37 09 3e 8d bd dd bd 2a f6 24 3c
       -0.09702925 0.13400152 -0.108271696 0.010068456
000010 93 7f cf bd d5 b7 cd 3d 3b 0f 85 bd 04 00 8f b8
       -0.10131755 0.10044829 -0.064970456 -6.818774e-05
000020 18 fb b4 bd 7a ad 11 be e3 cc 4e be 97 6a 4c bd
       -0.08836955 -0.14226332 -0.20195346 -0.04990634
000030 f5 b5 8e 3c a1 39 9f 3d f6 4b c8 3d b6 4e a6 bd
       0.017420748 0.07774664 0.097801134 -0.08120482
000040 b5 65 76 bc d5 d7 5f bd 7d 02 04 be 28 0c 3f bd
       -0.015038897 -0.054649193 -0.12891574 -0.046642452
000050 a4 bc 02 3d 2f 38 51 bd 92 14 39 be 9f 0c c4 3b
       0.031918183 -0.05107897 -0.18074253 0.00598295
000060 6e 5c 8a bc fc 39 98 bd ed d4 cb 3d 2e bb b0 bc
       -0.016889777 -0.07432935 0.09952722 -0.02157363
000070 14 ed b7 3d de 48 38 bc 32 8c 2e 3d 4d 87 18 3e
       0.08980766 -0.011247842 0.04261417 0.14895363
000080 06 f5 ba bd 7b dc c5 3d c5 61 c2 3d 8f 99 a9 bd
       -0.09128766 0.09661194 0.09491304 -0.08281242
000090 f0 3f 11 3e 3e 9c 12 3d fa 18 30 3d 49 32 55 3d
       0.14184546 0.035793535 0.04299257 0.05204991
0000a0 bb b2 25 bd c5 41 f1 bd bb e7 99 bd f4 24 16 3e
       -0.040453654 -0.11780123 -0.07514902 0.14662534
0000b0 39 42 20 3e 92 dd 0c bd 92 48 f5 3c 39 7f 29 be
       0.15650262 -0.034390993 0.02994183 -0.16552438
0000c0 db e0 25 3e ba 1d f7 3c
       0.16199057 0.030165542

Target_Q_Net.linear3.weight f4 [3, 50]
000000 89 75 a7 3d de b1 cf 3d c9 f0 ae bc 62 07 52 bd
       0.08176715 0.10141347 -0.02135505 -0.051276572
000010 9d 9c 3c bd 85 bf 1d 3e 3e eb 91 3d 06 1a 81 3d
       -0.046047796 0.1540509 0.07124947 0.06303792
000020 85 44 0d be 63 bb 57 bd b5 81 1e bd 22 67 18 3e
       -0.1379567 -0.05266894 -0.038697917 0.14883092
000030 3d 56 7a 3c 5a c2 8a 3d 15 72 97 3d 01 4a a0 bd
       0.01527935 0.06775351 0.07394806 -0.07826615
000040 7a e8 ed bd df 17 ee bc 4d f6 9e 3b f3 f4 0d 3e
       -0.11616607 -0.029064117 0.0048511387 0.13862972
000050 4e c8 eb 3c 57 af dd 3d b1 cc e6 bb d8 5e 48 bb
       0.028782036 0.10824459 -0.007043444 -0.003057411
000060 0a 2f 76 3d a3 68 d8 3d e2 36 0b 3e 89 ea 2f 3b
       0.060103454 0.10566833 0.13595155 0.0026842675
000070 d9 40 30 bc 2a 75 b1 3d 50 c8 ce 3d b2 0a 5e 3d
       -0.010757648 0.086649254 0.100968 0.05420942
000080 16 f9 f4 3c 1a fd e3 3d 64 6d 82 bd a5 c6 f1 3d
       0.02990393 0.1113226 -0.06368521 0.118054666
000090 f7 dc 04 3d 8b df 1a 3d 26 e3 27 3e 58 de 18 be
       0.03243729 0.037810843 0.16395244 -0.14928567
0000a0 56 d2 4e 3c 27 02 a4 3d 58 37 3f 3d 90 72 f5 3b
       0.01262339 0.08008223 0.04668364 0.0074904636
0000b0 b8 b2 1f 3e 95 ef ac bd 8b 90 5a bd 41 bc 2d 3c
       0.1559552 -0.08444134 -0.053360503 0.010603965
0000c0 ed 2b eb 3c e7 80 8a ba 04 70 34 bc ab 1b 49 3e
       0.028707469 -0.001056698 -0.011013035 0.1963946
0000d0 f7 04 e4 bd 70 c8 9e bd bb 56 e1 3c 54 c6 2d 3e
       -0.111337595 -0.07753074 0.027507177 0.16970187
0000e0 47 78 0e bd 73 36 0c 3d 08 f5 f2 bc 69 d4 59 bc
       -0.034782674 0.034231614 -0.029657856 -0.013295271
0000f0 9a 82 28 3e bc 46 d7 bd 18 c6 ad bd a8 b3 0c bd
       0.1645607 -0.105115384 -0.08485049 -0.03435102
000100 e9 ab c4 bd c8 79 ca 3d 1e 90 60 bd 58 d3 f0 3d
       -0.09603102 0.09886509 -0.05482494 0.117590606
000110 58 e6 db bc af 8b 09 3d f8 71 b2 3b b1 39 0b bd
       -0.026843235 0.03358048 0.005445715 -0.033990566
000120 fc a9 8c 3d 91 b1 09 3e 12 52 d7 bd 80 9e d6 3d
       0.068683594 0.13446642 -0.105137005 0.1047945
000130 e2 d8 19 3e a4 68 a9 bd 9a bd 14 bb 38 16 04 3e
       0.1502414 -0.08271912 -0.002269602 0.12899101
000140 9e f7 0f 3d c5 99 e6 3d 75 69 f2 bd 6d e2 76 3d
       0.035148256 0.11259798 -0.118365206 0.06027453
000150 ee d6 d7 3d 24 45 29 3d 5e b4 03 3e e6 3a 13 bd
       0.105390415 0.041325703 0.12861773 -0.03594484
000160 2d cf 18 3e bf 25 0c bd 35 7b 70 bd d1 43 af 3d
       0.14922781 -0.034215685 -0.05871125 0.08557857
000170 7c bd 72 3c 18 ac b2 3b 85 db cf bd 2d 65 ce 3c
       0.014815684 0.005452644 -0.10149292 0.025194729
000180 75 d2 fb bc 02 aa a1 3d e0 5a 88 3c e8 d6 f9 bd
       -0.030740002 0.078937545 0.016644895 -0.12199193
000190 3b d8 a4 bc f6 3b 50 bd 8c 34 58 bd ca 1a 40 3c
       -0.020122638 -0.050838433 -0.052784488 0.011725137
0001a0 b6 95 26 3d 5d 4a d8 3d 13 c5 07 3e de 13 38 3e
       0.04067012 0.10561059 0.13258772 0.17976329
0001b0 34 ca 08 be d7 01 58 bd d4 fc 91 3d ab 59 6a bd
       -0.13358384 -0.05273613 0.07128301 -0.05721442
0001c0 53 5e d9 bd 58 94 7b 3b c4 1c 91 3d 7e f9 b9 bc
       -0.10613694 0.003838798 0.07085565 -0.022701975
0001d0 c3 a0 12 3e c2 23 08 3e c2 c3 61 bd 70 c4 e5 3d
       0.14319138 0.1329489 -0.05511833 0.11219108
0001e0 b0 72 e8 3d 49 61 71 3d 04 48 f4 bd ed a4 64 3e
       0.1135 0.05893067 -0.119277984 0.22328539
0001f0 8c 79 12 bd 7a e4 24 bc 85 2f b8 3c 1e 71 e8 3b
       -0.035760447 -0.010064239 0.022483597 0.0070935627
000200 6b 54 f5 3d 3d b2 51 bc 45 a3 09 3c f9 09 00 3e
       0.11978992 -0.012798843 0.008400743 0.12503804
000210 b7 f3 46 bd de 01 05 bd 17 54 11 3c 7d 81 1d bd
       -0.04857227 -0.032472484 0.008870146 -0.038453568
000220 a8 11 1f 3d 73 c0 00 3d bc 37 c7 3d f0 0e ce bd
       0.038835198 0.031433534 0.09727427 -0.10061443
000230 86 38 12 3e bd 71 b7 bd 07 51 d3 3d b5 35 e6 bc
       0.14279374 -0.08957241 0.10318189 -0.028101781
000240 34 d9 ac 3d 56 75 e5 3d 51 22 a8 3d 9f d3 6c 3d
       0.08439866 0.11204021 0.0820967 0.057819005
000250 c3 ef 07 3e e8 0d 90 bd
       0.13275056 -0.070339024

Target_Q_Net.linear3.bias f4 [3]
000000 81 d7 b2 bd a4 74 be bd 7a 73 3b 3e
       -0.0873251 -0.09299591 0.1830577
