Model/ILQN/result/DQN/agent_ddqn_600031_SH_0_5.pt (torch_old, 84180 bytes, 12 tensors)

Q_net.linear1.weight f4 [50, 150]
00000000: 66eb ee3d 8475 573d 7642 753d 7f21 6f3c
00000010: f79a 013e 385d 363d 9190 593d 2e58 49bc
00000020: 3b02 f03d 6fa1 ccb9 bd74 9c3d eb51 453c
00000030: 6cfd 233e 519d 1b3e 5da9 233e 03f4 e63d
00000040: 1a7f ac3d cf67 7fbc 59ca bc3d c1e9 0bbd
00000050: 2bef 2d3c c66f ad3d 5386 be3d 7cee 103e
00000060: 7fb5 2f3e 8d37 4d3c 38d9 253d 9023 de3b
00000070: fcef 653d d768 72bc f7e7 bc3d 5fd2 883d
00000080: 4176 853d 5f80 bb3d 96d6 243e af43 193c
00000090: dcfc 1f3e 8ac3 8f3d 7dcf 9a3d d936 b83c
000000a0: 8d3c 083e ef4e 0f3e 7d72 b93c dc98 153e
000000b0: eab3 4a3e dc50 ca3d 6b36 0d3e b03c 903d
000000c0: 5bbe 0f3e 4841 6b3d 929a b23d d6a2 be3d
000000d0: d2d5 f23d ab9a 643a fe56 103d 7e1e feba
000000e0: f3e6 ef3d 944c 9a3d 332c a43d 87a5 1b3d
000000f0: 3bfc 4c3d 861d 443d 8274 373c b7c3 c03d
00000100: b044 903d ca2e 103c 86d1 913d 3173 83bd
00000110: ccf0 ca3c 0c3b 8d3d 408f ef3d aca1 bd3d
00000120: 5ea5 193d 4d8c 013d 5c4f ee3d 5c42 6c3c
00000130: 6354 13bd cdb1 91bd bb0a f639 e719 75bd
00000140: f1cd 093e 0a56 653d 84de 023d 6163 263d
00000150: d908 163e 9038 6c3c 1284 da3d 2736 02bc
00000160: 1404 253e 8552 903d 5e04 093e 864b ad3c
00000170: 41f9 0c3e bcfb fe3d 09c9 c13d c625 c2bd
00000180: 684d c2bb 39ad 673d 477c 9b3d 974b ebbc
00000190: 8d66 813d e892 b1bb 5f02 863a 4f32 d63d
000001a0: 8926 5e3d fbbd 2ebd 14a4 7f3b 0ba3 1e3c
000001b0: 8794 673d 2059 03bb 1dc0 f03d 6fb3 6a3d
000001c0: a36c 983d 81b2 023c 10bb 633d bbf2 49bc
000001d0: d833 633d 3b6e b23c 020c df3c 043f 0d3d
000001e0: 162b c43c 9378 ad3d 85d1 fd3d 8642 e83c
000001f0: d9a8 7f3d 215c 3ebd 1320 b93d 01b2 513d
00000200: 411b a93c 3359 953a bb17 173e 64c2 f93d
00000210: 994d 153e 7747 d43d 673e 1b3e f3d2 c0bc
00000220: 839d 8ebc f7f5 5c3d c21f 2b3d 61c5 4c3d
00000230: e09d ff3c 835d 9f3c ffb2 0e3e f7bb a33d
00000240: 0dcb 423e 8754 9fbc 3069 b23d 8a95 853d
00000250: 864b 043e a665 b33c 6edd 6bbe 3e5c ebbd
00000260: 70e3 03be 3668 01be 071c 67be 372f 38bc
00000270: 0f8e 8bbd df89 b73d b0cf e8bd b4b6 41bd
00000280: cd5a 69be 81f7 21be bc5e 3cbe 8e68 37be
00000290: 0ffe 60be 35ff 5dbd b130 893b 3902 27ba
000002a0: 5fce 20be bf2c a63d fc8b 58be 8c0b 3dbe
000002b0: baf5 58be e010 60be 8329 58be 5547 8a3c
000002c0: 320d 10bd 3754 48bd 750c debd ef0e 7f3d
000002d0: 3b4f e8bd 31c6 53be 1802 08be 6300 47be
000002e0: e2b1 09be d59c 65bd f1ef 073d c9bd b33c
000002f0: 8829 79be 8930 793d 7623 bbbd edb8 69be
00000300: 67ee 66be cb94 d1bd db21 4bbe ec64 2e3d
00000310: f5e6 92bd a359 6fbd 56e8 09be 2c02 7f3a
00000320: 17e4 49be ffe9 efbd 47d0 22be 6d64 5dbe
00000330: 286c 48be 10d0 563c b74b a93c 0b4b a03d
00000340: 50c2 d4bd 44c6 213c 0d16 66be 1b3a 2fbe
00000350: 1f26 30be 4bbf 24be cb9a c8bd 0a03 063c
00000360: 83da 423c fea5 57bc 0a9b 53be 689f 323d
00000370: 40b1 41be a9a6 04be 357a 44be 788c 4bbe
00000380: a796 fcbd 10cf 8a3d ed01 b9bc dd1c 7dbd
00000390: 81d9 74be 5f3a 943c e386 5bbe 43df d2bd
000003a0: e860 5dbe e41c 76be 41a6 46be 01e5 843d
000003b0: a8e7 1a3c a4ca 753d 8af7 13be 9edb a0bd
000003c0: 1a54 b8bd c6b4 c3bd 2e6f eabd ee22 68be
000003d0: b32a 15be 9bb0 ac3b fc06 42bb a5c4 863d
000003e0: ac7f bbbd f9b6 343d 9275 d9bd f587 d8bd
000003f0: 1eec 1dbe a75b 39be b4bc cabd 6f76 9c3d
0.116659924 0.052602306 0.059877835 0.014595388 0.1265677 0.044522494 0.053116385 -0.01228909
0.117191754 -0.0003903019 0.076394536 0.012043457 0.16014642 0.1519673 0.15982576 0.1127701
0.0842268 -0.015588715 0.09218282 -0.034158472 0.010616104 0.08468585 0.09302964 0.14153475
0.17159079 0.012525451 0.04049036 0.0067791417 0.05613707 -0.014795504 0.09223931 0.0668075
0.06516696 0.09155344 0.16097483 0.009354516 0.15623802 0.07019718 0.075591065 0.02248709
0.13304348 0.13994955 0.0226376 0.14609092 0.19795194 0.09878704 0.1379029 0.07042825
0.14037459 0.057435304 0.08720888 0.09308402 0.11857189 0.0008720557 0.035239212 -0.001938775
0.11713972 0.07534137 0.08016243 0.037999656 0.050045233 0.04787972 0.011197211 0.0941233
0.07044351 0.008800218 0.071200415 -0.064184554 0.024773024 0.06896028 0.11697245 0.09259352
0.037511222 0.031627942 0.1163623 0.014420118 -0.03596915 -0.07113991 0.0004692877 -0.059839156
0.13457467 0.055990256 0.03195049 0.04062212 0.14651813 0.014417782 0.10669722 -0.007947481
0.16114837 0.07046989 0.13380572 0.021154176 0.13766958 0.12450358 0.094621725 -0.09479861
-0.0059296377 0.056561682 0.075920634 -0.028722567 0.06318388 -0.005419124 0.0010224095 0.10458814
0.05423597 -0.04266165 0.003900771 0.009682427 0.05653813 -0.0020042136 0.11755393 0.057300027
0.07442596 0.007977129 0.05559832 -0.012325938 0.055469364 0.021781078 0.027227405 0.034483925
0.023946326 0.08470263 0.12393478 0.028352033 0.062416885 -0.04647458 0.09039321 0.05119515
0.020642878 0.0011394381 0.14755146 0.1219528 0.14580382 0.10365193 0.15160523 -0.023538088
-0.017409092 0.053945508 0.041778333 0.049992923 0.03120321 0.01945377 0.13935469 0.07994836
0.1902277 -0.019449485 0.08711469 0.06522663 0.12919435 0.021899056 -0.23033687 -0.11492203
-0.1287973 -0.1263741 -0.22569285 -0.011241726 -0.06814205 0.08961844 -0.11367738 -0.04729338
-0.22788544 -0.15817071 -0.18395513 -0.17910978 -0.21971916 -0.054198463 0.0041867127 -0.00063708756
-0.15703724 0.081140034 -0.2114715 -0.18461436 -0.21187487 -0.21881437 -0.21109585 0.016879717
-0.035168834 -0.04890844 -0.1084222 0.0622701 -0.11343237 -0.20681073 -0.13282049 -0.19433741
-0.13446763 -0.05605777 0.03318781 0.021941083 -0.24332249 0.060837302 -0.09137623 -0.2282445
-0.22551881 -0.10233458 -0.19837134 0.042576715 -0.07172958 -0.058435094 -0.13467535 0.00097278017
-0.19715916 -0.11714553 -0.15899764 -0.2162034 -0.19572508 0.013111129 0.020665986 0.07826813
-0.10388625 0.00987393 -0.22469349 -0.17112009 -0.17202042 -0.16088597 -0.097951494 0.0081794355
0.011892918 -0.013162134 -0.20664611 0.043609053 -0.18915272 -0.12954201 -0.19187243 -0.19877803
-0.12333422 0.06777775 -0.022583926 -0.061795104 -0.23911096 0.01809424 -0.21438174 -0.1029649
-0.21618998 -0.24034458 -0.19399358 0.064889915 0.009454645 0.060007706 -0.14449897 -0.07854389
-0.09000416 -0.09555964 -0.11446987 -0.22669575 -0.1456707 0.0052700764 -0.0029606214 0.06580476
-0.09155211 0.04411981 -0.10618128 -0.10572807 -0.15422103 -0.18101369 -0.098992735 0.07639777

Q_net.linear1.bias f4 [50]
00000000: 8cab 863d 13c6 aabd fbc2 d5bd 46c6 c13d
00000010: 4521 083e bf4b 8b3d 9f6a 89bd 3dec f2bd
00000020: 9105 2e3e 74fb 1a3e 75aa 2abb 1763 333d
00000030: 95b1 583d 7a8b 0abd 1493 a33d cdc0 0bbe
00000040: cb02 edbd 4b30 fc3d 9352 f6bd a908 98bd
00000050: d188 e83c 1ac1 2d3d 0720 c93d 5020 31bb
00000060: d7fa 553d fd74 c83d cb1a 433e f52e e13d
00000070: 12aa d8bd 680e 7b3d d1fd 873d 3f8c 6c3b
00000080: 842b 38bd 1133 b13d 7dc5 1c3d 822c 80bc
00000090: c598 5cbd ddb7 20bd 7a0f a83c 27ba a63d
000000a0: 151f 7fbd 470e e23d 319d 853d f4cb ec3d
000000b0: 769b 4dbd a329 eabb a1b7 a33d b135 353d
000000c0: d78b 2e3d 618b bd3c
0.06575689 -0.08338561 -0.1043758 0.09461646 0.13293941 0.06801557 -0.067097895 -0.11861465
0.16994311 0.15134984 -0.0026041542 0.04379567 0.05290373 -0.03382442 0.07987037 -0.13647766
-0.11572798 0.12313899 -0.120274685 -0.07423527 0.028385552 0.042420484 0.09820562 -0.0027027316
0.052241173 0.09787939 0.1905319 0.109952845 -0.10579313 0.061293036 0.066402085 0.0036094335
-0.044963375 0.08652318 0.038274277 -0.015646223 -0.05385663 -0.039237846 0.020515192 0.081409745
-0.0622855 0.110378794 0.065241225 0.115623385 -0.050197087 -0.0071460768 0.07994009 0.044240657
0.04261383 0.02313775

Q_net.linear2.weight f4 [50, 50]
00000000: f084 57bd ddcd 88bc 7042 d93a 7bb3 023e
00000010: 1616 203d 8961 653d 0fb9 093e 69fd 9abd
00000020: c2ec e7bb 525a 383e 9559 2abd 18e4 f9bd
00000030: c5f9 94be fc27 00be ee81 77bd 0302 cdbd
00000040: 46ae 00bd f3cc 7fbd 2ef7 ddbd 00a8 74bd
00000050: 4ab0 88bd 085d f8bd b8ff 35bd a2a1 3dbe
00000060: c51b 47be 7de2 c53d d377 073e 5b28 10be
00000070: a032 4dbe 182a b23c 5a55 a83d eae7 1b3e
00000080: d25c 8a3d 33e7 a63d dfe2 e1bd b1f3 973d
00000090: 361d 333d 7780 d5bd 5eec 543d 3f25 643e
000000a0: 2380 a3bd 2872 8fbc bd51 12bd b954 2c3d
000000b0: 9d03 4ebd 83d1 d1bd 1828 f6bd 0827 21be
000000c0: d54e 0c3d 94b2 07be 5184 e1bc 5680 8dbd
000000d0: 7168 5dbd 806f 9abd eaab c4bd 8083 1abd
000000e0: ab9d 303e 42df c43d f6ce e33d bcc0 c4bd
000000f0: 5918 5ebd 3b60 bc3a 29f3 ba3d e2b5 25bd
00000100: c0b6 58bd 4e23 aa3d c317 0c3d 8df2 82bd
00000110: 84c8 9fbd f898 e7bc cee3 6abd 8bcd d93d
00000120: 3898 7f3d 6f33 2abd 7b39 0c3c ea58 ac3c
00000130: de06 833d 6d13 45be 6bd3 d23c f9a6 44bd
00000140: 989d 383d 96c9 c4bc 88ff d7bd c5e1 9c3d
00000150: a6c0 543d 7099 fcbd 4a41 cabb 1082 36bd
00000160: e0e9 6f3d a033 503d 0133 b9bd 5b5f d4bd
00000170: e524 93bd 5048 873c df13 0ebe 2ef2 88bd
00000180: 855e 00bd ebdf 8e3d 4c8d 833d 739a d9bd
00000190: eed3 9f3c bb04 02be 6e1b d5bd 7ad3 80bc
000001a0: 1eff a13c c622 6d3d f61e 223e 4289 5fbd
000001b0: 1f6e 58bc 3f24 30bb d5db f53d 9620 dc3d
000001c0: 0bb8 7d3d 9fa5 0ebd 7d5f 29bd 1203 0dbc
000001d0: 61e1 443d a838 043e eccb 843d 069e 7e3d
000001e0: f66e 90bc 2a97 a23d 5d35 15be 384d 5d3e
000001f0: 7584 b6bd 5865 9cbd f680 53bd da7f ce3d
00000200: 6bf3 8abd c75b 21be 7d17 dfbd 8d7e 933d
00000210: d634 a4bc 9a48 61bd 2e51 e23d 4367 dc3d
00000220: 6c25 72bd bfdc 253d 81a2 193d 3ae0 0e3e
00000230: 0b46 dfbd cd41 0e3e fecb 93bd 74d2 603d
00000240: ab64 38be ddeb 1dbd f6cf 003d 4a09 8ebd
00000250: a183 94bd f8bf 2e3d 555a 62bc 93d4 9bbd
00000260: 16ec 3f3d 77c4 e5bd 679d c9bc cdff 08be
00000270: ef63 a2bd c876 ad3c 1ef5 c4bd 5ea6 a23d
00000280: 89b3 883d c3a9 bc3d 1552 d33c 9d6b c53d
00000290: 4dcd edbd eb6d f23b 4414 e73c eb19 d23d
000002a0: 9e78 883d 68dd ee3c 9ed1 593d 82d9 debd
000002b0: 66d5 ecbd daea 15be ba99 17bd d6f5 073e
000002c0: 0a3e e9bd 9257 023e fc5a 97bd f01b 50bd
000002d0: c983 6ebc 7478 e93d f917 11be ad5d e53c
000002e0: b1d8 fe3d 26d3 083e e3c4 02be f712 d1bc
000002f0: be17 883d 36ad 64bd 6ea7 a13d 3051 b6bb
00000300: 9ee2 a0bd b8a5 d0ba d26a 2abd c3e8 92bd
00000310: 46df e1bd 090f ad3d adb2 b2bd 347e d73d
00000320: 7b25 543d d948 02be bc54 0c3c 68e0 74bd
00000330: e3a1 14be 92ca 8f3d fa07 e3bd 789b 16be
00000340: 1665 1cbd ce78 3dbe bfb0 aebd 0b9f d83d
00000350: 7731 123d 2c6c 0dbd f798 463c 4075 67bc
00000360: 0ab1 933d 106f a03c 4e35 d23d 0bc8 1ebd
00000370: 048f cebd 2d17 ac3d 04bb e3bd e6a1 9b3d
00000380: 7c5b 6c3d b090 86bd 3eeb 8a3c 1292 dc3d
00000390: e154 c8bd c3d8 893c 392a ea3d 4d4d 813c
000003a0: 570f 5d3c 0488 153e 403b 24bd 0488 bb3b
000003b0: 35d7 e5bd a781 e23c b6f4 bcbd 86dc 2fbd
000003c0: 49d7 02be b499 a83d 2c42 8d3d bd98 54bd
000003d0: 41f8 a23d 1769 883c 0c89 23be 4f50 5c3b
000003e0: b90f a4bd a3c5 5d3d 2faf 8a3d 6132 c73d
000003f0: ca62 463d 57ea d03d 01d1 e2bc d5a9 a33d
-0.052617013 -0.016699726 0.0016575586 0.12763779 0.039083563 0.05600122 0.134495 -0.075678654
-0.0070777843 0.18003204 -0.04158934 -0.122017086 -0.2909681 -0.12515253 -0.060426645 -0.10010149
-0.0314162 -0.062451314 -0.108381614 -0.05973053 -0.066742495 -0.12127119 -0.044433326 -0.1851869
-0.19444187 0.0966234 0.13229303 -0.14077894 -0.20038843 0.021748587 0.082194045 0.15225187
0.06755985 0.081495665 -0.110296 0.07419527 0.04372903 -0.10424893 0.05198323 0.22279833
-0.079834245 -0.017510489 -0.035722483 0.042072985 -0.050296415 -0.10245039 -0.12019366 -0.15737545
0.034254868 -0.13251716 -0.027528914 -0.06909244 -0.05405468 -0.07540798 -0.096031025 -0.037723064
0.17247646 0.096128955 0.11123459 -0.09607074 -0.05422244 0.0014371941 0.0912841 -0.04045666
-0.05290866 0.08307515 0.03420235 -0.06393919 -0.07801917 -0.028271183 -0.057346158 0.10634907
0.062401026 -0.041552957 0.008558626 0.021038491 0.06397794 -0.19245692 0.025735578 -0.0480108
0.045072168 -0.024021905 -0.105467856 0.076602496 0.051941536 -0.123339534 -0.006172334 -0.04455763
0.05857265 0.050830483 -0.09042931 -0.1036975 -0.071847714 0.016513973 -0.13874768 -0.06686817
-0.03134014 0.06976303 0.064234346 -0.10625162 0.019510236 -0.12697117 -0.104056224 -0.01572584
0.01977497 0.05789449 0.15832123 -0.05457426 -0.013209849 -0.0026877073 0.1200482 0.10748403
0.061943095 -0.034825917 -0.04135083 -0.008606689 0.0480665 0.12912238 0.064842075 0.06216242
-0.017631035 0.079389885 -0.14571138 0.21611488 -0.08911983 -0.07636517 -0.05163666 0.100829795
-0.067847095 -0.15757667 -0.10893152 0.07201872 -0.020044725 -0.05500088 0.1105064 0.10761883
-0.05911772 0.040493723 0.03750849 0.13952723 -0.109020315 0.13892289 -0.07216643 0.054888204
-0.18007152 -0.038555015 0.031448327 -0.069353655 -0.07251669 0.042663544 -0.013815482 -0.07608905
0.04685601 -0.11219113 -0.024611188 -0.1337883 -0.07929217 0.021174803 -0.09617065 0.07941888
0.066748686 0.09212067 0.025795976 0.09639666 -0.11611424 0.007398357 0.028207906 0.1025885
0.06663631 0.02915831 0.053178422 -0.1088133 -0.1156414 -0.1464037 -0.03701184 0.13277373
-0.11388786 0.12728718 -0.07390401 -0.050807893 -0.014557787 0.11399928 -0.14169301 0.02799877
0.12443674 0.13361797 -0.12770419 -0.025521738 0.066451535 -0.05582925 0.07893263 -0.0055638775
-0.07855724 -0.0015918529 -0.041605778 -0.07173302 -0.11028914 0.08450133 -0.08725486 0.10522118
0.051793557 -0.12723102 0.008565124 -0.059784323 -0.1451488 0.07021059 -0.11085506 -0.14707744
-0.03818234 -0.18503115 -0.085298054 0.1057721 0.035691705 -0.03452699 0.012121431 -0.014127076
0.07211502 0.019584209 0.10264073 -0.038764995 -0.10085872 0.08402858 -0.11119655 0.07599239
0.057704434 -0.06570566 0.016957875 0.10770048 -0.09781814 0.016826993 0.114338346 0.01578393
0.013492427 0.14602667 -0.040095568 0.0057230014 -0.11222688 0.027649714 -0.092263624 -0.042934917
-0.12777437 0.082324415 0.06897387 -0.051903475 0.07957507 0.016651673 -0.15970248 0.0033617204
-0.08010811 0.05414356 0.06771695 0.09726406 0.048434056 0.10200947 -0.027687551 0.07991377

Q_net.linear2.bias f4 [50]
00000000: 3e40 bbbd 544d a63d b24b 7f3e 80a2 eabd
00000010: 2f25 8b3d 95d9 b2bd c302 513e f21a 183e
00000020: 612d c53d 4717 013e bbf3 593d 17f0 99bd
00000030: 7b90 98bc 4fa0 12be bf86 543d 6eb9 323d
00000040: 3bda 1c3d 2354 823d 9654 783c dfea 37bd
00000050: 2e01 4a3c ed22 0c3b 21ae c13d f7d1 293c
00000060: 9089 223c 9059 a43d 44e6 d93d a80f 113e
00000070: b0b5 d9bd 52f2 2bbe c8a7 093d 2cea 1cbe
00000080: f7e4 00be f89b 323e 2dc3 2b3e 24fb e83d
00000090: be6a f7bd bfac 11bd fac5 093d 65c7 ed3d
000000a0: db0b 7ebd 552f 353e c1bb 6c3c 294e 073e
000000b0: 7398 783d a9aa dabd 6332 723d 5a76 0bbe
000000c0: 9e53 83bd 064f 833d
-0.091431126 0.08120218 0.24931219 -0.11456776 0.067942016 -0.08732907 0.2041121 0.14854029
0.09627796 0.12606536 0.053210955 -0.07516497 -0.018623581 -0.14318965 0.051886316 0.04363387
0.03829406 0.06363704 0.015156886 -0.044901725 0.012329383 0.0021383122 0.094570406 0.010365001
0.009920493 0.08024895 0.10639623 0.14166129 -0.10630357 -0.16791657 0.033607274 -0.15323704
-0.12587343 0.1744231 0.16773672 0.11376026 -0.12080906 -0.035565134 0.03363607 0.11610297
-0.062023025 0.17693837 0.014449061 0.1321341 0.060692262 -0.10677082 0.059130084 -0.13619366
-0.06412433 0.06411557

Q_net.linear3.weight f4 [3, 50]
00000000: fab6 46bd d11f 38bd 9577 0d3e 9c82 ecbc
00000010: f0ed 023e e67e 2b3d 7857 623d a296 093e
00000020: 2b62 003e 9d9d 483e 93d6 09bd 940b 99bd
00000030: ee00 ae3d 5885 d5bd 99e5 583c 76da 593d
00000040: a2e7 d0bc 903d f63d 22ab 63bd 8fee d53d
00000050: 2876 6abc a756 b63a 2d86 e93d f0f1 e0bc
00000060: beb7 a23d bc1f b8bd 237f e23d 9f5a 9e3d
00000070: 9fc1 dc3d fd2c 1a3d 6b14 ac3d b157 d9bd
00000080: 1464 e9bc 9132 893c 74d8 58bd 94b6 d4bc
00000090: 710c 89bd d0b9 cf3d a352 b33d 3a54 fa3d
000000a0: d500 a4bc ae82 ec3d 48dc 97bd fb42 90bd
000000b0: 396d efbc 142a 7abd 12f3 60bd a0cc febc
000000c0: 4d8c 7a3d 0bfb 0c3d c9eb 9dbd 9895 dbbd
000000d0: 0465 113e fd2f 543d a361 66bd f91a 6e3d
000000e0: 4f7e 2e3e 54b4 c53c df42 88bd f54e 8a3d
000000f0: a4d1 953d d7ca b03d f3cb de3d 516c 4fbe
00000100: 825f debc 3231 743d 7709 ab3c 2540 3bbd
00000110: b530 963d add7 9bbd a219 b2bd 78fb e9bc
00000120: 2f7a b23d d696 8cbd bf04 cb3d ef45 6ebd
00000130: c87e 01bd ea7f 11be aa70 0abc 3872 a0bd
00000140: dcae c8bd ad88 8abd bde0 343d 6cc9 78bd
00000150: 64db c4bd 2ca6 3e3d efe0 043d 3e69 143e
00000160: db40 d13c 4088 eebb c5c0 2e3d 77ce 83bd
00000170: c9a6 2dbd 66f5 65ba e8b3 703d f83b 8c3d
00000180: 3c93 77bd 1215 f9bb 2092 adbd 3ced ef3d
00000190: 11f1 4ebd e311 db3b a573 ef3d 03c9 47bd
000001a0: f1c2 bbbd 54d3 f83c 869a 583d 806d bb3d
000001b0: 579c a73d ff83 1ebd d15c a43b 4767 22bd
000001c0: 3aa9 9dbd 067d c0bc 300d f8bd 5689 043d
000001d0: 25b6 1a3d 2c0d 1cbd b7ca bfbc 8821 453d
000001e0: 8b97 eb3b 31a8 82bc 91e3 c43d ca1c 27bd
000001f0: 4e23 eb3d e3e5 903d acb6 663d f90a 3ebe
00000200: 63fe 00be 3492 a2bd 6507 583d 98bf 993b
00000210: f9bf 48bd 5374 8f3d 7d0f d83d e719 9b3d
00000220: 0b3e e6bd 742c 063e 158d 193e 154c 7d3d
00000230: 0502 953d cdef b93d 4acc bf3d da27 d53d
00000240: 48a5 093e 2269 dabd 1e5f b7bd 0f8e bcbc
00000250: c81c 19bd f272 103d
-0.048514344 -0.044952217 0.13815148 -0.028870873 0.12786078 0.041869067 0.055259198 0.13436368
0.12537448 0.19591375 -0.0336519 -0.074729115 0.08496271 -0.10425824 0.013238334 0.053186856
-0.025501076 0.12023461 -0.055583127 0.10445892 -0.014310397 0.0013911322 0.11402545 -0.027459115
0.07945202 -0.08990428 0.11059406 0.07732128 0.10779118 0.03764056 0.08402332 -0.10612429
-0.028490104 0.016747745 -0.0529408 -0.025965966 -0.06691826 0.10142863 0.08755996 0.12223096
-0.020019928 0.11548363 -0.07415062 -0.070440255 -0.029226886 -0.061075285 -0.05491931 -0.031103432
0.061168958 0.0344191 -0.07710988 -0.10721892 0.1419869 0.051803578 -0.056245457 0.058131192
0.1704037 0.024133839 -0.0665338 0.06753341 0.073153764 0.08632439 0.10878744 -0.20256163
-0.027145151 0.05961723 0.020878537 -0.04571547 0.07333509 -0.07609496 -0.08696295 -0.028562292
0.08714711 -0.06864707 0.099130146 -0.058172163 -0.03161505 -0.14208952 -0.008449713 -0.078342855
-0.09798977 -0.0676435 0.04415964 -0.060738966 -0.09612158 0.046545193 0.032441076 0.14493272
0.02554362 -0.007279426 0.042664308 -0.064358644 -0.042395387 -0.0008772224 0.058765322 0.06847376
-0.060443148 -0.0076013887 -0.08475137 0.11715171 -0.050522868 0.006685482 0.11691979 -0.048775684
-0.091680415 0.030374207 0.05288174 0.09151745 0.08184116 -0.0387001 0.0050159474 -0.039649274
-0.07698293 -0.023497116 -0.1211189 0.032357536 0.037771363 -0.0380985 -0.023412092 0.04812768
0.007189696 -0.01594934 0.09613717 -0.04079894 0.11481343 0.070750974 0.056326553 -0.18558873
-0.12597041 -0.07938042 0.052741427 0.004692029 -0.049011204 0.07004609 0.10549829 0.075733
-0.112423025 0.13102895 0.14995225 0.061840136 0.07275776 0.090789415 0.09365137 0.10407992
0.13441956 -0.10664584 -0.08953689 -0.023016958 -0.037380964 0.03526587

Q_net.linear3.bias f4 [3]
00000000: ca6a b83d 6245 fb3d 4855 c53d
0.090047434 0.12269093 0.09635407

Target_Q_Net.linear1.weight f4 [50, 150]
00000000: 66eb ee3d 8475 573d 7642 753d 7f21 6f3c
00000010: f79a 013e 385d 363d 9190 593d 2e58 49bc
00000020: 3b02 f03d 6fa1 ccb9 bd74 9c3d eb51 453c
00000030: 6cfd 233e 519d 1b3e 5da9 233e 03f4 e63d
00000040: 1a7f ac3d cf67 7fbc 59ca bc3d c1e9 0bbd
00000050: 2bef 2d3c c66f ad3d 5386 be3d 7cee 103e
00000060: 7fb5 2f3e 8d37 4d3c 38d9 253d 9023 de3b
00000070: fcef 653d d768 72bc f7e7 bc3d 5fd2 883d
00000080: 4176 853d 5f80 bb3d 96d6 243e af43 193c
00000090: dcfc 1f3e 8ac3 8f3d 7dcf 9a3d d936 b83c
000000a0: 8d3c 083e ef4e 0f3e 7d72 b93c dc98 153e
000000b0: eab3 4a3e dc50 ca3d 6b36 0d3e b03c 903d
000000c0: 5bbe 0f3e 4841 6b3d 929a b23d d6a2 be3d
000000d0: d2d5 f23d ab9a 643a fe56 103d 7e1e feba
000000e0: f3e6 ef3d 944c 9a3d 332c a43d 87a5 1b3d
000000f0: 3bfc 4c3d 861d 443d 8274 373c b7c3 c03d
00000100: b044 903d ca2e 103c 86d1 913d 3173 83bd
00000110: ccf0 ca3c 0c3b 8d3d 408f ef3d aca1 bd3d
00000120: 5ea5 193d 4d8c 013d 5c4f ee3d 5c42 6c3c
00000130: 6354 13bd cdb1 91bd bb0a f639 e719 75bd
00000140: f1cd 093e 0a56 653d 84de 023d 6163 263d
00000150: d908 163e 9038 6c3c 1284 da3d 2736 02bc
00000160: 1404 253e 8552 903d 5e04 093e 864b ad3c
00000170: 41f9 0c3e bcfb fe3d 09c9 c13d c625 c2bd
00000180: 684d c2bb 39ad 673d 477c 9b3d 974b ebbc
00000190: 8d66 813d e892 b1bb 5f02 863a 4f32 d63d
000001a0: 8926 5e3d fbbd 2ebd 14a4 7f3b 0ba3 1e3c
000001b0: 8794 673d 2059 03bb 1dc0 f03d 6fb3 6a3d
000001c0: a36c 983d 81b2 023c 10bb 633d bbf2 49bc
000001d0: d833 633d 3b6e b23c 020c df3c 043f 0d3d
000001e0: 162b c43c 9378 ad3d 85d1 fd3d 8642 e83c
000001f0: d9a8 7f3d 215c 3ebd 1320 b93d 01b2 513d
00000200: 411b a93c 3359 953a bb17 173e 64c2 f93d
00000210: 994d 153e 7747 d43d 673e 1b3e f3d2 c0bc
00000220: 839d 8ebc f7f5 5c3d c21f 2b3d 61c5 4c3d
00000230: e09d ff3c 835d 9f3c ffb2 0e3e f7bb a33d
00000240: 0dcb 423e 8754 9fbc 3069 b23d 8a95 853d
00000250: 864b 043e a665 b33c 6edd 6bbe 3e5c ebbd
00000260: 70e3 03be 3668 01be 071c 67be 372f 38bc
00000270: 0f8e 8bbd df89 b73d b0cf e8bd b4b6 41bd
00000280: cd5a 69be 81f7 21be bc5e 3cbe 8e68 37be
00000290: 0ffe 60be 35ff 5dbd b130 893b 3902 27ba
000002a0: 5fce 20be bf2c a63d fc8b 58be 8c0b 3dbe
000002b0: baf5 58be e010 60be 8329 58be 5547 8a3c
000002c0: 320d 10bd 3754 48bd 750c debd ef0e 7f3d
000002d0: 3b4f e8bd 31c6 53be 1802 08be 6300 47be
000002e0: e2b1 09be d59c 65bd f1ef 073d c9bd b33c
000002f0: 8829 79be 8930 793d 7623 bbbd edb8 69be
00000300: 67ee 66be cb94 d1bd db21 4bbe ec64 2e3d
00000310: f5e6 92bd a359 6fbd 56e8 09be 2c02 7f3a
00000320: 17e4 49be ffe9 efbd 47d0 22be 6d64 5dbe
00000330: 286c 48be 10d0 563c b74b a93c 0b4b a03d
00000340: 50c2 d4bd 44c6 213c 0d16 66be 1b3a 2fbe
00000350: 1f26 30be 4bbf 24be cb9a c8bd 0a03 063c
00000360: 83da 423c fea5 57bc 0a9b 53be 689f 323d
00000370: 40b1 41be a9a6 04be 357a 44be 788c 4bbe
00000380: a796 fcbd 10cf 8a3d ed01 b9bc dd1c 7dbd
00000390: 81d9 74be 5f3a 943c e386 5bbe 43df d2bd
000003a0: e860 5dbe e41c 76be 41a6 46be 01e5 843d
000003b0: a8e7 1a3c a4ca 753d 8af7 13be 9edb a0bd
000003c0: 1a54 b8bd c6b4 c3bd 2e6f eabd ee22 68be
000003d0: b32a 15be 9bb0 ac3b fc06 42bb a5c4 863d
000003e0: ac7f bbbd f9b6 343d 9275 d9bd f587 d8bd
000003f0: 1eec 1dbe a75b 39be b4bc cabd 6f76 9c3d
0.116659924 0.052602306 0.059877835 0.014595388 0.1265677 0.044522494 0.053116385 -0.01228909
0.117191754 -0.0003903019 0.076394536 0.012043457 0.16014642 0.1519673 0.15982576 0.1127701
0.0842268 -0.015588715 0.09218282 -0.034158472 0.010616104 0.08468585 0.09302964 0.14153475
0.17159079 0.012525451 0.04049036 0.0067791417 0.05613707 -0.014795504 0.09223931 0.0668075
0.06516696 0.09155344 0.16097483 0.009354516 0.15623802 0.07019718 0.075591065 0.02248709
0.13304348 0.13994955 0.0226376 0.14609092 0.19795194 0.09878704 0.1379029 0.07042825
0.14037459 0.057435304 0.08720888 0.09308402 0.11857189 0.0008720557 0.035239212 -0.001938775
0.11713972 0.07534137 0.08016243 0.037999656 0.050045233 0.04787972 0.011197211 0.0941233
0.07044351 0.008800218 0.071200415 -0.064184554 0.024773024 0.06896028 0.11697245 0.09259352
0.037511222 0.031627942 0.1163623 0.014420118 -0.03596915 -0.07113991 0.0004692877 -0.059839156
0.13457467 0.055990256 0.03195049 0.04062212 0.14651813 0.014417782 0.10669722 -0.007947481
0.16114837 0.07046989 0.13380572 0.021154176 0.13766958 0.12450358 0.094621725 -0.09479861
-0.0059296377 0.056561682 0.075920634 -0.028722567 0.06318388 -0.005419124 0.0010224095 0.10458814
0.05423597 -0.04266165 0.003900771 0.009682427 0.05653813 -0.0020042136 0.11755393 0.057300027
0.07442596 0.007977129 0.05559832 -0.012325938 0.055469364 0.021781078 0.027227405 0.034483925
0.023946326 0.08470263 0.12393478 0.028352033 0.062416885 -0.04647458 0.09039321 0.05119515
0.020642878 0.0011394381 0.14755146 0.1219528 0.14580382 0.10365193 0.15160523 -0.023538088
-0.017409092 0.053945508 0.041778333 0.049992923 0.03120321 0.01945377 0.13935469 0.07994836
0.1902277 -0.019449485 0.08711469 0.06522663 0.12919435 0.021899056 -0.23033687 -0.11492203
-0.1287973 -0.1263741 -0.22569285 -0.011241726 -0.06814205 0.08961844 -0.11367738 -0.04729338
-0.22788544 -0.15817071 -0.18395513 -0.17910978 -0.21971916 -0.054198463 0.0041867127 -0.00063708756
-0.15703724 0.081140034 -0.2114715 -0.18461436 -0.21187487 -0.21881437 -0.21109585 0.016879717
-0.035168834 -0.04890844 -0.1084222 0.0622701 -0.11343237 -0.20681073 -0.13282049 -0.19433741
-0.13446763 -0.05605777 0.03318781 0.021941083 -0.24332249 0.060837302 -0.09137623 -0.2282445
-0.22551881 -0.10233458 -0.19837134 0.042576715 -0.07172958 -0.058435094 -0.13467535 0.00097278017
-0.19715916 -0.11714553 -0.15899764 -0.2162034 -0.19572508 0.013111129 0.020665986 0.07826813
-0.10388625 0.00987393 -0.22469349 -0.17112009 -0.17202042 -0.16088597 -0.097951494 0.0081794355
0.011892918 -0.013162134 -0.20664611 0.043609053 -0.18915272 -0.12954201 -0.19187243 -0.19877803
-0.12333422 0.06777775 -0.022583926 -0.061795104 -0.23911096 0.01809424 -0.21438174 -0.1029649
-0.21618998 -0.24034458 -0.19399358 0.064889915 0.009454645 0.060007706 -0.14449897 -0.07854389
-0.09000416 -0.09555964 -0.11446987 -0.22669575 -0.1456707 0.0052700764 -0.0029606214 0.06580476
-0.09155211 0.04411981 -0.10618128 -0.10572807 -0.15422103 -0.18101369 -0.098992735 0.07639777

Target_Q_Net.linear1.bias f4 [50]
00000000: 8cab 863d 13c6 aabd fbc2 d5bd 46c6 c13d
00000010: 4521 083e bf4b 8b3d 9f6a 89bd 3dec f2bd
00000020: 9105 2e3e 74fb 1a3e 75aa 2abb 1763 333d
00000030: 95b1 583d 7a8b 0abd 1493 a33d cdc0 0bbe
00000040: cb02 edbd 4b30 fc3d 9352 f6bd a908 98bd
00000050: d188 e83c 1ac1 2d3d 0720 c93d 5020 31bb
00000060: d7fa 553d fd74 c83d cb1a 433e f52e e13d
00000070: 12aa d8bd 680e 7b3d d1fd 873d 3f8c 6c3b
00000080: 842b 38bd 1133 b13d 7dc5 1c3d 822c 80bc
00000090: c598 5cbd ddb7 20bd 7a0f a83c 27ba a63d
000000a0: 151f 7fbd 470e e23d 319d 853d f4cb ec3d
000000b0: 769b 4dbd a329 eabb a1b7 a33d b135 353d
000000c0: d78b 2e3d 618b bd3c
0.06575689 -0.08338561 -0.1043758 0.09461646 0.13293941 0.06801557 -0.067097895 -0.11861465
0.16994311 0.15134984 -0.0026041542 0.04379567 0.05290373 -0.03382442 0.07987037 -0.13647766
-0.11572798 0.12313899 -0.120274685 -0.07423527 0.028385552 0.042420484 0.09820562 -0.0027027316
0.052241173 0.09787939 0.1905319 0.109952845 -0.10579313 0.061293036 0.066402085 0.0036094335
-0.044963375 0.08652318 0.038274277 -0.015646223 -0.05385663 -0.039237846 0.020515192 0.081409745
-0.0622855 0.110378794 0.065241225 0.115623385 -0.050197087 -0.0071460768 0.07994009 0.044240657
0.04261383 0.02313775

Target_Q_Net.linear2.weight f4 [50, 50]
00000000: f084 57bd ddcd 88bc 7042 d93a 7bb3 023e
00000010: 1616 203d 8961 653d 0fb9 093e 69fd 9abd
00000020: c2ec e7bb 525a 383e 9559 2abd 18e4 f9bd
00000030: c5f9 94be fc27 00be ee81 77bd 0302 cdbd
00000040: 46ae 00bd f3cc 7fbd 2ef7 ddbd 00a8 74bd
00000050: 4ab0 88bd 085d f8bd b8ff 35bd a2a1 3dbe
00000060: c51b 47be 7de2 c53d d377 073e 5b28 10be
00000070: a032 4dbe 182a b23c 5a55 a83d eae7 1b3e
00000080: d25c 8a3d 33e7 a63d dfe2 e1bd b1f3 973d
00000090: 361d 333d 7780 d5bd 5eec 543d 3f25 643e
000000a0: 2380 a3bd 2872 8fbc bd51 12bd b954 2c3d
000000b0: 9d03 4ebd 83d1 d1bd 1828 f6bd 0827 21be
000000c0: d54e 0c3d 94b2 07be 5184 e1bc 5680 8dbd
000000d0: 7168 5dbd 806f 9abd eaab c4bd 8083 1abd
000000e0: ab9d 303e 42df c43d f6ce e33d bcc0 c4bd
000000f0: 5918 5ebd 3b60 bc3a 29f3 ba3d e2b5 25bd
00000100: c0b6 58bd 4e23 aa3d c317 0c3d 8df2 82bd
00000110: 84c8 9fbd f898 e7bc cee3 6abd 8bcd d93d
00000120: 3898 7f3d 6f33 2abd 7b39 0c3c ea58 ac3c
00000130: de06 833d 6d13 45be 6bd3 d23c f9a6 44bd
00000140: 989d 383d 96c9 c4bc 88ff d7bd c5e1 9c3d
00000150: a6c0 543d 7099 fcbd 4a41 cabb 1082 36bd
00000160: e0e9 6f3d a033 503d 0133 b9bd 5b5f d4bd
00000170: e524 93bd 5048 873c df13 0ebe 2ef2 88bd
00000180: 855e 00bd ebdf 8e3d 4c8d 833d 739a d9bd
00000190: eed3 9f3c bb04 02be 6e1b d5bd 7ad3 80bc
000001a0: 1eff a13c c622 6d3d f61e 223e 4289 5fbd
000001b0: 1f6e 58bc 3f24 30bb d5db f53d 9620 dc3d
000001c0: 0bb8 7d3d 9fa5 0ebd 7d5f 29bd 1203 0dbc
000001d0: 61e1 443d a838 043e eccb 843d 069e 7e3d
000001e0: f66e 90bc 2a97 a23d 5d35 15be 384d 5d3e
000001f0: 7584 b6bd 5865 9cbd f680 53bd da7f ce3d
00000200: 6bf3 8abd c75b 21be 7d17 dfbd 8d7e 933d
00000210: d634 a4bc 9a48 61bd 2e51 e23d 4367 dc3d
00000220: 6c25 72bd bfdc 253d 81a2 193d 3ae0 0e3e
00000230: 0b46 dfbd cd41 0e3e fecb 93bd 74d2 603d
00000240: ab64 38be ddeb 1dbd f6cf 003d 4a09 8ebd
00000250: a183 94bd f8bf 2e3d 555a 62bc 93d4 9bbd
00000260: 16ec 3f3d 77c4 e5bd 679d c9bc cdff 08be
00000270: ef63 a2bd c876 ad3c 1ef5 c4bd 5ea6 a23d
00000280: 89b3 883d c3a9 bc3d 1552 d33c 9d6b c53d
00000290: 4dcd edbd eb6d f23b 4414 e73c eb19 d23d
000002a0: 9e78 883d 68dd ee3c 9ed1 593d 82d9 debd
000002b0: 66d5 ecbd daea 15be ba99 17bd d6f5 073e
000002c0: 0a3e e9bd 9257 023e fc5a 97bd f01b 50bd
000002d0: c983 6ebc 7478 e93d f917 11be ad5d e53c
000002e0: b1d8 fe3d 26d3 083e e3c4 02be f712 d1bc
000002f0: be17 883d 36ad 64bd 6ea7 a13d 3051 b6bb
00000300: 9ee2 a0bd b8a5 d0ba d26a 2abd c3e8 92bd
00000310: 46df e1bd 090f ad3d adb2 b2bd 347e d73d
00000320: 7b25 543d d948 02be bc54 0c3c 68e0 74bd
00000330: e3a1 14be 92ca 8f3d fa07 e3bd 789b 16be
00000340: 1665 1cbd ce78 3dbe bfb0 aebd 0b9f d83d
00000350: 7731 123d 2c6c 0dbd f798 463c 4075 67bc
00000360: 0ab1 933d 106f a03c 4e35 d23d 0bc8 1ebd
00000370: 048f cebd 2d17 ac3d 04bb e3bd e6a1 9b3d
00000380: 7c5b 6c3d b090 86bd 3eeb 8a3c 1292 dc3d
00000390: e154 c8bd c3d8 893c 392a ea3d 4d4d 813c
000003a0: 570f 5d3c 0488 153e 403b 24bd 0488 bb3b
000003b0: 35d7 e5bd a781 e23c b6f4 bcbd 86dc 2fbd
000003c0: 49d7 02be b499 a83d 2c42 8d3d bd98 54bd
000003d0: 41f8 a23d 1769 883c 0c89 23be 4f50 5c3b
000003e0: b90f a4bd a3c5 5d3d 2faf 8a3d 6132 c73d
000003f0: ca62 463d 57ea d03d 01d1 e2bc d5a9 a33d
-0.052617013 -0.016699726 0.0016575586 0.12763779 0.039083563 0.05600122 0.134495 -0.075678654
-0.0070777843 0.18003204 -0.04158934 -0.122017086 -0.2909681 -0.12515253 -0.060426645 -0.10010149
-0.0314162 -0.062451314 -0.108381614 -0.05973053 -0.066742495 -0.12127119 -0.044433326 -0.1851869
-0.19444187 0.0966234 0.13229303 -0.14077894 -0.20038843 0.021748587 0.082194045 0.15225187
0.06755985 0.081495665 -0.110296 0.07419527 0.04372903 -0.10424893 0.05198323 0.22279833
-0.079834245 -0.017510489 -0.035722483 0.042072985 -0.050296415 -0.10245039 -0.12019366 -0.15737545
0.034254868 -0.13251716 -0.027528914 -0.06909244 -0.05405468 -0.07540798 -0.096031025 -0.037723064
0.17247646 0.096128955 0.11123459 -0.09607074 -0.05422244 0.0014371941 0.0912841 -0.04045666
-0.05290866 0.08307515 0.03420235 -0.06393919 -0.07801917 -0.028271183 -0.057346158 0.10634907
0.062401026 -0.041552957 0.008558626 0.021038491 0.06397794 -0.19245692 0.025735578 -0.0480108
0.045072168 -0.024021905 -0.105467856 0.076602496 0.051941536 -0.123339534 -0.006172334 -0.04455763
0.05857265 0.050830483 -0.09042931 -0.1036975 -0.071847714 0.016513973 -0.13874768 -0.06686817
-0.03134014 0.06976303 0.064234346 -0.10625162 0.019510236 -0.12697117 -0.104056224 -0.01572584
0.01977497 0.05789449 0.15832123 -0.05457426 -0.013209849 -0.0026877073 0.1200482 0.10748403
0.061943095 -0.034825917 -0.04135083 -0.008606689 0.0480665 0.12912238 0.064842075 0.06216242
-0.017631035 0.079389885 -0.14571138 0.21611488 -0.08911983 -0.07636517 -0.05163666 0.100829795
-0.067847095 -0.15757667 -0.10893152 0.07201872 -0.020044725 -0.05500088 0.1105064 0.10761883
-0.05911772 0.040493723 0.03750849 0.13952723 -0.109020315 0.13892289 -0.07216643 0.054888204
-0.18007152 -0.038555015 0.031448327 -0.069353655 -0.07251669 0.042663544 -0.013815482 -0.07608905
0.04685601 -0.11219113 -0.024611188 -0.1337883 -0.07929217 0.021174803 -0.09617065 0.07941888
0.066748686 0.09212067 0.025795976 0.09639666 -0.11611424 0.007398357 0.028207906 0.1025885
0.06663631 0.02915831 0.053178422 -0.1088133 -0.1156414 -0.1464037 -0.03701184 0.13277373
-0.11388786 0.12728718 -0.07390401 -0.050807893 -0.014557787 0.11399928 -0.14169301 0.02799877
0.12443674 0.13361797 -0.12770419 -0.025521738 0.066451535 -0.05582925 0.07893263 -0.0055638775
-0.07855724 -0.0015918529 -0.041605778 -0.07173302 -0.11028914 0.08450133 -0.08725486 0.10522118
0.051793557 -0.12723102 0.008565124 -0.059784323 -0.1451488 0.07021059 -0.11085506 -0.14707744
-0.03818234 -0.18503115 -0.085298054 0.1057721 0.035691705 -0.03452699 0.012121431 -0.014127076
0.07211502 0.019584209 0.10264073 -0.038764995 -0.10085872 0.08402858 -0.11119655 0.07599239
0.057704434 -0.06570566 0.016957875 0.10770048 -0.09781814 0.016826993 0.114338346 0.01578393
0.013492427 0.14602667 -0.040095568 0.0057230014 -0.11222688 0.027649714 -0.092263624 -0.042934917
-0.12777437 0.082324415 0.06897387 -0.051903475 0.07957507 0.016651673 -0.15970248 0.0033617204
-0.08010811 0.05414356 0.06771695 0.09726406 0.048434056 0.10200947 -0.027687551 0.07991377

Target_Q_Net.linear2.bias f4 [50]
00000000: 3e40 bbbd 544d a63d b24b 7f3e 80a2 eabd
00000010: 2f25 8b3d 95d9 b2bd c302 513e f21a 183e
00000020: 612d c53d 4717 013e bbf3 593d 17f0 99bd
00000030: 7b90 98bc 4fa0 12be bf86 543d 6eb9 323d
00000040: 3bda 1c3d 2354 823d 9654 783c dfea 37bd
00000050: 2e01 4a3c ed22 0c3b 21ae c13d f7d1 293c
00000060: 9089 223c 9059 a43d 44e6 d93d a80f 113e
00000070: b0b5 d9bd 52f2 2bbe c8a7 093d 2cea 1cbe
00000080: f7e4 00be f89b 323e 2dc3 2b3e 24fb e83d
00000090: be6a f7bd bfac 11bd fac5 093d 65c7 ed3d
000000a0: db0b 7ebd 552f 353e c1bb 6c3c 294e 073e
000000b0: 7398 783d a9aa dabd 6332 723d 5a76 0bbe
000000c0: 9e53 83bd 064f 833d
-0.091431126 0.08120218 0.24931219 -0.11456776 0.067942016 -0.08732907 0.2041121 0.14854029
0.09627796 0.12606536 0.053210955 -0.07516497 -0.018623581 -0.14318965 0.051886316 0.04363387
0.03829406 0.06363704 0.015156886 -0.044901725 0.012329383 0.0021383122 0.094570406 0.010365001
0.009920493 0.08024895 0.10639623 0.14166129 -0.10630357 -0.16791657 0.033607274 -0.15323704
-0.12587343 0.1744231 0.16773672 0.11376026 -0.12080906 -0.035565134 0.03363607 0.11610297
-0.062023025 0.17693837 0.014449061 0.1321341 0.060692262 -0.10677082 0.059130084 -0.13619366
-0.06412433 0.06411557

Target_Q_Net.linear3.weight f4 [3, 50]
00000000: fab6 46bd d11f 38bd 9577 0d3e 9c82 ecbc
00000010: f0ed 023e e67e 2b3d 7857 623d a296 093e
00000020: 2b62 003e 9d9d 483e 93d6 09bd 940b 99bd
00000030: ee00 ae3d 5885 d5bd 99e5 583c 76da 593d
00000040: a2e7 d0bc 903d f63d 22ab 63bd 8fee d53d
00000050: 2876 6abc a756 b63a 2d86 e93d f0f1 e0bc
00000060: beb7 a23d bc1f b8bd 237f e23d 9f5a 9e3d
00000070: 9fc1 dc3d fd2c 1a3d 6b14 ac3d b157 d9bd
00000080: 1464 e9bc 9132 893c 74d8 58bd 94b6 d4bc
00000090: 710c 89bd d0b9 cf3d a352 b33d 3a54 fa3d
000000a0: d500 a4bc ae82 ec3d 48dc 97bd fb42 90bd
000000b0: 396d efbc 142a 7abd 12f3 60bd a0cc febc
000000c0: 4d8c 7a3d 0bfb 0c3d c9eb 9dbd 9895 dbbd
000000d0: 0465 113e fd2f 543d a361 66bd f91a 6e3d
000000e0: 4f7e 2e3e 54b4 c53c df42 88bd f54e 8a3d
000000f0: a4d1 953d d7ca b03d f3cb de3d 516c 4fbe
00000100: 825f debc 3231 743d 7709 ab3c 2540 3bbd
00000110: b530 963d add7 9bbd a219 b2bd 78fb e9bc
00000120: 2f7a b23d d696 8cbd bf04 cb3d ef45 6ebd
00000130: c87e 01bd ea7f 11be aa70 0abc 3872 a0bd
00000140: dcae c8bd ad88 8abd bde0 343d 6cc9 78bd
00000150: 64db c4bd 2ca6 3e3d efe0 043d 3e69 143e
00000160: db40 d13c 4088 eebb c5c0 2e3d 77ce 83bd
00000170: c9a6 2dbd 66f5 65ba e8b3 703d f83b 8c3d
00000180: 3c93 77bd 1215 f9bb 2092 adbd 3ced ef3d
00000190: 11f1 4ebd e311 db3b a573 ef3d 03c9 47bd
000001a0: f1c2 bbbd 54d3 f83c 869a 583d 806d bb3d
000001b0: 579c a73d ff83 1ebd d15c a43b 4767 22bd
000001c0: 3aa9 9dbd 067d c0bc 300d f8bd 5689 043d
000001d0: 25b6 1a3d 2c0d 1cbd b7ca bfbc 8821 453d
000001e0: 8b97 eb3b 31a8 82bc 91e3 c43d ca1c 27bd
000001f0: 4e23 eb3d e3e5 903d acb6 663d f90a 3ebe
00000200: 63fe 00be 3492 a2bd 6507 583d 98bf 993b
00000210: f9bf 48bd 5374 8f3d 7d0f d83d e719 9b3d
00000220: 0b3e e6bd 742c 063e 158d 193e 154c 7d3d
00000230: 0502 953d cdef b93d 4acc bf3d da27 d53d
00000240: 48a5 093e 2269 dabd 1e5f b7bd 0f8e bcbc
00000250: c81c 19bd f272 103d
-0.048514344 -0.044952217 0.13815148 -0.028870873 0.12786078 0.041869067 0.055259198 0.13436368
0.12537448 0.19591375 -0.0336519 -0.074729115 0.08496271 -0.10425824 0.013238334 0.053186856
-0.025501076 0.12023461 -0.055583127 0.10445892 -0.014310397 0.0013911322 0.11402545 -0.027459115
0.07945202 -0.08990428 0.11059406 0.07732128 0.10779118 0.03764056 0.08402332 -0.10612429
-0.028490104 0.016747745 -0.0529408 -0.025965966 -0.06691826 0.10142863 0.08755996 0.12223096
-0.020019928 0.11548363 -0.07415062 -0.070440255 -0.029226886 -0.061075285 -0.05491931 -0.031103432
0.061168958 0.0344191 -0.07710988 -0.10721892 0.1419869 0.051803578 -0.056245457 0.058131192
0.1704037 0.024133839 -0.0665338 0.06753341 0.073153764 0.08632439 0.10878744 -0.20256163
-0.027145151 0.05961723 0.020878537 -0.04571547 0.07333509 -0.07609496 -0.08696295 -0.028562292
0.08714711 -0.06864707 0.099130146 -0.058172163 -0.03161505 -0.14208952 -0.008449713 -0.078342855
-0.09798977 -0.0676435 0.04415964 -0.060738966 -0.09612158 0.046545193 0.032441076 0.14493272
0.02554362 -0.007279426 0.042664308 -0.064358644 -0.042395387 -0.0008772224 0.058765322 0.06847376
-0.060443148 -0.0076013887 -0.08475137 0.11715171 -0.050522868 0.006685482 0.11691979 -0.048775684
-0.091680415 0.030374207 0.05288174 0.09151745 0.08184116 -0.0387001 0.0050159474 -0.039649274
-0.07698293 -0.023497116 -0.1211189 0.032357536 0.037771363 -0.0380985 -0.023412092 0.04812768
0.007189696 -0.01594934 0.09613717 -0.04079894 0.11481343 0.070750974 0.056326553 -0.18558873
-0.12597041 -0.07938042 0.052741427 0.004692029 -0.049011204 0.07004609 0.10549829 0.075733
-0.112423025 0.13102895 0.14995225 0.061840136 0.07275776 0.090789415 0.09365137 0.10407992
0.13441956 -0.10664584 -0.08953689 -0.023016958 -0.037380964 0.03526587

Target_Q_Net.linear3.bias f4 [3]
00000000: ca6a b83d 6245 fb3d 4855 c53d
0.090047434 0.12269093 0.09635407
