Model/ILQN/result/DQN/agent_ddqn_600570_SH_0_5.pt (torch_old, 84180 bytes, 12 tensors)

Q_net.linear1.weight f4 [50, 150]
0	0xbdbbab98	-0.09163588
1	0xbc835a2b	-0.016034206
2	0xba39e69e	-0.00070915546
3	0x3b833712	0.0040043676
4	0x3ccc6b1e	0.024953421
5	0x3e38c0de	0.18042323
6	0x3dfdf2c5	0.1239982
7	0xbc34980a	-0.011022577
8	0x3d02d77a	0.031943776
9	0xbbf7a497	-0.0075574624
10	0xbd390a07	-0.04517558
11	0x3d39192c	0.04519002
12	0x3d27ed60	0.040997863
13	0xbdb67283	-0.0890856
14	0xbd02212d	-0.03176992
15	0x3deed9ac	0.11662611
16	0x3dfbef42	0.12301494
17	0xbd59973b	-0.05312274
18	0xbd5b14ea	-0.053486742
19	0x3d12d6a8	0.035849243
20	0xbd84cd31	-0.0648445
21	0x3bf4ab75	0.0074667283
22	0x3abd05bc	0.0014421265
23	0xbb34d307	-0.0027591602
24	0x3b7a470d	0.0038189322
25	0x3e02bc9f	0.12767266
26	0x3d2f34a2	0.042774804
27	0xbd1bd534	-0.038045123
28	0xbcf51da8	-0.029921368
29	0x3c6fc61e	0.014634637
30	0xbd02fa79	-0.03197715
31	0xbd1ac7b0	-0.037788093
32	0xbde760d8	-0.11297768
33	0xbd579e4d	-0.0526412
34	0xbdc2f86c	-0.09520039
35	0x3c81e98f	0.01585844
36	0xbb87ed13	-0.0041481345
37	0xbd10b185	-0.035325546
38	0xbde45f88	-0.11151034
39	0x3cfd1fb5	0.030898908
40	0xbd1c8c31	-0.038219634
41	0x3d217e72	0.03942723
42	0x3d0e22d4	0.034701183
43	0x3ccf86d2	0.025332842
44	0xbd4d5c02	-0.050136574
45	0xb8c86cde	-9.557021e-05
46	0xbd85acaa	-0.06527074
47	0xbb807c72	-0.003921085
48	0x3d2211e6	0.03956785
49	0xbd4ad3a9	-0.04951826
50	0xbce8dd5c	-0.028425865
51	0xbded76f4	-0.11594954
52	0xbd368790	-0.044562876
53	0xbddf9a41	-0.109180935
54	0x3ca25e28	0.019820288
55	0xbdebff20	-0.115232706
56	0xbc9988c4	-0.018741973
57	0xbd625ad0	-0.055262387
58	0xbdc5cf12	-0.09658636
59	0x3d8b49a6	0.06801157
60	0xbddd01eb	-0.107913814
61	0x3d1299e3	0.03579129
62	0xbb3b3dbf	-0.002857074
63	0x3c715207	0.0147290295
64	0x3c89a0a0	0.016800225
65	0x3d48d41c	0.04903041
66	0x3d7a317a	0.06108234
67	0xbd2da07a	-0.04238937
68	0x3d2ae3d0	0.041721165
69	0x3d0b63ce	0.034030728
70	0xbde6fe53	-0.11278977
71	0x3d39735b	0.045276027
72	0x3d0021f2	0.031282373
73	0xbce205d5	-0.027590672
74	0x3d89243c	0.06696364
75	0xbdab9393	-0.08377757
76	0x3c83f2ca	0.016106982
77	0x3c22c8c0	0.009935558
78	0x3c5de7bb	0.013544018
79	0xbb95858b	-0.0045630387
80	0xbd408114	-0.0469981
81	0xbd09cb1d	-0.03364097
82	0xbca1a7ae	-0.019733276
83	0xbd31ed7d	-0.043439377
84	0x3ae2ccf3	0.0017303511
85	0xbd095a2b	-0.033533257
86	0x3cc8215c	0.02442997
87	0xbd0ce740	-0.034400225
88	0xbd641e50	-0.05569297
89	0xbda0e0f9	-0.0785541
90	0xbbc106f8	-0.0058907233
91	0xbd243fb2	-0.040099807
92	0xbdc49a24	-0.095997125
93	0x3d0c7a81	0.034296516
94	0xbdab99c8	-0.08378941
95	0xbda626a4	-0.08112839
96	0x3d61513e	0.05500912
97	0x3dac2682	0.08405782
98	0xbd6aa023	-0.057281625
99	0xbc977c6b	-0.018491944
100	0xbd3d31bf	-0.04619002
101	0xbdccf430	-0.100075126
102	0xbd0f2491	-0.03494698
103	0xbdde4bed	-0.108543254
104	0xbc5884fb	-0.013215299
105	0x3d18e1dc	0.03732477
106	0x3d0e9f93	0.03482015
107	0xbd08a999	-0.033364866
108	0xbdb4f00b	-0.08834847
109	0x3ca0d3aa	0.01963218
110	0x3bf6fd95	0.0075375536
111	0xbd1b7c58	-0.03796038
112	0xbd7be61d	-0.06149875
113	0xbd5eb73d	-0.05437397
114	0xbdadf8fe	-0.08494757
115	0xbd2b0e27	-0.041761544
116	0x3b3e4124	0.0029030526
117	0xbd0d1a7c	-0.034449086
118	0xbd12d4f9	-0.035847638
119	0xbd0620ca	-0.032746114
120	0xbc1d3636	-0.009595444
121	0xbda198fb	-0.07890507
122	0xbdb6e1f1	-0.08929814
123	0xbcef4331	-0.029206844
124	0x3d930e65	0.0718048
125	0x3ce3a896	0.027790349
126	0x3c83227a	0.01600765
127	0x3cb6375a	0.02224319
128	0xbd544aea	-0.051829256
129	0xbd6f48af	-0.058418926
130	0xbdc4fceb	-0.09618553
131	0xbd84d59f	-0.064860575
132	0xbcd198ff	-0.02558565
133	0xbdd0e1c8	-0.10199314
134	0x3d4206c9	0.047369752
135	0x3d6e0672	0.058111615
136	0x3e21c884	0.15799147
137	0x3d5b1992	0.053491183
138	0x3b817e98	0.0039518587
139	0xbd1a24dd	-0.03763281
140	0xbd471d34	-0.048611835
141	0xbbde758e	-0.006788916
142	0xbc427084	-0.011867646
143	0xbd73d4cd	-0.059529115
144	0x3c7e51b9	0.015522414
145	0x3e1eff33	0.15527038
146	0x3e823a58	0.25435138
147	0x3cf0a66f	0.029376237
148	0x3d474926	0.048653744
149	0x3ddfab19	0.10921306
150	0x3da6cadf	0.08144163
151	0xbc553770	-0.013013706
152	0x3d843f09	0.064573355
153	0xbbfbcafe	-0.0076841107
154	0x3de5d59d	0.11222384
155	0x3ddf5b9d	0.10906146
156	0xbc36d140	-0.0111582875
157	0xbd8d4ed5	-0.06899802
158	0x3b975c67	0.0046191695
159	0x3d98e6b8	0.07465881
160	0xbd517b76	-0.051143132
161	0x3d603b9d	0.05474435
162	0x3daf9f9e	0.085753664
163	0x3d5b0b5b	0.053477626
164	0x3e01ebc0	0.12687588
165	0x3d9d740f	0.07688152
166	0x3c2198a3	0.009863052
167	0x3d9d0585	0.076670684
168	0x3d65e73a	0.056128718
169	0x3d1a9d11	0.037747446
170	0x3db2047f	0.08692264
171	0x3d9fd5dc	0.07804462
172	0x3d864ddf	0.065578215
173	0xbcaf110c	-0.021370433
174	0x3cc49c69	0.024000363
175	0x3cb4b73e	0.022060033
176	0x3bd7ddc1	0.0065877144
177	0xbd5d04e7	-0.053959753
178	0xbd4b3f8d	-0.049621154
179	0x3d12b5e6	0.035818003
180	0x3beafaaa	0.0071709948
181	0x3d825a28	0.06364852
182	0x3db6c42f	0.08924138
183	0x3db6a687	0.08918481
184	0x3e00bcdc	0.12572044
185	0xbdbe0a57	-0.09279316
186	0xbe007de0	-0.12548018
187	0xbbf97040	-0.007612258
188	0xbcd7a30f	-0.02632287
189	0xbcfb2c98	-0.030660912
190	0x3cb1bdb8	0.02169691
191	0x3c1b7c90	0.009490147
192	0x3d8e2a50	0.06941664
193	0xbcaa1628	-0.020762518
194	0x3d6cc412	0.057804175
195	0xbd0f1d90	-0.034940302
196	0xbe1d92ef	-0.15388082
197	0xbd268c8c	-0.04066138
198	0x3d8a57e2	0.067550436
199	0xbd3ea593	-0.046544623
200	0xbce8df91	-0.028426917
201	0x3d282a3d	0.041055907
202	0xbcb902d8	-0.022584364
203	0xbcfdf28a	-0.03099944
204	0x3aaf0548	0.0013353014
205	0xbd29c98b	-0.041451972
206	0xbc3eb1b9	-0.011639052
207	0x3d7d32d1	0.06181604
208	0xbd0f5c3a	-0.035000063
209	0xbbe271db	-0.0069105453
210	0xbc8c1b4a	-0.017102856
211	0x3dbbe3d2	0.09174313
212	0x3c3c1f06	0.011482006
213	0xbc985847	-0.018596781
214	0x3dc2866e	0.09498297
215	0x3cc43ba3	0.023954218
216	0x3d58ba00	0.05291176
217	0x3d9dfeee	0.077146396
218	0x3dbb71cc	0.091525644
219	0xbc872bea	-0.016500432
220	0xbd70a02e	-0.05874651
221	0x3d4a532e	0.049395733
222	0x3d8de2b8	0.06928009
223	0x3db5cf9e	0.088774905
224	0x3e14240f	0.1446688
225	0xbd9a16ad	-0.07523856
226	0xbce1d3a7	-0.027566744
227	0xbd5e0682	-0.054205425
228	0xbc32b0f7	-0.0109064495
229	0x3bea6fdb	0.0071544475
230	0x3d4fb54e	0.050710015
231	0xb96585b3	-0.00021888949
232	0xbce98a72	-0.028508399
233	0x3d8f743a	0.0700459
234	0x3d93e4fc	0.0722141
235	0x3c0649db	0.008196319
236	0x3d376b14	0.044779852
237	0xbcbc7987	-0.023007168
238	0x3d60e54f	0.054906186
239	0xbdbd2b31	-0.09236754
240	0x3d3592da	0.0443295
241	0xbd5ea533	-0.054356765
242	0xbc8137a5	-0.015773604
243	0x3d8f59dc	0.06999561
244	0x3d7b7662	0.061392196
245	0xbcec7365	-0.028863618
246	0xbd2feec6	-0.04295232
247	0xbd7d04b7	-0.061772075
248	0x3cde17a5	0.027110884
249	0xbd404053	-0.046936344
250	0xbd2765cd	-0.04086857
251	0x3d9ce41f	0.07660698
252	0x3c67a90c	0.014139425
253	0x3bf11c92	0.007358142
254	0x3dcb5ee8	0.09930211
255	0x3d8673bc	0.06565043

Q_net.linear1.bias f4 [50]
0	0xbd81f156	-0.06344859
1	0x3d7301da	0.059327938
2	0xbcfd9195	-0.030953208
3	0x3d245bd0	0.04012662
4	0x3e1932dd	0.14960809
5	0xbceea4a8	-0.029131249
6	0x3de88a3d	0.11354492
7	0xbda58c9c	-0.0808346
8	0xbd8a4e39	-0.06753201
9	0x3dbbc19f	0.0916779
10	0x3cce8676	0.0252106
11	0xbbdf53b4	-0.006815398
12	0xbdbb61cc	-0.09149513
13	0x3dec2a62	0.115315214
14	0xbcafeb3f	-0.021474479
15	0x3d2de8b1	0.04245824
16	0xbd828daa	-0.063746765
17	0x3d3a22d1	0.04544336
18	0x3cb84e15	0.02249817
19	0x3d707cdb	0.05871282
20	0xbdc10f5c	-0.09426758
21	0x3d348511	0.044072215
22	0x3d587936	0.05284997
23	0x3da115e4	0.078655034
24	0x3dc087f3	0.0940093
25	0x3d89fdcd	0.06737862
26	0xbc974881	-0.01846719
27	0x3d8fd01d	0.07022116
28	0xb7eb7f80	-2.8073555e-05
29	0x3b9ef698	0.0048511736
30	0x3db5ad0b	0.08870896
31	0xbd290cf6	-0.041272126
32	0x3dbdbcbb	0.09264513
33	0x3e233556	0.15938315
34	0xbde94bf2	-0.113914385
35	0xbd403aab	-0.04693095
36	0x3c25c4dc	0.010117736
37	0xbbd878e1	-0.0066062068
38	0xbc406264	-0.011742208
39	0xbd1d34bc	-0.03838037
40	0x3d2d8ea1	0.04237235
41	0xbdc8a5f6	-0.097972795
42	0x3cfa9aec	0.03059145
43	0x3de55653	0.11198106
44	0x3e3ca07f	0.184206
45	0x3e1036e1	0.14083435
46	0xbd2225b4	-0.039586738
47	0x3c9ee98a	0.01939847
48	0xbda18b09	-0.07887847
49	0xbd417b56	-0.047236763

Q_net.linear2.weight f4 [50, 50]
0	0xbdfb276b	-0.12263378
1	0xbded76ad	-0.11594901
2	0x3de39b60	0.1111362
3	0xbda8a904	-0.08235362
4	0x3c8c47f1	0.017124148
5	0x3dd532e3	0.104100965
6	0xbdd84cd3	-0.10561528
7	0x3d631070	0.055435598
8	0x3dec5df4	0.11541358
9	0x3dcc0ae9	0.099630184
10	0xbdab178a	-0.08354099
11	0x3de717dc	0.11283848
12	0x3c1c95b6	0.009557178
13	0xbd2d49c0	-0.04230666
14	0xbd0b82c8	-0.03406027
15	0xbcc46dd7	-0.023978157
16	0xbd3be4c8	-0.04587248
17	0xbe095f51	-0.13415267
18	0x3db0ead2	0.086385384
19	0x3da50315	0.080572285
20	0xbd1f8db8	-0.038953513
21	0x3e1263e8	0.14295924
22	0x3e0993fa	0.13435355
23	0x3cf93195	0.03041915
24	0x3d9dfe73	0.07714548
25	0xbc1260d3	-0.0089342175
26	0x3b46b4fd	0.003032028
27	0xbccd938a	-0.025094766
28	0xbd545deb	-0.05184738
29	0x3d87a845	0.06623892
30	0xbdffc2d9	-0.12488336
31	0x3db21fb1	0.08697451
32	0x3dd68e56	0.10476367
33	0x3df27976	0.11839573
34	0xbd5a4f9e	-0.053298585
35	0x3dd1725f	0.10226893
36	0x3e00d554	0.12581378
37	0xbdc0fd83	-0.094233535
38	0x3d8c5d52	0.06853737
39	0x3d48e2ab	0.049044292
40	0x3e3fdaa3	0.18735747
41	0x3e014f9e	0.12628028
42	0x3de1cfb0	0.11025941
43	0xbd465143	-0.04841734
44	0x3bb07685	0.0053852224
45	0x3cbf45e7	0.023348762
46	0xbde96646	-0.1139646
47	0x3ce3fad6	0.027829569
48	0xbe1ae236	-0.15125355
49	0x3c29c6b2	0.010362314
50	0x3d8e38f6	0.06944458
51	0x3bacdacc	0.005275106
52	0xbc4eefb1	-0.012630389
53	0x3c9d9e30	0.019240469
54	0x3da7f19d	0.08200381
55	0x3ca2cdbc	0.019873492
56	0xbd4ba8f0	-0.04972166
57	0xbdcf3767	-0.10117989
58	0x3dba4087	0.09094339
59	0x3d210662	0.039312728
60	0xbd47876f	-0.048713144
61	0xbdbe1904	-0.09282115
62	0x3d93c01d	0.07214377
63	0xbc0441d0	-0.008072332
64	0x3dd36acf	0.103231065
65	0xbb9201ac	-0.0044557657
66	0x3e0f4cc0	0.13994122
67	0xbd2bade9	-0.0419139
68	0xbd802c0d	-0.06258402
69	0xbdb04d58	-0.08608502
70	0xbc0f3c31	-0.008742378
71	0xbd914282	-0.070927635
72	0x3bf6e633	0.007534766
73	0xbc845cb7	-0.016157491
74	0xbdb457f3	-0.088058375
75	0x3ddecfc1	0.1087947
76	0x3d8c80c5	0.06860498
77	0xbd26e6b1	-0.04074735
78	0x3daf2a60	0.08553004
79	0xbdd254a2	-0.10270049
80	0xbddf6af8	-0.109090745
81	0xbb28d5f8	-0.00257623
82	0x3dcb3842	0.0992284
83	0x3df650f4	0.12027159
84	0x3e19b3c8	0.15009987
85	0xbd159b4e	-0.036525063
86	0xbd7d398d	-0.061822463
87	0xbde18121	-0.110109575
88	0x3e1276da	0.14303151
89	0x3d648621	0.055791978
90	0xbc6b9ed9	-0.014381134
91	0x3d1db868	0.03850594
92	0xbde03659	-0.10947866
93	0x3e0404c1	0.12892438
94	0xbd2b5836	-0.04183217
95	0xbd9c501d	-0.07632468
96	0xbdaed9a7	-0.08537608
97	0x3dbeea8a	0.093220785
98	0xbc2231df	-0.0098995855
99	0x3dcd91ee	0.100375995
100	0xbd305baa	-0.043056168
101	0xbd3c9cb4	-0.04604788
102	0x3d7acd11	0.061230723
103	0x3dc46dc0	0.09591246
104	0x3e3f93e1	0.18708755
105	0x3da39a50	0.07988417
106	0x3d948a43	0.07252934
107	0x3d00e0a7	0.031464245
108	0xbdb54726	-0.08851461
109	0x3dd9af39	0.10629124
110	0xbcee0ced	-0.029058898
111	0x3de99c17	0.11406725
112	0xbcd769b1	-0.026295515
113	0x3e2049e9	0.15653194
114	0x3de14561	0.10999561
115	0x3d88abd8	0.066734016
116	0x3b3d2e5c	0.0028866744
117	0xbceaa063	-0.028640931
118	0x3c5ccfeb	0.013477306
119	0xbd0b885d	-0.034065593
120	0xbd44f829	-0.048088226
121	0xbc1c8c18	-0.009554885
122	0x3e0fa1ec	0.14026612
123	0xbdf98fad	-0.12185607
124	0x3cc0ee11	0.023551019
125	0xbcee800d	-0.029113794
126	0xbd823858	-0.06358403
127	0x3e25abe6	0.16178855
128	0x3d170090	0.03686577
129	0x3c69834b	0.014252494
130	0x3c063f31	0.008193777
131	0xbe1fa5fc	-0.15590662
132	0x3d774b90	0.060374796
133	0xb85c4117	-5.2512707e-05
134	0x3dc90b6b	0.09816631
135	0x3dffaf2b	0.124845825
136	0x3dd29435	0.102821745
137	0xbc8b6336	-0.01701508
138	0x3c82e1b5	0.015976766
139	0xbcf05916	-0.029339354
140	0x3d76e0ef	0.060273107
141	0xbcdeeae2	-0.02721161
142	0x3d2f4bd0	0.04279691
143	0x3dc2bc3f	0.09508561
144	0x3d105de0	0.035245776
145	0x3dda1ca3	0.10649993
146	0x3dee056d	0.11622129
147	0xbddf4a31	-0.10902823
148	0x3c676b61	0.014124722
149	0x3de05a48	0.1095472
150	0x3d78fe25	0.060789246
151	0x3d829aca	0.0637718
152	0xbdfecb73	-0.124411486
153	0xbdb5ddab	-0.088801704
154	0xbd525255	-0.05134805
155	0x3c4eddc6	0.012626117
156	0x3cca5af5	0.024701575
157	0x3e06c796	0.13162073
158	0x3ad4dbd3	0.0016239829
159	0x3dc9f9a1	0.09862066
160	0x3cdc728a	0.026910085
161	0xbc512977	-0.012766234
162	0xbe10c475	-0.14137442
163	0x3deaad56	0.114588425
164	0x3da3b828	0.079941094
165	0x3d4225fb	0.047399502
166	0x3e09e27d	0.13465305
167	0x3d9ca21f	0.0764811
168	0x3d6c3044	0.057663217
169	0x3d575c4e	0.052578263
170	0x3da9e108	0.082948744
171	0xbd1567bf	-0.036475893
172	0xbd4798a5	-0.048729558
173	0xbd9591c5	-0.07303194
174	0xbdd54fb2	-0.10415591
175	0x3e0e7e9a	0.13915482
176	0xbdb3c1c2	-0.08777191
177	0x3e065179	0.13117017
178	0xbd947ab7	-0.072499685
179	0xbd279d11	-0.040921275
180	0x3d9f405a	0.07775946
181	0x3d5f41e1	0.054506186
182	0x3dd04419	0.101692386
183	0x3def386c	0.116806835
184	0x3dcf045c	0.10108253
185	0x3dee0eca	0.116239145
186	0xbdbca551	-0.09211219
187	0x3db67257	0.08908527
188	0x3d2ecf0e	0.04267793
189	0xbd32f450	-0.043690026
190	0x3e5076c0	0.203578
191	0xbbbff48a	-0.0058580087
192	0x3c7c9649	0.01541669
193	0x3df011d4	0.117221504
194	0xbce2a2f6	-0.027665596
195	0x3ca40f46	0.020026814
196	0xbdd038c8	-0.1016708
197	0xbd6a8061	-0.057251338
198	0xbd81e4a4	-0.06342438
199	0x3e0b12e6	0.13581428
200	0x3dc0ba30	0.094105124
201	0xbc299c4e	-0.010352207
202	0xbe1ff7fe	-0.15621945
203	0xbe54f8b6	-0.20798
204	0x3c21de76	0.009879699
205	0x3db8d8cf	0.09025728
206	0x3d05a76b	0.032630365
207	0xbe0fd547	-0.14046203
208	0x3d8a7888	0.06761271
209	0xbdbc162d	-0.09183917
210	0x3daca54d	0.08429966
211	0xbc897cfe	-0.016783234
212	0x3decc2f8	0.11560625
213	0xbcf17c33	-0.029478168
214	0xbc16a1f6	-0.009193888
215	0xbe0e88b8	-0.13919342
216	0xbc13fdf1	-0.009032712
217	0xbd6c398e	-0.057672076
218	0xbc1d0f27	-0.009586132
219	0xbd3fecf8	-0.04685685
220	0xbd57ab48	-0.05265358
221	0xbdbbd1ee	-0.091709
222	0xbd4e5ef6	-0.05038353
223	0xbd2839ab	-0.04107062
224	0x3d5c0334	0.053713992
225	0xbdf473da	-0.119361594
226	0xbdf8aa95	-0.12141911
227	0x3ccd0e2d	0.025031174
228	0x3d85fe4b	0.06542643
229	0x3d150aee	0.036387376
230	0xbd26dbd1	-0.040736977
231	0x3ca3bc22	0.01998717
232	0x3d8e0535	0.06934587
233	0x3dd8c5a5	0.10584573
234	0xbdcc2c97	-0.09969442
235	0xbd591dde	-0.053007
236	0x3c816505	0.01579524
237	0x3cd12db9	0.025534498
238	0xbd319966	-0.043359183
239	0x3dadb46a	0.08481677
240	0xbe21b806	-0.15792856
241	0x3e04b84f	0.12960933
242	0xbd041b3e	-0.032252543
243	0x3cd19999	0.025585936
244	0xbda2ceef	-0.07949626
245	0xbd003252	-0.03129799
246	0x3ddde9d5	0.108356155
247	0xbd2ee982	-0.04270316
248	0xbdb6dd8d	-0.08928976
249	0x3ba0748b	0.0048967055
250	0x3ca856c8	0.020549193
251	0xbd183bde	-0.03716647
252	0xbca01234	-0.01953993
253	0xbd92c93b	-0.07167288
254	0xbd54ba7e	-0.051935665
255	0x3e158c58	0.14604318

Q_net.linear2.bias f4 [50]
0	0x3acc2997	0.001557636
1	0x3d808ac9	0.06276471
2	0xbd1c706d	-0.038193155
3	0xbd3df729	-0.04637829
4	0xbdeb9747	-0.11503463
5	0x3e0f17c7	0.13973914
6	0x3d938dbd	0.07204769
7	0xbbe2d84c	-0.0069227573
8	0xbdab804e	-0.083740816
9	0xbe403445	-0.18769939
10	0x3d3993cf	0.045306977
11	0xbd32c765	-0.04364719
12	0x3d29db30	0.0414688
13	0xbdbf9235	-0.09354059
14	0x3dd4ba28	0.10387069
15	0x3d63df27	0.055632737
16	0x3d939a31	0.07207144
17	0xbe011db2	-0.12608984
18	0x3cf5f888	0.030025735
19	0xbd9645fb	-0.073375665
20	0x3bbcea7c	0.0057652574
21	0xbd9db4c6	-0.077004954
22	0x3dad0d0c	0.08449754
23	0xbe064941	-0.13113882
24	0xbd791d11	-0.060818736
25	0xbdc1c37a	-0.09461112
26	0xbde21a25	-0.11040143
27	0x3d9f786a	0.07786639
28	0x3df8e566	0.12153129
29	0xbc8fb734	-0.017543413
30	0x3e1db771	0.15402009
31	0x3e03d495	0.12874062
32	0xbe30c401	-0.1726227
33	0xbe159758	-0.14608514
34	0x3d6d01c1	0.057863
35	0x3e0ce84c	0.13760489
36	0x3d9660cd	0.07342682
37	0x3dbabf22	0.09118487
38	0x3dd85619	0.10563297
39	0x3dacb567	0.08433037
40	0x3db68096	0.089112446
41	0x3d9309cf	0.07179605
42	0xbdc510d9	-0.09622354
43	0xbd783a36	-0.06060239
44	0x3cda2d5f	0.026632963
45	0x3e3a0e90	0.18169618
46	0x3d043f54	0.032286957
47	0x3dfdd2d1	0.12393726
48	0x3e175d38	0.14781654
49	0xbcb6b9c8	-0.022305384

Q_net.linear3.weight f4 [3, 50]
0	0x3d97ef8c	0.07418737
1	0xbdba407b	-0.0909433
2	0x3e389c14	0.18028289
3	0x3de687ac	0.11256346
4	0x3d4f075f	0.05054414
5	0x3d98eeed	0.074674465
6	0x3ce7c6b3	0.02829299
7	0x3e10fbe1	0.14158584
8	0xbd8c9d25	-0.068659104
9	0xbd732613	-0.059362482
10	0xbdff08a0	-0.12452817
11	0x3d7598b1	0.05996007
12	0xbd2af5d4	-0.041738346
13	0x3dc3295a	0.095293716
14	0xbcb326b0	-0.021869034
15	0x3d1d3775	0.038382966
16	0xbcf0db4f	-0.02940145
17	0xbc87fca2	-0.016599957
18	0x3c7efebc	0.015563663
19	0xbdad795d	-0.08470414
20	0xbd64f01a	-0.05589304
21	0x3a055556	0.00050862634
22	0x3d2c1a32	0.04201717
23	0xbd66301e	-0.056198232
24	0xbdeb5d19	-0.11492366
25	0xbdc91c47	-0.098198466
26	0x3bd14d3b	0.0063873804
27	0xbe0eef8c	-0.13958567
28	0x3de7564c	0.11295757
29	0x3dee0406	0.11621861
30	0x3cd9a1a0	0.026566327
31	0xbdafdb84	-0.08586791
32	0xbe112c59	-0.14177074
33	0xbac5bcba	-0.0015086152
34	0xbdaf01e7	-0.08545285
35	0x3e0d18c9	0.13778986
36	0x3e060760	0.13088751
37	0x3da3faeb	0.08006843
38	0x3e16741e	0.14692733
39	0x3c20d02a	0.009815255
40	0x3e0742d3	0.13209085
41	0x3d8435e5	0.06455592
42	0x3dbf3146	0.0933557
43	0xbe647092	-0.22308567
44	0x3e03c571	0.12868287
45	0x3d573d23	0.05254854
46	0xbc9ac7e4	-0.018894143
47	0xbbd49349	-0.0064872843
48	0x3db5eaad	0.088826515
49	0x3d683540	0.05669141
50	0x3d608684	0.054815784
51	0x3dcb1000	0.09915161
52	0x3ca131e5	0.019677112
53	0x3daaf2a0	0.08347058
54	0xbd9ef644	-0.07761815
55	0x3e0c01d3	0.13672571
56	0xbd87437b	-0.06604668
57	0xbd75d368	-0.060016066
58	0x3d39c931	0.045357887
59	0x3d1debe3	0.038555037
60	0x3dea840b	0.114509664
61	0x3d4a444d	0.049381543
62	0xbd8fcce4	-0.07021502
63	0xbda90cab	-0.08254369
64	0xbdf48675	-0.11939708
65	0x3dcb4e2b	0.09927019
66	0xbd2780ca	-0.040894307
67	0x3d079b78	0.03310725
68	0x3c50a358	0.012734257
69	0x3c0ea091	0.008705274
70	0xbe500d37	-0.20317541
71	0xbcfbad24	-0.030722208
72	0xbd1c0f51	-0.038100544
73	0x3cd6ded6	0.026229303
74	0x3da544f0	0.080697894
75	0x3db511e1	0.08841301
76	0xbdb0dc95	-0.08635823
77	0xbe0b0774	-0.13577062
78	0xbdb3f934	-0.08787766
79	0x3b24ee20	0.0025166348
80	0x3de89e89	0.11358363
81	0xbd9dcba2	-0.077048555
82	0x3da82e5e	0.08211969
83	0x3cc05047	0.02347578
84	0x3d9ad38d	0.07559881
85	0x3decff68	0.115721524
86	0xbd6b9f84	-0.057525173
87	0x3e172e40	0.14763737
88	0x3df12e6b	0.11776432
89	0x3da3b998	0.079943836
90	0xbcc9eb6b	-0.024648389
91	0x3d0e4d01	0.034741405
92	0x3dd52b41	0.10408641
93	0x3df52926	0.11970739
94	0x3ca88665	0.020571897
95	0x3c657cbd	0.014006791
96	0xbe1080ff	-0.14111708
97	0xbd89edfe	-0.067348465
98	0xbdbc18b9	-0.09184403
99	0x3e02b78c	0.1276533
100	0xbb119d06	-0.0022218837
101	0x3c290a0d	0.010317338
102	0x3ce846bc	0.028354041
103	0xbd6f4f89	-0.05842546
104	0xbe31a1d7	-0.17346893
105	0x3cf24a51	0.029576452
106	0x3d68ba49	0.05681828
107	0xbd20bcd6	-0.039242588
108	0x3c9ba24c	0.018998288
109	0x3e3a8b43	0.18217187
110	0x3c76e5f9	0.015069478
111	0x3b8e0592	0.00433416
112	0x3d8355d5	0.064128555
113	0xbd6b3c29	-0.05743042
114	0xbd1a5f08	-0.037688285
115	0x3ca0ed92	0.019644532
116	0x3dcf5254	0.10123125
117	0xbdcf98cf	-0.10136568
118	0xbdc8ce7e	-0.0980501
119	0x3e212fdd	0.15740915
120	0x3df47f94	0.11938396
121	0xbd444f62	-0.047927268
122	0xbe022232	-0.12708357
123	0x3d7970a4	0.060898438
124	0x3e8e9a3e	0.27852052
125	0x3db7ffbb	0.089843236
126	0xbd85a518	-0.0652563
127	0xbd385057	-0.044998493
128	0xbd02d1c8	-0.031938344
129	0x3d94f575	0.0727338
130	0x3e468e7a	0.19390288
131	0xbc880e4e	-0.016608384
132	0x3dc82cf7	0.09774201
133	0xbe0d57be	-0.13803002
134	0x3d20c72a	0.039252438
135	0x3da668a0	0.081254244
136	0x3dc82507	0.097726874
137	0x3e1af66f	0.1513307
138	0x3d328176	0.043580495
139	0x3e1082a0	0.1411233
140	0x3dc9aed6	0.098478004
141	0x3e06b1cc	0.13153762
142	0x3c932f99	0.017967032
143	0x3dd012ea	0.101598576
144	0x3e0f9fab	0.14025752
145	0x3deb21ed	0.1148108
146	0xbda8500c	-0.08218393
147	0xbc78119b	-0.015140916
148	0x3dd1a9ea	0.10237487
149	0xbd99b30c	-0.075048536

Q_net.linear3.bias f4 [3]
0	0x3d93ef4e	0.07223378
1	0x3e0e9906	0.13925561
2	0x3bfd7413	0.0077347844

Target_Q_Net.linear1.weight f4 [50, 150]
0	0xbdbbab98	-0.09163588
1	0xbc835a2b	-0.016034206
2	0xba39e69e	-0.00070915546
3	0x3b833712	0.0040043676
4	0x3ccc6b1e	0.024953421
5	0x3e38c0de	0.18042323
6	0x3dfdf2c5	0.1239982
7	0xbc34980a	-0.011022577
8	0x3d02d77a	0.031943776
9	0xbbf7a497	-0.0075574624
10	0xbd390a07	-0.04517558
11	0x3d39192c	0.04519002
12	0x3d27ed60	0.040997863
13	0xbdb67283	-0.0890856
14	0xbd02212d	-0.03176992
15	0x3deed9ac	0.11662611
16	0x3dfbef42	0.12301494
17	0xbd59973b	-0.05312274
18	0xbd5b14ea	-0.053486742
19	0x3d12d6a8	0.035849243
20	0xbd84cd31	-0.0648445
21	0x3bf4ab75	0.0074667283
22	0x3abd05bc	0.0014421265
23	0xbb34d307	-0.0027591602
24	0x3b7a470d	0.0038189322
25	0x3e02bc9f	0.12767266
26	0x3d2f34a2	0.042774804
27	0xbd1bd534	-0.038045123
28	0xbcf51da8	-0.029921368
29	0x3c6fc61e	0.014634637
30	0xbd02fa79	-0.03197715
31	0xbd1ac7b0	-0.037788093
32	0xbde760d8	-0.11297768
33	0xbd579e4d	-0.0526412
34	0xbdc2f86c	-0.09520039
35	0x3c81e98f	0.01585844
36	0xbb87ed13	-0.0041481345
37	0xbd10b185	-0.035325546
38	0xbde45f88	-0.11151034
39	0x3cfd1fb5	0.030898908
40	0xbd1c8c31	-0.038219634
41	0x3d217e72	0.03942723
42	0x3d0e22d4	0.034701183
43	0x3ccf86d2	0.025332842
44	0xbd4d5c02	-0.050136574
45	0xb8c86cde	-9.557021e-05
46	0xbd85acaa	-0.06527074
47	0xbb807c72	-0.003921085
48	0x3d2211e6	0.03956785
49	0xbd4ad3a9	-0.04951826
50	0xbce8dd5c	-0.028425865
51	0xbded76f4	-0.11594954
52	0xbd368790	-0.044562876
53	0xbddf9a41	-0.109180935
54	0x3ca25e28	0.019820288
55	0xbdebff20	-0.115232706
56	0xbc9988c4	-0.018741973
57	0xbd625ad0	-0.055262387
58	0xbdc5cf12	-0.09658636
59	0x3d8b49a6	0.06801157
60	0xbddd01eb	-0.107913814
61	0x3d1299e3	0.03579129
62	0xbb3b3dbf	-0.002857074
63	0x3c715207	0.0147290295
64	0x3c89a0a0	0.016800225
65	0x3d48d41c	0.04903041
66	0x3d7a317a	0.06108234
67	0xbd2da07a	-0.04238937
68	0x3d2ae3d0	0.041721165
69	0x3d0b63ce	0.034030728
70	0xbde6fe53	-0.11278977
71	0x3d39735b	0.045276027
72	0x3d0021f2	0.031282373
73	0xbce205d5	-0.027590672
74	0x3d89243c	0.06696364
75	0xbdab9393	-0.08377757
76	0x3c83f2ca	0.016106982
77	0x3c22c8c0	0.009935558
78	0x3c5de7bb	0.013544018
79	0xbb95858b	-0.0045630387
80	0xbd408114	-0.0469981
81	0xbd09cb1d	-0.03364097
82	0xbca1a7ae	-0.019733276
83	0xbd31ed7d	-0.043439377
84	0x3ae2ccf3	0.0017303511
85	0xbd095a2b	-0.033533257
86	0x3cc8215c	0.02442997
87	0xbd0ce740	-0.034400225
88	0xbd641e50	-0.05569297
89	0xbda0e0f9	-0.0785541
90	0xbbc106f8	-0.0058907233
91	0xbd243fb2	-0.040099807
92	0xbdc49a24	-0.095997125
93	0x3d0c7a81	0.034296516
94	0xbdab99c8	-0.08378941
95	0xbda626a4	-0.08112839
96	0x3d61513e	0.05500912
97	0x3dac2682	0.08405782
98	0xbd6aa023	-0.057281625
99	0xbc977c6b	-0.018491944
100	0xbd3d31bf	-0.04619002
101	0xbdccf430	-0.100075126
102	0xbd0f2491	-0.03494698
103	0xbdde4bed	-0.108543254
104	0xbc5884fb	-0.013215299
105	0x3d18e1dc	0.03732477
106	0x3d0e9f93	0.03482015
107	0xbd08a999	-0.033364866
108	0xbdb4f00b	-0.08834847
109	0x3ca0d3aa	0.01963218
110	0x3bf6fd95	0.0075375536
111	0xbd1b7c58	-0.03796038
112	0xbd7be61d	-0.06149875
113	0xbd5eb73d	-0.05437397
114	0xbdadf8fe	-0.08494757
115	0xbd2b0e27	-0.041761544
116	0x3b3e4124	0.0029030526
117	0xbd0d1a7c	-0.034449086
118	0xbd12d4f9	-0.035847638
119	0xbd0620ca	-0.032746114
120	0xbc1d3636	-0.009595444
121	0xbda198fb	-0.07890507
122	0xbdb6e1f1	-0.08929814
123	0xbcef4331	-0.029206844
124	0x3d930e65	0.0718048
125	0x3ce3a896	0.027790349
126	0x3c83227a	0.01600765
127	0x3cb6375a	0.02224319
128	0xbd544aea	-0.051829256
129	0xbd6f48af	-0.058418926
130	0xbdc4fceb	-0.09618553
131	0xbd84d59f	-0.064860575
132	0xbcd198ff	-0.02558565
133	0xbdd0e1c8	-0.10199314
134	0x3d4206c9	0.047369752
135	0x3d6e0672	0.058111615
136	0x3e21c884	0.15799147
137	0x3d5b1992	0.053491183
138	0x3b817e98	0.0039518587
139	0xbd1a24dd	-0.03763281
140	0xbd471d34	-0.048611835
141	0xbbde758e	-0.006788916
142	0xbc427084	-0.011867646
143	0xbd73d4cd	-0.059529115
144	0x3c7e51b9	0.015522414
145	0x3e1eff33	0.15527038
146	0x3e823a58	0.25435138
147	0x3cf0a66f	0.029376237
148	0x3d474926	0.048653744
149	0x3ddfab19	0.10921306
150	0x3da6cadf	0.08144163
151	0xbc553770	-0.013013706
152	0x3d843f09	0.064573355
153	0xbbfbcafe	-0.0076841107
154	0x3de5d59d	0.11222384
155	0x3ddf5b9d	0.10906146
156	0xbc36d140	-0.0111582875
157	0xbd8d4ed5	-0.06899802
158	0x3b975c67	0.0046191695
159	0x3d98e6b8	0.07465881
160	0xbd517b76	-0.051143132
161	0x3d603b9d	0.05474435
162	0x3daf9f9e	0.085753664
163	0x3d5b0b5b	0.053477626
164	0x3e01ebc0	0.12687588
165	0x3d9d740f	0.07688152
166	0x3c2198a3	0.009863052
167	0x3d9d0585	0.076670684
168	0x3d65e73a	0.056128718
169	0x3d1a9d11	0.037747446
170	0x3db2047f	0.08692264
171	0x3d9fd5dc	0.07804462
172	0x3d864ddf	0.065578215
173	0xbcaf110c	-0.021370433
174	0x3cc49c69	0.024000363
175	0x3cb4b73e	0.022060033
176	0x3bd7ddc1	0.0065877144
177	0xbd5d04e7	-0.053959753
178	0xbd4b3f8d	-0.049621154
179	0x3d12b5e6	0.035818003
180	0x3beafaaa	0.0071709948
181	0x3d825a28	0.06364852
182	0x3db6c42f	0.08924138
183	0x3db6a687	0.08918481
184	0x3e00bcdc	0.12572044
185	0xbdbe0a57	-0.09279316
186	0xbe007de0	-0.12548018
187	0xbbf97040	-0.007612258
188	0xbcd7a30f	-0.02632287
189	0xbcfb2c98	-0.030660912
190	0x3cb1bdb8	0.02169691
191	0x3c1b7c90	0.009490147
192	0x3d8e2a50	0.06941664
193	0xbcaa1628	-0.020762518
194	0x3d6cc412	0.057804175
195	0xbd0f1d90	-0.034940302
196	0xbe1d92ef	-0.15388082
197	0xbd268c8c	-0.04066138
198	0x3d8a57e2	0.067550436
199	0xbd3ea593	-0.046544623
200	0xbce8df91	-0.028426917
201	0x3d282a3d	0.041055907
202	0xbcb902d8	-0.022584364
203	0xbcfdf28a	-0.03099944
204	0x3aaf0548	0.0013353014
205	0xbd29c98b	-0.041451972
206	0xbc3eb1b9	-0.011639052
207	0x3d7d32d1	0.06181604
208	0xbd0f5c3a	-0.035000063
209	0xbbe271db	-0.0069105453
210	0xbc8c1b4a	-0.017102856
211	0x3dbbe3d2	0.09174313
212	0x3c3c1f06	0.011482006
213	0xbc985847	-0.018596781
214	0x3dc2866e	0.09498297
215	0x3cc43ba3	0.023954218
216	0x3d58ba00	0.05291176
217	0x3d9dfeee	0.077146396
218	0x3dbb71cc	0.091525644
219	0xbc872bea	-0.016500432
220	0xbd70a02e	-0.05874651
221	0x3d4a532e	0.049395733
222	0x3d8de2b8	0.06928009
223	0x3db5cf9e	0.088774905
224	0x3e14240f	0.1446688
225	0xbd9a16ad	-0.07523856
226	0xbce1d3a7	-0.027566744
227	0xbd5e0682	-0.054205425
228	0xbc32b0f7	-0.0109064495
229	0x3bea6fdb	0.0071544475
230	0x3d4fb54e	0.050710015
231	0xb96585b3	-0.00021888949
232	0xbce98a72	-0.028508399
233	0x3d8f743a	0.0700459
234	0x3d93e4fc	0.0722141
235	0x3c0649db	0.008196319
236	0x3d376b14	0.044779852
237	0xbcbc7987	-0.023007168
238	0x3d60e54f	0.054906186
239	0xbdbd2b31	-0.09236754
240	0x3d3592da	0.0443295
241	0xbd5ea533	-0.054356765
242	0xbc8137a5	-0.015773604
243	0x3d8f59dc	0.06999561
244	0x3d7b7662	0.061392196
245	0xbcec7365	-0.028863618
246	0xbd2feec6	-0.04295232
247	0xbd7d04b7	-0.061772075
248	0x3cde17a5	0.027110884
249	0xbd404053	-0.046936344
250	0xbd2765cd	-0.04086857
251	0x3d9ce41f	0.07660698
252	0x3c67a90c	0.014139425
253	0x3bf11c92	0.007358142
254	0x3dcb5ee8	0.09930211
255	0x3d8673bc	0.06565043

Target_Q_Net.linear1.bias f4 [50]
0	0xbd81f156	-0.06344859
1	0x3d7301da	0.059327938
2	0xbcfd9195	-0.030953208
3	0x3d245bd0	0.04012662
4	0x3e1932dd	0.14960809
5	0xbceea4a8	-0.029131249
6	0x3de88a3d	0.11354492
7	0xbda58c9c	-0.0808346
8	0xbd8a4e39	-0.06753201
9	0x3dbbc19f	0.0916779
10	0x3cce8676	0.0252106
11	0xbbdf53b4	-0.006815398
12	0xbdbb61cc	-0.09149513
13	0x3dec2a62	0.115315214
14	0xbcafeb3f	-0.021474479
15	0x3d2de8b1	0.04245824
16	0xbd828daa	-0.063746765
17	0x3d3a22d1	0.04544336
18	0x3cb84e15	0.02249817
19	0x3d707cdb	0.05871282
20	0xbdc10f5c	-0.09426758
21	0x3d348511	0.044072215
22	0x3d587936	0.05284997
23	0x3da115e4	0.078655034
24	0x3dc087f3	0.0940093
25	0x3d89fdcd	0.06737862
26	0xbc974881	-0.01846719
27	0x3d8fd01d	0.07022116
28	0xb7eb7f80	-2.8073555e-05
29	0x3b9ef698	0.0048511736
30	0x3db5ad0b	0.08870896
31	0xbd290cf6	-0.041272126
32	0x3dbdbcbb	0.09264513
33	0x3e233556	0.15938315
34	0xbde94bf2	-0.113914385
35	0xbd403aab	-0.04693095
36	0x3c25c4dc	0.010117736
37	0xbbd878e1	-0.0066062068
38	0xbc406264	-0.011742208
39	0xbd1d34bc	-0.03838037
40	0x3d2d8ea1	0.04237235
41	0xbdc8a5f6	-0.097972795
42	0x3cfa9aec	0.03059145
43	0x3de55653	0.11198106
44	0x3e3ca07f	0.184206
45	0x3e1036e1	0.14083435
46	0xbd2225b4	-0.039586738
47	0x3c9ee98a	0.01939847
48	0xbda18b09	-0.07887847
49	0xbd417b56	-0.047236763

Target_Q_Net.linear2.weight f4 [50, 50]
0	0xbdfb276b	-0.12263378
1	0xbded76ad	-0.11594901
2	0x3de39b60	0.1111362
3	0xbda8a904	-0.08235362
4	0x3c8c47f1	0.017124148
5	0x3dd532e3	0.104100965
6	0xbdd84cd3	-0.10561528
7	0x3d631070	0.055435598
8	0x3dec5df4	0.11541358
9	0x3dcc0ae9	0.099630184
10	0xbdab178a	-0.08354099
11	0x3de717dc	0.11283848
12	0x3c1c95b6	0.009557178
13	0xbd2d49c0	-0.04230666
14	0xbd0b82c8	-0.03406027
15	0xbcc46dd7	-0.023978157
16	0xbd3be4c8	-0.04587248
17	0xbe095f51	-0.13415267
18	0x3db0ead2	0.086385384
19	0x3da50315	0.080572285
20	0xbd1f8db8	-0.038953513
21	0x3e1263e8	0.14295924
22	0x3e0993fa	0.13435355
23	0x3cf93195	0.03041915
24	0x3d9dfe73	0.07714548
25	0xbc1260d3	-0.0089342175
26	0x3b46b4fd	0.003032028
27	0xbccd938a	-0.025094766
28	0xbd545deb	-0.05184738
29	0x3d87a845	0.06623892
30	0xbdffc2d9	-0.12488336
31	0x3db21fb1	0.08697451
32	0x3dd68e56	0.10476367
33	0x3df27976	0.11839573
34	0xbd5a4f9e	-0.053298585
35	0x3dd1725f	0.10226893
36	0x3e00d554	0.12581378
37	0xbdc0fd83	-0.094233535
38	0x3d8c5d52	0.06853737
39	0x3d48e2ab	0.049044292
40	0x3e3fdaa3	0.18735747
41	0x3e014f9e	0.12628028
42	0x3de1cfb0	0.11025941
43	0xbd465143	-0.04841734
44	0x3bb07685	0.0053852224
45	0x3cbf45e7	0.023348762
46	0xbde96646	-0.1139646
47	0x3ce3fad6	0.027829569
48	0xbe1ae236	-0.15125355
49	0x3c29c6b2	0.010362314
50	0x3d8e38f6	0.06944458
51	0x3bacdacc	0.005275106
52	0xbc4eefb1	-0.012630389
53	0x3c9d9e30	0.019240469
54	0x3da7f19d	0.08200381
55	0x3ca2cdbc	0.019873492
56	0xbd4ba8f0	-0.04972166
57	0xbdcf3767	-0.10117989
58	0x3dba4087	0.09094339
59	0x3d210662	0.039312728
60	0xbd47876f	-0.048713144
61	0xbdbe1904	-0.09282115
62	0x3d93c01d	0.07214377
63	0xbc0441d0	-0.008072332
64	0x3dd36acf	0.103231065
65	0xbb9201ac	-0.0044557657
66	0x3e0f4cc0	0.13994122
67	0xbd2bade9	-0.0419139
68	0xbd802c0d	-0.06258402
69	0xbdb04d58	-0.08608502
70	0xbc0f3c31	-0.008742378
71	0xbd914282	-0.070927635
72	0x3bf6e633	0.007534766
73	0xbc845cb7	-0.016157491
74	0xbdb457f3	-0.088058375
75	0x3ddecfc1	0.1087947
76	0x3d8c80c5	0.06860498
77	0xbd26e6b1	-0.04074735
78	0x3daf2a60	0.08553004
79	0xbdd254a2	-0.10270049
80	0xbddf6af8	-0.109090745
81	0xbb28d5f8	-0.00257623
82	0x3dcb3842	0.0992284
83	0x3df650f4	0.12027159
84	0x3e19b3c8	0.15009987
85	0xbd159b4e	-0.036525063
86	0xbd7d398d	-0.061822463
87	0xbde18121	-0.110109575
88	0x3e1276da	0.14303151
89	0x3d648621	0.055791978
90	0xbc6b9ed9	-0.014381134
91	0x3d1db868	0.03850594
92	0xbde03659	-0.10947866
93	0x3e0404c1	0.12892438
94	0xbd2b5836	-0.04183217
95	0xbd9c501d	-0.07632468
96	0xbdaed9a7	-0.08537608
97	0x3dbeea8a	0.093220785
98	0xbc2231df	-0.0098995855
99	0x3dcd91ee	0.100375995
100	0xbd305baa	-0.043056168
101	0xbd3c9cb4	-0.04604788
102	0x3d7acd11	0.061230723
103	0x3dc46dc0	0.09591246
104	0x3e3f93e1	0.18708755
105	0x3da39a50	0.07988417
106	0x3d948a43	0.07252934
107	0x3d00e0a7	0.031464245
108	0xbdb54726	-0.08851461
109	0x3dd9af39	0.10629124
110	0xbcee0ced	-0.029058898
111	0x3de99c17	0.11406725
112	0xbcd769b1	-0.026295515
113	0x3e2049e9	0.15653194
114	0x3de14561	0.10999561
115	0x3d88abd8	0.066734016
116	0x3b3d2e5c	0.0028866744
117	0xbceaa063	-0.028640931
118	0x3c5ccfeb	0.013477306
119	0xbd0b885d	-0.034065593
120	0xbd44f829	-0.048088226
121	0xbc1c8c18	-0.009554885
122	0x3e0fa1ec	0.14026612
123	0xbdf98fad	-0.12185607
124	0x3cc0ee11	0.023551019
125	0xbcee800d	-0.029113794
126	0xbd823858	-0.06358403
127	0x3e25abe6	0.16178855
128	0x3d170090	0.03686577
129	0x3c69834b	0.014252494
130	0x3c063f31	0.008193777
131	0xbe1fa5fc	-0.15590662
132	0x3d774b90	0.060374796
133	0xb85c4117	-5.2512707e-05
134	0x3dc90b6b	0.09816631
135	0x3dffaf2b	0.124845825
136	0x3dd29435	0.102821745
137	0xbc8b6336	-0.01701508
138	0x3c82e1b5	0.015976766
139	0xbcf05916	-0.029339354
140	0x3d76e0ef	0.060273107
141	0xbcdeeae2	-0.02721161
142	0x3d2f4bd0	0.04279691
143	0x3dc2bc3f	0.09508561
144	0x3d105de0	0.035245776
145	0x3dda1ca3	0.10649993
146	0x3dee056d	0.11622129
147	0xbddf4a31	-0.10902823
148	0x3c676b61	0.014124722
149	0x3de05a48	0.1095472
150	0x3d78fe25	0.060789246
151	0x3d829aca	0.0637718
152	0xbdfecb73	-0.124411486
153	0xbdb5ddab	-0.088801704
154	0xbd525255	-0.05134805
155	0x3c4eddc6	0.012626117
156	0x3cca5af5	0.024701575
157	0x3e06c796	0.13162073
158	0x3ad4dbd3	0.0016239829
159	0x3dc9f9a1	0.09862066
160	0x3cdc728a	0.026910085
161	0xbc512977	-0.012766234
162	0xbe10c475	-0.14137442
163	0x3deaad56	0.114588425
164	0x3da3b828	0.079941094
165	0x3d4225fb	0.047399502
166	0x3e09e27d	0.13465305
167	0x3d9ca21f	0.0764811
168	0x3d6c3044	0.057663217
169	0x3d575c4e	0.052578263
170	0x3da9e108	0.082948744
171	0xbd1567bf	-0.036475893
172	0xbd4798a5	-0.048729558
173	0xbd9591c5	-0.07303194
174	0xbdd54fb2	-0.10415591
175	0x3e0e7e9a	0.13915482
176	0xbdb3c1c2	-0.08777191
177	0x3e065179	0.13117017
178	0xbd947ab7	-0.072499685
179	0xbd279d11	-0.040921275
180	0x3d9f405a	0.07775946
181	0x3d5f41e1	0.054506186
182	0x3dd04419	0.101692386
183	0x3def386c	0.116806835
184	0x3dcf045c	0.10108253
185	0x3dee0eca	0.116239145
186	0xbdbca551	-0.09211219
187	0x3db67257	0.08908527
188	0x3d2ecf0e	0.04267793
189	0xbd32f450	-0.043690026
190	0x3e5076c0	0.203578
191	0xbbbff48a	-0.0058580087
192	0x3c7c9649	0.01541669
193	0x3df011d4	0.117221504
194	0xbce2a2f6	-0.027665596
195	0x3ca40f46	0.020026814
196	0xbdd038c8	-0.1016708
197	0xbd6a8061	-0.057251338
198	0xbd81e4a4	-0.06342438
199	0x3e0b12e6	0.13581428
200	0x3dc0ba30	0.094105124
201	0xbc299c4e	-0.010352207
202	0xbe1ff7fe	-0.15621945
203	0xbe54f8b6	-0.20798
204	0x3c21de76	0.009879699
205	0x3db8d8cf	0.09025728
206	0x3d05a76b	0.032630365
207	0xbe0fd547	-0.14046203
208	0x3d8a7888	0.06761271
209	0xbdbc162d	-0.09183917
210	0x3daca54d	0.08429966
211	0xbc897cfe	-0.016783234
212	0x3decc2f8	0.11560625
213	0xbcf17c33	-0.029478168
214	0xbc16a1f6	-0.009193888
215	0xbe0e88b8	-0.13919342
216	0xbc13fdf1	-0.009032712
217	0xbd6c398e	-0.057672076
218	0xbc1d0f27	-0.009586132
219	0xbd3fecf8	-0.04685685
220	0xbd57ab48	-0.05265358
221	0xbdbbd1ee	-0.091709
222	0xbd4e5ef6	-0.05038353
223	0xbd2839ab	-0.04107062
224	0x3d5c0334	0.053713992
225	0xbdf473da	-0.119361594
226	0xbdf8aa95	-0.12141911
227	0x3ccd0e2d	0.025031174
228	0x3d85fe4b	0.06542643
229	0x3d150aee	0.036387376
230	0xbd26dbd1	-0.040736977
231	0x3ca3bc22	0.01998717
232	0x3d8e0535	0.06934587
233	0x3dd8c5a5	0.10584573
234	0xbdcc2c97	-0.09969442
235	0xbd591dde	-0.053007
236	0x3c816505	0.01579524
237	0x3cd12db9	0.025534498
238	0xbd319966	-0.043359183
239	0x3dadb46a	0.08481677
240	0xbe21b806	-0.15792856
241	0x3e04b84f	0.12960933
242	0xbd041b3e	-0.032252543
243	0x3cd19999	0.025585936
244	0xbda2ceef	-0.07949626
245	0xbd003252	-0.03129799
246	0x3ddde9d5	0.108356155
247	0xbd2ee982	-0.04270316
248	0xbdb6dd8d	-0.08928976
249	0x3ba0748b	0.0048967055
250	0x3ca856c8	0.020549193
251	0xbd183bde	-0.03716647
252	0xbca01234	-0.01953993
253	0xbd92c93b	-0.07167288
254	0xbd54ba7e	-0.051935665
255	0x3e158c58	0.14604318

Target_Q_Net.linear2.bias f4 [50]
0	0x3acc2997	0.001557636
1	0x3d808ac9	0.06276471
2	0xbd1c706d	-0.038193155
3	0xbd3df729	-0.04637829
4	0xbdeb9747	-0.11503463
5	0x3e0f17c7	0.13973914
6	0x3d938dbd	0.07204769
7	0xbbe2d84c	-0.0069227573
8	0xbdab804e	-0.083740816
9	0xbe403445	-0.18769939
10	0x3d3993cf	0.045306977
11	0xbd32c765	-0.04364719
12	0x3d29db30	0.0414688
13	0xbdbf9235	-0.09354059
14	0x3dd4ba28	0.10387069
15	0x3d63df27	0.055632737
16	0x3d939a31	0.07207144
17	0xbe011db2	-0.12608984
18	0x3cf5f888	0.030025735
19	0xbd9645fb	-0.073375665
20	0x3bbcea7c	0.0057652574
21	0xbd9db4c6	-0.077004954
22	0x3dad0d0c	0.08449754
23	0xbe064941	-0.13113882
24	0xbd791d11	-0.060818736
25	0xbdc1c37a	-0.09461112
26	0xbde21a25	-0.11040143
27	0x3d9f786a	0.07786639
28	0x3df8e566	0.12153129
29	0xbc8fb734	-0.017543413
30	0x3e1db771	0.15402009
31	0x3e03d495	0.12874062
32	0xbe30c401	-0.1726227
33	0xbe159758	-0.14608514
34	0x3d6d01c1	0.057863
35	0x3e0ce84c	0.13760489
36	0x3d9660cd	0.07342682
37	0x3dbabf22	0.09118487
38	0x3dd85619	0.10563297
39	0x3dacb567	0.08433037
40	0x3db68096	0.089112446
41	0x3d9309cf	0.07179605
42	0xbdc510d9	-0.09622354
43	0xbd783a36	-0.06060239
44	0x3cda2d5f	0.026632963
45	0x3e3a0e90	0.18169618
46	0x3d043f54	0.032286957
47	0x3dfdd2d1	0.12393726
48	0x3e175d38	0.14781654
49	0xbcb6b9c8	-0.022305384

Target_Q_Net.linear3.weight f4 [3, 50]
0	0x3d97ef8c	0.07418737
1	0xbdba407b	-0.0909433
2	0x3e389c14	0.18028289
3	0x3de687ac	0.11256346
4	0x3d4f075f	0.05054414
5	0x3d98eeed	0.074674465
6	0x3ce7c6b3	0.02829299
7	0x3e10fbe1	0.14158584
8	0xbd8c9d25	-0.068659104
9	0xbd732613	-0.059362482
10	0xbdff08a0	-0.12452817
11	0x3d7598b1	0.05996007
12	0xbd2af5d4	-0.041738346
13	0x3dc3295a	0.095293716
14	0xbcb326b0	-0.021869034
15	0x3d1d3775	0.038382966
16	0xbcf0db4f	-0.02940145
17	0xbc87fca2	-0.016599957
18	0x3c7efebc	0.015563663
19	0xbdad795d	-0.08470414
20	0xbd64f01a	-0.05589304
21	0x3a055556	0.00050862634
22	0x3d2c1a32	0.04201717
23	0xbd66301e	-0.056198232
24	0xbdeb5d19	-0.11492366
25	0xbdc91c47	-0.098198466
26	0x3bd14d3b	0.0063873804
27	0xbe0eef8c	-0.13958567
28	0x3de7564c	0.11295757
29	0x3dee0406	0.11621861
30	0x3cd9a1a0	0.026566327
31	0xbdafdb84	-0.08586791
32	0xbe112c59	-0.14177074
33	0xbac5bcba	-0.0015086152
34	0xbdaf01e7	-0.08545285
35	0x3e0d18c9	0.13778986
36	0x3e060760	0.13088751
37	0x3da3faeb	0.08006843
38	0x3e16741e	0.14692733
39	0x3c20d02a	0.009815255
40	0x3e0742d3	0.13209085
41	0x3d8435e5	0.06455592
42	0x3dbf3146	0.0933557
43	0xbe647092	-0.22308567
44	0x3e03c571	0.12868287
45	0x3d573d23	0.05254854
46	0xbc9ac7e4	-0.018894143
47	0xbbd49349	-0.0064872843
48	0x3db5eaad	0.088826515
49	0x3d683540	0.05669141
50	0x3d608684	0.054815784
51	0x3dcb1000	0.09915161
52	0x3ca131e5	0.019677112
53	0x3daaf2a0	0.08347058
54	0xbd9ef644	-0.07761815
55	0x3e0c01d3	0.13672571
56	0xbd87437b	-0.06604668
57	0xbd75d368	-0.060016066
58	0x3d39c931	0.045357887
59	0x3d1debe3	0.038555037
60	0x3dea840b	0.114509664
61	0x3d4a444d	0.049381543
62	0xbd8fcce4	-0.07021502
63	0xbda90cab	-0.08254369
64	0xbdf48675	-0.11939708
65	0x3dcb4e2b	0.09927019
66	0xbd2780ca	-0.040894307
67	0x3d079b78	0.03310725
68	0x3c50a358	0.012734257
69	0x3c0ea091	0.008705274
70	0xbe500d37	-0.20317541
71	0xbcfbad24	-0.030722208
72	0xbd1c0f51	-0.038100544
73	0x3cd6ded6	0.026229303
74	0x3da544f0	0.080697894
75	0x3db511e1	0.08841301
76	0xbdb0dc95	-0.08635823
77	0xbe0b0774	-0.13577062
78	0xbdb3f934	-0.08787766
79	0x3b24ee20	0.0025166348
80	0x3de89e89	0.11358363
81	0xbd9dcba2	-0.077048555
82	0x3da82e5e	0.08211969
83	0x3cc05047	0.02347578
84	0x3d9ad38d	0.07559881
85	0x3decff68	0.115721524
86	0xbd6b9f84	-0.057525173
87	0x3e172e40	0.14763737
88	0x3df12e6b	0.11776432
89	0x3da3b998	0.079943836
90	0xbcc9eb6b	-0.024648389
91	0x3d0e4d01	0.034741405
92	0x3dd52b41	0.10408641
93	0x3df52926	0.11970739
94	0x3ca88665	0.020571897
95	0x3c657cbd	0.014006791
96	0xbe1080ff	-0.14111708
97	0xbd89edfe	-0.067348465
98	0xbdbc18b9	-0.09184403
99	0x3e02b78c	0.1276533
100	0xbb119d06	-0.0022218837
101	0x3c290a0d	0.010317338
102	0x3ce846bc	0.028354041
103	0xbd6f4f89	-0.05842546
104	0xbe31a1d7	-0.17346893
105	0x3cf24a51	0.029576452
106	0x3d68ba49	0.05681828
107	0xbd20bcd6	-0.039242588
108	0x3c9ba24c	0.018998288
109	0x3e3a8b43	0.18217187
110	0x3c76e5f9	0.015069478
111	0x3b8e0592	0.00433416
112	0x3d8355d5	0.064128555
113	0xbd6b3c29	-0.05743042
114	0xbd1a5f08	-0.037688285
115	0x3ca0ed92	0.019644532
116	0x3dcf5254	0.10123125
117	0xbdcf98cf	-0.10136568
118	0xbdc8ce7e	-0.0980501
119	0x3e212fdd	0.15740915
120	0x3df47f94	0.11938396
121	0xbd444f62	-0.047927268
122	0xbe022232	-0.12708357
123	0x3d7970a4	0.060898438
124	0x3e8e9a3e	0.27852052
125	0x3db7ffbb	0.089843236
126	0xbd85a518	-0.0652563
127	0xbd385057	-0.044998493
128	0xbd02d1c8	-0.031938344
129	0x3d94f575	0.0727338
130	0x3e468e7a	0.19390288
131	0xbc880e4e	-0.016608384
132	0x3dc82cf7	0.09774201
133	0xbe0d57be	-0.13803002
134	0x3d20c72a	0.039252438
135	0x3da668a0	0.081254244
136	0x3dc82507	0.097726874
137	0x3e1af66f	0.1513307
138	0x3d328176	0.043580495
139	0x3e1082a0	0.1411233
140	0x3dc9aed6	0.098478004
141	0x3e06b1cc	0.13153762
142	0x3c932f99	0.017967032
143	0x3dd012ea	0.101598576
144	0x3e0f9fab	0.14025752
145	0x3deb21ed	0.1148108
146	0xbda8500c	-0.08218393
147	0xbc78119b	-0.015140916
148	0x3dd1a9ea	0.10237487
149	0xbd99b30c	-0.075048536

Target_Q_Net.linear3.bias f4 [3]
0	0x3d93ef4e	0.07223378
1	0x3e0e9906	0.13925561
2	0x3bfd7413	0.0077347844
