Model/ILQN/result/DQN/agent_ddqn_002311_SZ_0_5.pt (torch_old, 84180 bytes, 12 tensors)

Q_net.linear1.weight f4 [50, 150]
0	0xbd1cc329	-0.038272057
1	0xbb6af528	-0.003585169
2	0x3dcb6e20	0.09933114
3	0x3d70a94a	0.058755197
4	0xbd760ce9	-0.060070906
5	0xbe1ac81f	-0.15115403
6	0xbc1112e0	-0.008854598
7	0x3d64f43e	0.05589699
8	0xbd4d6754	-0.05014737
9	0xbdb1174e	-0.08647023
10	0x3d93d4b7	0.072183065
11	0x3b397676	0.0028299368
12	0xbca7d92b	-0.020489296
13	0x3cf83b1a	0.03030162
14	0xbd108e92	-0.035292216
15	0xbe65c8b5	-0.22439845
16	0xbe31cd22	-0.17363408
17	0x3d4f8175	0.05066057
18	0x3d7b410d	0.061341334
19	0xbdaf2b78	-0.08553213
20	0xbb9195b9	-0.004442897
21	0x3daa7799	0.08323593
22	0x3ce61e48	0.028090611
23	0x3d28ea2e	0.041238956
24	0x3bd0b91a	0.006369722
25	0xbc8f8982	-0.017521624
26	0x3ddf779b	0.10911485
27	0x3cccdab0	0.025006622
28	0x3c5b2876	0.013376346
29	0x3ce29f4e	0.027663853
30	0x3dab8497	0.08374899
31	0xbbbe1c60	-0.0058017224
32	0x3b350602	0.002762199
33	0xbd61c785	-0.055121917
34	0x3d8a1b60	0.067435026
35	0xbe0f6d77	-0.14006601
36	0x3df5d8e5	0.1200426
37	0xbd5e3943	-0.054253828
38	0x3bb578fa	0.005538103
39	0xbc12618a	-0.008934388
40	0x3cbdba43	0.023160106
41	0xbc865452	-0.016397629
42	0x3d946334	0.07245484
43	0x3b43a899	0.002985513
44	0xbd1deef0	-0.038557947
45	0x3c641d23	0.013922962
46	0x3d34bf4c	0.044127747
47	0xbca60b5d	-0.02026909
48	0x3d3b6cba	0.045757987
49	0xbc36a0cc	-0.011146735
50	0x3ce65c9e	0.028120335
51	0x3db2abf3	0.08724203
52	0x3dcdeae4	0.100545675
53	0x3dd303bd	0.103034474
54	0xbccff6a1	-0.025386157
55	0xbe273bf9	-0.16331472
56	0xbd0e9a1a	-0.03481493
57	0x3d0ba44f	0.034092244
58	0xbcdf20e3	-0.027237361
59	0x3b8f1f91	0.0043677767
60	0x3d827da1	0.06371618
61	0x3c2c5dec	0.01052044
62	0xbd1b8ab5	-0.03797408
63	0x3d83a7cc	0.06428489
64	0xbcc2d21f	-0.023781834
65	0xbbbeb883	-0.0058203354
66	0xbbcf7ad2	-0.00633178
67	0xbd8f494c	-0.06996402
68	0x3dc651fe	0.096836075
69	0xbd23210c	-0.039826438
70	0x3c6d931d	0.014500407
71	0x3da5495b	0.08070632
72	0x3cdf058d	0.027224327
73	0x3d2ea3d1	0.042636696
74	0x3ca6291e	0.020283278
75	0x3d589192	0.0528732
76	0x3d668b20	0.056285024
77	0xbd39a22a	-0.045320667
78	0xbcfb294f	-0.030659346
79	0xbd973809	-0.07383735
80	0x3d4ab7cb	0.049491685
81	0x3b7f0d5e	0.003891788
82	0x3ca855e9	0.020548778
83	0xbcce8d44	-0.025213845
84	0xbd848c5f	-0.06472086
85	0xbc2d776d	-0.010587555
86	0x3cff1e21	0.031142296
87	0x3b1b6787	0.002371283
88	0x3db52865	0.08845595
89	0xbc01e933	-0.007929134
90	0x3ca49524	0.020090647
91	0x3d5d641c	0.05405055
92	0x3c88cc04	0.016698845
93	0x3cc9478c	0.024570249
94	0x3d3e49a4	0.046456948
95	0xbccc5267	-0.024941636
96	0xbdd49df0	-0.10381687
97	0x3cbaad9a	0.022787858
98	0x3d9d22dc	0.076726645
99	0xbb279765	-0.0025572416
100	0x3d583ccc	0.052792355
101	0xbc0d56fa	-0.008626694
102	0x3d740dfd	0.059583653
103	0x3d975cf9	0.0739078
104	0x3c43da7e	0.011953948
105	0x3d6a9d78	0.05727908
106	0xbdd1cf68	-0.10244638
107	0x3c8cd279	0.017190205
108	0xbc16afe9	-0.009197214
109	0x3d53c797	0.051704016
110	0x3dcefdcf	0.10107004
111	0x3d2dc996	0.042428575
112	0x3dac5bce	0.08415948
113	0xbd146b7d	-0.03623532
114	0x3b011726	0.0019697635
115	0x3d414bd7	0.047191467
116	0xbd8c6998	-0.06856078
117	0xbdbad9dd	-0.091235854
118	0xbd48f5e3	-0.04906262
119	0xbc54bc13	-0.0129842935
120	0xbd77519c	-0.060380563
121	0x3c013d8f	0.007888212
122	0x3b2defb9	0.002654059
123	0xbc77dae2	-0.015127869
124	0xbb1a0a8c	-0.0023504822
125	0x3d4847ca	0.04889659
126	0xbb955a43	-0.004557879
127	0xbd9dac77	-0.07698911
128	0x3dd2e20a	0.1029702
129	0xbd8ccfe6	-0.06875591
130	0x3d7f4a7b	0.06232689
131	0x3d32a557	0.04361471
132	0x3d9405d9	0.07227678
133	0xbc5da930	-0.013529107
134	0xbd8a7fd7	-0.06762665
135	0xbc921e63	-0.017836755
136	0x3d831d29	0.06402046
137	0xbc379441	-0.01120478
138	0xbd188eea	-0.03724567
139	0xbd33d5a9	-0.043904934
140	0x3d3d9473	0.04628415
141	0x3d4541ed	0.048158575
142	0xbd6b39e2	-0.05742825
143	0x3dcd3871	0.10020531
144	0x3863d81e	5.4322292e-05
145	0xbd7b506e	-0.061356
146	0xbd728c07	-0.05921557
147	0xbdd946c3	-0.106092
148	0xbd0b1460	-0.033954978
149	0x3d2750e8	0.040848643
150	0x3e108c69	0.14116062
151	0xbb0ebd19	-0.0021780191
152	0x3d429a6f	0.04751056
153	0x3db530d0	0.08847201
154	0x3dc73788	0.097273886
155	0xbe7a9fd2	-0.24475029
156	0x3d35ba41	0.04436708
157	0xbdaf0b31	-0.085470565
158	0x3e0948dd	0.13406701
159	0xbd75068c	-0.059820697
160	0xbb586ba0	-0.0033023134
161	0x3da9da7a	0.08293624
162	0x3d0f1767	0.034934428
163	0xbabeb5bd	-0.0014550012
164	0x3d58bb02	0.05291272
165	0xbe48c47a	-0.196062
166	0x3d32fead	0.04369991
167	0x3cab164c	0.020884655
168	0x3de2d0c1	0.11074973
169	0x3baab721	0.005209819
170	0x3c62be34	0.013839293
171	0xbbe5090c	-0.006989604
172	0x3c3b9005	0.011447911
173	0x3c6f5a20	0.01460889
174	0x3e163d62	0.14671853
175	0xbdfb18e6	-0.122606084
176	0xbd88b24d	-0.06674633
177	0xbd152937	-0.03641626
178	0xbb163b1f	-0.0022923423
179	0xbda19118	-0.078890026
180	0xbc4ab92a	-0.012373248
181	0x3dcb9e75	0.09942333
182	0x3dfafaf2	0.12254895
183	0x3d362bd5	0.044475395
184	0x3d87a687	0.066235594
185	0xbdaed76b	-0.085371815
186	0x3d50ae11	0.050947253
187	0xbd3da6a3	-0.046301495
188	0x3cb9bab0	0.022672027
189	0x3d832275	0.064030565
190	0x3e0352c1	0.12824537
191	0xbc2258d9	-0.009908878
192	0x3d677503	0.056508075
193	0x3e010b89	0.12602057
194	0x3d445619	0.04793367
195	0xbe3b41cf	-0.18286823
196	0x3dd6a0d9	0.10479898
197	0xbd97a005	-0.07403568
198	0x3dbc586c	0.09196553
199	0xbd03b23e	-0.032152407
200	0x3dede94c	0.116167635
201	0x3d58da31	0.05294246
202	0x3d243b9f	0.04009592
203	0x3dee2141	0.116274364
204	0x3e0fd1b0	0.14044833
205	0xbdd3ff0d	-0.103513815
206	0x3d8cba93	0.06871524
207	0xbd9ed68e	-0.07755767
208	0x3ce3a86a	0.027790267
209	0x3d5368b1	0.051613513
210	0x3c8e5661	0.017375173
211	0x3bde465e	0.0067832908
212	0x3e02c560	0.12770605
213	0x3dd5bc0d	0.104362585
214	0x3d785e2d	0.060636688
215	0x3e443845	0.1916209
216	0x3e3bfd47	0.18358336
217	0xbdc6ba64	-0.0970352
218	0x3c6b497d	0.014360783
219	0x3cb9fd48	0.022703782
220	0x3e09d690	0.13460755
221	0x3d94db97	0.07268446
222	0x3d7ad418	0.061237425
223	0x3d6f7082	0.058456905
224	0x3df5e09b	0.12005731
225	0x3d7ceb63	0.06174792
226	0x3e272351	0.16322066
227	0x3d1a4477	0.03766295
228	0x3e142c2f	0.1446998
229	0x3ced4566	0.028963756
230	0x3d7d28da	0.061806537
231	0x3d35104b	0.04420499
232	0x3dc770c1	0.09738303
233	0x3da8d490	0.08243668
234	0x3da53850	0.080673814
235	0xbe14f6d7	-0.14547287
236	0x3d850d39	0.06496663
237	0xbd79eded	-0.06101792
238	0x3d9b3025	0.07577542
239	0x3d99c6b3	0.07508602
240	0x3e11bdac	0.1423251
241	0x3def0fae	0.116729125
242	0x3de5548d	0.111977674
243	0x3be4e5cb	0.0069854013
244	0x3e229053	0.15875368
245	0xbdc38e5e	-0.09548639
246	0x38d352c7	0.000100766825
247	0xbd72883c	-0.059211954
248	0x3d9be4fc	0.07612035
249	0xbc93ccd7	-0.018042011
250	0x3e102e67	0.14080201
251	0x3de7cc8a	0.113183096
252	0x3c9a113e	0.01880705
253	0x3e018760	0.12649298
254	0x3e147b53	0.1450017
255	0xbc5773c5	-0.01315016

Q_net.linear1.bias f4 [50]
0	0xbc325a76	-0.010885825
1	0x3d66863d	0.056280363
2	0x3bdef009	0.0068035168
3	0xbdf2467f	-0.11829852
4	0x3e2befe8	0.16790736
5	0x3cf99f9f	0.030471621
6	0xbdccc3e5	-0.099983014
7	0x3caed254	0.021340527
8	0x3d89a302	0.067205444
9	0xbc355e31	-0.01106982
10	0x3d88e631	0.066845305
11	0x3d56a7e4	0.052406207
12	0x3d056ba8	0.032573372
13	0xbd8ff9c2	-0.070300594
14	0x3d917145	0.071016826
15	0xbb3b2b9e	-0.0028559933
16	0xbd258c5d	-0.040417064
17	0xbd0d49cc	-0.034494206
18	0x3e455e2c	0.19274205
19	0x3d1a3f76	0.037658177
20	0x3b74a59d	0.0037330159
21	0x3d053aa2	0.03252662
22	0x3c3e2371	0.01160513
23	0x3dd6fbfe	0.104972824
24	0xbcd6ff41	-0.026244761
25	0xbdd5a1cd	-0.10431252
26	0x3dc56dec	0.096401066
27	0x3d959f26	0.07305746
28	0xbc7343df	-0.014847725
29	0xbb5f98eb	-0.0034118246
30	0xbd58d3aa	-0.052936234
31	0x3db49eb9	0.088193364
32	0x3d02bb85	0.031917114
33	0x3da18b37	0.07887881
34	0xbc82a08f	-0.0159457
35	0x3d03bd8e	0.032163195
36	0x3c8ad97e	0.016949411
37	0xbd3fab66	-0.046794318
38	0x3d1f3ef9	0.038878415
39	0x3d9e76e0	0.07737517
40	0xbd0c5d93	-0.034268927
41	0xbd88f834	-0.06687966
42	0x3de2eb71	0.11080063
43	0x3d68039a	0.05664406
44	0x3cb581ca	0.022156615
45	0x3d9367e6	0.071975514
46	0x3d4cae5f	0.04997098
47	0x3dc956bd	0.09830997
48	0x3b24cbee	0.0025145966
49	0xbca0d9be	-0.019635078

Q_net.linear2.weight f4 [50, 50]
0	0xbe099c29	-0.13438477
1	0xbdc24e7b	-0.09487625
2	0xbd857280	-0.0651598
3	0x3c9392ae	0.018014278
4	0x3d675458	0.05647692
5	0xbca9affb	-0.020713797
6	0x3d0f31cc	0.0349596
7	0x3d5cfa08	0.053949386
8	0xbc37843a	-0.011200959
9	0xbcb0d700	-0.021586895
10	0xbcfa73a4	-0.03057272
11	0x3dc0e6f4	0.09419051
12	0xbcd2fcba	-0.025755275
13	0xbe0433b1	-0.12910344
14	0xbd5ec1cb	-0.054384034
15	0x3d1bd5e2	0.03804577
16	0xbd473553	-0.04863484
17	0x3dc7c4c4	0.09754327
18	0x3e2b3782	0.16720393
19	0xbcb79953	-0.022411978
20	0x3dbeefc6	0.09323077
21	0xbe1c39e2	-0.15256456
22	0xbdc5b31d	-0.09653304
23	0xbdb07824	-0.08616665
24	0xbdf5d451	-0.12003387
25	0xbe1906ef	-0.14944051
26	0xbdae202f	-0.08502232
27	0x3cd638b2	0.026150081
28	0xbdf10a77	-0.11769574
29	0xbe14ae71	-0.14519669
30	0x3d246e43	0.040144216
31	0x3d867eb8	0.065671384
32	0x3ceb2866	0.028705787
33	0x3dfffeb9	0.12499756
34	0xbd3e1e9e	-0.046415918
35	0xbe01b4c2	-0.1266661
36	0x3e05c8ac	0.13064831
37	0xbe1213ff	-0.1426544
38	0x3bf5812a	0.007492204
39	0xbd226ff8	-0.039657563
40	0x3e209483	0.15681653
41	0x3dab8acd	0.083760835
42	0xbc16a4f8	-0.009194605
43	0xbd76369b	-0.06011067
44	0xbe198304	-0.14991385
45	0x3d9d5059	0.07681341
46	0x3d88e6f0	0.06684673
47	0x3daf2349	0.08551652
48	0xbc65e481	-0.01403153
49	0x3df2166c	0.11820683
50	0xbdb24528	-0.08704597
51	0x3e16077c	0.14651293
52	0xbdeab670	-0.114605784
53	0xbdb85115	-0.0899984
54	0x3da1de8c	0.079037756
55	0x3e107413	0.14106779
56	0x3c4f59f4	0.012655724
57	0xbcf120e6	-0.029434633
58	0xbb56197a	-0.0032668994
59	0xbd6a1eee	-0.057158403
60	0xbc3a4632	-0.011369275
61	0xbd0306ca	-0.031988896
62	0x3da669b4	0.0812563
63	0xbd02e4f6	-0.031956635
64	0x3e69c9f9	0.22830953
65	0x3d2392e3	0.039935004
66	0x3d3d5c32	0.046230502
67	0xbd81a939	-0.06331105
68	0x3cb4e1e1	0.022080364
69	0xbdf511bb	-0.119662724
70	0x3d4e7213	0.05040176
71	0x3dc8cf7c	0.098051995
72	0xbdca845d	-0.098885275
73	0xbdedb170	-0.11606109
74	0x3cc3461f	0.023837147
75	0xbdd8c182	-0.10583784
76	0x3dec5c97	0.115410976
77	0xbdd0e92d	-0.10200725
78	0x3d9c877a	0.076430276
79	0x3da49674	0.08036509
80	0xbde1ab1c	-0.11018965
81	0x3bbcdabd	0.0057633803
82	0xbe17274c	-0.14761084
83	0xbd3ea69b	-0.046545606
84	0xbe038097	-0.12842022
85	0x3ddceff8	0.10787958
86	0x3db46326	0.088079736
87	0x3e3ff49d	0.18745656
88	0xbdbc6b44	-0.09200147
89	0xbe21220f	-0.15735649
90	0x3da79c0d	0.08184061
91	0x3d2c96ea	0.04213611
92	0x3cdf8a4e	0.027287629
93	0x3dd48c5a	0.103783324
94	0xbe059bc4	-0.13047701
95	0xbd2619a8	-0.04055181
96	0x3dbd45ac	0.092418045
97	0x3c29e183	0.010368708
98	0x3da2d409	0.07950599
99	0xbe2ba501	-0.16762163
100	0xbda6c89e	-0.081437334
101	0x3c701782	0.014654042
102	0xbc9b7d91	-0.018980773
103	0xbde4a061	-0.11163402
104	0xbdeb748c	-0.11496839
105	0xbd155e8b	-0.036467116
106	0x3df88281	0.12134267
107	0x3d72a762	0.05924166
108	0xbdb0ae01	-0.086269386
109	0x3b1de39d	0.0024091967
110	0xbd3301d6	-0.043702923
111	0xbd953f96	-0.07287519
112	0x3dc93ead	0.098264076
113	0x3d986d1d	0.07442687
114	0xbcecf062	-0.028923217
115	0x3c95a3b9	0.018266546
116	0x3d84a717	0.06477182
117	0x3cb40960	0.021977127
118	0xbc1a2d15	-0.009410162
119	0xbccdb680	-0.025111437
120	0x3d6a4977	0.057198968
121	0x3db8c228	0.09021407
122	0x3d970da2	0.07375647
123	0xbba19687	-0.0049312743
124	0x3d9f307e	0.07772921
125	0xbd9d3b34	-0.07677308
126	0x3dc0c24a	0.09412058
127	0xbdb6b3e6	-0.08921032
128	0x3d5128cf	0.05106431
129	0x3d6be308	0.05758956
130	0x3d9ccf88	0.07656771
131	0xbdef1938	-0.11674732
132	0xbd8ae426	-0.06781797
133	0xbe0925de	-0.13393351
134	0xbd883ef0	-0.066526294
135	0xbd6d3fc5	-0.057922143
136	0xbde79a56	-0.11308734
137	0x3dfcb34d	0.123388864
138	0x3b072fcb	0.0020627852
139	0x3d8c49bf	0.068500035
140	0x3da44ac0	0.0802207
141	0x3dc88c5e	0.09792398
142	0xbbd8b5d7	-0.006613474
143	0xbd91a5c2	-0.07111694
144	0x3c909b3d	0.017652148
145	0xbdd5c16c	-0.10437283
146	0xbd9b6773	-0.07588091
147	0xbcb38791	-0.021915229
148	0x3db13b49	0.08653886
149	0xbc33508c	-0.010944497
150	0x3c9eb76c	0.019374572
151	0x3ba1667f	0.0049255486
152	0xbd8ee691	-0.06977571
153	0x3cf4057c	0.029787771
154	0xbd77b8e5	-0.060479064
155	0xbe526718	-0.2054714
156	0x3c9fa787	0.019489063
157	0x3c09504d	0.008380962
158	0xbdde39cc	-0.10850868
159	0x3da06f55	0.07833735
160	0x3d8a3ffa	0.06750484
161	0x3dabed9c	0.0839493
162	0x3e159ed6	0.14611372
163	0x3d57fea3	0.052733075
164	0x3c3a5246	0.011372155
165	0x3dd46cc6	0.103723094
166	0x3dbdb481	0.09262944
167	0xbe1476c2	-0.14498428
168	0x3d83d6f4	0.064374834
169	0x3dcd7681	0.100323685
170	0xbd811cdc	-0.063043326
171	0xbd899137	-0.06717151
172	0xbe0ef272	-0.13959673
173	0xbdbdf26d	-0.09274755
174	0x3dedb0b2	0.116059676
175	0xbd28a70c	-0.041174933
176	0x3c4a8ea3	0.012363109
177	0x3dd48464	0.10376814
178	0x3e0c6491	0.13710238
179	0xbca4e4f0	-0.020128697
180	0xbe099d7d	-0.13438983
181	0xbd269621	-0.040670518
182	0xbbf193f3	-0.0073723732
183	0xbe28d729	-0.16488327
184	0xbd0a676e	-0.033790044
185	0xbce5613f	-0.028000472
186	0x3dc97719	0.09837169
187	0x3e0210bb	0.12701695
188	0xbd5d3d0e	-0.054013304
189	0x3d2e704e	0.04258757
190	0x3db3d822	0.087814584
191	0x3caf4965	0.021397302
192	0xbdce4085	-0.100709
193	0x3d0b0e29	0.03394905
194	0x3e0f7899	0.14010848
195	0xbdb171de	-0.086642966
196	0xbc384b41	-0.011248411
197	0x3d31888c	0.043343112
198	0xbdd05fab	-0.10174497
199	0xbdaa58c4	-0.08317712
200	0xbdeb5f40	-0.11492777
201	0x3d73661a	0.059423544
202	0x3c43b9d2	0.0119461585
203	0x3c2dcbf4	0.010607708
204	0x39db577d	0.0004183612
205	0xbd269436	-0.04066869
206	0x3d269793	0.040671896
207	0xbd93ace2	-0.07210709
208	0x3d94ddcd	0.07268868
209	0x3dc73e32	0.0972866
210	0x3d9dd9b3	0.077075385
211	0x3d209cdf	0.039212104
212	0xbd894bb5	-0.06703893
213	0xbddf8534	-0.10914078
214	0xbe2cf2c7	-0.16889487
215	0xbde1b03b	-0.110199414
216	0x3dab6a0c	0.08369836
217	0xbdca305c	-0.09872505
218	0x3e0e1c0a	0.13877884
219	0x3e3af078	0.18255794
220	0x3d32d34d	0.043658543
221	0x3d5d4604	0.05402185
222	0xbd9e2b0d	-0.07723055
223	0x3da05be2	0.07830025
224	0x3de44aa8	0.11147052
225	0xbe03396d	-0.12814875
226	0xbb97b58f	-0.004629798
227	0x3e02be34	0.12767869
228	0xbb9864d8	-0.0046506934
229	0xbdb819c5	-0.0898929
230	0x3c96b4e8	0.01839681
231	0x3df1a29a	0.11798592
232	0x3ca70197	0.0203865
233	0xbbcda4e7	-0.0062757614
234	0x3d496a9f	0.049173947
235	0x3c559d86	0.013038045
236	0xbd4cfaa0	-0.050043702
237	0x3df88f85	0.12136749
238	0x3ce8c642	0.02841485
239	0x3e0941ee	0.13404056
240	0xbd24868e	-0.040167384
241	0xbcd3863f	-0.02582085
242	0x3e0910f2	0.1338537
243	0x3dfe65cb	0.12421759
244	0x3db86bef	0.09004962
245	0x3e0b1752	0.13583115
246	0xbd9e1b5d	-0.07720063
247	0x3da3b8ee	0.07994257
248	0x3d2edd04	0.042691246
249	0x3d157431	0.036487762
250	0xbc151a4e	-0.00910051
251	0xbd448af8	-0.047984093
252	0x3e0a2c98	0.13493574
253	0x3d539bad	0.051662136
254	0xbd30a25e	-0.043123595
255	0x3ddafc8a	0.10692699

Q_net.linear2.bias f4 [50]
0	0x3d2d5d4a	0.042325296
1	0xbc942274	-0.018082835
2	0x3ccd94fc	0.025095455
3	0xbdd104ef	-0.10206019
4	0x3cb9b3ea	0.022668798
5	0xbda3a6b0	-0.079907775
6	0x3d51b019	0.05119333
7	0xbe16bca2	-0.14720395
8	0x3e43d668	0.19124758
9	0xbe575023	-0.21026663
10	0x3d2c2ff0	0.042037904
11	0xbd8bf140	-0.06833124
12	0x3ddad24c	0.10684642
13	0x3e2007f1	0.1562803
14	0x3e03e25e	0.12879321
15	0x3d59cd22	0.053174146
16	0x3d91a478	0.07111448
17	0x3d803999	0.06260986
18	0x3d343daa	0.04400412
19	0xbe17d340	-0.14826679
20	0x3d572dac	0.05253379
21	0xbc50e72e	-0.01275043
22	0x3dfffb84	0.12499145
23	0x3d4877c8	0.048942357
24	0x3c0c5ffd	0.008567807
25	0x3dd57018	0.10421771
26	0xbda9f519	-0.08298702
27	0x3dd9410a	0.10608108
28	0xbe064b61	-0.13114692
29	0x3e5f24b6	0.21791348
30	0x3d86d61a	0.065838054
31	0x3dd0aac2	0.101888195
32	0x3e24f84c	0.16110343
33	0x3e3e8961	0.18607093
34	0x3e3449bd	0.17606254
35	0x3c9478eb	0.018124064
36	0x3e0e644b	0.13905446
37	0x3d02a857	0.031898823
38	0xbd932737	-0.07185214
39	0xbe7f23b1	-0.24915959
40	0xbdc71e1c	-0.0972254
41	0x3d19f9c5	0.037591714
42	0x3dc1ad79	0.094569154
43	0x3d5e7268	0.054308325
44	0xbe85b2fd	-0.2611312
45	0x3d397b53	0.045283627
46	0x3de0bfb4	0.109740645
47	0x3d34a8ca	0.044106282
48	0xbd174e9d	-0.036940206
49	0x3d9ed90f	0.077562444

Q_net.linear3.weight f4 [3, 50]
0	0xbc80a5ad	-0.015704
1	0x3cb812f9	0.022469984
2	0x3dad4f1c	0.084623545
3	0xbe0238be	-0.12716958
4	0x3e05d0ea	0.13067976
5	0xbc3d382b	-0.011549036
6	0xbda3ae94	-0.079922825
7	0xbdd0a2fb	-0.10187336
8	0x3e284f91	0.16436602
9	0xbc0c61bf	-0.008568226
10	0x3d380902	0.044930466
11	0x3de9bc9a	0.11412926
12	0x3e05cfd5	0.13067563
13	0x3e3d445f	0.18483113
14	0xbd50ec6c	-0.05100672
15	0x3e0f58bb	0.13998692
16	0x3e29a9e0	0.16568708
17	0x3e0b5df6	0.13610062
18	0x3e2bfed9	0.16796435
19	0xbd5861b2	-0.052827545
20	0xbd37cc1e	-0.044872396
21	0xbd816c31	-0.06319464
22	0x3db988af	0.090592735
23	0xbdf1d4df	-0.1180818
24	0x3e1c3daf	0.15257905
25	0xbd456463	-0.04819144
26	0x3e044700	0.1291771
27	0x3df7e135	0.12103502
28	0x3bc7f09b	0.0061016805
29	0x3e0f086c	0.13968056
30	0x3e19b75f	0.15011357
31	0x3dc14e4d	0.09438763
32	0xbbcdddd7	-0.006282549
33	0x3d474d66	0.048657797
34	0x3d8ba8e0	0.0681932
35	0xbdfa570c	-0.12223634
36	0xbc9ebbc8	-0.01937665
37	0xbd8fc09e	-0.07019161
38	0x3dacb333	0.08432617
39	0xbdad9158	-0.08474988
40	0xbe12690b	-0.14297883
41	0x3c8cb8a2	0.017177884
42	0x3ddbe218	0.10736483
43	0xbd9b6252	-0.075871125
44	0x3e49819d	0.1967835
45	0x3d37843a	0.044803835
46	0x3e2270b2	0.15863302
47	0x3e69db92	0.22837666
48	0x3da2fcf3	0.079584025
49	0xbdcfeee9	-0.1015299
50	0x3df52b36	0.119711325
51	0xbe1f0bcb	-0.15531842
52	0x3dff6156	0.12469737
53	0x3dcdff2c	0.10058436
54	0x3e07b0e3	0.1325107
55	0x3e1f65c4	0.15566164
56	0x3dea0c79	0.1142816
57	0xbdda7bdb	-0.10668155
58	0xbdf20f02	-0.11819269
59	0xbdbca879	-0.09211821
60	0x3d9b08a2	0.07570006
61	0xbda4751c	-0.08030149
62	0xbdd6bc37	-0.10485118
63	0xbc42f75c	-0.011899795
64	0xbdf9b68d	-0.12193022
65	0x3c1d89fb	0.009615417
66	0x3d951098	0.07278556
67	0xbe1b57d6	-0.15170226
68	0x3cd3fc84	0.025877245
69	0xbdc23d65	-0.09484366
70	0x3ddb5105	0.107088126
71	0x3bff7c2a	0.007796784
72	0xbd98b545	-0.074564494
73	0xbcf5609e	-0.029953297
74	0x3c971ced	0.01844641
75	0x3d8aa884	0.06770423
76	0xbd66d1ca	-0.056352414
77	0x3d79a8c3	0.06095196
78	0x3dd5e9e5	0.104450025
79	0x3de963a0	0.11395955
80	0x3debb08d	0.11508284
81	0x3dd20b9b	0.1025612
82	0x3e802636	0.25029153
83	0x3ded09ab	0.1157411
84	0x3e0541b6	0.13013348
85	0x3e0a7b0a	0.13523498
86	0x3de4e5c4	0.11176637
87	0x3cba13d1	0.022714527
88	0xbc6e888a	-0.014558921
89	0xbc9bb2ab	-0.019006094
90	0x3d8bfaf1	0.06834973
91	0xbe0d64dd	-0.13808008
92	0x3c09a851	0.008401946
93	0xbe05b4bb	-0.13057224
94	0x3eac7947	0.33686277
95	0xbe12bbed	-0.143295
96	0xbe1ef77b	-0.15524094
97	0xbd9437f0	-0.07237232
98	0x3dc823c6	0.09772448
99	0xbe013608	-0.12618268
100	0x3db2cb09	0.08730132
101	0x3d20c733	0.03925247
102	0xbdbabd32	-0.091181174
103	0x3dabc821	0.08387781
104	0xbc417c1b	-0.011809374
105	0x3d4d56c2	0.050131567
106	0x3dffc6a4	0.124890596
107	0xbd1595e9	-0.03651992
108	0x3cf7ef91	0.030265601
109	0xbdbd1813	-0.092331074
110	0xbcbf14d1	-0.023325356
111	0xbb9b7a94	-0.004744837
112	0xbe6266ed	-0.22109576
113	0xbbc4744b	-0.0059953085
114	0x3e055bcc	0.13023299
115	0xbd0df7b5	-0.03466006
116	0x3dc71129	0.0972007
117	0x3e14009d	0.14453359
118	0x3becff47	0.00723258
119	0x3da3af7a	0.07992454
120	0x3d916dca	0.07101019
121	0xbdd477f1	-0.103744395
122	0x3e10f089	0.14154257
123	0x3ca79766	0.020457935
124	0x3e08150b	0.13289277
125	0x3dff1112	0.12454428
126	0xbd22ccc0	-0.039746046
127	0x3d3631a3	0.04448093
128	0xbca89449	-0.02057852
129	0x3e3144b3	0.17311363
130	0xbcd0c335	-0.025483707
131	0xbc646fd4	-0.0139426775
132	0x3e641a0b	0.2227556
133	0x3e0022b0	0.12513232
134	0x3e03c7a3	0.12869124
135	0x3db4eae4	0.08833864
136	0x3de60041	0.11230517
137	0xbe3a770e	-0.18209478
138	0xbe19b68e	-0.15011045
139	0xbdc0f030	-0.09420812
140	0x3d8262db	0.063665114
141	0xbe0250a9	-0.12726082
142	0x3df1f0a9	0.118134804
143	0xbc879472	-0.016550276
144	0xbdcce264	-0.10004118
145	0x3d27dcc2	0.040982015
146	0xbe05a630	-0.13051677
147	0xbd765b2a	-0.060145535
148	0x3c98edf5	0.018668154
149	0xbd1ff910	-0.039055884

Q_net.linear3.bias f4 [3]
0	0x3e233822	0.15939382
1	0x3da62242	0.08112003
2	0x3e0e0298	0.13868177

Target_Q_Net.linear1.weight f4 [50, 150]
0	0xbd1cc329	-0.038272057
1	0xbb6af528	-0.003585169
2	0x3dcb6e20	0.09933114
3	0x3d70a94a	0.058755197
4	0xbd760ce9	-0.060070906
5	0xbe1ac81f	-0.15115403
6	0xbc1112e0	-0.008854598
7	0x3d64f43e	0.05589699
8	0xbd4d6754	-0.05014737
9	0xbdb1174e	-0.08647023
10	0x3d93d4b7	0.072183065
11	0x3b397676	0.0028299368
12	0xbca7d92b	-0.020489296
13	0x3cf83b1a	0.03030162
14	0xbd108e92	-0.035292216
15	0xbe65c8b5	-0.22439845
16	0xbe31cd22	-0.17363408
17	0x3d4f8175	0.05066057
18	0x3d7b410d	0.061341334
19	0xbdaf2b78	-0.08553213
20	0xbb9195b9	-0.004442897
21	0x3daa7799	0.08323593
22	0x3ce61e48	0.028090611
23	0x3d28ea2e	0.041238956
24	0x3bd0b91a	0.006369722
25	0xbc8f8982	-0.017521624
26	0x3ddf779b	0.10911485
27	0x3cccdab0	0.025006622
28	0x3c5b2876	0.013376346
29	0x3ce29f4e	0.027663853
30	0x3dab8497	0.08374899
31	0xbbbe1c60	-0.0058017224
32	0x3b350602	0.002762199
33	0xbd61c785	-0.055121917
34	0x3d8a1b60	0.067435026
35	0xbe0f6d77	-0.14006601
36	0x3df5d8e5	0.1200426
37	0xbd5e3943	-0.054253828
38	0x3bb578fa	0.005538103
39	0xbc12618a	-0.008934388
40	0x3cbdba43	0.023160106
41	0xbc865452	-0.016397629
42	0x3d946334	0.07245484
43	0x3b43a899	0.002985513
44	0xbd1deef0	-0.038557947
45	0x3c641d23	0.013922962
46	0x3d34bf4c	0.044127747
47	0xbca60b5d	-0.02026909
48	0x3d3b6cba	0.045757987
49	0xbc36a0cc	-0.011146735
50	0x3ce65c9e	0.028120335
51	0x3db2abf3	0.08724203
52	0x3dcdeae4	0.100545675
53	0x3dd303bd	0.103034474
54	0xbccff6a1	-0.025386157
55	0xbe273bf9	-0.16331472
56	0xbd0e9a1a	-0.03481493
57	0x3d0ba44f	0.034092244
58	0xbcdf20e3	-0.027237361
59	0x3b8f1f91	0.0043677767
60	0x3d827da1	0.06371618
61	0x3c2c5dec	0.01052044
62	0xbd1b8ab5	-0.03797408
63	0x3d83a7cc	0.06428489
64	0xbcc2d21f	-0.023781834
65	0xbbbeb883	-0.0058203354
66	0xbbcf7ad2	-0.00633178
67	0xbd8f494c	-0.06996402
68	0x3dc651fe	0.096836075
69	0xbd23210c	-0.039826438
70	0x3c6d931d	0.014500407
71	0x3da5495b	0.08070632
72	0x3cdf058d	0.027224327
73	0x3d2ea3d1	0.042636696
74	0x3ca6291e	0.020283278
75	0x3d589192	0.0528732
76	0x3d668b20	0.056285024
77	0xbd39a22a	-0.045320667
78	0xbcfb294f	-0.030659346
79	0xbd973809	-0.07383735
80	0x3d4ab7cb	0.049491685
81	0x3b7f0d5e	0.003891788
82	0x3ca855e9	0.020548778
83	0xbcce8d44	-0.025213845
84	0xbd848c5f	-0.06472086
85	0xbc2d776d	-0.010587555
86	0x3cff1e21	0.031142296
87	0x3b1b6787	0.002371283
88	0x3db52865	0.08845595
89	0xbc01e933	-0.007929134
90	0x3ca49524	0.020090647
91	0x3d5d641c	0.05405055
92	0x3c88cc04	0.016698845
93	0x3cc9478c	0.024570249
94	0x3d3e49a4	0.046456948
95	0xbccc5267	-0.024941636
96	0xbdd49df0	-0.10381687
97	0x3cbaad9a	0.022787858
98	0x3d9d22dc	0.076726645
99	0xbb279765	-0.0025572416
100	0x3d583ccc	0.052792355
101	0xbc0d56fa	-0.008626694
102	0x3d740dfd	0.059583653
103	0x3d975cf9	0.0739078
104	0x3c43da7e	0.011953948
105	0x3d6a9d78	0.05727908
106	0xbdd1cf68	-0.10244638
107	0x3c8cd279	0.017190205
108	0xbc16afe9	-0.009197214
109	0x3d53c797	0.051704016
110	0x3dcefdcf	0.10107004
111	0x3d2dc996	0.042428575
112	0x3dac5bce	0.08415948
113	0xbd146b7d	-0.03623532
114	0x3b011726	0.0019697635
115	0x3d414bd7	0.047191467
116	0xbd8c6998	-0.06856078
117	0xbdbad9dd	-0.091235854
118	0xbd48f5e3	-0.04906262
119	0xbc54bc13	-0.0129842935
120	0xbd77519c	-0.060380563
121	0x3c013d8f	0.007888212
122	0x3b2defb9	0.002654059
123	0xbc77dae2	-0.015127869
124	0xbb1a0a8c	-0.0023504822
125	0x3d4847ca	0.04889659
126	0xbb955a43	-0.004557879
127	0xbd9dac77	-0.07698911
128	0x3dd2e20a	0.1029702
129	0xbd8ccfe6	-0.06875591
130	0x3d7f4a7b	0.06232689
131	0x3d32a557	0.04361471
132	0x3d9405d9	0.07227678
133	0xbc5da930	-0.013529107
134	0xbd8a7fd7	-0.06762665
135	0xbc921e63	-0.017836755
136	0x3d831d29	0.06402046
137	0xbc379441	-0.01120478
138	0xbd188eea	-0.03724567
139	0xbd33d5a9	-0.043904934
140	0x3d3d9473	0.04628415
141	0x3d4541ed	0.048158575
142	0xbd6b39e2	-0.05742825
143	0x3dcd3871	0.10020531
144	0x3863d81e	5.4322292e-05
145	0xbd7b506e	-0.061356
146	0xbd728c07	-0.05921557
147	0xbdd946c3	-0.106092
148	0xbd0b1460	-0.033954978
149	0x3d2750e8	0.040848643
150	0x3e108c69	0.14116062
151	0xbb0ebd19	-0.0021780191
152	0x3d429a6f	0.04751056
153	0x3db530d0	0.08847201
154	0x3dc73788	0.097273886
155	0xbe7a9fd2	-0.24475029
156	0x3d35ba41	0.04436708
157	0xbdaf0b31	-0.085470565
158	0x3e0948dd	0.13406701
159	0xbd75068c	-0.059820697
160	0xbb586ba0	-0.0033023134
161	0x3da9da7a	0.08293624
162	0x3d0f1767	0.034934428
163	0xbabeb5bd	-0.0014550012
164	0x3d58bb02	0.05291272
165	0xbe48c47a	-0.196062
166	0x3d32fead	0.04369991
167	0x3cab164c	0.020884655
168	0x3de2d0c1	0.11074973
169	0x3baab721	0.005209819
170	0x3c62be34	0.013839293
171	0xbbe5090c	-0.006989604
172	0x3c3b9005	0.011447911
173	0x3c6f5a20	0.01460889
174	0x3e163d62	0.14671853
175	0xbdfb18e6	-0.122606084
176	0xbd88b24d	-0.06674633
177	0xbd152937	-0.03641626
178	0xbb163b1f	-0.0022923423
179	0xbda19118	-0.078890026
180	0xbc4ab92a	-0.012373248
181	0x3dcb9e75	0.09942333
182	0x3dfafaf2	0.12254895
183	0x3d362bd5	0.044475395
184	0x3d87a687	0.066235594
185	0xbdaed76b	-0.085371815
186	0x3d50ae11	0.050947253
187	0xbd3da6a3	-0.046301495
188	0x3cb9bab0	0.022672027
189	0x3d832275	0.064030565
190	0x3e0352c1	0.12824537
191	0xbc2258d9	-0.009908878
192	0x3d677503	0.056508075
193	0x3e010b89	0.12602057
194	0x3d445619	0.04793367
195	0xbe3b41cf	-0.18286823
196	0x3dd6a0d9	0.10479898
197	0xbd97a005	-0.07403568
198	0x3dbc586c	0.09196553
199	0xbd03b23e	-0.032152407
200	0x3dede94c	0.116167635
201	0x3d58da31	0.05294246
202	0x3d243b9f	0.04009592
203	0x3dee2141	0.116274364
204	0x3e0fd1b0	0.14044833
205	0xbdd3ff0d	-0.103513815
206	0x3d8cba93	0.06871524
207	0xbd9ed68e	-0.07755767
208	0x3ce3a86a	0.027790267
209	0x3d5368b1	0.051613513
210	0x3c8e5661	0.017375173
211	0x3bde465e	0.0067832908
212	0x3e02c560	0.12770605
213	0x3dd5bc0d	0.104362585
214	0x3d785e2d	0.060636688
215	0x3e443845	0.1916209
216	0x3e3bfd47	0.18358336
217	0xbdc6ba64	-0.0970352
218	0x3c6b497d	0.014360783
219	0x3cb9fd48	0.022703782
220	0x3e09d690	0.13460755
221	0x3d94db97	0.07268446
222	0x3d7ad418	0.061237425
223	0x3d6f7082	0.058456905
224	0x3df5e09b	0.12005731
225	0x3d7ceb63	0.06174792
226	0x3e272351	0.16322066
227	0x3d1a4477	0.03766295
228	0x3e142c2f	0.1446998
229	0x3ced4566	0.028963756
230	0x3d7d28da	0.061806537
231	0x3d35104b	0.04420499
232	0x3dc770c1	0.09738303
233	0x3da8d490	0.08243668
234	0x3da53850	0.080673814
235	0xbe14f6d7	-0.14547287
236	0x3d850d39	0.06496663
237	0xbd79eded	-0.06101792
238	0x3d9b3025	0.07577542
239	0x3d99c6b3	0.07508602
240	0x3e11bdac	0.1423251
241	0x3def0fae	0.116729125
242	0x3de5548d	0.111977674
243	0x3be4e5cb	0.0069854013
244	0x3e229053	0.15875368
245	0xbdc38e5e	-0.09548639
246	0x38d352c7	0.000100766825
247	0xbd72883c	-0.059211954
248	0x3d9be4fc	0.07612035
249	0xbc93ccd7	-0.018042011
250	0x3e102e67	0.14080201
251	0x3de7cc8a	0.113183096
252	0x3c9a113e	0.01880705
253	0x3e018760	0.12649298
254	0x3e147b53	0.1450017
255	0xbc5773c5	-0.01315016

Target_Q_Net.linear1.bias f4 [50]
0	0xbc325a76	-0.010885825
1	0x3d66863d	0.056280363
2	0x3bdef009	0.0068035168
3	0xbdf2467f	-0.11829852
4	0x3e2befe8	0.16790736
5	0x3cf99f9f	0.030471621
6	0xbdccc3e5	-0.099983014
7	0x3caed254	0.021340527
8	0x3d89a302	0.067205444
9	0xbc355e31	-0.01106982
10	0x3d88e631	0.066845305
11	0x3d56a7e4	0.052406207
12	0x3d056ba8	0.032573372
13	0xbd8ff9c2	-0.070300594
14	0x3d917145	0.071016826
15	0xbb3b2b9e	-0.0028559933
16	0xbd258c5d	-0.040417064
17	0xbd0d49cc	-0.034494206
18	0x3e455e2c	0.19274205
19	0x3d1a3f76	0.037658177
20	0x3b74a59d	0.0037330159
21	0x3d053aa2	0.03252662
22	0x3c3e2371	0.01160513
23	0x3dd6fbfe	0.104972824
24	0xbcd6ff41	-0.026244761
25	0xbdd5a1cd	-0.10431252
26	0x3dc56dec	0.096401066
27	0x3d959f26	0.07305746
28	0xbc7343df	-0.014847725
29	0xbb5f98eb	-0.0034118246
30	0xbd58d3aa	-0.052936234
31	0x3db49eb9	0.088193364
32	0x3d02bb85	0.031917114
33	0x3da18b37	0.07887881
34	0xbc82a08f	-0.0159457
35	0x3d03bd8e	0.032163195
36	0x3c8ad97e	0.016949411
37	0xbd3fab66	-0.046794318
38	0x3d1f3ef9	0.038878415
39	0x3d9e76e0	0.07737517
40	0xbd0c5d93	-0.034268927
41	0xbd88f834	-0.06687966
42	0x3de2eb71	0.11080063
43	0x3d68039a	0.05664406
44	0x3cb581ca	0.022156615
45	0x3d9367e6	0.071975514
46	0x3d4cae5f	0.04997098
47	0x3dc956bd	0.09830997
48	0x3b24cbee	0.0025145966
49	0xbca0d9be	-0.019635078

Target_Q_Net.linear2.weight f4 [50, 50]
0	0xbe099c29	-0.13438477
1	0xbdc24e7b	-0.09487625
2	0xbd857280	-0.0651598
3	0x3c9392ae	0.018014278
4	0x3d675458	0.05647692
5	0xbca9affb	-0.020713797
6	0x3d0f31cc	0.0349596
7	0x3d5cfa08	0.053949386
8	0xbc37843a	-0.011200959
9	0xbcb0d700	-0.021586895
10	0xbcfa73a4	-0.03057272
11	0x3dc0e6f4	0.09419051
12	0xbcd2fcba	-0.025755275
13	0xbe0433b1	-0.12910344
14	0xbd5ec1cb	-0.054384034
15	0x3d1bd5e2	0.03804577
16	0xbd473553	-0.04863484
17	0x3dc7c4c4	0.09754327
18	0x3e2b3782	0.16720393
19	0xbcb79953	-0.022411978
20	0x3dbeefc6	0.09323077
21	0xbe1c39e2	-0.15256456
22	0xbdc5b31d	-0.09653304
23	0xbdb07824	-0.08616665
24	0xbdf5d451	-0.12003387
25	0xbe1906ef	-0.14944051
26	0xbdae202f	-0.08502232
27	0x3cd638b2	0.026150081
28	0xbdf10a77	-0.11769574
29	0xbe14ae71	-0.14519669
30	0x3d246e43	0.040144216
31	0x3d867eb8	0.065671384
32	0x3ceb2866	0.028705787
33	0x3dfffeb9	0.12499756
34	0xbd3e1e9e	-0.046415918
35	0xbe01b4c2	-0.1266661
36	0x3e05c8ac	0.13064831
37	0xbe1213ff	-0.1426544
38	0x3bf5812a	0.007492204
39	0xbd226ff8	-0.039657563
40	0x3e209483	0.15681653
41	0x3dab8acd	0.083760835
42	0xbc16a4f8	-0.009194605
43	0xbd76369b	-0.06011067
44	0xbe198304	-0.14991385
45	0x3d9d5059	0.07681341
46	0x3d88e6f0	0.06684673
47	0x3daf2349	0.08551652
48	0xbc65e481	-0.01403153
49	0x3df2166c	0.11820683
50	0xbdb24528	-0.08704597
51	0x3e16077c	0.14651293
52	0xbdeab670	-0.114605784
53	0xbdb85115	-0.0899984
54	0x3da1de8c	0.079037756
55	0x3e107413	0.14106779
56	0x3c4f59f4	0.012655724
57	0xbcf120e6	-0.029434633
58	0xbb56197a	-0.0032668994
59	0xbd6a1eee	-0.057158403
60	0xbc3a4632	-0.011369275
61	0xbd0306ca	-0.031988896
62	0x3da669b4	0.0812563
63	0xbd02e4f6	-0.031956635
64	0x3e69c9f9	0.22830953
65	0x3d2392e3	0.039935004
66	0x3d3d5c32	0.046230502
67	0xbd81a939	-0.06331105
68	0x3cb4e1e1	0.022080364
69	0xbdf511bb	-0.119662724
70	0x3d4e7213	0.05040176
71	0x3dc8cf7c	0.098051995
72	0xbdca845d	-0.098885275
73	0xbdedb170	-0.11606109
74	0x3cc3461f	0.023837147
75	0xbdd8c182	-0.10583784
76	0x3dec5c97	0.115410976
77	0xbdd0e92d	-0.10200725
78	0x3d9c877a	0.076430276
79	0x3da49674	0.08036509
80	0xbde1ab1c	-0.11018965
81	0x3bbcdabd	0.0057633803
82	0xbe17274c	-0.14761084
83	0xbd3ea69b	-0.046545606
84	0xbe038097	-0.12842022
85	0x3ddceff8	0.10787958
86	0x3db46326	0.088079736
87	0x3e3ff49d	0.18745656
88	0xbdbc6b44	-0.09200147
89	0xbe21220f	-0.15735649
90	0x3da79c0d	0.08184061
91	0x3d2c96ea	0.04213611
92	0x3cdf8a4e	0.027287629
93	0x3dd48c5a	0.103783324
94	0xbe059bc4	-0.13047701
95	0xbd2619a8	-0.04055181
96	0x3dbd45ac	0.092418045
97	0x3c29e183	0.010368708
98	0x3da2d409	0.07950599
99	0xbe2ba501	-0.16762163
100	0xbda6c89e	-0.081437334
101	0x3c701782	0.014654042
102	0xbc9b7d91	-0.018980773
103	0xbde4a061	-0.11163402
104	0xbdeb748c	-0.11496839
105	0xbd155e8b	-0.036467116
106	0x3df88281	0.12134267
107	0x3d72a762	0.05924166
108	0xbdb0ae01	-0.086269386
109	0x3b1de39d	0.0024091967
110	0xbd3301d6	-0.043702923
111	0xbd953f96	-0.07287519
112	0x3dc93ead	0.098264076
113	0x3d986d1d	0.07442687
114	0xbcecf062	-0.028923217
115	0x3c95a3b9	0.018266546
116	0x3d84a717	0.06477182
117	0x3cb40960	0.021977127
118	0xbc1a2d15	-0.009410162
119	0xbccdb680	-0.025111437
120	0x3d6a4977	0.057198968
121	0x3db8c228	0.09021407
122	0x3d970da2	0.07375647
123	0xbba19687	-0.0049312743
124	0x3d9f307e	0.07772921
125	0xbd9d3b34	-0.07677308
126	0x3dc0c24a	0.09412058
127	0xbdb6b3e6	-0.08921032
128	0x3d5128cf	0.05106431
129	0x3d6be308	0.05758956
130	0x3d9ccf88	0.07656771
131	0xbdef1938	-0.11674732
132	0xbd8ae426	-0.06781797
133	0xbe0925de	-0.13393351
134	0xbd883ef0	-0.066526294
135	0xbd6d3fc5	-0.057922143
136	0xbde79a56	-0.11308734
137	0x3dfcb34d	0.123388864
138	0x3b072fcb	0.0020627852
139	0x3d8c49bf	0.068500035
140	0x3da44ac0	0.0802207
141	0x3dc88c5e	0.09792398
142	0xbbd8b5d7	-0.006613474
143	0xbd91a5c2	-0.07111694
144	0x3c909b3d	0.017652148
145	0xbdd5c16c	-0.10437283
146	0xbd9b6773	-0.07588091
147	0xbcb38791	-0.021915229
148	0x3db13b49	0.08653886
149	0xbc33508c	-0.010944497
150	0x3c9eb76c	0.019374572
151	0x3ba1667f	0.0049255486
152	0xbd8ee691	-0.06977571
153	0x3cf4057c	0.029787771
154	0xbd77b8e5	-0.060479064
155	0xbe526718	-0.2054714
156	0x3c9fa787	0.019489063
157	0x3c09504d	0.008380962
158	0xbdde39cc	-0.10850868
159	0x3da06f55	0.07833735
160	0x3d8a3ffa	0.06750484
161	0x3dabed9c	0.0839493
162	0x3e159ed6	0.14611372
163	0x3d57fea3	0.052733075
164	0x3c3a5246	0.011372155
165	0x3dd46cc6	0.103723094
166	0x3dbdb481	0.09262944
167	0xbe1476c2	-0.14498428
168	0x3d83d6f4	0.064374834
169	0x3dcd7681	0.100323685
170	0xbd811cdc	-0.063043326
171	0xbd899137	-0.06717151
172	0xbe0ef272	-0.13959673
173	0xbdbdf26d	-0.09274755
174	0x3dedb0b2	0.116059676
175	0xbd28a70c	-0.041174933
176	0x3c4a8ea3	0.012363109
177	0x3dd48464	0.10376814
178	0x3e0c6491	0.13710238
179	0xbca4e4f0	-0.020128697
180	0xbe099d7d	-0.13438983
181	0xbd269621	-0.040670518
182	0xbbf193f3	-0.0073723732
183	0xbe28d729	-0.16488327
184	0xbd0a676e	-0.033790044
185	0xbce5613f	-0.028000472
186	0x3dc97719	0.09837169
187	0x3e0210bb	0.12701695
188	0xbd5d3d0e	-0.054013304
189	0x3d2e704e	0.04258757
190	0x3db3d822	0.087814584
191	0x3caf4965	0.021397302
192	0xbdce4085	-0.100709
193	0x3d0b0e29	0.03394905
194	0x3e0f7899	0.14010848
195	0xbdb171de	-0.086642966
196	0xbc384b41	-0.011248411
197	0x3d31888c	0.043343112
198	0xbdd05fab	-0.10174497
199	0xbdaa58c4	-0.08317712
200	0xbdeb5f40	-0.11492777
201	0x3d73661a	0.059423544
202	0x3c43b9d2	0.0119461585
203	0x3c2dcbf4	0.010607708
204	0x39db577d	0.0004183612
205	0xbd269436	-0.04066869
206	0x3d269793	0.040671896
207	0xbd93ace2	-0.07210709
208	0x3d94ddcd	0.07268868
209	0x3dc73e32	0.0972866
210	0x3d9dd9b3	0.077075385
211	0x3d209cdf	0.039212104
212	0xbd894bb5	-0.06703893
213	0xbddf8534	-0.10914078
214	0xbe2cf2c7	-0.16889487
215	0xbde1b03b	-0.110199414
216	0x3dab6a0c	0.08369836
217	0xbdca305c	-0.09872505
218	0x3e0e1c0a	0.13877884
219	0x3e3af078	0.18255794
220	0x3d32d34d	0.043658543
221	0x3d5d4604	0.05402185
222	0xbd9e2b0d	-0.07723055
223	0x3da05be2	0.07830025
224	0x3de44aa8	0.11147052
225	0xbe03396d	-0.12814875
226	0xbb97b58f	-0.004629798
227	0x3e02be34	0.12767869
228	0xbb9864d8	-0.0046506934
229	0xbdb819c5	-0.0898929
230	0x3c96b4e8	0.01839681
231	0x3df1a29a	0.11798592
232	0x3ca70197	0.0203865
233	0xbbcda4e7	-0.0062757614
234	0x3d496a9f	0.049173947
235	0x3c559d86	0.013038045
236	0xbd4cfaa0	-0.050043702
237	0x3df88f85	0.12136749
238	0x3ce8c642	0.02841485
239	0x3e0941ee	0.13404056
240	0xbd24868e	-0.040167384
241	0xbcd3863f	-0.02582085
242	0x3e0910f2	0.1338537
243	0x3dfe65cb	0.12421759
244	0x3db86bef	0.09004962
245	0x3e0b1752	0.13583115
246	0xbd9e1b5d	-0.07720063
247	0x3da3b8ee	0.07994257
248	0x3d2edd04	0.042691246
249	0x3d157431	0.036487762
250	0xbc151a4e	-0.00910051
251	0xbd448af8	-0.047984093
252	0x3e0a2c98	0.13493574
253	0x3d539bad	0.051662136
254	0xbd30a25e	-0.043123595
255	0x3ddafc8a	0.10692699

Target_Q_Net.linear2.bias f4 [50]
0	0x3d2d5d4a	0.042325296
1	0xbc942274	-0.018082835
2	0x3ccd94fc	0.025095455
3	0xbdd104ef	-0.10206019
4	0x3cb9b3ea	0.022668798
5	0xbda3a6b0	-0.079907775
6	0x3d51b019	0.05119333
7	0xbe16bca2	-0.14720395
8	0x3e43d668	0.19124758
9	0xbe575023	-0.21026663
10	0x3d2c2ff0	0.042037904
11	0xbd8bf140	-0.06833124
12	0x3ddad24c	0.10684642
13	0x3e2007f1	0.1562803
14	0x3e03e25e	0.12879321
15	0x3d59cd22	0.053174146
16	0x3d91a478	0.07111448
17	0x3d803999	0.06260986
18	0x3d343daa	0.04400412
19	0xbe17d340	-0.14826679
20	0x3d572dac	0.05253379
21	0xbc50e72e	-0.01275043
22	0x3dfffb84	0.12499145
23	0x3d4877c8	0.048942357
24	0x3c0c5ffd	0.008567807
25	0x3dd57018	0.10421771
26	0xbda9f519	-0.08298702
27	0x3dd9410a	0.10608108
28	0xbe064b61	-0.13114692
29	0x3e5f24b6	0.21791348
30	0x3d86d61a	0.065838054
31	0x3dd0aac2	0.101888195
32	0x3e24f84c	0.16110343
33	0x3e3e8961	0.18607093
34	0x3e3449bd	0.17606254
35	0x3c9478eb	0.018124064
36	0x3e0e644b	0.13905446
37	0x3d02a857	0.031898823
38	0xbd932737	-0.07185214
39	0xbe7f23b1	-0.24915959
40	0xbdc71e1c	-0.0972254
41	0x3d19f9c5	0.037591714
42	0x3dc1ad79	0.094569154
43	0x3d5e7268	0.054308325
44	0xbe85b2fd	-0.2611312
45	0x3d397b53	0.045283627
46	0x3de0bfb4	0.109740645
47	0x3d34a8ca	0.044106282
48	0xbd174e9d	-0.036940206
49	0x3d9ed90f	0.077562444

Target_Q_Net.linear3.weight f4 [3, 50]
0	0xbc80a5ad	-0.015704
1	0x3cb812f9	0.022469984
2	0x3dad4f1c	0.084623545
3	0xbe0238be	-0.12716958
4	0x3e05d0ea	0.13067976
5	0xbc3d382b	-0.011549036
6	0xbda3ae94	-0.079922825
7	0xbdd0a2fb	-0.10187336
8	0x3e284f91	0.16436602
9	0xbc0c61bf	-0.008568226
10	0x3d380902	0.044930466
11	0x3de9bc9a	0.11412926
12	0x3e05cfd5	0.13067563
13	0x3e3d445f	0.18483113
14	0xbd50ec6c	-0.05100672
15	0x3e0f58bb	0.13998692
16	0x3e29a9e0	0.16568708
17	0x3e0b5df6	0.13610062
18	0x3e2bfed9	0.16796435
19	0xbd5861b2	-0.052827545
20	0xbd37cc1e	-0.044872396
21	0xbd816c31	-0.06319464
22	0x3db988af	0.090592735
23	0xbdf1d4df	-0.1180818
24	0x3e1c3daf	0.15257905
25	0xbd456463	-0.04819144
26	0x3e044700	0.1291771
27	0x3df7e135	0.12103502
28	0x3bc7f09b	0.0061016805
29	0x3e0f086c	0.13968056
30	0x3e19b75f	0.15011357
31	0x3dc14e4d	0.09438763
32	0xbbcdddd7	-0.006282549
33	0x3d474d66	0.048657797
34	0x3d8ba8e0	0.0681932
35	0xbdfa570c	-0.12223634
36	0xbc9ebbc8	-0.01937665
37	0xbd8fc09e	-0.07019161
38	0x3dacb333	0.08432617
39	0xbdad9158	-0.08474988
40	0xbe12690b	-0.14297883
41	0x3c8cb8a2	0.017177884
42	0x3ddbe218	0.10736483
43	0xbd9b6252	-0.075871125
44	0x3e49819d	0.1967835
45	0x3d37843a	0.044803835
46	0x3e2270b2	0.15863302
47	0x3e69db92	0.22837666
48	0x3da2fcf3	0.079584025
49	0xbdcfeee9	-0.1015299
50	0x3df52b36	0.119711325
51	0xbe1f0bcb	-0.15531842
52	0x3dff6156	0.12469737
53	0x3dcdff2c	0.10058436
54	0x3e07b0e3	0.1325107
55	0x3e1f65c4	0.15566164
56	0x3dea0c79	0.1142816
57	0xbdda7bdb	-0.10668155
58	0xbdf20f02	-0.11819269
59	0xbdbca879	-0.09211821
60	0x3d9b08a2	0.07570006
61	0xbda4751c	-0.08030149
62	0xbdd6bc37	-0.10485118
63	0xbc42f75c	-0.011899795
64	0xbdf9b68d	-0.12193022
65	0x3c1d89fb	0.009615417
66	0x3d951098	0.07278556
67	0xbe1b57d6	-0.15170226
68	0x3cd3fc84	0.025877245
69	0xbdc23d65	-0.09484366
70	0x3ddb5105	0.107088126
71	0x3bff7c2a	0.007796784
72	0xbd98b545	-0.074564494
73	0xbcf5609e	-0.029953297
74	0x3c971ced	0.01844641
75	0x3d8aa884	0.06770423
76	0xbd66d1ca	-0.056352414
77	0x3d79a8c3	0.06095196
78	0x3dd5e9e5	0.104450025
79	0x3de963a0	0.11395955
80	0x3debb08d	0.11508284
81	0x3dd20b9b	0.1025612
82	0x3e802636	0.25029153
83	0x3ded09ab	0.1157411
84	0x3e0541b6	0.13013348
85	0x3e0a7b0a	0.13523498
86	0x3de4e5c4	0.11176637
87	0x3cba13d1	0.022714527
88	0xbc6e888a	-0.014558921
89	0xbc9bb2ab	-0.019006094
90	0x3d8bfaf1	0.06834973
91	0xbe0d64dd	-0.13808008
92	0x3c09a851	0.008401946
93	0xbe05b4bb	-0.13057224
94	0x3eac7947	0.33686277
95	0xbe12bbed	-0.143295
96	0xbe1ef77b	-0.15524094
97	0xbd9437f0	-0.07237232
98	0x3dc823c6	0.09772448
99	0xbe013608	-0.12618268
100	0x3db2cb09	0.08730132
101	0x3d20c733	0.03925247
102	0xbdbabd32	-0.091181174
103	0x3dabc821	0.08387781
104	0xbc417c1b	-0.011809374
105	0x3d4d56c2	0.050131567
106	0x3dffc6a4	0.124890596
107	0xbd1595e9	-0.03651992
108	0x3cf7ef91	0.030265601
109	0xbdbd1813	-0.092331074
110	0xbcbf14d1	-0.023325356
111	0xbb9b7a94	-0.004744837
112	0xbe6266ed	-0.22109576
113	0xbbc4744b	-0.0059953085
114	0x3e055bcc	0.13023299
115	0xbd0df7b5	-0.03466006
116	0x3dc71129	0.0972007
117	0x3e14009d	0.14453359
118	0x3becff47	0.00723258
119	0x3da3af7a	0.07992454
120	0x3d916dca	0.07101019
121	0xbdd477f1	-0.103744395
122	0x3e10f089	0.14154257
123	0x3ca79766	0.020457935
124	0x3e08150b	0.13289277
125	0x3dff1112	0.12454428
126	0xbd22ccc0	-0.039746046
127	0x3d3631a3	0.04448093
128	0xbca89449	-0.02057852
129	0x3e3144b3	0.17311363
130	0xbcd0c335	-0.025483707
131	0xbc646fd4	-0.0139426775
132	0x3e641a0b	0.2227556
133	0x3e0022b0	0.12513232
134	0x3e03c7a3	0.12869124
135	0x3db4eae4	0.08833864
136	0x3de60041	0.11230517
137	0xbe3a770e	-0.18209478
138	0xbe19b68e	-0.15011045
139	0xbdc0f030	-0.09420812
140	0x3d8262db	0.063665114
141	0xbe0250a9	-0.12726082
142	0x3df1f0a9	0.118134804
143	0xbc879472	-0.016550276
144	0xbdcce264	-0.10004118
145	0x3d27dcc2	0.040982015
146	0xbe05a630	-0.13051677
147	0xbd765b2a	-0.060145535
148	0x3c98edf5	0.018668154
149	0xbd1ff910	-0.039055884

Target_Q_Net.linear3.bias f4 [3]
0	0x3e233822	0.15939382
1	0x3da62242	0.08112003
2	0x3e0e0298	0.13868177
