Model/ILQN/result/DQN/agent_ddqn_000625_SZ_0_5.pt (torch_old, 84180 bytes, 12 tensors)

Q_net.linear1.weight f4 [50, 150]
00000000: c51f 42bd 323d 76bd 78f1 5cbd 2c76 ddbc
00000010: e594 77bd a5e3 fa3d 4362 8dbc 4fc3 edbc
00000020: eb82 793c 9cee 833b 1950 84bd d831 9c3d
00000030: 806c 853d dc2c 7bbd 0a92 8dbd 0b29 b63d
00000040: b8b6 2bbe 6868 7c3d e6ed 1cbd d4c6 853d
00000050: 18fb a83d de6d 9e3d d1b3 54bc ec04 b53d
00000060: 18fe cd3b e875 143e 26cf b3bd 87b7 903d
00000070: bb98 68bd 7363 8fbd faa4 463d e4e0 4a3d
00000080: 2ec7 823c b9c9 be3c 1301 0b3d 0b9b bc3d
00000090: 64ab 983d b2bf 503c 27eb 5f3d fd07 613d
000000a0: 2b34 4e3d 8022 233d 0db9 b1bc 6abf 46bd
000000b0: c917 68bc 7e93 5b3d da7b 34bd 7cb3 8dbc
000000c0: 0e4a 89bd de65 9a3d 047d d33a 34e7 4bbc
000000d0: e576 833d 290c 7abd 670b 103d 1ce6 6a3b
000000e0: 47ac 15be f2ec 513c 8eaf c83c 0646 6f3b
000000f0: 7220 16bd 5076 b73d 1b3c 71bd 0bd7 b53d
00000100: dbae 73bd bcc9 4a3c 71d7 30bd 2624 9a3c
00000110: 4acc 1fbd 3671 293c cdb4 493c 8a57 3bbd
00000120: 4369 63bd 2be8 b33d 4f99 e8bc 701e 96bc
00000130: eb30 c8bd eb22 323b b265 6b3d 30dd 03bd
00000140: b4c6 e33c a6b1 253d 2770 9ebc 30c5 a93d
00000150: b8da 743d 7ae1 e5bd 3517 a3bd 5d42 c33d
00000160: ab2f 713d 8068 5b3a f29d 97bc bbba 5cbd
00000170: e421 83bd bdb9 383d dc94 863d cb2c 5cbd
00000180: a4fc 12be a41e d43d d589 8b3d f902 14bc
00000190: 1d43 29bd 721a 953d 7d71 29bd c3d3 8eba
000001a0: c7b7 94bd 258d 7fbc 41e8 b5bc 0b36 de3b
000001b0: 28a9 06bd 78ad 90bd b2d4 803d f05a 89bd
000001c0: ad5d 73bc a922 403d 643f 723d 38b5 683d
000001d0: 0c9f fabc beb6 803d e367 663d 4156 eb3c
000001e0: 9124 ad3d 4bf2 50bd a930 9d3c b0c1 a6bc
000001f0: 3642 78bc 4c07 273d 79a0 bcbd 9111 81bb
00000200: c812 e53c aef5 d2bc 8610 083d 1126 ff3c
00000210: 692b 373d af65 433d f4a0 4ebd 460d 59bd
00000220: ef02 543d 1bd8 6bbd 3e7c 6f3d daea 61bb
00000230: eaff 123d 3281 1a3d b537 923c fb26 c23c
00000240: c661 5c3b 90fa f6bc 3153 c23c ff59 8e3c
00000250: 8b88 fe3c 3161 cd3c 1e9d 0ebd 798d 753d
00000260: 3d50 80bc e3dd fb3c 4654 97bd 7714 1fbd
00000270: daea 03bd b463 583d dcff 4dbd a609 4a3c
00000280: 1d8a 483d 8afe c3bc e46c 34bc e9a0 98bc
00000290: de8c df3c 9f19 b7bc 7a6d 04bd 1660 8fbd
000002a0: d38e 7cbd 2aa3 04bd 9c9e 93bb 440c 663c
000002b0: 976c 833a e685 4ebd 0eaf 0a3c 0015 e1bd
000002c0: c1b6 10be bcc1 4ebd 670f 2f3d 9eea 6bbd
000002d0: e770 33bd bf18 4b3d 92e5 89bd 058e 183d
000002e0: 99b7 94bd 9301 bcbd d23f 5fbe 9b26 8ebd
000002f0: c2b8 5dbd be0c 07bd 089d 4a3d 207b 57bd
00000300: 61d3 45bc 220f fd3c 06f4 53bd 747a f4bd
00000310: 0b72 853c b977 e43c c0ae f13c 4f70 6d3c
00000320: d855 6fbd f132 02bc 4a19 91bd b302 0ebb
00000330: 9c19 efbb 89f3 6f3c 7832 d0bb f769 1f3d
00000340: 304e a33d 7a3e 883d 5834 263d 538e 94bd
00000350: f621 253d b648 ed3c 874a e0bb e388 443d
00000360: 26fe eb3c e207 06bd b266 e53c 408b 1fbd
00000370: 614f 86bd d6a5 97bd 1140 103d 5e5b 66bd
00000380: bcaf 00bd ad38 423d ff81 293d 6ad2 7f3d
00000390: b6c8 21bd 7e94 aa3d fedd 29bd d442 babc
000003a0: 30eb 94bd 76ff 74bd 9bc7 47bd 7b3f c73d
000003b0: 7c72 803b 6731 5b3d 4985 82bd bf8a 2e3d
000003c0: fc4f d9bc 6e1b b33b cc2e 49bd 39f9 9b3d
000003d0: 3fc1 1ebd 932a a63d 28ea 83bd 96a6 003d
000003e0: 3308 eab9 3376 8a3d 0f81 f2bb 5884 c8bc
000003f0: 86f9 bcbc fd5f 97bc ced8 37bd 6130 0fbb
-0.04739358 -0.060116954 -0.05394122 -0.027033888 -0.06044473 0.12250451 -0.017258769 -0.029023794
0.015228967 0.004026247 -0.0646059 0.076266944 0.06514835 -0.061322078 -0.0691262 0.08894547
-0.1676892 0.061623007 -0.038312815 0.06532064 0.08251017 0.07735799 -0.012982325 0.088388294
0.006286394 0.14498103 -0.08779745 0.07066255 -0.05678628 -0.0700139 0.048497178 0.04953088
0.015964117 0.023289548 0.03393657 0.092092596 0.07454565 0.012741016 0.054667618 0.05493926
0.05034272 0.039827824 -0.021694684 -0.04852239 -0.014165827 0.053607456 -0.044063427 -0.017297499
-0.06703578 0.07538961 0.001613528 -0.01244526 0.06419162 -0.061046753 0.035167124 0.0035842722
-0.146165 0.01281284 0.024497773 0.0036510243 -0.036652036 0.08958113 -0.05889521 0.08878907
-0.059492927 0.012377199 -0.04317421 0.018816065 -0.039013185 0.010341933 0.012311173 -0.04573778
-0.055520307 0.08784517 -0.028393416 -0.01832506 -0.09774955 0.0027181457 0.05747003 -0.032193363
0.02780471 0.040452622 -0.019340588 0.08289564 0.0597789 -0.11224647 -0.07963411 0.09534142
0.05888335 0.0008369759 -0.018507931 -0.053889018 -0.064029485 0.04509901 0.065713614 -0.053753655
-0.14354187 0.10357407 0.06813399 -0.009033912 -0.04132377 0.07280435 -0.041367996 -0.001089685
-0.07261615 -0.015597616 -0.022205474 0.006781345 -0.032876164 -0.070643365 0.062905684 -0.06706798
-0.014853877 0.046908055 0.059142485 0.05681345 -0.030593418 0.06284855 0.056251418 0.028727653
0.0845424 -0.05101232 0.019188242 -0.02035603 -0.015152505 0.040778443 -0.09210295 -0.0039388617
0.027963057 -0.025751915 0.033218883 0.031146081 0.044719134 0.047704395 -0.050446466 -0.052991174
0.05176061 -0.05757914 0.058468096 -0.0034472258 0.03588859 0.037720867 0.017848829 0.023700228
0.0033627613 -0.030148774 0.02372131 0.017376898 0.031070968 0.025070759 -0.034817807 0.059949372
-0.01566326 0.030745452 -0.07389121 -0.038837876 -0.032206394 0.05282946 -0.050292835 0.012331402
0.04895984 -0.023925085 -0.01101229 -0.018631415 0.02728885 -0.022351084 -0.032330967 -0.07000749
-0.061659645 -0.032382168 -0.0045049917 0.01404101 0.0010026869 -0.050420664 0.008464588 -0.109903336
-0.14132215 -0.05047773 0.0427393 -0.057596795 -0.043808844 0.049584147 -0.0673324 0.037244815
-0.07261581 -0.09179988 -0.2180169 -0.06940957 -0.054131277 -0.032971136 0.049466163 -0.052607656
-0.012074322 0.030891005 -0.05174639 -0.119374186 0.016289731 0.02788912 0.029502273 0.0144921085
-0.058431476 -0.007946716 -0.07084902 -0.002166909 -0.007296754 0.014645466 -0.0063536726 0.038919415
0.079738975 0.066525415 0.040577263 -0.07253709 0.04031559 0.028965335 -0.006844822 0.047982108
0.02880771 -0.03272236 0.02800307 -0.03895116 -0.06558109 -0.074046776 0.03521735 -0.05623948
-0.031417593 0.04741733 0.04138374 0.062456526 -0.039498053 0.08329104 -0.041471474 -0.022736944
-0.07271421 -0.05981394 -0.048774343 0.09728905 0.0039198976 0.05351391 -0.063730784 0.042612787
-0.026527397 0.0054659164 -0.049116895 0.07615895 -0.038758513 0.08113589 -0.06441146 0.03140887
-0.00044638067 0.06760826 -0.007400639 -0.024477169 -0.0230682 -0.018478388 -0.044884495 -0.0021848904

Q_net.linear1.bias f4 [50]
00000000: dab1 383d c7e6 5b3c e695 dd3d dfa5 1ebd
00000010: c841 6dbd e35a aebd fdc6 853d e9e3 88bd
00000020: 2a75 86bd 594f c83c d7fc f83d 4e2a 163e
00000030: 8d50 b43d 2cfc 803b f0aa 623d 8859 5cb9
00000040: cd97 5fbd a085 203c 859b 153d b773 103d
00000050: e243 0f3c 93c3 8ebd 84ae 0c3e 52d0 cf3d
00000060: 8a5a 263e 4695 dfbb 5f35 a4bc 2823 05be
00000070: 4be1 0fbc 5881 993d b9ec 27bd 82ca b2bd
00000080: 6a47 3d3d e021 8c3c 1e1f 97bd 5dc5 263e
00000090: 63d5 933d bd11 39bd 11ab f53b 202d 933d
000000a0: d81d acbc be91 89ba d30a 803d 43cc b63d
000000b0: 0c1e 463c a103 ce3d 244d bfbd 345a 2bbd
000000c0: ca68 31bd f32c e43d
0.045091487 0.013421721 0.108196065 -0.038732406 -0.057924062 -0.08513429 0.06532095 -0.066840954
-0.06565316 0.024451898 0.121576004 0.14664575 0.08804426 0.003936311 0.0553388 -0.00021014188
-0.054588128 0.009797484 0.036525268 0.035266604 0.008744212 -0.069708966 0.13738447 0.10147156
0.16245475 -0.0068232147 -0.02004498 -0.13001692 -0.008781741 0.074953735 -0.04099724 -0.087300315
0.046210684 0.017105997 -0.07378982 0.16286226 0.07218435 -0.045182932 0.0074971993 0.07186341
-0.021010324 -0.0010495705 0.062520646 0.089256786 0.012092125 0.10059286 -0.09340885 -0.04183407
-0.043312825 0.11141386

Q_net.linear2.weight f4 [50, 50]
00000000: baa3 41bd 3e24 4abd 6e67 9f3d 82a4 343d
00000010: d4ae 85bd 4671 0c3e a5e0 fc3c 6141 3c3d
00000020: ab41 d8bd f243 08be eb9a a2bd 083e e1bd
00000030: 302a 77bc 0495 db3d 5fb9 a7bc 0bdd a5bd
00000040: f564 0abe 8ef7 18bd 7801 56bc e297 c3bc
00000050: aac1 f8bb 7f45 96bd 7a7a 503d 59fa d03d
00000060: c732 7bbd 0eb4 b83d c799 1e3e ebef 8dbd
00000070: efe7 34bd c882 fdbd 9343 b3bc c049 c73d
00000080: 637a e63d 23f2 c83d 8a75 c43d a1da 1dbd
00000090: 2ed4 e5bd 8f82 febb 3eaa f23d 0d53 583d
000000a0: 3587 a83d f9e9 12be 91c4 8b3d 511b aa3d
000000b0: 41b2 0ebe d58d bdbd 1c89 f3bc 14a6 e23c
000000c0: d623 0abe 3a7d 983d dfd3 acbd 473c 843c
000000d0: c136 cfbd c3b5 82bb f52b 433d 3ebb debc
000000e0: 8eb4 db3d 2744 103e 84e8 8a3a d971 033e
000000f0: f6ad b3bd d5ca 943c 4d3e db3c 8864 e8bd
00000100: 24cb 0f3e bd12 d8bd 571c 22bc 7149 97bb
00000110: 7cc6 613d 70dc 1dbd 8169 f4b9 9ae1 c43d
00000120: c51e 71bd a6ca fe3d 8fbe bcbd 54f4 3abc
00000130: 7fd2 0f3e 53a1 043e 3a28 903d 66dc 063e
00000140: 0825 c4bd c930 22be b5e9 5bbd 9195 6cbd
00000150: 472f 9fbd 87b5 f7bd 6999 afbd f10d e4bd
00000160: f648 f3bd f018 7dbd a75e 75bd 82df 5ebd
00000170: dace 023e ba02 933c 4437 3cbe b71b 0ebc
00000180: ebac 1fbd c341 bdbd 26e6 903b b7f2 a13d
00000190: 9c97 663c 08d8 9fbd 41d2 42bd 02e3 153e
000001a0: f082 94bd 3af2 50bd 06a0 52bc 7c75 f8bb
000001b0: 07dd 703b d366 3fbd 102e 8dbd bc62 273d
000001c0: a439 b73c 91eb a83c f14c f1bc 17b4 8bbd
000001d0: 3c7e 1cbe 8fa3 863d 9cf9 9fbd bba1 113d
000001e0: 77ea 25bd 30e1 ed3d 6fa2 37be 957c d53c
000001f0: 9596 0dbe f1b8 8d3c 97d7 6dbd fda2 2bbe
00000200: aca4 c43d 8ca0 a8bd 68e2 943b 40e4 9c3d
00000210: f335 c93b 0c15 31be 8d10 67bd 52a6 0e3e
00000220: 5ccd 773d 7c6c f43c 9ae4 08bd 8e70 f3bd
00000230: 3abc 013e 9dcd 4c3d 3063 683d 3a75 043e
00000240: ee8d b13d 0265 263d c62e 0b3e 38e9 fc3d
00000250: 402f a6bd 1032 47bc 91c2 b9bd 3d6f d33d
00000260: e534 713d e330 01be d6bb 1abc 25b2 313d
00000270: 0ec1 0e3d ab92 6b3d 8ccc 06bd 804c aa3d
00000280: 3847 b63d fdfd 9f3c 46a2 c8bd db3b 083e
00000290: 8917 afbc 75a3 873c 6b0c 3b3e 4b5b 213c
000002a0: 13e8 37bd c733 013d 6b44 023d a19b 76bd
000002b0: 0f07 ccbd 02b3 48bd 47f4 223e 615f 95bd
000002c0: 2c9f c8bd 8dc3 b1bd a6c4 c8bd 2abc 04be
000002d0: 20fb 08bd 64e3 dfbd 6fa2 a2bc f613 353c
000002e0: 8897 8e3d d49a 3ebd 9115 a33d 687c dbbd
000002f0: 71bc b2bd 6f3e e1bc 3685 c1bc b172 d4bd
00000300: 9fd4 c4b9 f05e 063e 5c9c 24bd c3d1 bcbd
00000310: 1ec8 063e 1eda 9abd 7d33 e43c a6fc d13d
00000320: 1509 3e3e 7bc4 eabd 0747 0b3e c69b 093e
00000330: 80ab 7c3d cf1b 15bd d985 eb3d 6463 a5bd
00000340: 89e1 f23d 4436 de3a 48cc 1c3d 0cd2 b0bd
00000350: eb57 743d e952 7cbd a45b b53d 04c4 7cbb
00000360: 167f 0dbd 57e7 44bd c238 60bd 67ca cfbd
00000370: 44cc a73c 21f5 053e 9675 a83d 19f7 833d
00000380: b110 8bbd 08c6 d63d 1f6a 92bd df5a cd3d
00000390: f044 e5bd cf08 dabd cc3e 8c3d 8ea2 c0bd
000003a0: 79ac 483c 4cf9 da3d a68b dc3d f940 c4bd
000003b0: 1d44 693d 1cd6 1dbd 5f33 aebd 91c5 c2bd
000003c0: 014b 5fbd b854 9d3d 1a1d 02be 6232 81bd
000003d0: bde6 5b3d d409 febd 0ca6 e43d 1f92 093e
000003e0: 853c 1e39 e819 813d ca93 fb3d 70a5 a7bd
000003f0: 4d9a 7b3d 8272 583d be14 01be 2b2b 56bd
-0.047275282 -0.04935097 0.077833995 0.0441022 -0.065274864 0.13715085 0.030868838 0.045960788
-0.105594 -0.13307169 -0.079397045 -0.1099816 -0.015085742 0.10721782 -0.020474134 -0.08098801
-0.13515075 -0.03734546 -0.013061874 -0.023876134 -0.007591446 -0.07337474 0.050898053 0.10204
-0.061327722 0.09018718 0.15488349 -0.06930526 -0.0441665 -0.1237846 -0.021882808 0.097308636
0.11253812 0.09811809 0.09592731 -0.03853858 -0.11222111 -0.0077670286 0.11848877 0.05281358
0.08228914 -0.14347066 0.068246014 0.083059914 -0.13935186 -0.09255568 -0.029728465 0.027667083
-0.13490233 0.0744576 -0.08438849 0.016142024 -0.10117865 -0.003988953 0.047649343 -0.027188893
0.107277974 0.14088498 0.001059786 0.12836398 -0.08773415 0.018163124 0.026763106 -0.113473
0.14042336 -0.10550449 -0.009894452 -0.004616909 0.05512093 -0.038540304 -0.00046617913 0.096133426
-0.058867235 0.12440996 -0.09216034 -0.011410791 0.14045142 0.12952165 0.070389226 0.13170013
-0.09577376 -0.15838923 -0.053689677 -0.057759825 -0.07772689 -0.120951705 -0.085741825 -0.111354716
-0.118791506 -0.06179136 -0.05990472 -0.054412372 0.1277422 0.017945636 -0.18380457 -0.0086736
-0.038983267 -0.09241059 0.004421967 0.07907622 0.014074232 -0.078048766 -0.047563795 0.14637378
-0.07251537 -0.051012255 -0.012855535 -0.0075823646 0.0036752836 -0.04672892 -0.06893551 0.040865645
0.022366352 0.02062014 -0.029455634 -0.06821459 -0.1528253 0.06574165 -0.07811281 0.03555463
-0.040506806 0.11615217 -0.17933057 0.026060382 -0.13826974 0.017300101 -0.05806693 -0.16761394
0.09601721 -0.08233747 0.0045435913 0.07660723 0.0061404645 -0.17293185 -0.05641227 0.13930634
0.06049858 0.029836886 -0.033421136 -0.118867025 0.12669459 0.050000776 0.056735218 0.12935343
0.08669649 0.040623672 0.13592061 0.123491704 -0.08114481 -0.012157932 -0.09070314 0.103239514
0.058888335 -0.12616305 -0.009444198 0.043382782 0.03485208 0.05751292 -0.032909915 0.083153725
0.08900303 0.01953029 -0.09796576 0.13304083 -0.021373527 0.016557435 0.18266456 0.009848426
-0.044899058 0.03154352 0.03180353 -0.060207013 -0.09962284 -0.04899884 0.15913497 -0.07293583
-0.097959846 -0.086798765 -0.09803133 -0.12962404 -0.033442616 -0.10932043 -0.019852845 0.011052122
0.06962496 -0.046534374 0.07963098 -0.10717088 -0.087273486 -0.027495591 -0.02362309 -0.10373438
-0.00037542448 0.13122153 -0.04018818 -0.092196964 0.13162276 -0.07561134 0.027856583 0.10253267
0.18558152 -0.11463257 0.13601314 0.13438329 0.061686993 -0.036403473 0.11500139 -0.08075598
0.11859424 0.0016953428 0.038280755 -0.08633813 0.059654158 -0.061602507 0.0885537 -0.0038568983
-0.034545027 -0.048072185 -0.05474163 -0.10146027 0.020483144 0.1308179 0.08225553 0.064436145
-0.06790293 0.1048699 -0.07149147 0.10027098 -0.111947894 -0.10646211 0.06847915 -0.09406005
0.012248152 0.10692081 0.10768823 -0.09582705 0.056949724 -0.03853427 -0.08505892 -0.09510339
-0.05451489 0.076821744 -0.12706414 -0.06308438 0.053686846 -0.12404218 0.111644834 0.13434647
0.000150906 0.06303769 0.12284048 -0.081858516 0.06142645 0.05284358 -0.12605569 -0.052287262

Q_net.linear2.bias f4 [50]
00000000: b405 4dbd 63ac 46be 6e19 2cbe 1031 573e
00000010: b1c1 44be 4c2e 093e 2d74 7a3e ff09 153e
00000020: e46e 52be c852 43be 9ff5 68bd a967 203e
00000030: ceb7 d9bd f997 cf3d 0fac e43d dc5a c93d
00000040: 4ca0 2e3e fabb 7b3d b292 8f3e badb 8d3d
00000050: 0451 513d 3318 61bd 7d15 25be 762e c73b
00000060: f6ac adbd a0ce ebbd d815 9d3d 0498 e53c
00000070: 290e fa3c 5275 3c3e a90e 443d 97b3 813e
00000080: 0a08 5f3e 0bd3 eebd 7903 853d 7fb9 0a3d
00000090: 9bef 333b 23e8 d33d 907e 2f3e 5e14 8dbc
000000a0: 0777 a4bd 2912 0f3e b22d c2bc 706e d8bd
000000b0: a8d8 ae3d 6ddc 773e 7ff7 b23d 879b adbd
000000c0: 319c 503e a6e3 93bd
-0.050054267 -0.19401698 -0.16806576 0.2101481 -0.19214512 0.13396567 0.2445838 0.14554594
-0.20550114 -0.19074547 -0.056874868 0.15664543 -0.10630761 0.10136408 0.1116563 0.09831783
0.17053336 0.061458565 0.28041607 0.06926675 0.051102653 -0.05495472 -0.16121478 0.0060785366
-0.08480255 -0.1151402 0.07670182 0.028026588 0.03052433 0.18404129 0.047865544 0.2533233
0.2178041 -0.11661347 0.06494803 0.03386831 0.0027456048 0.10347011 0.17138124 -0.017221626
-0.08030515 0.13971771 -0.02370343 -0.10567939 0.08537418 0.2420518 0.087386124 -0.0847693
0.20372082 -0.07221155

Q_net.linear3.weight f4 [3, 50]
00000000: 03c1 5abd f742 a3bd 3ddf cfbd a811 d63d
00000010: ac15 e93c 7a22 d73b 785f cd3c e849 91bd
00000020: 013c 43bd 7022 dbbd a9a1 9cbd 651d 1c3d
00000030: 7bc5 c1bd 2067 623d 42cb 8ebd 9322 ab3c
00000040: 347b 783d 93dc 323d 6c4e d03c bf0e c43b
00000050: f50d 48bc 524a 65bc d239 8f3d 18b6 033d
00000060: 7f45 bcbd 5846 a7bd c920 673d b007 f4bd
00000070: 0b62 b13d bb68 fc3d 2ef9 1bbd 8e88 9c3d
00000080: c7c2 023e 76fc 303d 3565 8bbd 404c 95bd
00000090: 9555 adbd 65e4 fc3d 66b8 953d f82e 84bb
000000a0: b71e cc3d 7865 ff3d ca5c 32be 2ab6 99bd
000000b0: edf4 cebc 54dd f33d efd1 cf3d 9cdb 05be
000000c0: e62b c13d 5065 333d 5ba5 d43c b19f 643d
000000d0: 1169 fbbd da8b 12bd 22c7 253d c1fe 833c
000000e0: 8ab2 713c becd abbd a132 79bd 267c b33d
000000f0: bb6a d63d b628 17bd 36d7 d4bd 1247 a73b
00000100: 1e7b 4d3d 9fb0 cc3d 248f b73d 36ad aa3d
00000110: 079b 313c f9a7 b8bd 911b 15bc 2c10 c63c
00000120: 247b c43c 0d0f 9f3d 0f49 d63c 9bba 5abd
00000130: 0bae 793d c8aa 7e3d d22a 883d 2f0e 1abd
00000140: c893 253d 2119 82bd 9099 24bd fdbb fabc
00000150: 2dcb 5dbd 0f77 8e3d e504 1b3d 31a4 afbd
00000160: 7881 4bbc 3206 1c3d b4d7 913d 2b72 a2bb
00000170: 850e d5bd b73b 083e 5b35 e63c 8de8 023e
00000180: 6a9b 8bbd b59b 203d f2ac fbbb 68d6 7abd
00000190: 6b2b 4b3d f6c8 8bbd 5442 17bd 049a 1e3d
000001a0: 5322 e4bd 3ed9 e33d bf37 023e e438 c83d
000001b0: 8b02 c0bc 603e 8abd a0d2 463c 84df 193d
000001c0: a41e d63b 0355 a43d 26a3 bb3d d0fc 683d
000001d0: e02c 0c3d 19cf 9dbd d850 6d3d d0f0 5bbd
000001e0: 2b4e 863d 7288 9fbd 9c66 57bd fe20 133c
000001f0: 32c6 a2bd b859 4a3d 6703 b5bc 698a 163d
00000200: 7a25 47bd 90ec bc3d f8d8 433a 8b4f 1f3d
00000210: 6198 ec3c af91 6bbd 4ada a63c 84fb 283c
00000220: 3db3 7fbd b337 b4bd 2a2a 663d 3425 72bd
00000230: 5536 8bbd 3416 b13d bfcd 11bb 0966 6fbd
00000240: 8aaa ecbc 01fd 713d a983 aa3d 35f3 9b3d
00000250: d908 8f3d 08dd 31bd
-0.053406727 -0.07971757 -0.10150001 0.104525864 0.028452717 0.006565389 0.025069937 -0.070941746
-0.047664646 -0.10699928 -0.07648022 0.03811397 -0.094614945 0.05527413 -0.06972362 0.02089051
0.06066437 0.043667387 0.02542802 0.005983203 -0.012210359 -0.01399477 0.0699345 0.03215608
-0.09192943 -0.08167714 0.05642775 -0.11915529 0.08661278 0.12324663 -0.038079433 0.07643233
0.12769614 0.043209516 -0.06806413 -0.07289934 -0.08463589 0.1234825 0.07310562 -0.0040339194
0.09966796 0.124705255 -0.17418209 -0.07505448 -0.025263274 0.11907449 0.101474635 -0.13072056
0.09432201 0.04379779 0.025957754 0.055816356 -0.12275899 -0.035777904 0.04047311 0.016112687
0.01475204 -0.083888516 -0.0608393 0.08763914 0.10469576 -0.03690406 -0.10392611 0.005104908
0.05016624 0.09994625 0.08962849 0.083338186 0.010840184 -0.09016413 -0.009100811 0.024177633
0.0239845 0.077665426 0.026157884 -0.053400617 0.060956996 0.06217459 0.06648792 -0.037611183
0.04042414 -0.06352449 -0.04018551 -0.030607218 -0.05414884 0.069563024 0.037846465 -0.08576239
-0.0124210045 0.038091846 0.0712122 -0.0049574575 -0.1040316 0.1330403 0.028101614 0.12784024
-0.06816752 0.039210994 -0.007680529 -0.06123963 0.049601953 -0.0682544 -0.03692849 0.0387211
-0.11139359 0.1112542 0.12716578 0.09776476 -0.023438713 -0.06750178 0.012135178 0.037566677
0.0065344144 0.08024027 0.091619775 0.056881726 0.034222484 -0.07705516 0.057938427 -0.053696454
0.06557878 -0.07789697 -0.05258809 0.008980034 -0.07947959 0.04940197 -0.022096349 0.036753092
-0.048619725 0.09224808 0.00074709905 0.038894217 0.028881254 -0.05751198 0.02036776 0.010313872
-0.062426794 -0.08799686 0.056192555 -0.05911751 -0.067974724 0.08646813 -0.0022247878 -0.058446918
-0.028889913 0.059079174 0.083258934 0.076147474 0.069841094 -0.043423682

Q_net.linear3.bias f4 [3]
00000000: ff1b 5b3e d1df 2bbe 5741 3d3e
0.21397398 -0.16784598 0.18481956

Target_Q_Net.linear1.weight f4 [50, 150]
00000000: c51f 42bd 323d 76bd 78f1 5cbd 2c76 ddbc
00000010: e594 77bd a5e3 fa3d 4362 8dbc 4fc3 edbc
00000020: eb82 793c 9cee 833b 1950 84bd d831 9c3d
00000030: 806c 853d dc2c 7bbd 0a92 8dbd 0b29 b63d
00000040: b8b6 2bbe 6868 7c3d e6ed 1cbd d4c6 853d
00000050: 18fb a83d de6d 9e3d d1b3 54bc ec04 b53d
00000060: 18fe cd3b e875 143e 26cf b3bd 87b7 903d
00000070: bb98 68bd 7363 8fbd faa4 463d e4e0 4a3d
00000080: 2ec7 823c b9c9 be3c 1301 0b3d 0b9b bc3d
00000090: 64ab 983d b2bf 503c 27eb 5f3d fd07 613d
000000a0: 2b34 4e3d 8022 233d 0db9 b1bc 6abf 46bd
000000b0: c917 68bc 7e93 5b3d da7b 34bd 7cb3 8dbc
000000c0: 0e4a 89bd de65 9a3d 047d d33a 34e7 4bbc
000000d0: e576 833d 290c 7abd 670b 103d 1ce6 6a3b
000000e0: 47ac 15be f2ec 513c 8eaf c83c 0646 6f3b
000000f0: 7220 16bd 5076 b73d 1b3c 71bd 0bd7 b53d
00000100: dbae 73bd bcc9 4a3c 71d7 30bd 2624 9a3c
00000110: 4acc 1fbd 3671 293c cdb4 493c 8a57 3bbd
00000120: 4369 63bd 2be8 b33d 4f99 e8bc 701e 96bc
00000130: eb30 c8bd eb22 323b b265 6b3d 30dd 03bd
00000140: b4c6 e33c a6b1 253d 2770 9ebc 30c5 a93d
00000150: b8da 743d 7ae1 e5bd 3517 a3bd 5d42 c33d
00000160: ab2f 713d 8068 5b3a f29d 97bc bbba 5cbd
00000170: e421 83bd bdb9 383d dc94 863d cb2c 5cbd
00000180: a4fc 12be a41e d43d d589 8b3d f902 14bc
00000190: 1d43 29bd 721a 953d 7d71 29bd c3d3 8eba
000001a0: c7b7 94bd 258d 7fbc 41e8 b5bc 0b36 de3b
000001b0: 28a9 06bd 78ad 90bd b2d4 803d f05a 89bd
000001c0: ad5d 73bc a922 403d 643f 723d 38b5 683d
000001d0: 0c9f fabc beb6 803d e367 663d 4156 eb3c
000001e0: 9124 ad3d 4bf2 50bd a930 9d3c b0c1 a6bc
000001f0: 3642 78bc 4c07 273d 79a0 bcbd 9111 81bb
00000200: c812 e53c aef5 d2bc 8610 083d 1126 ff3c
00000210: 692b 373d af65 433d f4a0 4ebd 460d 59bd
00000220: ef02 543d 1bd8 6bbd 3e7c 6f3d daea 61bb
00000230: eaff 123d 3281 1a3d b537 923c fb26 c23c
00000240: c661 5c3b 90fa f6bc 3153 c23c ff59 8e3c
00000250: 8b88 fe3c 3161 cd3c 1e9d 0ebd 798d 753d
00000260: 3d50 80bc e3dd fb3c 4654 97bd 7714 1fbd
00000270: daea 03bd b463 583d dcff 4dbd a609 4a3c
00000280: 1d8a 483d 8afe c3bc e46c 34bc e9a0 98bc
00000290: de8c df3c 9f19 b7bc 7a6d 04bd 1660 8fbd
000002a0: d38e 7cbd 2aa3 04bd 9c9e 93bb 440c 663c
000002b0: 976c 833a e685 4ebd 0eaf 0a3c 0015 e1bd
000002c0: c1b6 10be bcc1 4ebd 670f 2f3d 9eea 6bbd
000002d0: e770 33bd bf18 4b3d 92e5 89bd 058e 183d
000002e0: 99b7 94bd 9301 bcbd d23f 5fbe 9b26 8ebd
000002f0: c2b8 5dbd be0c 07bd 089d 4a3d 207b 57bd
00000300: 61d3 45bc 220f fd3c 06f4 53bd 747a f4bd
00000310: 0b72 853c b977 e43c c0ae f13c 4f70 6d3c
00000320: d855 6fbd f132 02bc 4a19 91bd b302 0ebb
00000330: 9c19 efbb 89f3 6f3c 7832 d0bb f769 1f3d
00000340: 304e a33d 7a3e 883d 5834 263d 538e 94bd
00000350: f621 253d b648 ed3c 874a e0bb e388 443d
00000360: 26fe eb3c e207 06bd b266 e53c 408b 1fbd
00000370: 614f 86bd d6a5 97bd 1140 103d 5e5b 66bd
00000380: bcaf 00bd ad38 423d ff81 293d 6ad2 7f3d
00000390: b6c8 21bd 7e94 aa3d fedd 29bd d442 babc
000003a0: 30eb 94bd 76ff 74bd 9bc7 47bd 7b3f c73d
000003b0: 7c72 803b 6731 5b3d 4985 82bd bf8a 2e3d
000003c0: fc4f d9bc 6e1b b33b cc2e 49bd 39f9 9b3d
000003d0: 3fc1 1ebd 932a a63d 28ea 83bd 96a6 003d
000003e0: 3308 eab9 3376 8a3d 0f81 f2bb 5884 c8bc
000003f0: 86f9 bcbc fd5f 97bc ced8 37bd 6130 0fbb
-0.04739358 -0.060116954 -0.05394122 -0.027033888 -0.06044473 0.12250451 -0.017258769 -0.029023794
0.015228967 0.004026247 -0.0646059 0.076266944 0.06514835 -0.061322078 -0.0691262 0.08894547
-0.1676892 0.061623007 -0.038312815 0.06532064 0.08251017 0.07735799 -0.012982325 0.088388294
0.006286394 0.14498103 -0.08779745 0.07066255 -0.05678628 -0.0700139 0.048497178 0.04953088
0.015964117 0.023289548 0.03393657 0.092092596 0.07454565 0.012741016 0.054667618 0.05493926
0.05034272 0.039827824 -0.021694684 -0.04852239 -0.014165827 0.053607456 -0.044063427 -0.017297499
-0.06703578 0.07538961 0.001613528 -0.01244526 0.06419162 -0.061046753 0.035167124 0.0035842722
-0.146165 0.01281284 0.024497773 0.0036510243 -0.036652036 0.08958113 -0.05889521 0.08878907
-0.059492927 0.012377199 -0.04317421 0.018816065 -0.039013185 0.010341933 0.012311173 -0.04573778
-0.055520307 0.08784517 -0.028393416 -0.01832506 -0.09774955 0.0027181457 0.05747003 -0.032193363
0.02780471 0.040452622 -0.019340588 0.08289564 0.0597789 -0.11224647 -0.07963411 0.09534142
0.05888335 0.0008369759 -0.018507931 -0.053889018 -0.064029485 0.04509901 0.065713614 -0.053753655
-0.14354187 0.10357407 0.06813399 -0.009033912 -0.04132377 0.07280435 -0.041367996 -0.001089685
-0.07261615 -0.015597616 -0.022205474 0.006781345 -0.032876164 -0.070643365 0.062905684 -0.06706798
-0.014853877 0.046908055 0.059142485 0.05681345 -0.030593418 0.06284855 0.056251418 0.028727653
0.0845424 -0.05101232 0.019188242 -0.02035603 -0.015152505 0.040778443 -0.09210295 -0.0039388617
0.027963057 -0.025751915 0.033218883 0.031146081 0.044719134 0.047704395 -0.050446466 -0.052991174
0.05176061 -0.05757914 0.058468096 -0.0034472258 0.03588859 0.037720867 0.017848829 0.023700228
0.0033627613 -0.030148774 0.02372131 0.017376898 0.031070968 0.025070759 -0.034817807 0.059949372
-0.01566326 0.030745452 -0.07389121 -0.038837876 -0.032206394 0.05282946 -0.050292835 0.012331402
0.04895984 -0.023925085 -0.01101229 -0.018631415 0.02728885 -0.022351084 -0.032330967 -0.07000749
-0.061659645 -0.032382168 -0.0045049917 0.01404101 0.0010026869 -0.050420664 0.008464588 -0.109903336
-0.14132215 -0.05047773 0.0427393 -0.057596795 -0.043808844 0.049584147 -0.0673324 0.037244815
-0.07261581 -0.09179988 -0.2180169 -0.06940957 -0.054131277 -0.032971136 0.049466163 -0.052607656
-0.012074322 0.030891005 -0.05174639 -0.119374186 0.016289731 0.02788912 0.029502273 0.0144921085
-0.058431476 -0.007946716 -0.07084902 -0.002166909 -0.007296754 0.014645466 -0.0063536726 0.038919415
0.079738975 0.066525415 0.040577263 -0.07253709 0.04031559 0.028965335 -0.006844822 0.047982108
0.02880771 -0.03272236 0.02800307 -0.03895116 -0.06558109 -0.074046776 0.03521735 -0.05623948
-0.031417593 0.04741733 0.04138374 0.062456526 -0.039498053 0.08329104 -0.041471474 -0.022736944
-0.07271421 -0.05981394 -0.048774343 0.09728905 0.0039198976 0.05351391 -0.063730784 0.042612787
-0.026527397 0.0054659164 -0.049116895 0.07615895 -0.038758513 0.08113589 -0.06441146 0.03140887
-0.00044638067 0.06760826 -0.007400639 -0.024477169 -0.0230682 -0.018478388 -0.044884495 -0.0021848904

Target_Q_Net.linear1.bias f4 [50]
00000000: dab1 383d c7e6 5b3c e695 dd3d dfa5 1ebd
00000010: c841 6dbd e35a aebd fdc6 853d e9e3 88bd
00000020: 2a75 86bd 594f c83c d7fc f83d 4e2a 163e
00000030: 8d50 b43d 2cfc 803b f0aa 623d 8859 5cb9
00000040: cd97 5fbd a085 203c 859b 153d b773 103d
00000050: e243 0f3c 93c3 8ebd 84ae 0c3e 52d0 cf3d
00000060: 8a5a 263e 4695 dfbb 5f35 a4bc 2823 05be
00000070: 4be1 0fbc 5881 993d b9ec 27bd 82ca b2bd
00000080: 6a47 3d3d e021 8c3c 1e1f 97bd 5dc5 263e
00000090: 63d5 933d bd11 39bd 11ab f53b 202d 933d
000000a0: d81d acbc be91 89ba d30a 803d 43cc b63d
000000b0: 0c1e 463c a103 ce3d 244d bfbd 345a 2bbd
000000c0: ca68 31bd f32c e43d
0.045091487 0.013421721 0.108196065 -0.038732406 -0.057924062 -0.08513429 0.06532095 -0.066840954
-0.06565316 0.024451898 0.121576004 0.14664575 0.08804426 0.003936311 0.0553388 -0.00021014188
-0.054588128 0.009797484 0.036525268 0.035266604 0.008744212 -0.069708966 0.13738447 0.10147156
0.16245475 -0.0068232147 -0.02004498 -0.13001692 -0.008781741 0.074953735 -0.04099724 -0.087300315
0.046210684 0.017105997 -0.07378982 0.16286226 0.07218435 -0.045182932 0.0074971993 0.07186341
-0.021010324 -0.0010495705 0.062520646 0.089256786 0.012092125 0.10059286 -0.09340885 -0.04183407
-0.043312825 0.11141386

Target_Q_Net.linear2.weight f4 [50, 50]
00000000: baa3 41bd 3e24 4abd 6e67 9f3d 82a4 343d
00000010: d4ae 85bd 4671 0c3e a5e0 fc3c 6141 3c3d
00000020: ab41 d8bd f243 08be eb9a a2bd 083e e1bd
00000030: 302a 77bc 0495 db3d 5fb9 a7bc 0bdd a5bd
00000040: f564 0abe 8ef7 18bd 7801 56bc e297 c3bc
00000050: aac1 f8bb 7f45 96bd 7a7a 503d 59fa d03d
00000060: c732 7bbd 0eb4 b83d c799 1e3e ebef 8dbd
00000070: efe7 34bd c882 fdbd 9343 b3bc c049 c73d
00000080: 637a e63d 23f2 c83d 8a75 c43d a1da 1dbd
00000090: 2ed4 e5bd 8f82 febb 3eaa f23d 0d53 583d
000000a0: 3587 a83d f9e9 12be 91c4 8b3d 511b aa3d
000000b0: 41b2 0ebe d58d bdbd 1c89 f3bc 14a6 e23c
000000c0: d623 0abe 3a7d 983d dfd3 acbd 473c 843c
000000d0: c136 cfbd c3b5 82bb f52b 433d 3ebb debc
000000e0: 8eb4 db3d 2744 103e 84e8 8a3a d971 033e
000000f0: f6ad b3bd d5ca 943c 4d3e db3c 8864 e8bd
00000100: 24cb 0f3e bd12 d8bd 571c 22bc 7149 97bb
00000110: 7cc6 613d 70dc 1dbd 8169 f4b9 9ae1 c43d
00000120: c51e 71bd a6ca fe3d 8fbe bcbd 54f4 3abc
00000130: 7fd2 0f3e 53a1 043e 3a28 903d 66dc 063e
00000140: 0825 c4bd c930 22be b5e9 5bbd 9195 6cbd
00000150: 472f 9fbd 87b5 f7bd 6999 afbd f10d e4bd
00000160: f648 f3bd f018 7dbd a75e 75bd 82df 5ebd
00000170: dace 023e ba02 933c 4437 3cbe b71b 0ebc
00000180: ebac 1fbd c341 bdbd 26e6 903b b7f2 a13d
00000190: 9c97 663c 08d8 9fbd 41d2 42bd 02e3 153e
000001a0: f082 94bd 3af2 50bd 06a0 52bc 7c75 f8bb
000001b0: 07dd 703b d366 3fbd 102e 8dbd bc62 273d
000001c0: a439 b73c 91eb a83c f14c f1bc 17b4 8bbd
000001d0: 3c7e 1cbe 8fa3 863d 9cf9 9fbd bba1 113d
000001e0: 77ea 25bd 30e1 ed3d 6fa2 37be 957c d53c
000001f0: 9596 0dbe f1b8 8d3c 97d7 6dbd fda2 2bbe
00000200: aca4 c43d 8ca0 a8bd 68e2 943b 40e4 9c3d
00000210: f335 c93b 0c15 31be 8d10 67bd 52a6 0e3e
00000220: 5ccd 773d 7c6c f43c 9ae4 08bd 8e70 f3bd
00000230: 3abc 013e 9dcd 4c3d 3063 683d 3a75 043e
00000240: ee8d b13d 0265 263d c62e 0b3e 38e9 fc3d
00000250: 402f a6bd 1032 47bc 91c2 b9bd 3d6f d33d
00000260: e534 713d e330 01be d6bb 1abc 25b2 313d
00000270: 0ec1 0e3d ab92 6b3d 8ccc 06bd 804c aa3d
00000280: 3847 b63d fdfd 9f3c 46a2 c8bd db3b 083e
00000290: 8917 afbc 75a3 873c 6b0c 3b3e 4b5b 213c
000002a0: 13e8 37bd c733 013d 6b44 023d a19b 76bd
000002b0: 0f07 ccbd 02b3 48bd 47f4 223e 615f 95bd
000002c0: 2c9f c8bd 8dc3 b1bd a6c4 c8bd 2abc 04be
000002d0: 20fb 08bd 64e3 dfbd 6fa2 a2bc f613 353c
000002e0: 8897 8e3d d49a 3ebd 9115 a33d 687c dbbd
000002f0: 71bc b2bd 6f3e e1bc 3685 c1bc b172 d4bd
00000300: 9fd4 c4b9 f05e 063e 5c9c 24bd c3d1 bcbd
00000310: 1ec8 063e 1eda 9abd 7d33 e43c a6fc d13d
00000320: 1509 3e3e 7bc4 eabd 0747 0b3e c69b 093e
00000330: 80ab 7c3d cf1b 15bd d985 eb3d 6463 a5bd
00000340: 89e1 f23d 4436 de3a 48cc 1c3d 0cd2 b0bd
00000350: eb57 743d e952 7cbd a45b b53d 04c4 7cbb
00000360: 167f 0dbd 57e7 44bd c238 60bd 67ca cfbd
00000370: 44cc a73c 21f5 053e 9675 a83d 19f7 833d
00000380: b110 8bbd 08c6 d63d 1f6a 92bd df5a cd3d
00000390: f044 e5bd cf08 dabd cc3e 8c3d 8ea2 c0bd
000003a0: 79ac 483c 4cf9 da3d a68b dc3d f940 c4bd
000003b0: 1d44 693d 1cd6 1dbd 5f33 aebd 91c5 c2bd
000003c0: 014b 5fbd b854 9d3d 1a1d 02be 6232 81bd
000003d0: bde6 5b3d d409 febd 0ca6 e43d 1f92 093e
000003e0: 853c 1e39 e819 813d ca93 fb3d 70a5 a7bd
000003f0: 4d9a 7b3d 8272 583d be14 01be 2b2b 56bd
-0.047275282 -0.04935097 0.077833995 0.0441022 -0.065274864 0.13715085 0.030868838 0.045960788
-0.105594 -0.13307169 -0.079397045 -0.1099816 -0.015085742 0.10721782 -0.020474134 -0.08098801
-0.13515075 -0.03734546 -0.013061874 -0.023876134 -0.007591446 -0.07337474 0.050898053 0.10204
-0.061327722 0.09018718 0.15488349 -0.06930526 -0.0441665 -0.1237846 -0.021882808 0.097308636
0.11253812 0.09811809 0.09592731 -0.03853858 -0.11222111 -0.0077670286 0.11848877 0.05281358
0.08228914 -0.14347066 0.068246014 0.083059914 -0.13935186 -0.09255568 -0.029728465 0.027667083
-0.13490233 0.0744576 -0.08438849 0.016142024 -0.10117865 -0.003988953 0.047649343 -0.027188893
0.107277974 0.14088498 0.001059786 0.12836398 -0.08773415 0.018163124 0.026763106 -0.113473
0.14042336 -0.10550449 -0.009894452 -0.004616909 0.05512093 -0.038540304 -0.00046617913 0.096133426
-0.058867235 0.12440996 -0.09216034 -0.011410791 0.14045142 0.12952165 0.070389226 0.13170013
-0.09577376 -0.15838923 -0.053689677 -0.057759825 -0.07772689 -0.120951705 -0.085741825 -0.111354716
-0.118791506 -0.06179136 -0.05990472 -0.054412372 0.1277422 0.017945636 -0.18380457 -0.0086736
-0.038983267 -0.09241059 0.004421967 0.07907622 0.014074232 -0.078048766 -0.047563795 0.14637378
-0.07251537 -0.051012255 -0.012855535 -0.0075823646 0.0036752836 -0.04672892 -0.06893551 0.040865645
0.022366352 0.02062014 -0.029455634 -0.06821459 -0.1528253 0.06574165 -0.07811281 0.03555463
-0.040506806 0.11615217 -0.17933057 0.026060382 -0.13826974 0.017300101 -0.05806693 -0.16761394
0.09601721 -0.08233747 0.0045435913 0.07660723 0.0061404645 -0.17293185 -0.05641227 0.13930634
0.06049858 0.029836886 -0.033421136 -0.118867025 0.12669459 0.050000776 0.056735218 0.12935343
0.08669649 0.040623672 0.13592061 0.123491704 -0.08114481 -0.012157932 -0.09070314 0.103239514
0.058888335 -0.12616305 -0.009444198 0.043382782 0.03485208 0.05751292 -0.032909915 0.083153725
0.08900303 0.01953029 -0.09796576 0.13304083 -0.021373527 0.016557435 0.18266456 0.009848426
-0.044899058 0.03154352 0.03180353 -0.060207013 -0.09962284 -0.04899884 0.15913497 -0.07293583
-0.097959846 -0.086798765 -0.09803133 -0.12962404 -0.033442616 -0.10932043 -0.019852845 0.011052122
0.06962496 -0.046534374 0.07963098 -0.10717088 -0.087273486 -0.027495591 -0.02362309 -0.10373438
-0.00037542448 0.13122153 -0.04018818 -0.092196964 0.13162276 -0.07561134 0.027856583 0.10253267
0.18558152 -0.11463257 0.13601314 0.13438329 0.061686993 -0.036403473 0.11500139 -0.08075598
0.11859424 0.0016953428 0.038280755 -0.08633813 0.059654158 -0.061602507 0.0885537 -0.0038568983
-0.034545027 -0.048072185 -0.05474163 -0.10146027 0.020483144 0.1308179 0.08225553 0.064436145
-0.06790293 0.1048699 -0.07149147 0.10027098 -0.111947894 -0.10646211 0.06847915 -0.09406005
0.012248152 0.10692081 0.10768823 -0.09582705 0.056949724 -0.03853427 -0.08505892 -0.09510339
-0.05451489 0.076821744 -0.12706414 -0.06308438 0.053686846 -0.12404218 0.111644834 0.13434647
0.000150906 0.06303769 0.12284048 -0.081858516 0.06142645 0.05284358 -0.12605569 -0.052287262

Target_Q_Net.linear2.bias f4 [50]
00000000: b405 4dbd 63ac 46be 6e19 2cbe 1031 573e
00000010: b1c1 44be 4c2e 093e 2d74 7a3e ff09 153e
00000020: e46e 52be c852 43be 9ff5 68bd a967 203e
00000030: ceb7 d9bd f997 cf3d 0fac e43d dc5a c93d
00000040: 4ca0 2e3e fabb 7b3d b292 8f3e badb 8d3d
00000050: 0451 513d 3318 61bd 7d15 25be 762e c73b
00000060: f6ac adbd a0ce ebbd d815 9d3d 0498 e53c
00000070: 290e fa3c 5275 3c3e a90e 443d 97b3 813e
00000080: 0a08 5f3e 0bd3 eebd 7903 853d 7fb9 0a3d
00000090: 9bef 333b 23e8 d33d 907e 2f3e 5e14 8dbc
000000a0: 0777 a4bd 2912 0f3e b22d c2bc 706e d8bd
000000b0: a8d8 ae3d 6ddc 773e 7ff7 b23d 879b adbd
000000c0: 319c 503e a6e3 93bd
-0.050054267 -0.19401698 -0.16806576 0.2101481 -0.19214512 0.13396567 0.2445838 0.14554594
-0.20550114 -0.19074547 -0.056874868 0.15664543 -0.10630761 0.10136408 0.1116563 0.09831783
0.17053336 0.061458565 0.28041607 0.06926675 0.051102653 -0.05495472 -0.16121478 0.0060785366
-0.08480255 -0.1151402 0.07670182 0.028026588 0.03052433 0.18404129 0.047865544 0.2533233
0.2178041 -0.11661347 0.06494803 0.03386831 0.0027456048 0.10347011 0.17138124 -0.017221626
-0.08030515 0.13971771 -0.02370343 -0.10567939 0.08537418 0.2420518 0.087386124 -0.0847693
0.20372082 -0.07221155

Target_Q_Net.linear3.weight f4 [3, 50]
00000000: 03c1 5abd f742 a3bd 3ddf cfbd a811 d63d
00000010: ac15 e93c 7a22 d73b 785f cd3c e849 91bd
00000020: 013c 43bd 7022 dbbd a9a1 9cbd 651d 1c3d
00000030: 7bc5 c1bd 2067 623d 42cb 8ebd 9322 ab3c
00000040: 347b 783d 93dc 323d 6c4e d03c bf0e c43b
00000050: f50d 48bc 524a 65bc d239 8f3d 18b6 033d
00000060: 7f45 bcbd 5846 a7bd c920 673d b007 f4bd
00000070: 0b62 b13d bb68 fc3d 2ef9 1bbd 8e88 9c3d
00000080: c7c2 023e 76fc 303d 3565 8bbd 404c 95bd
00000090: 9555 adbd 65e4 fc3d 66b8 953d f82e 84bb
000000a0: b71e cc3d 7865 ff3d ca5c 32be 2ab6 99bd
000000b0: edf4 cebc 54dd f33d efd1 cf3d 9cdb 05be
000000c0: e62b c13d 5065 333d 5ba5 d43c b19f 643d
000000d0: 1169 fbbd da8b 12bd 22c7 253d c1fe 833c
000000e0: 8ab2 713c becd abbd a132 79bd 267c b33d
000000f0: bb6a d63d b628 17bd 36d7 d4bd 1247 a73b
00000100: 1e7b 4d3d 9fb0 cc3d 248f b73d 36ad aa3d
00000110: 079b 313c f9a7 b8bd 911b 15bc 2c10 c63c
00000120: 247b c43c 0d0f 9f3d 0f49 d63c 9bba 5abd
00000130: 0bae 793d c8aa 7e3d d22a 883d 2f0e 1abd
00000140: c893 253d 2119 82bd 9099 24bd fdbb fabc
00000150: 2dcb 5dbd 0f77 8e3d e504 1b3d 31a4 afbd
00000160: 7881 4bbc 3206 1c3d b4d7 913d 2b72 a2bb
00000170: 850e d5bd b73b 083e 5b35 e63c 8de8 023e
00000180: 6a9b 8bbd b59b 203d f2ac fbbb 68d6 7abd
00000190: 6b2b 4b3d f6c8 8bbd 5442 17bd 049a 1e3d
000001a0: 5322 e4bd 3ed9 e33d bf37 023e e438 c83d
000001b0: 8b02 c0bc 603e 8abd a0d2 463c 84df 193d
000001c0: a41e d63b 0355 a43d 26a3 bb3d d0fc 683d
000001d0: e02c 0c3d 19cf 9dbd d850 6d3d d0f0 5bbd
000001e0: 2b4e 863d 7288 9fbd 9c66 57bd fe20 133c
000001f0: 32c6 a2bd b859 4a3d 6703 b5bc 698a 163d
00000200: 7a25 47bd 90ec bc3d f8d8 433a 8b4f 1f3d
00000210: 6198 ec3c af91 6bbd 4ada a63c 84fb 283c
00000220: 3db3 7fbd b337 b4bd 2a2a 663d 3425 72bd
00000230: 5536 8bbd 3416 b13d bfcd 11bb 0966 6fbd
00000240: 8aaa ecbc 01fd 713d a983 aa3d 35f3 9b3d
00000250: d908 8f3d 08dd 31bd
-0.053406727 -0.07971757 -0.10150001 0.104525864 0.028452717 0.006565389 0.025069937 -0.070941746
-0.047664646 -0.10699928 -0.07648022 0.03811397 -0.094614945 0.05527413 -0.06972362 0.02089051
0.06066437 0.043667387 0.02542802 0.005983203 -0.012210359 -0.01399477 0.0699345 0.03215608
-0.09192943 -0.08167714 0.05642775 -0.11915529 0.08661278 0.12324663 -0.038079433 0.07643233
0.12769614 0.043209516 -0.06806413 -0.07289934 -0.08463589 0.1234825 0.07310562 -0.0040339194
0.09966796 0.124705255 -0.17418209 -0.07505448 -0.025263274 0.11907449 0.101474635 -0.13072056
0.09432201 0.04379779 0.025957754 0.055816356 -0.12275899 -0.035777904 0.04047311 0.016112687
0.01475204 -0.083888516 -0.0608393 0.08763914 0.10469576 -0.03690406 -0.10392611 0.005104908
0.05016624 0.09994625 0.08962849 0.083338186 0.010840184 -0.09016413 -0.009100811 0.024177633
0.0239845 0.077665426 0.026157884 -0.053400617 0.060956996 0.06217459 0.06648792 -0.037611183
0.04042414 -0.06352449 -0.04018551 -0.030607218 -0.05414884 0.069563024 0.037846465 -0.08576239
-0.0124210045 0.038091846 0.0712122 -0.0049574575 -0.1040316 0.1330403 0.028101614 0.12784024
-0.06816752 0.039210994 -0.007680529 -0.06123963 0.049601953 -0.0682544 -0.03692849 0.0387211
-0.11139359 0.1112542 0.12716578 0.09776476 -0.023438713 -0.06750178 0.012135178 0.037566677
0.0065344144 0.08024027 0.091619775 0.056881726 0.034222484 -0.07705516 0.057938427 -0.053696454
0.06557878 -0.07789697 -0.05258809 0.008980034 -0.07947959 0.04940197 -0.022096349 0.036753092
-0.048619725 0.09224808 0.00074709905 0.038894217 0.028881254 -0.05751198 0.02036776 0.010313872
-0.062426794 -0.08799686 0.056192555 -0.05911751 -0.067974724 0.08646813 -0.0022247878 -0.058446918
-0.028889913 0.059079174 0.083258934 0.076147474 0.069841094 -0.043423682

Target_Q_Net.linear3.bias f4 [3]
00000000: ff1b 5b3e d1df 2bbe 5741 3d3e
0.21397398 -0.16784598 0.18481956
