Model/DQN/result/agent_dqn_600009_SH.pt (torch_old, 38521 bytes, 8 tensors)

Q_Net.linear1.weight f4 [30, 150]
0	0xbe9d2235	-0.3069016
1	0xbe8dd11a	-0.27698594
2	0xbe51da67	-0.2049347
3	0xbe88fc91	-0.26755193
4	0xbea819eb	-0.32832274
5	0xbb918e44	-0.004442008
6	0x3d55a5c5	0.052160043
7	0x3dfe2ceb	0.12410911
8	0xbe942e71	-0.28941682
9	0xbc93f201	-0.018059732
10	0xbe3c726f	-0.18403028
11	0xbe8b98b1	-0.27264932
12	0xbe94ef18	-0.29088664
13	0xbe85055e	-0.25980657
14	0xbe8b7bb4	-0.27242815
15	0xbcea27d5	-0.028583447
16	0xbcd191db	-0.025582245
17	0x3db6beb6	0.08923094
18	0xbe9c619d	-0.30543223
19	0xbdcc72bd	-0.09982822
20	0xbe3f3c86	-0.18675432
21	0xbea18b09	-0.31551388
22	0xbe62c391	-0.22144915
23	0xbe96791a	-0.29389268
24	0xbe6714b9	-0.22566499
25	0x3db7c11e	0.08972381
26	0x3dee7368	0.11643106
27	0x3c6ba46c	0.014382463
28	0xbe95f260	-0.2928648
29	0x3d28144a	0.041034974
30	0xbe8734b4	-0.26407397
31	0xbe3f9fa6	-0.18713245
32	0xbe93dd77	-0.28879902
33	0xbe264dda	-0.16240636
34	0xbe7b3e20	-0.24535418
35	0x3e1983e5	0.1499172
36	0x3d402d8f	0.046918448
37	0xbc0706ef	-0.008241399
38	0xbe6a887a	-0.22903624
39	0xbd1d2bc5	-0.03837182
40	0xbe8f9f66	-0.280513
41	0xbe8a8989	-0.27058056
42	0xbe6af399	-0.22944488
43	0xbe472405	-0.19447334
44	0xbe870803	-0.263733
45	0x3dd08d92	0.101832524
46	0x3d76fcc8	0.060299665
47	0x3d6470e7	0.055771735
48	0xbea57ca9	-0.3232167
49	0xbd27dda1	-0.040982846
50	0xbe4c14f6	-0.19929871
51	0xbe69c522	-0.22829106
52	0xbe2a85fa	-0.1665267
53	0xbe810b26	-0.25203818
54	0xbe9420f6	-0.28931397
55	0x3e0f8f99	0.14019622
56	0xbbd0f766	-0.0063771484
57	0xbabf6f07	-0.0014605232
58	0xbe6189b3	-0.22025184
59	0x3da4bae7	0.08043461
60	0xbe6d90c0	-0.23199749
61	0xbe476d79	-0.19475354
62	0xbe8eaaa6	-0.2786457
63	0xbe43874b	-0.19094579
64	0xbe9ebf31	-0.31005242
65	0x3dac7128	0.0842002
66	0xbc9f09fa	-0.019413937
67	0xbd6109fb	-0.05494116
68	0xbe389f1b	-0.18029444
69	0xbbc9cc2b	-0.006158372
70	0xbe99f72f	-0.300714
71	0xbe8751c8	-0.26429582
72	0xbe369287	-0.17829333
73	0xbe849805	-0.25897232
74	0xbe9766dd	-0.29570666
75	0x3ae0424e	0.0017109604
76	0x3e1b6dd3	0.15178613
77	0xbd6c062e	-0.05762308
78	0xbe383ee2	-0.17992738
79	0x3c4513b5	0.012028624
80	0xbe2a8588	-0.166525
81	0xbe9999f9	-0.30000284
82	0xbe94149c	-0.28921974
83	0xbe6795a5	-0.22615679
84	0xbe803a9d	-0.25044718
85	0x3d3966c9	0.04526404
86	0x3dfb6516	0.1227514
87	0xbd768068	-0.06018105
88	0xbe966266	-0.29371947
89	0x3d8fb22a	0.07016404
90	0xbe461a77	-0.19346033
91	0xbe6ecf71	-0.2332132
92	0xbe8861f6	-0.26637238
93	0xbe97d717	-0.29656288
94	0xbeaca85b	-0.33722195
95	0x3dd07876	0.10179226
96	0x3e18fdb5	0.14940532
97	0x3da1de5c	0.0790374
98	0xbe4fbd4b	-0.20287053
99	0x3e7a9afd	0.24473186
100	0xbe60280b	-0.21890275
101	0xbe806dae	-0.2508368
102	0xbe47426f	-0.19458936
103	0xbe5a117a	-0.2129573
104	0xbe60a521	-0.21937992
105	0x3d35e7fe	0.044410698
106	0x3db14936	0.08656542
107	0x3d6dc5a3	0.05804981
108	0xbe758076	-0.23974785
109	0x3e1c6b22	0.15275243
110	0xbea2b246	-0.31776637
111	0xbe7aa62e	-0.24477455
112	0xbe879090	-0.2647748
113	0xbe933602	-0.28752142
114	0xbe6868c4	-0.22696215
115	0x3df7abc1	0.12093306
116	0x3dd70064	0.104981214
117	0x3ddd3557	0.108011894
118	0xbe9f6f75	-0.31139722
119	0x3e90c65d	0.2827634
120	0xbe8f4b7e	-0.27987283
121	0xbe929f6d	-0.28637257
122	0xbe8d8892	-0.27643257
123	0xbe7791af	-0.24176668
124	0xbe9b1a22	-0.30293375
125	0x3ccdc6aa	0.025119144
126	0xbd9a3caf	-0.07531106
127	0xbb98a1be	-0.004657953
128	0xbe5fcae0	-0.21854734
129	0x3e8808ce	0.26569217
130	0xbea4c7e3	-0.3218375
131	0xbe7dd131	-0.24786831
132	0xbe9b97cb	-0.30389246
133	0xbe9e441a	-0.30911332
134	0xbe8c146a	-0.27359325
135	0x3d52999e	0.051416032
136	0xbda56c00	-0.0807724
137	0x3d1e7496	0.038685404
138	0xbe9df7da	-0.30853158
139	0x3e89dee2	0.2692786
140	0xbe2e3754	-0.17013294
141	0xbe328bab	-0.17436092
142	0xbe6f3994	-0.23361808
143	0xbe736659	-0.23769511
144	0xbec31ba6	-0.38107032
145	0xbd1d1318	-0.038348287
146	0x3d0569ca	0.03257159
147	0x3ded54a1	0.11588407
148	0xbe88abe8	-0.26693654
149	0x3e809622	0.25114542
150	0x3cad41ef	0.021149604
151	0xbcc90005	-0.024536142
152	0xbdaca72b	-0.08430322
153	0xbcad92cd	-0.021188164
154	0x3d49dfe6	0.04928579
155	0x3e61825a	0.22022381
156	0x3e285845	0.16439922
157	0x3dc50d5a	0.09621687
158	0x3d49441a	0.049137212
159	0x3e0ee0e8	0.13952982
160	0xbc7c0d4e	-0.015384031
161	0x3d4c44ed	0.04987042
162	0x3d42122b	0.047380608
163	0xbd0811cc	-0.033220097
164	0x3d2996ca	0.04140357
165	0x3dcfc689	0.101452895
166	0x3dce165e	0.1006286
167	0xbce7c05c	-0.028289966
168	0xbdb8152a	-0.08988412
169	0x3e14ada7	0.14519368
170	0x3d457ff5	0.048217732
171	0x3bee2a73	0.007268244
172	0xbcde816e	-0.027161326
173	0x3d805006	0.06265263
174	0x3d057565	0.03258266
175	0xbd142425	-0.036167283
176	0x3ca270ec	0.019829236
177	0x3dadb3bc	0.08481547
178	0x3d726d55	0.0591863
179	0x3e2d6b00	0.16935349
180	0xbcf1aabb	-0.029500356
181	0xbd8e962f	-0.06962239
182	0xbd8203e9	-0.06348402
183	0xbd4dc894	-0.050240114
184	0x3c55bb64	0.013045166
185	0xbc9d70f2	-0.019218896
186	0x3d466325	0.048434395
187	0x3dcee895	0.10102955
188	0xbc4c1813	-0.012456912
189	0x3e192be7	0.14958154
190	0xbdb3506b	-0.08755573
191	0xbd6d9990	-0.058007777
192	0xbda53fdb	-0.0806882
193	0xbd81b47d	-0.063332535
194	0xbd9821e9	-0.07428343
195	0x3e20a43a	0.15687647
196	0x3d9067a5	0.070510186
197	0x3d306c7a	0.0430722
198	0xbd9ef53d	-0.07761619
199	0x3daa2b02	0.08308984
200	0x3d39c627	0.04535499
201	0xbb3ead4f	-0.0029095
202	0xbd584acc	-0.052805707
203	0xbd8ff918	-0.07029933
204	0xbb0cc95a	-0.002148232
205	0x3dcb7a22	0.09935404
206	0x3e0eee0a	0.13957992
207	0xbc2cdd2d	-0.010550779
208	0x3a7378ec	0.0009287733
209	0x3d49cd9e	0.049268357
210	0x3b3a405e	0.0028419713
211	0x3c9d4e3f	0.01920235
212	0x3cd162a0	0.025559723
213	0x3ca4f8f9	0.02013825
214	0x3cc69ea0	0.02424556
215	0x3db37aca	0.087636545
216	0x3c963185	0.01833416
217	0xbc471e19	-0.012153172
218	0x3d87f335	0.06638185
219	0x3da16fca	0.0788265
220	0x3d7d8dca	0.0619028
221	0xbc08b53c	-0.008343991
222	0x3ce014d9	0.027353691
223	0x3d24d381	0.04024077
224	0xbde8ddd4	-0.11370435
225	0x3e1c420f	0.15259574
226	0x3d9c0679	0.07618422
227	0x3dba226a	0.09088595
228	0x3c6b4060	0.01435861
229	0x3ca55590	0.020182401
230	0xbc166305	-0.0091788815
231	0xbd900a9b	-0.07033273
232	0xbd999cd9	-0.075006194
233	0xbd4d2300	-0.050082207
234	0xbddc3711	-0.107526906
235	0x3da9e10f	0.0829488
236	0x3cef05d6	0.029177587
237	0x3ccee56e	0.025255885
238	0x3c17936c	0.009251457
239	0x3db62f49	0.08895738
240	0x3c7bb078	0.015361898
241	0x3cf94ee6	0.03043313
242	0x3d38d40f	0.04512411
243	0xbd8d79ad	-0.069079734
244	0xbd1193de	-0.035541408
245	0x3d9b3f0f	0.07580387
246	0x3c742d2f	0.014903351
247	0x3de359a9	0.11101086
248	0xbdc314c3	-0.09525444
249	0x3ddfd6e4	0.10929659
250	0xbd93be8e	-0.0721408
251	0xbd6e1a0c	-0.05813031
252	0xbcdb9e83	-0.026808983
253	0xbcb2598b	-0.021771213
254	0x3c0bb4d6	0.008527001
255	0x3d9fa843	0.07795765

Q_Net.linear1.bias f4 [30]
0	0xbe05e0e3	-0.13074069
1	0xbd7028ec	-0.058632776
2	0x3d65bb99	0.05608711
3	0xbe1a69d8	-0.15079439
4	0xbd966e78	-0.07345289
5	0x3b1062c1	0.0022031518
6	0x3d9b58cd	0.07585297
7	0x3e00cb71	0.12577607
8	0x3cc45b91	0.023969444
9	0xbde63a50	-0.11241591
10	0xbd55d93e	-0.05220913
11	0xbd7ba998	-0.061441034
12	0xbd9c0d15	-0.07619683
13	0x3d3ca271	0.046053354
14	0xbe939149	-0.2882178
15	0xbde59a29	-0.11211044
16	0xbe117509	-0.14204802
17	0xbbfc5589	-0.0077006263
18	0x3debfb67	0.115225606
19	0xbca3d3ac	-0.019998394
20	0x3e1cf24d	0.15326805
21	0xbdc18af0	-0.09450328
22	0x3cfdb144	0.030968316
23	0xbd4c22ce	-0.04983788
24	0xbe2fa95f	-0.17154454
25	0xbe3a3321	-0.18183567
26	0xbe0a2112	-0.13489178
27	0x3e3df32f	0.18549798
28	0x3df8cb0b	0.121481024
29	0xbd89db42	-0.06731273

Q_Net.linear2.weight f4 [3, 30]
0	0x3e6af5ab	0.22945277
1	0xbdaf8cc0	-0.08571768
2	0x3e92a65b	0.28642544
3	0xbf3c72c0	-0.73612595
4	0xbd965f26	-0.07342367
5	0xbf01c341	-0.5068856
6	0xbda5a24e	-0.08087598
7	0x3dc0c039	0.094116636
8	0x3e3eb79d	0.1862473
9	0xbe7c7007	-0.2465211
10	0x3f181c5f	0.5941829
11	0xbdab3b69	-0.08360941
12	0x3b35fe8e	0.0027770135
13	0x3f562d2f	0.83662695
14	0xbed75925	-0.420602
15	0xbf6b3aa0	-0.9188633
16	0xbe771cb8	-0.24132049
17	0x3de5f809	0.112289496
18	0x3f3836d6	0.71958673
19	0x3da32195	0.0796539
20	0xbeaf711d	-0.34265986
21	0x3e36e071	0.17859055
22	0x3f0bd12e	0.5461606
23	0xbf119d53	-0.5688068
24	0x3d6b837e	0.057498448
25	0x3e026775	0.12734778
26	0xbcd60307	-0.02612449
27	0xbebda4e7	-0.37039873
28	0xbf145140	-0.5793648
29	0xbf1894cc	-0.59602046
30	0x3ebb37ad	0.36565915
31	0xbebc9edc	-0.3683995
32	0x3ea6b45b	0.32559475
33	0xbf1fbf98	-0.62401724
34	0xbf25bf34	-0.6474488
35	0xbdfbf7f3	-0.12303152
36	0xbdb71e8a	-0.08941372
37	0x3ec452f3	0.38344535
38	0x3f4717ef	0.77770895
39	0xbf22c533	-0.6358215
40	0x3ea5160a	0.32243377
41	0xbf44634b	-0.7671401
42	0x3e9af4a7	0.3026478
43	0x402524b3	2.580365
44	0xbf173e6d	-0.5907963
45	0x3ebec61d	0.37260523
46	0xbdafacb4	-0.085778624
47	0x3ed785a4	0.42094147
48	0x3ea0adf8	0.31382728
49	0x3eef7c0f	0.46774337
50	0x3df6ccc4	0.12050775
51	0x3e8e2c87	0.27768347
52	0x3fb63395	1.4234492
53	0xbf118ec3	-0.5685846
54	0x3d9ee3d1	0.07758296
55	0xbeb3418e	-0.35010952
56	0x3e276412	0.16346768
57	0xbf5ef244	-0.8708842
58	0x3ee0f908	0.43939996
59	0xbf29e6b8	-0.66367674
60	0x3e0c2bda	0.13688603
61	0xbe78cf16	-0.24297747
62	0x3e8dd497	0.27701256
63	0x3e5de4a9	0.21669258
64	0xbef59ded	-0.4797205
65	0xc01d7b1c	-2.460639
66	0xbe7a80dc	-0.24463218
67	0xbf8b2d47	-1.0873193
68	0x3eab240d	0.33425942
69	0xbe668217	-0.22510563
70	0x3f9495e0	1.1608238
71	0xbe8376a8	-0.25676465
72	0xbed4ef46	-0.415888
73	0x3feec65f	1.8654288
74	0xbe872eec	-0.26402986
75	0x3e3ff596	0.18746027
76	0xbf818747	-1.0119408
77	0x3ea14c1a	0.31503373
78	0x3c5bfaf4	0.013426531
79	0x3e9b1fcb	0.30297694
80	0xbfc2d9df	-1.5222739
81	0x3e6364d4	0.22206432
82	0x3e5a6cde	0.21330592
83	0xbee909e4	-0.45515358
84	0xbd9ef4c8	-0.07761532
85	0x3dee3100	0.1163044
86	0xbd0c9cad	-0.034329105
87	0xbf72c8e9	-0.94837815
88	0x3d805c36	0.06267588
89	0xc02a2820	-2.658699

Q_Net.linear2.bias f4 [3]
0	0x41075402	8.45801
1	0x411925d2	9.571733
2	0x411ee505	9.930913

Target_Q_Net.linear1.weight f4 [30, 150]
0	0xbe9d2235	-0.3069016
1	0xbe8dd11a	-0.27698594
2	0xbe51da67	-0.2049347
3	0xbe88fc91	-0.26755193
4	0xbea819eb	-0.32832274
5	0xbb918e44	-0.004442008
6	0x3d55a5c5	0.052160043
7	0x3dfe2ceb	0.12410911
8	0xbe942e71	-0.28941682
9	0xbc93f201	-0.018059732
10	0xbe3c726f	-0.18403028
11	0xbe8b98b1	-0.27264932
12	0xbe94ef18	-0.29088664
13	0xbe85055e	-0.25980657
14	0xbe8b7bb4	-0.27242815
15	0xbcea27d5	-0.028583447
16	0xbcd191db	-0.025582245
17	0x3db6beb6	0.08923094
18	0xbe9c619d	-0.30543223
19	0xbdcc72bd	-0.09982822
20	0xbe3f3c86	-0.18675432
21	0xbea18b09	-0.31551388
22	0xbe62c391	-0.22144915
23	0xbe96791a	-0.29389268
24	0xbe6714b9	-0.22566499
25	0x3db7c11e	0.08972381
26	0x3dee7368	0.11643106
27	0x3c6ba46c	0.014382463
28	0xbe95f260	-0.2928648
29	0x3d28144a	0.041034974
30	0xbe8734b4	-0.26407397
31	0xbe3f9fa6	-0.18713245
32	0xbe93dd77	-0.28879902
33	0xbe264dda	-0.16240636
34	0xbe7b3e20	-0.24535418
35	0x3e1983e5	0.1499172
36	0x3d402d8f	0.046918448
37	0xbc0706ef	-0.008241399
38	0xbe6a887a	-0.22903624
39	0xbd1d2bc5	-0.03837182
40	0xbe8f9f66	-0.280513
41	0xbe8a8989	-0.27058056
42	0xbe6af399	-0.22944488
43	0xbe472405	-0.19447334
44	0xbe870803	-0.263733
45	0x3dd08d92	0.101832524
46	0x3d76fcc8	0.060299665
47	0x3d6470e7	0.055771735
48	0xbea57ca9	-0.3232167
49	0xbd27dda1	-0.040982846
50	0xbe4c14f6	-0.19929871
51	0xbe69c522	-0.22829106
52	0xbe2a85fa	-0.1665267
53	0xbe810b26	-0.25203818
54	0xbe9420f6	-0.28931397
55	0x3e0f8f99	0.14019622
56	0xbbd0f766	-0.0063771484
57	0xbabf6f07	-0.0014605232
58	0xbe6189b3	-0.22025184
59	0x3da4bae7	0.08043461
60	0xbe6d90c0	-0.23199749
61	0xbe476d79	-0.19475354
62	0xbe8eaaa6	-0.2786457
63	0xbe43874b	-0.19094579
64	0xbe9ebf31	-0.31005242
65	0x3dac7128	0.0842002
66	0xbc9f09fa	-0.019413937
67	0xbd6109fb	-0.05494116
68	0xbe389f1b	-0.18029444
69	0xbbc9cc2b	-0.006158372
70	0xbe99f72f	-0.300714
71	0xbe8751c8	-0.26429582
72	0xbe369287	-0.17829333
73	0xbe849805	-0.25897232
74	0xbe9766dd	-0.29570666
75	0x3ae0424e	0.0017109604
76	0x3e1b6dd3	0.15178613
77	0xbd6c062e	-0.05762308
78	0xbe383ee2	-0.17992738
79	0x3c4513b5	0.012028624
80	0xbe2a8588	-0.166525
81	0xbe9999f9	-0.30000284
82	0xbe94149c	-0.28921974
83	0xbe6795a5	-0.22615679
84	0xbe803a9d	-0.25044718
85	0x3d3966c9	0.04526404
86	0x3dfb6516	0.1227514
87	0xbd768068	-0.06018105
88	0xbe966266	-0.29371947
89	0x3d8fb22a	0.07016404
90	0xbe461a77	-0.19346033
91	0xbe6ecf71	-0.2332132
92	0xbe8861f6	-0.26637238
93	0xbe97d717	-0.29656288
94	0xbeaca85b	-0.33722195
95	0x3dd07876	0.10179226
96	0x3e18fdb5	0.14940532
97	0x3da1de5c	0.0790374
98	0xbe4fbd4b	-0.20287053
99	0x3e7a9afd	0.24473186
100	0xbe60280b	-0.21890275
101	0xbe806dae	-0.2508368
102	0xbe47426f	-0.19458936
103	0xbe5a117a	-0.2129573
104	0xbe60a521	-0.21937992
105	0x3d35e7fe	0.044410698
106	0x3db14936	0.08656542
107	0x3d6dc5a3	0.05804981
108	0xbe758076	-0.23974785
109	0x3e1c6b22	0.15275243
110	0xbea2b246	-0.31776637
111	0xbe7aa62e	-0.24477455
112	0xbe879090	-0.2647748
113	0xbe933602	-0.28752142
114	0xbe6868c4	-0.22696215
115	0x3df7abc1	0.12093306
116	0x3dd70064	0.104981214
117	0x3ddd3557	0.108011894
118	0xbe9f6f75	-0.31139722
119	0x3e90c65d	0.2827634
120	0xbe8f4b7e	-0.27987283
121	0xbe929f6d	-0.28637257
122	0xbe8d8892	-0.27643257
123	0xbe7791af	-0.24176668
124	0xbe9b1a22	-0.30293375
125	0x3ccdc6aa	0.025119144
126	0xbd9a3caf	-0.07531106
127	0xbb98a1be	-0.004657953
128	0xbe5fcae0	-0.21854734
129	0x3e8808ce	0.26569217
130	0xbea4c7e3	-0.3218375
131	0xbe7dd131	-0.24786831
132	0xbe9b97cb	-0.30389246
133	0xbe9e441a	-0.30911332
134	0xbe8c146a	-0.27359325
135	0x3d52999e	0.051416032
136	0xbda56c00	-0.0807724
137	0x3d1e7496	0.038685404
138	0xbe9df7da	-0.30853158
139	0x3e89dee2	0.2692786
140	0xbe2e3754	-0.17013294
141	0xbe328bab	-0.17436092
142	0xbe6f3994	-0.23361808
143	0xbe736659	-0.23769511
144	0xbec31ba6	-0.38107032
145	0xbd1d1318	-0.038348287
146	0x3d0569ca	0.03257159
147	0x3ded54a1	0.11588407
148	0xbe88abe8	-0.26693654
149	0x3e809622	0.25114542
150	0x3cad41ef	0.021149604
151	0xbcc90005	-0.024536142
152	0xbdaca72b	-0.08430322
153	0xbcad92cd	-0.021188164
154	0x3d49dfe6	0.04928579
155	0x3e61825a	0.22022381
156	0x3e285845	0.16439922
157	0x3dc50d5a	0.09621687
158	0x3d49441a	0.049137212
159	0x3e0ee0e8	0.13952982
160	0xbc7c0d4e	-0.015384031
161	0x3d4c44ed	0.04987042
162	0x3d42122b	0.047380608
163	0xbd0811cc	-0.033220097
164	0x3d2996ca	0.04140357
165	0x3dcfc689	0.101452895
166	0x3dce165e	0.1006286
167	0xbce7c05c	-0.028289966
168	0xbdb8152a	-0.08988412
169	0x3e14ada7	0.14519368
170	0x3d457ff5	0.048217732
171	0x3bee2a73	0.007268244
172	0xbcde816e	-0.027161326
173	0x3d805006	0.06265263
174	0x3d057565	0.03258266
175	0xbd142425	-0.036167283
176	0x3ca270ec	0.019829236
177	0x3dadb3bc	0.08481547
178	0x3d726d55	0.0591863
179	0x3e2d6b00	0.16935349
180	0xbcf1aabb	-0.029500356
181	0xbd8e962f	-0.06962239
182	0xbd8203e9	-0.06348402
183	0xbd4dc894	-0.050240114
184	0x3c55bb64	0.013045166
185	0xbc9d70f2	-0.019218896
186	0x3d466325	0.048434395
187	0x3dcee895	0.10102955
188	0xbc4c1813	-0.012456912
189	0x3e192be7	0.14958154
190	0xbdb3506b	-0.08755573
191	0xbd6d9990	-0.058007777
192	0xbda53fdb	-0.0806882
193	0xbd81b47d	-0.063332535
194	0xbd9821e9	-0.07428343
195	0x3e20a43a	0.15687647
196	0x3d9067a5	0.070510186
197	0x3d306c7a	0.0430722
198	0xbd9ef53d	-0.07761619
199	0x3daa2b02	0.08308984
200	0x3d39c627	0.04535499
201	0xbb3ead4f	-0.0029095
202	0xbd584acc	-0.052805707
203	0xbd8ff918	-0.07029933
204	0xbb0cc95a	-0.002148232
205	0x3dcb7a22	0.09935404
206	0x3e0eee0a	0.13957992
207	0xbc2cdd2d	-0.010550779
208	0x3a7378ec	0.0009287733
209	0x3d49cd9e	0.049268357
210	0x3b3a405e	0.0028419713
211	0x3c9d4e3f	0.01920235
212	0x3cd162a0	0.025559723
213	0x3ca4f8f9	0.02013825
214	0x3cc69ea0	0.02424556
215	0x3db37aca	0.087636545
216	0x3c963185	0.01833416
217	0xbc471e19	-0.012153172
218	0x3d87f335	0.06638185
219	0x3da16fca	0.0788265
220	0x3d7d8dca	0.0619028
221	0xbc08b53c	-0.008343991
222	0x3ce014d9	0.027353691
223	0x3d24d381	0.04024077
224	0xbde8ddd4	-0.11370435
225	0x3e1c420f	0.15259574
226	0x3d9c0679	0.07618422
227	0x3dba226a	0.09088595
228	0x3c6b4060	0.01435861
229	0x3ca55590	0.020182401
230	0xbc166305	-0.0091788815
231	0xbd900a9b	-0.07033273
232	0xbd999cd9	-0.075006194
233	0xbd4d2300	-0.050082207
234	0xbddc3711	-0.107526906
235	0x3da9e10f	0.0829488
236	0x3cef05d6	0.029177587
237	0x3ccee56e	0.025255885
238	0x3c17936c	0.009251457
239	0x3db62f49	0.08895738
240	0x3c7bb078	0.015361898
241	0x3cf94ee6	0.03043313
242	0x3d38d40f	0.04512411
243	0xbd8d79ad	-0.069079734
244	0xbd1193de	-0.035541408
245	0x3d9b3f0f	0.07580387
246	0x3c742d2f	0.014903351
247	0x3de359a9	0.11101086
248	0xbdc314c3	-0.09525444
249	0x3ddfd6e4	0.10929659
250	0xbd93be8e	-0.0721408
251	0xbd6e1a0c	-0.05813031
252	0xbcdb9e83	-0.026808983
253	0xbcb2598b	-0.021771213
254	0x3c0bb4d6	0.008527001
255	0x3d9fa843	0.07795765

Target_Q_Net.linear1.bias f4 [30]
0	0xbe05e0e3	-0.13074069
1	0xbd7028ec	-0.058632776
2	0x3d65bb99	0.05608711
3	0xbe1a69d8	-0.15079439
4	0xbd966e78	-0.07345289
5	0x3b1062c1	0.0022031518
6	0x3d9b58cd	0.07585297
7	0x3e00cb71	0.12577607
8	0x3cc45b91	0.023969444
9	0xbde63a50	-0.11241591
10	0xbd55d93e	-0.05220913
11	0xbd7ba998	-0.061441034
12	0xbd9c0d15	-0.07619683
13	0x3d3ca271	0.046053354
14	0xbe939149	-0.2882178
15	0xbde59a29	-0.11211044
16	0xbe117509	-0.14204802
17	0xbbfc5589	-0.0077006263
18	0x3debfb67	0.115225606
19	0xbca3d3ac	-0.019998394
20	0x3e1cf24d	0.15326805
21	0xbdc18af0	-0.09450328
22	0x3cfdb144	0.030968316
23	0xbd4c22ce	-0.04983788
24	0xbe2fa95f	-0.17154454
25	0xbe3a3321	-0.18183567
26	0xbe0a2112	-0.13489178
27	0x3e3df32f	0.18549798
28	0x3df8cb0b	0.121481024
29	0xbd89db42	-0.06731273

Target_Q_Net.linear2.weight f4 [3, 30]
0	0x3e6c3e6d	0.23070689
1	0xbdb1d3af	-0.086829536
2	0x3e92034e	0.28518146
3	0xbf3c451f	-0.7354297
4	0xbd93c114	-0.07214561
5	0xbf02157a	-0.5081402
6	0xbda31131	-0.079622634
7	0x3dbe7c3f	0.09301042
8	0x3e3fffcd	0.18749924
9	0xbe7d8e38	-0.24761283
10	0x3f17e6dd	0.59336644
11	0xbdadcd19	-0.08486385
12	0x3b7d7266	0.0038672923
13	0x3f566a9e	0.83756435
14	0xbed7fd80	-0.42185593
15	0xbf6b8a9a	-0.92008364
16	0xbe768d5c	-0.24077362
17	0x3de8335c	0.11337921
18	0x3f388906	0.7208408
19	0x3da5684b	0.08076533
20	0xbeb02d77	-0.34409687
21	0x3e35979e	0.17733619
22	0x3f0c1886	0.5472492
23	0xbf115fed	-0.56786996
24	0x3d70a679	0.05875251
25	0x3e03b010	0.12860131
26	0xbcdef57e	-0.02721667
27	0xbebe4935	-0.37165228
28	0xbf14a32e	-0.5806149
29	0xbf18db36	-0.5970949
30	0x3ebb3322	0.3656245
31	0xbebcb961	-0.36860183
32	0x3ea64a1d	0.3247842
33	0xbf1fbc68	-0.6239686
34	0xbf25b159	-0.64723736
35	0xbdfbe92a	-0.12300332
36	0xbdb72eb6	-0.08944456
37	0x3ec3d141	0.38245586
38	0x3f471481	0.7776566
39	0xbf22c2db	-0.63578576
40	0x3ea4ff8f	0.32226226
41	0xbf446155	-0.76711017
42	0x3e9aeffb	0.30261216
43	0x40252447	2.5803392
44	0xbf173c31	-0.5907622
45	0x3ebeca7c	0.37263858
46	0xbdb35b77	-0.0875768
47	0x3ed780fd	0.42090598
48	0x3ea0a975	0.31379285
49	0x3eef9718	0.46794963
50	0x3df6ddc5	0.12054018
51	0x3e8e30fe	0.27771753
52	0x3fb631da	1.4233963
53	0xbf119056	-0.56860864
54	0x3d9ed3f7	0.07755273
55	0xbeb34578	-0.35013938
56	0x3e276d78	0.16350353
57	0xbf5eeffd	-0.87084943
58	0x3ee0fcee	0.4394297
59	0xbf29e305	-0.6636203
60	0x3e0c64ad	0.1371028
61	0xbe790786	-0.24319276
62	0x3e8db5bb	0.27677712
63	0x3e5dfdea	0.21678892
64	0xbef5835b	-0.4795178
65	0xc01d7ea9	-2.4608557
66	0xbe7a4bb7	-0.24442945
67	0xbf8b3931	-1.0876828
68	0x3eab4071	0.33447602
69	0xbe66ba9c	-0.22532123
70	0x3f946eb1	1.159628
71	0xbe839139	-0.25696734
72	0xbed4d2df	-0.41567132
73	0x3feeccbf	1.8656234
74	0xbe874b53	-0.26424655
75	0x3e3fce45	0.1873103
76	0xbf81bb39	-1.0135261
77	0x3ea1688e	0.3152508
78	0x3c5f880d	0.013643277
79	0x3e9b3c1f	0.30319306
80	0xbfc2a24d	-1.520578
81	0x3e632c05	0.22184761
82	0x3e5aa4e4	0.21351963
83	0xbee8f03d	-0.45495787
84	0xbd9e8a7d	-0.07741258
85	0x3dee9b4b	0.116507135
86	0xbd0d800c	-0.034545943
87	0xbf72d715	-0.9485944
88	0x3d7fe3ee	0.06247323
89	0xc02a1df0	-2.6580772

Target_Q_Net.linear2.bias f4 [3]
0	0x41074edf	8.456756
1	0x411925f6	9.571768
2	0x411ee424	9.930698
