Model/DQN/result/agent_dqn_000776_SZ.pt (torch_old, 38521 bytes, 8 tensors)

Q_Net.linear1.weight f4 [30, 150]
-0.2610799 -0.23183912 -0.15979494 -0.22192974 -0.27270973 0.01583577 0.06150181 0.13180213
-0.24336316 0.024309738 -0.1388148 -0.22688432 -0.24579547 -0.2139274 -0.2176272 -0.00997582
-0.03079808 0.093772255 -0.2595126 -0.07118616 -0.14150597 -0.27036285 -0.17634065 -0.24822916
-0.17122981 0.030576603 0.06024893 0.016129384 -0.2470411 0.08693198 -0.21863362 -0.14203903
-0.24358864 -0.11667618 -0.18924114 0.1330396 0.06491038 -0.003296935 -0.18327482 -0.008416439
-0.23584393 -0.22494188 -0.18433577 -0.1494208 -0.21088348 0.08970005 0.053972676 0.05888462
-0.27762026 0.0089862775 -0.15390792 -0.1833866 -0.121521845 -0.20671773 -0.23261887 0.14458284
0.0013540485 0.0052712155 -0.17468654 0.15012708 -0.18733072 -0.14943402 -0.23401947 -0.1452005
-0.25466293 0.09058633 -0.00086221617 -0.04754472 -0.1348627 0.037743103 -0.25571126 -0.21950863
-0.13333966 -0.2138991 -0.2389482 -0.033884864 0.1599321 -0.049462173 -0.13456984 0.0677925
-0.12131696 -0.25506222 -0.244522 -0.18081741 -0.19488452 0.03662984 0.14354908 -0.05441317
-0.24838237 0.10725136 -0.14802155 -0.18804507 -0.22118787 -0.25107267 -0.2802965 0.11603111
0.17466126 0.080745734 -0.15752095 0.22733034 -0.17366761 -0.20555443 -0.149502 -0.16786028
-0.1636261 0.053514276 0.11030364 0.050413147 -0.19440393 0.13446184 -0.27261457 -0.19974501
-0.21948951 -0.24275477 -0.17223692 0.13496757 0.12803987 0.09363464 -0.26607054 0.218224
-0.23514153 -0.24112885 -0.23175211 -0.19721699 -0.24989325 0.0075898883 -0.0976586 -0.02742612
-0.17331992 0.1635251 -0.27697778 -0.2032473 -0.2594181 -0.26430085 -0.21950169 0.036491074
-0.0986809 0.016946523 -0.26334232 0.22170034 -0.12618136 -0.12955272 -0.1895169 -0.1933428
-0.3324452 -0.050829418 -0.014709294 0.08903295 -0.22193648 0.23468755 0.047129128 0.0012850339
-0.058561657 0.0051685115 0.075403005 0.1806519 0.16621856 0.100498244 0.07488945 0.16430789
0.010651778 0.07606084 0.073402844 -0.007138604 0.067386545 0.082827725 0.08121233 -0.02806104
-0.06409305 0.15374379 0.07429649 0.0332393 -0.0012595161 0.08868098 0.058524515 0.026383158
0.0030619337 0.08341592 0.08503341 0.11933479 -0.003693036 -0.04353278 -0.037444174 -0.024055948
0.03758754 0.01620613 0.036859334 0.097150326 0.013376663 0.083954126 -0.06142192 -0.03215745
-0.0548812 -0.037335314 -0.047741774 0.13525245 0.043127626 0.03562322 -0.05173764 0.01021332
0.07142132 0.023450697 -0.026809517 -0.044065673 0.024089526 0.061714273 0.11889133 -0.022476384
0.026831776 -0.0036783123 0.029037513 0.045442812 0.05160963 0.046658404 0.04980518 0.069102325
0.013869054 -0.024747308 0.09232078 -0.006602674 0.08826061 0.017751643 0.053556327 0.06671303
-0.087144576 0.13700765 0.0869912 0.0797561 0.040363964 -0.06203168 0.017355235 -0.043994397
-0.048703913 -0.02353769 -0.080140926 0.05847515 0.02679137 0.0134052755 0.03533398 0.006625772
0.04145384 0.056906734 0.07120304 -0.04252993 -0.0111980345 0.05229686 0.0084905075 0.0997842
-0.06916719 0.023943257 -0.046447273 -0.031821266 -0.0010591749 0.004499109 0.030802846 0.051570866
00000000: 44ac 85be 3c67 6dbe 49a1 23be 8d41 63be
00000010: 9ca0 8bbe 04ba 813c 52e9 7b3d 23f7 063e
00000020: 3134 79be 3725 c73c 7825 0ebe 5d54 68be
00000030: cfb1 7bbe c90f 5bbe aad9 5ebe 9f71 23bc
00000040: 414c fcbc ab0b c03d d6de 84be 0dca 91bd
00000050: f1e6 10be 006d 8abe a592 34be c92f 7ebe
00000060: de56 2fbe c97b fa3c 95c7 763d c521 843c
00000070: 58f8 7cbe 6509 b23d 7ee1 5fbe ae72 11be
00000080: 4d6f 79be ecf3 eebd 6ec8 41be 883b 083e
00000090: bcef 843d 6411 58bb 65ac 3bbe 1be5 09bc
000000a0: 1281 71be 2a57 66be 84c2 3cbe c401 19be
000000b0: d7f1 57be a9b4 b73d 7412 5d3d 0031 713d
000000c0: 3e24 8ebe 2e3b 133c 0a9a 1dbe b2c9 3bbe
000000d0: 72e0 f8bd d0ad 53be a433 6ebe 860d 143e
000000e0: 547a b13a 29ba ac3b 07e1 32be eaba 193e
000000f0: a0d3 3fbe 3b05 19be cda2 6fbe 71af 14be
00000100: 2e63 82be 5385 b93d 5906 62ba 41be 42bd
00000110: 7319 0abe 8398 1a3d 96ec 82be dfc6 60be
00000120: 318a 08be 5e08 5bbe d6ae 74be dbca 0abd
00000130: 3ec5 233e d998 4abd adcc 09be cbd6 8a3d
00000140: 0775 f8bd 8497 82be fa63 7abe 3328 39be
00000150: cf8f 47be 2c09 163d 88fe 123e 58e0 5ebd
00000160: f357 7ebe 9aa6 db3d f692 17be e38e 40be
00000170: 137f 62be 998c 80be 0683 8fbe b8a1 ed3d
00000180: 67da 323e 055e a53d 2c4d 21be 49c9 683e
00000190: ecd5 31be dc7c 52be 0d17 19be 91e3 2bbe
000001a0: 9a8d 27be c931 5b3d e0e6 e13d 047e 4e3d
000001b0: d311 47be 5db0 093e 2394 8bbe f589 4cbe
000001c0: dcc1 60be b594 78be e05e 30be f034 0a3e
000001d0: e21c 033e 85c3 bf3d 663a 88be 1d76 5f3e
000001e0: f1c8 70be 7bea 76be 6d50 6dbe 40f3 49be
000001f0: 04e4 7fbe 99b4 f83b 3b01 c8bd beac e0bc
00000200: c77a 31be 2073 273e 08d0 8dbe 0f20 50be
00000210: 73d2 84be 7152 87be 0dc5 60be aa77 153d
00000220: 3619 cabd 6fd3 8a3c ced4 86be 6a05 633e
00000230: b035 01be 78a9 04be b810 42be a8fb 45be
00000240: 4236 aabe 8232 50bd 40ff 70bc e856 b63d
00000250: 5143 63be ef51 703e 790a 413d 956e a83a
00000260: 59de 6fbd 9e5c a93b e46c 9a3d d0fc 383e
00000270: 3335 2a3e 06d2 cd3d a45f 993d 5440 283e
00000280: cc84 2e3c c9c5 9b3d 3b54 963d f3ea e9bb
00000290: f501 8a3d 95a1 a93d a652 a63d 44e0 e5bc
000002a0: 3843 83bd 036f 1d3e c228 983d ef25 083d
000002b0: 5916 a5ba 609e b53d 67b7 6f3d 7e21 d83c
000002c0: b9aa 483b f7d5 aa3d ff25 ae3d cc65 f43d
000002d0: dd06 72bb 6e4f 32bd 105f 19bd fb10 c5bc
000002e0: 64f5 193d b8c2 843c d0f9 163d c0f6 c63d
000002f0: cb29 5b3c 24f0 ab3d 8d95 7bbd 88b7 03bd
00000300: 1ccb 60bd eaec 18bd e18c 43bd 9e7f 0a3e
00000310: 98a6 303d a7e9 113d d9ea 53bd c555 273c
00000320: 5745 923d ad1b c03c a29f dbbc 357e 34bd
00000330: 6657 c53c 1bc8 7c3d 4c7d f33d 6520 b8bc
00000340: 50ce db3c d70f 71bb 14e0 ed3c 3e22 3a3d
00000350: 9f64 533d e21c 3f3d 8400 4c3d 8585 8d3d
00000360: 073b 633c deba cabc ad12 bd3d 3e5b d8bb
00000370: fbc1 b43d e56b 913c e15d 5b3d d7a0 883d
00000380: db78 b2bd bc4b 0c3e 7128 b23d 2b57 a33d
00000390: af54 253d ee14 7ebd 912c 8e3c 7833 34bd
000003a0: c17d 47bd 1dd2 c0bc ed20 a4bd a483 6f3d
000003b0: 9379 db3c cda1 5b3c 5dba 103d 011d d93b
000003c0: 80cb 293d 0917 693d e6d2 913d dd33 2ebd
000003d0: f677 37bc 3b35 563d c51b 0b3c a95b cc3d
000003e0: 87a7 8dbd a624 c43c 7f3f 3ebd 0457 02bd
000003f0: 03d4 8aba 436d 933b 4056 fc3c f93b 533d

Q_Net.linear1.bias f4 [30]
-0.07644213 -0.01630804 0.052056324 -0.04021073 -0.029012535 0.020079147 -0.0001670183 0.14206965
0.023950145 -0.0063722925 -0.05229057 -0.05105366 -0.045918625 0.02266961 -0.2017696 -0.07099022
-0.1064419 -0.02817654 -0.04474803 -0.012226618 0.05710948 -0.08393545 0.0067515667 -0.025205249
-0.11050748 -0.18667419 -0.04325415 0.08984621 0.09435986 -0.10915804
00000000: b18d 9cbd 7098 85bc 0339 553d 02b4 24bd
00000010: b2ab edbc 067d a43c a221 2fb9 b57a 113e
00000020: 1833 c43c aace d0bb a32e 56bd a51d 51bd
00000030: 2b15 3cbd 9eb5 b93c b19c 4ebe 5263 91bd
00000040: 36fe d9bd 7dd2 e6bc b649 37bd 2752 48bc
00000050: a1eb 693d 59e6 abbd 3f3c dd3b 3d7b cebc
00000060: bf51 e2bd 8527 3fbe 432b 31bd 4a01 b83d
00000070: be3f c13d 408e dfbd

Q_Net.linear2.weight f4 [3, 30]
-0.4325595 0.19372077 -0.625717 0.5163521 -0.8476496 0.074682645 -0.10486069 0.4375724
0.2820109 0.086382195 -0.18490057 -0.2034405 -0.123394355 -0.30287275 -0.063091725 -0.31277403
0.006765389 -0.005703841 -0.14820214 0.4697639 0.8594344 -0.310034 -0.087094374 0.11465692
0.15351468 0.1790585 0.41657382 -0.04552473 -0.58927995 -0.15217155 0.15809838 0.43635404
0.9698931 0.72607213 0.85855 -0.3749354 -0.56508636 -0.3550041 -0.4373035 -0.09936766
0.23017095 0.38384303 0.6439428 0.9129359 0.9437222 1.3059963 -0.6322117 0.25980368
0.26029578 0.76189077 0.8055552 0.15497752 0.029424917 0.048284687 0.01352713 0.13825673
0.4806559 -0.19403236 -0.21146971 0.26525044 -1.4925401 -0.10159561 0.40742457 -0.51465374
0.6416986 -0.6098541 0.1058978 -0.6365853 -0.6305759 0.048330057 -0.0322002 0.38683388
0.39436275 1.4689964 0.41021943 0.5498366 0.16286302 0.04970687 -0.17200552 -0.5025771
-0.22645088 -0.077603824 0.027389687 1.0614533 -0.06538463 -0.4696158 0.058279388 -0.28151235
0.32089052 -0.6934122
00000000: 7078 ddbe bd5e 463e fd2e 20bf a72f 043f
00000010: 90ff 58bf 37f3 983d 34c1 d6bd 7d09 e03e
00000020: bc63 903e 26e9 b03d 9356 3dbe b552 50be
00000030: 2eb6 fcbd 2312 9bbe 3c36 81bd eb23 a0be
00000040: 32b0 dd3b 49e7 babb 4dc2 17be e584 f03e
00000050: e503 5c3f c7bc 9ebe 895e b2bd 3fd1 ea3d
00000060: f432 1d3e 1d5b 373e 2a49 d53e 2478 3abd
00000070: 0ddb 16bf dcd2 1bbe 8be4 213e cc69 df3e
00000080: ea4a 783f dddf 393f efc9 5b3f 88f7 bfbe
00000090: 80a9 10bf 19c3 b5be 3fe6 dfbe 4681 cbbd
000000a0: efb1 6b3e 1387 c43e 6fd9 243f 2bb6 693f
000000b0: c797 713f e32a a73f a0d8 21bf fd04 853e
000000c0: 7d45 853e 460b 433f de38 4e3f 6db2 1e3e
000000d0: 860c f13c 2ac6 453d e5a0 5d3c 2c93 0d3e
000000e0: 8818 f63e 6bb0 46be 848b 58be e8ce 873e
000000f0: 8e0b bfbf 5c11 d0bd f499 d03e 59c0 03bf
00000100: 5c46 243f 661f 1cbf f2e0 d83d 41f7 22bf
00000110: 6c6d 21bf bdf5 453d 5be4 03bd 170f c63e
00000120: eae9 c93e 1308 bc3f 4808 d23e 17c2 0c3f
00000130: 90c5 263e 6e99 4b3d 3722 30be e5a8 00bf
00000140: bde2 67be c1ee 9ebd 5660 e03c b4dd 873f
00000150: 60e8 85bd 7b71 f0be 5eb6 6e3d 6322 90be
00000160: c34b a43e 7683 31bf

Q_Net.linear2.bias f4 [3]
9.294922 10.020202 10.320624
00000000: 00b8 1441 bf52 2041 4721 2541

Target_Q_Net.linear1.weight f4 [30, 150]
-0.2610799 -0.23183912 -0.15979494 -0.22192974 -0.27270973 0.01583577 0.06150181 0.13180213
-0.24336316 0.024309738 -0.1388148 -0.22688432 -0.24579547 -0.2139274 -0.2176272 -0.00997582
-0.03079808 0.093772255 -0.2595126 -0.07118616 -0.14150597 -0.27036285 -0.17634065 -0.24822916
-0.17122981 0.030576603 0.06024893 0.016129384 -0.2470411 0.08693198 -0.21863362 -0.14203903
-0.24358864 -0.11667618 -0.18924114 0.1330396 0.06491038 -0.003296935 -0.18327482 -0.008416439
-0.23584393 -0.22494188 -0.18433577 -0.1494208 -0.21088348 0.08970005 0.053972676 0.05888462
-0.27762026 0.0089862775 -0.15390792 -0.1833866 -0.121521845 -0.20671773 -0.23261887 0.14458284
0.0013540485 0.0052712155 -0.17468654 0.15012708 -0.18733072 -0.14943402 -0.23401947 -0.1452005
-0.25466293 0.09058633 -0.00086221617 -0.04754472 -0.1348627 0.037743103 -0.25571126 -0.21950863
-0.13333966 -0.2138991 -0.2389482 -0.033884864 0.1599321 -0.049462173 -0.13456984 0.0677925
-0.12131696 -0.25506222 -0.244522 -0.18081741 -0.19488452 0.03662984 0.14354908 -0.05441317
-0.24838237 0.10725136 -0.14802155 -0.18804507 -0.22118787 -0.25107267 -0.2802965 0.11603111
0.17466126 0.080745734 -0.15752095 0.22733034 -0.17366761 -0.20555443 -0.149502 -0.16786028
-0.1636261 0.053514276 0.11030364 0.050413147 -0.19440393 0.13446184 -0.27261457 -0.19974501
-0.21948951 -0.24275477 -0.17223692 0.13496757 0.12803987 0.09363464 -0.26607054 0.218224
-0.23514153 -0.24112885 -0.23175211 -0.19721699 -0.24989325 0.0075898883 -0.0976586 -0.02742612
-0.17331992 0.1635251 -0.27697778 -0.2032473 -0.2594181 -0.26430085 -0.21950169 0.036491074
-0.0986809 0.016946523 -0.26334232 0.22170034 -0.12618136 -0.12955272 -0.1895169 -0.1933428
-0.3324452 -0.050829418 -0.014709294 0.08903295 -0.22193648 0.23468755 0.047129128 0.0012850339
-0.058561657 0.0051685115 0.075403005 0.1806519 0.16621856 0.100498244 0.07488945 0.16430789
0.010651778 0.07606084 0.073402844 -0.007138604 0.067386545 0.082827725 0.08121233 -0.02806104
-0.06409305 0.15374379 0.07429649 0.0332393 -0.0012595161 0.08868098 0.058524515 0.026383158
0.0030619337 0.08341592 0.08503341 0.11933479 -0.003693036 -0.04353278 -0.037444174 -0.024055948
0.03758754 0.01620613 0.036859334 0.097150326 0.013376663 0.083954126 -0.06142192 -0.03215745
-0.0548812 -0.037335314 -0.047741774 0.13525245 0.043127626 0.03562322 -0.05173764 0.01021332
0.07142132 0.023450697 -0.026809517 -0.044065673 0.024089526 0.061714273 0.11889133 -0.022476384
0.026831776 -0.0036783123 0.029037513 0.045442812 0.05160963 0.046658404 0.04980518 0.069102325
0.013869054 -0.024747308 0.09232078 -0.006602674 0.08826061 0.017751643 0.053556327 0.06671303
-0.087144576 0.13700765 0.0869912 0.0797561 0.040363964 -0.06203168 0.017355235 -0.043994397
-0.048703913 -0.02353769 -0.080140926 0.05847515 0.02679137 0.0134052755 0.03533398 0.006625772
0.04145384 0.056906734 0.07120304 -0.04252993 -0.0111980345 0.05229686 0.0084905075 0.0997842
-0.06916719 0.023943257 -0.046447273 -0.031821266 -0.0010591749 0.004499109 0.030802846 0.051570866
00000000: 44ac 85be 3c67 6dbe 49a1 23be 8d41 63be
00000010: 9ca0 8bbe 04ba 813c 52e9 7b3d 23f7 063e
00000020: 3134 79be 3725 c73c 7825 0ebe 5d54 68be
00000030: cfb1 7bbe c90f 5bbe aad9 5ebe 9f71 23bc
00000040: 414c fcbc ab0b c03d d6de 84be 0dca 91bd
00000050: f1e6 10be 006d 8abe a592 34be c92f 7ebe
00000060: de56 2fbe c97b fa3c 95c7 763d c521 843c
00000070: 58f8 7cbe 6509 b23d 7ee1 5fbe ae72 11be
00000080: 4d6f 79be ecf3 eebd 6ec8 41be 883b 083e
00000090: bcef 843d 6411 58bb 65ac 3bbe 1be5 09bc
000000a0: 1281 71be 2a57 66be 84c2 3cbe c401 19be
000000b0: d7f1 57be a9b4 b73d 7412 5d3d 0031 713d
000000c0: 3e24 8ebe 2e3b 133c 0a9a 1dbe b2c9 3bbe
000000d0: 72e0 f8bd d0ad 53be a433 6ebe 860d 143e
000000e0: 547a b13a 29ba ac3b 07e1 32be eaba 193e
000000f0: a0d3 3fbe 3b05 19be cda2 6fbe 71af 14be
00000100: 2e63 82be 5385 b93d 5906 62ba 41be 42bd
00000110: 7319 0abe 8398 1a3d 96ec 82be dfc6 60be
00000120: 318a 08be 5e08 5bbe d6ae 74be dbca 0abd
00000130: 3ec5 233e d998 4abd adcc 09be cbd6 8a3d
00000140: 0775 f8bd 8497 82be fa63 7abe 3328 39be
00000150: cf8f 47be 2c09 163d 88fe 123e 58e0 5ebd
00000160: f357 7ebe 9aa6 db3d f692 17be e38e 40be
00000170: 137f 62be 998c 80be 0683 8fbe b8a1 ed3d
00000180: 67da 323e 055e a53d 2c4d 21be 49c9 683e
00000190: ecd5 31be dc7c 52be 0d17 19be 91e3 2bbe
000001a0: 9a8d 27be c931 5b3d e0e6 e13d 047e 4e3d
000001b0: d311 47be 5db0 093e 2394 8bbe f589 4cbe
000001c0: dcc1 60be b594 78be e05e 30be f034 0a3e
000001d0: e21c 033e 85c3 bf3d 663a 88be 1d76 5f3e
000001e0: f1c8 70be 7bea 76be 6d50 6dbe 40f3 49be
000001f0: 04e4 7fbe 99b4 f83b 3b01 c8bd beac e0bc
00000200: c77a 31be 2073 273e 08d0 8dbe 0f20 50be
00000210: 73d2 84be 7152 87be 0dc5 60be aa77 153d
00000220: 3619 cabd 6fd3 8a3c ced4 86be 6a05 633e
00000230: b035 01be 78a9 04be b810 42be a8fb 45be
00000240: 4236 aabe 8232 50bd 40ff 70bc e856 b63d
00000250: 5143 63be ef51 703e 790a 413d 956e a83a
00000260: 59de 6fbd 9e5c a93b e46c 9a3d d0fc 383e
00000270: 3335 2a3e 06d2 cd3d a45f 993d 5440 283e
00000280: cc84 2e3c c9c5 9b3d 3b54 963d f3ea e9bb
00000290: f501 8a3d 95a1 a93d a652 a63d 44e0 e5bc
000002a0: 3843 83bd 036f 1d3e c228 983d ef25 083d
000002b0: 5916 a5ba 609e b53d 67b7 6f3d 7e21 d83c
000002c0: b9aa 483b f7d5 aa3d ff25 ae3d cc65 f43d
000002d0: dd06 72bb 6e4f 32bd 105f 19bd fb10 c5bc
000002e0: 64f5 193d b8c2 843c d0f9 163d c0f6 c63d
000002f0: cb29 5b3c 24f0 ab3d 8d95 7bbd 88b7 03bd
00000300: 1ccb 60bd eaec 18bd e18c 43bd 9e7f 0a3e
00000310: 98a6 303d a7e9 113d d9ea 53bd c555 273c
00000320: 5745 923d ad1b c03c a29f dbbc 357e 34bd
00000330: 6657 c53c 1bc8 7c3d 4c7d f33d 6520 b8bc
00000340: 50ce db3c d70f 71bb 14e0 ed3c 3e22 3a3d
00000350: 9f64 533d e21c 3f3d 8400 4c3d 8585 8d3d
00000360: 073b 633c deba cabc ad12 bd3d 3e5b d8bb
00000370: fbc1 b43d e56b 913c e15d 5b3d d7a0 883d
00000380: db78 b2bd bc4b 0c3e 7128 b23d 2b57 a33d
00000390: af54 253d ee14 7ebd 912c 8e3c 7833 34bd
000003a0: c17d 47bd 1dd2 c0bc ed20 a4bd a483 6f3d
000003b0: 9379 db3c cda1 5b3c 5dba 103d 011d d93b
000003c0: 80cb 293d 0917 693d e6d2 913d dd33 2ebd
000003d0: f677 37bc 3b35 563d c51b 0b3c a95b cc3d
000003e0: 87a7 8dbd a624 c43c 7f3f 3ebd 0457 02bd
000003f0: 03d4 8aba 436d 933b 4056 fc3c f93b 533d

Target_Q_Net.linear1.bias f4 [30]
-0.07644213 -0.01630804 0.052056324 -0.04021073 -0.029012535 0.020079147 -0.0001670183 0.14206965
0.023950145 -0.0063722925 -0.05229057 -0.05105366 -0.045918625 0.02266961 -0.2017696 -0.07099022
-0.1064419 -0.02817654 -0.04474803 -0.012226618 0.05710948 -0.08393545 0.0067515667 -0.025205249
-0.11050748 -0.18667419 -0.04325415 0.08984621 0.09435986 -0.10915804
00000000: b18d 9cbd 7098 85bc 0339 553d 02b4 24bd
00000010: b2ab edbc 067d a43c a221 2fb9 b57a 113e
00000020: 1833 c43c aace d0bb a32e 56bd a51d 51bd
00000030: 2b15 3cbd 9eb5 b93c b19c 4ebe 5263 91bd
00000040: 36fe d9bd 7dd2 e6bc b649 37bd 2752 48bc
00000050: a1eb 693d 59e6 abbd 3f3c dd3b 3d7b cebc
00000060: bf51 e2bd 8527 3fbe 432b 31bd 4a01 b83d
00000070: be3f c13d 408e dfbd

Target_Q_Net.linear2.weight f4 [3, 30]
-0.43285012 0.19398917 -0.62541866 0.5163572 -0.84795547 0.07497006 -0.10513592 0.43749198
0.2820471 0.08668237 -0.18486649 -0.20347494 -0.12338848 -0.30316812 -0.062914126 -0.31281105
0.006799345 -0.0058187493 -0.14865737 0.46976894 0.859479 -0.3100714 -0.087149665 0.1146261
0.15354355 0.17909138 0.41673288 -0.045995995 -0.58923537 -0.15211745 0.15809463 0.43634975
0.96988934 0.72607374 0.85854626 -0.37493163 -0.5650901 -0.35500786 -0.43730727 -0.09936391
0.2301672 0.3838468 0.6439465 0.91293216 0.94372594 1.3059995 -0.63220793 0.2598077
0.2602998 0.76188916 0.805559 0.15498127 0.029428672 0.04828311 0.013523383 0.13825297
0.48065752 -0.1940353 -0.21146582 0.2652467 -1.4925401 -0.10159561 0.40742457 -0.51465374
0.6416986 -0.6098541 0.1058978 -0.6365853 -0.6305759 0.048330057 -0.0322002 0.38683388
0.39436275 1.4689964 0.41021943 0.5498366 0.16286302 0.04970687 -0.17200552 -0.5025771
-0.22645088 -0.077603824 0.027389687 1.0614533 -0.06538463 -0.4696158 0.058279388 -0.28151235
0.32089052 -0.6934122
00000000: 889e ddbe 19a5 463e 701b 20bf fc2f 043f
00000010: 9c13 59bf e789 993d 8051 d7bd f3fe df3e
00000020: 7a68 903e 8786 b13d a44d 3dbe bc5b 50be
00000030: 19b3 fcbd da38 9bbe 1fd9 80bd c528 a0be
00000040: 0acd de3b 35ab bebb a339 18be 8e85 f03e
00000050: d106 5c3f aec1 9ebe 867b b2bd 17c1 ea3d
00000060: 853a 1d3e bb63 373e 035e d53e 4c66 3cbd
00000070: 21d8 16bf adc4 1bbe 8fe3 213e 3c69 df3e
00000080: ab4a 783f f8df 393f b0c9 5b3f 0af7 bfbe
00000090: bfa9 10bf 97c3 b5be bde6 dfbe 4e7f cbbd
000000a0: f3b0 6b3e 9187 c43e aed9 243f ecb5 693f
000000b0: 0698 713f fe2a a73f 61d8 21bf 8405 853e
000000c0: 0446 853e 2b0b 433f 1d39 4e3f 69b3 1e3e
000000d0: 6614 f13c 83c4 453d 2e91 5d3c 3092 0d3e
000000e0: be18 f63e 31b1 46be 7f8a 58be 6ace 873e
000000f0: 8e0b bfbf 5c11 d0bd f499 d03e 59c0 03bf
00000100: 5c46 243f 661f 1cbf f2e0 d83d 41f7 22bf
00000110: 6c6d 21bf bdf5 453d 5be4 03bd 170f c63e
00000120: eae9 c93e 1308 bc3f 4808 d23e 17c2 0c3f
00000130: 90c5 263e 6e99 4b3d 3722 30be e5a8 00bf
00000140: bde2 67be c1ee 9ebd 5660 e03c b4dd 873f
00000150: 60e8 85bd 7b71 f0be 5eb6 6e3d 6322 90be
00000160: c34b a43e 7683 31bf

Target_Q_Net.linear2.bias f4 [3]
9.294382 10.020202 10.320624
00000000: cab5 1441 bf52 2041 4721 2541
