Model/DQN/result/agent_dqn_002311_SZ.pt (torch_old, 38521 bytes, 8 tensors)

Q_Net.linear1.weight f4 [30, 150]
000000 ae 5a 9d be ad 09 8e be 9d 4b 52 be cb 34 89 be
       -0.30733246 -0.27741757 -0.20536657 -0.2679809
000010 9c 24 a9 be 41 0a 90 bb dd a8 4f 3d b3 30 fe 3d
       -0.33035743 -0.0043957536 0.05069815 0.124116324
000020 e7 63 94 be 36 34 ff 3b 9b e4 3c be 4a d1 8b be
       -0.2898247 0.0077882065 -0.18446581 -0.27308112
000030 53 28 95 be cc 3d 85 be a6 88 8c be bc 7a ea bc
       -0.29132327 -0.2602371 -0.27448004 -0.028622977
000040 ab 2b df bc 04 c1 b6 3d a1 97 9c be 0d 48 96 bd
       -0.027242502 0.089235336 -0.30584434 -0.07337961
000050 2d ad 3f be 08 c4 a1 be e7 35 63 be 1b b1 96 be
       -0.18718405 -0.31594872 -0.22188531 -0.29431996
000060 5d 2a 69 be 6a cd b7 3d e6 36 eb 3d e2 af 6b 3c
       -0.22770067 0.089747265 0.114850804 0.014385195
000070 b3 28 96 be cd fe 88 3d 8e 6d 87 be ce 10 40 be
       -0.29327926 0.066892244 -0.2645077 -0.1875641
000080 60 16 94 be 83 be 26 be 29 58 7d be fc 7e 19 3e
       -0.2892332 -0.16283612 -0.24740662 0.14989847
000090 8e 6d 39 3d c3 02 07 bc f3 f5 6a be 9c 20 56 bc
       0.045270495 -0.008240405 -0.22945385 -0.013069298
0000a0 38 d8 8f be 57 c2 8a be 6a 65 6b be 21 95 47 be
       -0.2809465 -0.27101395 -0.22987905 -0.19490482
0000b0 a1 14 88 be ed 7a d0 3d 1e 64 70 3d 8d 70 64 3d
       -0.2657824 0.10179696 0.05868923 0.0557714
0000c0 b1 b3 a5 be 9f 1b 66 bc 1f 86 4c be 94 36 6a be
       -0.32363656 -0.014044671 -0.19973038 -0.22872382
0000d0 a2 f7 2a be 2b 43 81 be 63 2c 95 be af 9e 0f 3e
       -0.16696027 -0.25246558 -0.29135427 0.14025377
0000e0 1c df 00 bc f7 99 bf ba 3a f8 61 be 58 86 d7 3d
       -0.007865693 -0.0014618029 -0.22067347 0.10523671
0000f0 f2 01 6e be 8e de 47 be 76 e3 8e be 1c f8 43 be
       -0.2324293 -0.19518492 -0.27907914 -0.19137615
000100 f6 ca 9f be 58 6d ac 3d 97 76 ab bc 05 0c 61 bd
       -0.31209534 0.08419293 -0.020930571 -0.054943103
000110 1a 0e 39 be 94 02 9d 3c 16 2f 9a be 64 8a 87 be
       -0.18071786 0.019166268 -0.3011405 -0.2647277
000120 c8 03 37 be cf cf 84 be 5c 6f 98 be eb 03 eb 3a
       -0.17872536 -0.25939795 -0.2977246 0.0017930245
000130 f9 08 1a 3e 57 08 6c bd fd ad 38 be 84 43 15 3d
       0.15042485 -0.05762514 -0.18035121 0.03644134
000140 c6 f3 2a be e0 d1 99 be b9 4c 94 be d6 02 68 be
       -0.16694555 -0.30042934 -0.28964785 -0.22657332
000150 de 3e 81 be 9e 05 3a 3d 2d f3 06 3e 1b 82 76 bd
       -0.25243276 0.045415513 0.13178702 -0.060182672
000160 d8 99 96 be 88 12 ba 3d 1c 8a 46 be f8 3d 6f be
       -0.29414248 0.09085566 -0.19388622 -0.23363483
000170 d8 99 88 be dd 0d 98 be 80 b0 ad be a7 9c d0 3d
       -0.26679873 -0.29698077 -0.3392372 0.10186129
000180 57 70 1f 3e 7c dd a1 3d 5a 2c 50 be 18 1c 64 3e
       0.15570198 0.07903573 -0.20329419 0.22276342
000190 7b 99 60 be 7b a5 80 be 34 b4 47 be e8 80 5a be
       -0.21933548 -0.25126252 -0.19502336 -0.21338236
0001a0 17 bf 62 be 2b c7 35 3d 15 8e b1 3d 3d c3 6d 3d
       -0.22143207 0.044379395 0.08669678 0.05804752
0001b0 de ef 75 be 53 4b 02 3e ac ea a2 be 33 17 7b be
       -0.24017283 0.12724046 -0.31819665 -0.24520569
0001c0 78 c9 87 be 10 6e 93 be bf 7d 6a be 84 bd f7 3d
       -0.26520896 -0.2879491 -0.22899531 0.12096694
0001d0 5f bb d5 3d 05 34 dd 3d 43 a7 9f be 67 fe 86 3e
       0.10436129 0.108009376 -0.31182298 0.2636597
0001e0 d7 83 8f be 6f d7 92 be ff c1 8d be 30 01 78 be
       -0.28030273 -0.28679988 -0.2768707 -0.24219203
0001f0 a8 24 9c be 9a d6 cd 3c d5 76 9c bd 99 b8 98 bb
       -0.30496716 0.025126744 -0.07639853 -0.0046606776
000200 b2 3a 60 be 89 0a 7a 3e 44 00 a5 be d8 41 7e be
       -0.2189739 0.24418081 -0.32226765 -0.24829805
000210 8d d0 9b be 22 7c 9e be 56 1f 8d be 26 cf 52 3d
       -0.3043255 -0.3095408 -0.2756297 0.051467083
000220 f1 17 a6 bd b0 71 1e 3d c9 2f 9e be a6 7f 90 3e
       -0.08110035 0.03868264 -0.30895832 0.28222388
000230 fe a6 2e be 87 fc 32 be 5a aa 6f be 62 d5 73 be
       -0.1705589 -0.17479144 -0.23404828 -0.23811868
000240 43 22 c4 be e2 ef 1c bd 13 ea 11 3d 5b 53 ed 3d
       -0.3830739 -0.038314708 0.03562362 0.115881644
000250 da e3 88 be 13 31 8a 3e 3c 16 0b bc 59 ce 5d bd
       -0.26736337 0.26990566 -0.008489188 -0.054151867
000260 5c 99 e9 bd 0e 40 4f bd 70 53 a1 3c a1 09 5f 3e
       -0.11406204 -0.050598197 0.019693106 0.21781017
000270 a6 d4 44 3e 99 ac c4 3d 3b f5 9f 3c 88 e2 1f 3e
       0.19221744 0.09603233 0.019526115 0.15613759
000280 f6 57 38 bd 5d 90 a5 3c fb 84 8f 3c bb 6f 80 bd
       -0.04500576 0.02021044 0.017519465 -0.06271311
000290 62 3f 40 3c 9c af d1 3d 8d 22 01 3e b9 81 e8 bc
       0.011733862 0.10238573 0.12610836 -0.02838217
0002a0 20 ba f4 bd 5a 17 1a 3e ed 80 96 3c d6 0a b8 bc
       -0.11949563 0.1504797 0.018372023 -0.022466104
0002b0 ec 4b 6a bd 38 86 07 3d 25 92 e0 3a 1c 61 09 bd
       -0.05720131 0.033086985 0.0017133398 -0.033539876
0002c0 9c eb 1e 3d 61 95 ad 3d fc 00 f2 3c 80 75 22 3e
       0.038798913 0.084757574 0.029541485 0.15865135
0002d0 21 34 73 bd 4c 9b cb bd 41 9c bf bd 8b 74 a3 bd
       -0.059375886 -0.0994173 -0.09355975 -0.07981213
0002e0 bb 2a 93 bc 20 94 7b bc ca a0 88 3d bc 24 cf 3d
       -0.017964711 -0.01535514 0.06671293 0.101144284
0002f0 44 97 2c bd 5e 1a d4 3d 62 29 f0 bd b9 e4 b3 bd
       -0.042136446 0.10356592 -0.11726643 -0.0878386
000300 ad bc e2 bd d3 48 be bd 75 92 d5 bd ff dd 24 3e
       -0.11071143 -0.09291234 -0.10428325 0.1610031
000310 75 c3 bc 3d bf 5e 31 3d f6 bf db bd a3 b8 12 3d
       0.09216968 0.043303248 -0.10729973 0.035820615
000320 4d fb 7e 3c 98 9a 05 bd d2 71 a9 bd e0 a3 cc bd
       0.015562844 -0.032618135 -0.082736626 -0.09992194
000330 a3 43 05 bd 38 46 d2 3d 57 a2 1f 3e 06 94 28 bc
       -0.032535207 0.102672994 0.15589271 -0.010289198
000340 2c b4 eb bc b9 d9 61 3d 7b 8f da bc c3 d5 2a bc
       -0.028772436 0.055139277 -0.026679745 -0.010426941
000350 1e 69 8b bb de 1f 17 bc 0a a7 a8 bb b4 22 c5 3d
       -0.0042544743 -0.009223906 -0.0051468657 0.0962576
000360 d1 7e 36 3d 05 da 3d bc 9b 58 16 3d f4 64 92 3d
       0.044554535 -0.011587624 0.036705595 0.071481615
000370 54 84 04 3d c7 2c 1b bd 10 c6 1e bb e7 57 33 3c
       0.03235276 -0.0378845 -0.0024226941 0.0109462505
000380 95 65 12 be 8d b4 23 3e 99 ed d3 3d 6c c4 bb 3d
       -0.14296563 0.15986843 0.103480525 0.09168324
000390 e8 ab 7a bc 0b d1 76 3c 75 3a 1f bd 0f c6 cc bd
       -0.015299775 0.015064488 -0.03887411 -0.09998714
0003a0 8b c8 d6 bd 85 f6 a2 bd 35 0d 0d be 89 b9 b4 3d
       -0.10487469 -0.07957176 -0.1377457 0.088244505
0003b0 19 2e 3f 3d 65 83 d6 3c fa 3a a7 bc 1d e3 af 3d
       0.04667482 0.0261857 -0.020413864 0.0858824
0003c0 24 43 70 bc ba 30 24 3a 92 6e 75 3c 54 36 ca bd
       -0.014664445 0.00062633643 0.014979975 -0.098736435
0003d0 58 ab 89 bd ec fa a4 3d 1f ab 73 3c ef 63 e5 3d
       -0.06722134 0.08055672 0.014872341 0.112007014
0003e0 2f f1 ff bd f8 51 c8 3d 79 61 d1 bd 6c aa b4 bd
       -0.12497174 0.09781259 -0.102236696 -0.08821568
0003f0 70 c9 69 bd 63 62 53 bd 58 34 bf bc ea 0e a9 3d
       -0.05707687 -0.0516075 -0.02334039 0.08254798

Q_Net.linear1.bias f4 [30]
000000 f2 eb 05 be bb 32 75 bd 99 bb 65 3d d7 67 1a be
       -0.13078287 -0.059862833 0.05608711 -0.15078674
000010 78 6e 96 bd 45 59 10 3b 80 6d ec 3c 7c 71 1f 3e
       -0.07345289 0.0022025865 0.028860807 0.15570635
000020 6e 57 c4 3c a6 c8 37 bd ee d6 55 bd cd 0f 42 bd
       0.023967471 -0.044869088 -0.052206926 -0.04737835
000030 4d dd 9c bd 99 51 4d 3d 49 91 93 be a6 c7 03 be
       -0.07659397 0.050126646 -0.2882178 -0.12869129
000040 b9 7a 11 be c2 50 fc bb 8a 0e bc 3d f2 de a3 bc
       -0.14206971 -0.007700057 0.091824606 -0.02000377
000050 40 c6 52 3e 1d ba ab bd 94 0e dc 3b 0b 23 4c bd
       0.20583439 -0.08385108 0.006715605 -0.049838107
000060 04 34 0d be 62 34 14 be 9f 04 0a be 8d f6 3d 3e
       -0.13789374 -0.14473107 -0.13478325 0.18551083
000070 1a 24 ab 3d 42 db 89 bd
       0.08356495 -0.06731273

Q_Net.linear2.weight f4 [3, 30]
000000 77 57 09 bf 60 3d 96 3d d5 d6 83 be 85 0a 0f 3f
       -0.53649086 0.07335925 -0.2574984 0.55875427
000010 f1 bd 36 3e 3c 72 84 be 32 8d 24 3f b0 2b d9 be
       0.17845894 -0.25868404 0.64277947 -0.42416143
000020 99 a6 ab 3d e2 47 2f 3f 85 53 5d 3e b9 f7 31 3d
       0.08381385 0.6846906 0.21613891 0.043449137
000030 c8 9e a7 be f3 d1 8e 3e 06 1a 3c bf f7 13 96 be
       -0.32738328 0.27894554 -0.7347721 -0.29312107
000040 bd ef 07 bf 89 0a 65 be 73 cc 4e 3f 52 98 ff bd
       -0.53100187 -0.223673 0.80780715 -0.12480225
000050 8c 69 30 3e da 46 d1 3d 57 d4 98 3c 01 9a 3a be
       0.17227763 0.10218592 0.018655939 -0.1822281
000060 45 de ab 3e d9 ee 3e 3f d8 63 1d 3f f7 d9 b6 3f
       0.33568016 0.745832 0.61480474 1.4285268
000070 2e 90 0f bf eb 70 ab 3e bd 60 da 3e 89 db e1 be
       -0.56079376 0.33484587 0.4265193 -0.44112805
000080 20 8f 2b 3f ce 7d 5f 3f e7 7f ea 3e 93 ce 15 bf
       0.67015266 0.8730134 0.45800707 -0.5851833
000090 00 9e 5c bf a9 a3 0b bf e1 a8 13 bf 3f c6 ac 3e
       -0.8617859 -0.545466 -0.57679564 0.33745
0000a0 0e ce c2 3d a8 c9 d5 be 8e 88 a9 3e 0c 1f 1b 3f
       0.09511958 -0.41755414 0.33111995 0.6059425
0000b0 25 99 b0 be a5 0d 5d 3f 81 29 c8 3d 42 30 34 be
       -0.3449184 0.86348945 0.09773541 -0.17596534
0000c0 fa 2d 33 3f e4 99 9c bd 50 95 af 3f fc 72 22 bd
       0.6999203 -0.0764654 1.3717442 -0.03966044
0000d0 8a 89 52 be b9 c5 02 3f 66 1d eb be cb cb 9d 3e
       -0.2056028 0.5108295 -0.45920867 0.30819544
0000e0 df 8d 96 3d ea e0 ab 3c ab 20 ea 3e 1e ba 45 3f
       0.073512785 0.02098127 0.4572805 0.7723712
0000f0 e8 63 88 bf fb 2b 8e be 21 9c 60 bd 59 15 5e be
       -1.0655489 -0.2776793 -0.054836396 -0.21687831
000100 c2 51 ca bd 44 ee f5 bf 78 59 11 bf c4 b5 e8 be
       -0.09878875 -1.9213338 -0.56777143 -0.45451176
000110 44 61 8c bf 07 bb c5 3f bd 1f 71 3d 07 80 e6 be
       -1.0967183 1.5447701 0.05886816 -0.45019552
000120 71 9a 87 be 9e 66 9c 3f eb 6c 03 bf ae 14 a2 3d
       -0.26485017 1.2218816 -0.5133807 0.079141006
000130 97 ee 83 bf e5 2d aa be fd e7 39 3f b5 3f 86 bf
       -1.0307187 -0.3323814 0.7261961 -1.0488192
000140 e8 e3 13 3f cb 6d 44 3f f5 0e e0 be 83 c2 bf 3e
       0.5776963 0.7673003 -0.4376141 0.37453088
000150 2f 9b e8 3d 98 44 c3 be 80 c9 5a 3f e8 21 10 3f
       0.11357724 -0.3813827 0.85463715 0.56301737
000160 4f e3 cc 3d 38 8e b4 be
       0.10004293 -0.35264754

Q_Net.linear2.bias f4 [3]
000000 29 dd 0c 41 52 05 21 41 55 c1 23 41
       8.803994 10.063799 10.2347

Target_Q_Net.linear1.weight f4 [30, 150]
000000 ae 5a 9d be ad 09 8e be 9d 4b 52 be cb 34 89 be
       -0.30733246 -0.27741757 -0.20536657 -0.2679809
000010 9c 24 a9 be 41 0a 90 bb dd a8 4f 3d b3 30 fe 3d
       -0.33035743 -0.0043957536 0.05069815 0.124116324
000020 e7 63 94 be 36 34 ff 3b 9b e4 3c be 4a d1 8b be
       -0.2898247 0.0077882065 -0.18446581 -0.27308112
000030 53 28 95 be cc 3d 85 be a6 88 8c be bc 7a ea bc
       -0.29132327 -0.2602371 -0.27448004 -0.028622977
000040 ab 2b df bc 04 c1 b6 3d a1 97 9c be 0d 48 96 bd
       -0.027242502 0.089235336 -0.30584434 -0.07337961
000050 2d ad 3f be 08 c4 a1 be e7 35 63 be 1b b1 96 be
       -0.18718405 -0.31594872 -0.22188531 -0.29431996
000060 5d 2a 69 be 6a cd b7 3d e6 36 eb 3d e2 af 6b 3c
       -0.22770067 0.089747265 0.114850804 0.014385195
000070 b3 28 96 be cd fe 88 3d 8e 6d 87 be ce 10 40 be
       -0.29327926 0.066892244 -0.2645077 -0.1875641
000080 60 16 94 be 83 be 26 be 29 58 7d be fc 7e 19 3e
       -0.2892332 -0.16283612 -0.24740662 0.14989847
000090 8e 6d 39 3d c3 02 07 bc f3 f5 6a be 9c 20 56 bc
       0.045270495 -0.008240405 -0.22945385 -0.013069298
0000a0 38 d8 8f be 57 c2 8a be 6a 65 6b be 21 95 47 be
       -0.2809465 -0.27101395 -0.22987905 -0.19490482
0000b0 a1 14 88 be ed 7a d0 3d 1e 64 70 3d 8d 70 64 3d
       -0.2657824 0.10179696 0.05868923 0.0557714
0000c0 b1 b3 a5 be 9f 1b 66 bc 1f 86 4c be 94 36 6a be
       -0.32363656 -0.014044671 -0.19973038 -0.22872382
0000d0 a2 f7 2a be 2b 43 81 be 63 2c 95 be af 9e 0f 3e
       -0.16696027 -0.25246558 -0.29135427 0.14025377
0000e0 1c df 00 bc f7 99 bf ba 3a f8 61 be 58 86 d7 3d
       -0.007865693 -0.0014618029 -0.22067347 0.10523671
0000f0 f2 01 6e be 8e de 47 be 76 e3 8e be 1c f8 43 be
       -0.2324293 -0.19518492 -0.27907914 -0.19137615
000100 f6 ca 9f be 58 6d ac 3d 97 76 ab bc 05 0c 61 bd
       -0.31209534 0.08419293 -0.020930571 -0.054943103
000110 1a 0e 39 be 94 02 9d 3c 16 2f 9a be 64 8a 87 be
       -0.18071786 0.019166268 -0.3011405 -0.2647277
000120 c8 03 37 be cf cf 84 be 5c 6f 98 be eb 03 eb 3a
       -0.17872536 -0.25939795 -0.2977246 0.0017930245
000130 f9 08 1a 3e 57 08 6c bd fd ad 38 be 84 43 15 3d
       0.15042485 -0.05762514 -0.18035121 0.03644134
000140 c6 f3 2a be e0 d1 99 be b9 4c 94 be d6 02 68 be
       -0.16694555 -0.30042934 -0.28964785 -0.22657332
000150 de 3e 81 be 9e 05 3a 3d 2d f3 06 3e 1b 82 76 bd
       -0.25243276 0.045415513 0.13178702 -0.060182672
000160 d8 99 96 be 88 12 ba 3d 1c 8a 46 be f8 3d 6f be
       -0.29414248 0.09085566 -0.19388622 -0.23363483
000170 d8 99 88 be dd 0d 98 be 80 b0 ad be a7 9c d0 3d
       -0.26679873 -0.29698077 -0.3392372 0.10186129
000180 57 70 1f 3e 7c dd a1 3d 5a 2c 50 be 18 1c 64 3e
       0.15570198 0.07903573 -0.20329419 0.22276342
000190 7b 99 60 be 7b a5 80 be 34 b4 47 be e8 80 5a be
       -0.21933548 -0.25126252 -0.19502336 -0.21338236
0001a0 17 bf 62 be 2b c7 35 3d 15 8e b1 3d 3d c3 6d 3d
       -0.22143207 0.044379395 0.08669678 0.05804752
0001b0 de ef 75 be 53 4b 02 3e ac ea a2 be 33 17 7b be
       -0.24017283 0.12724046 -0.31819665 -0.24520569
0001c0 78 c9 87 be 10 6e 93 be bf 7d 6a be 84 bd f7 3d
       -0.26520896 -0.2879491 -0.22899531 0.12096694
0001d0 5f bb d5 3d 05 34 dd 3d 43 a7 9f be 67 fe 86 3e
       0.10436129 0.108009376 -0.31182298 0.2636597
0001e0 d7 83 8f be 6f d7 92 be ff c1 8d be 30 01 78 be
       -0.28030273 -0.28679988 -0.2768707 -0.24219203
0001f0 a8 24 9c be 9a d6 cd 3c d5 76 9c bd 99 b8 98 bb
       -0.30496716 0.025126744 -0.07639853 -0.0046606776
000200 b2 3a 60 be 89 0a 7a 3e 44 00 a5 be d8 41 7e be
       -0.2189739 0.24418081 -0.32226765 -0.24829805
000210 8d d0 9b be 22 7c 9e be 56 1f 8d be 26 cf 52 3d
       -0.3043255 -0.3095408 -0.2756297 0.051467083
000220 f1 17 a6 bd b0 71 1e 3d c9 2f 9e be a6 7f 90 3e
       -0.08110035 0.03868264 -0.30895832 0.28222388
000230 fe a6 2e be 87 fc 32 be 5a aa 6f be 62 d5 73 be
       -0.1705589 -0.17479144 -0.23404828 -0.23811868
000240 43 22 c4 be e2 ef 1c bd 13 ea 11 3d 5b 53 ed 3d
       -0.3830739 -0.038314708 0.03562362 0.115881644
000250 da e3 88 be 13 31 8a 3e 3c 16 0b bc 59 ce 5d bd
       -0.26736337 0.26990566 -0.008489188 -0.054151867
000260 5c 99 e9 bd 0e 40 4f bd 70 53 a1 3c a1 09 5f 3e
       -0.11406204 -0.050598197 0.019693106 0.21781017
000270 a6 d4 44 3e 99 ac c4 3d 3b f5 9f 3c 88 e2 1f 3e
       0.19221744 0.09603233 0.019526115 0.15613759
000280 f6 57 38 bd 5d 90 a5 3c fb 84 8f 3c bb 6f 80 bd
       -0.04500576 0.02021044 0.017519465 -0.06271311
000290 62 3f 40 3c 9c af d1 3d 8d 22 01 3e b9 81 e8 bc
       0.011733862 0.10238573 0.12610836 -0.02838217
0002a0 20 ba f4 bd 5a 17 1a 3e ed 80 96 3c d6 0a b8 bc
       -0.11949563 0.1504797 0.018372023 -0.022466104
0002b0 ec 4b 6a bd 38 86 07 3d 25 92 e0 3a 1c 61 09 bd
       -0.05720131 0.033086985 0.0017133398 -0.033539876
0002c0 9c eb 1e 3d 61 95 ad 3d fc 00 f2 3c 80 75 22 3e
       0.038798913 0.084757574 0.029541485 0.15865135
0002d0 21 34 73 bd 4c 9b cb bd 41 9c bf bd 8b 74 a3 bd
       -0.059375886 -0.0994173 -0.09355975 -0.07981213
0002e0 bb 2a 93 bc 20 94 7b bc ca a0 88 3d bc 24 cf 3d
       -0.017964711 -0.01535514 0.06671293 0.101144284
0002f0 44 97 2c bd 5e 1a d4 3d 62 29 f0 bd b9 e4 b3 bd
       -0.042136446 0.10356592 -0.11726643 -0.0878386
000300 ad bc e2 bd d3 48 be bd 75 92 d5 bd ff dd 24 3e
       -0.11071143 -0.09291234 -0.10428325 0.1610031
000310 75 c3 bc 3d bf 5e 31 3d f6 bf db bd a3 b8 12 3d
       0.09216968 0.043303248 -0.10729973 0.035820615
000320 4d fb 7e 3c 98 9a 05 bd d2 71 a9 bd e0 a3 cc bd
       0.015562844 -0.032618135 -0.082736626 -0.09992194
000330 a3 43 05 bd 38 46 d2 3d 57 a2 1f 3e 06 94 28 bc
       -0.032535207 0.102672994 0.15589271 -0.010289198
000340 2c b4 eb bc b9 d9 61 3d 7b 8f da bc c3 d5 2a bc
       -0.028772436 0.055139277 -0.026679745 -0.010426941
000350 1e 69 8b bb de 1f 17 bc 0a a7 a8 bb b4 22 c5 3d
       -0.0042544743 -0.009223906 -0.0051468657 0.0962576
000360 d1 7e 36 3d 05 da 3d bc 9b 58 16 3d f4 64 92 3d
       0.044554535 -0.011587624 0.036705595 0.071481615
000370 54 84 04 3d c7 2c 1b bd 10 c6 1e bb e7 57 33 3c
       0.03235276 -0.0378845 -0.0024226941 0.0109462505
000380 95 65 12 be 8d b4 23 3e 99 ed d3 3d 6c c4 bb 3d
       -0.14296563 0.15986843 0.103480525 0.09168324
000390 e8 ab 7a bc 0b d1 76 3c 75 3a 1f bd 0f c6 cc bd
       -0.015299775 0.015064488 -0.03887411 -0.09998714
0003a0 8b c8 d6 bd 85 f6 a2 bd 35 0d 0d be 89 b9 b4 3d
       -0.10487469 -0.07957176 -0.1377457 0.088244505
0003b0 19 2e 3f 3d 65 83 d6 3c fa 3a a7 bc 1d e3 af 3d
       0.04667482 0.0261857 -0.020413864 0.0858824
0003c0 24 43 70 bc ba 30 24 3a 92 6e 75 3c 54 36 ca bd
       -0.014664445 0.00062633643 0.014979975 -0.098736435
0003d0 58 ab 89 bd ec fa a4 3d 1f ab 73 3c ef 63 e5 3d
       -0.06722134 0.08055672 0.014872341 0.112007014
0003e0 2f f1 ff bd f8 51 c8 3d 79 61 d1 bd 6c aa b4 bd
       -0.12497174 0.09781259 -0.102236696 -0.08821568
0003f0 70 c9 69 bd 63 62 53 bd 58 34 bf bc ea 0e a9 3d
       -0.05707687 -0.0516075 -0.02334039 0.08254798

Target_Q_Net.linear1.bias f4 [30]
000000 f2 eb 05 be bb 32 75 bd 99 bb 65 3d d7 67 1a be
       -0.13078287 -0.059862833 0.05608711 -0.15078674
000010 78 6e 96 bd 45 59 10 3b 80 6d ec 3c 7c 71 1f 3e
       -0.07345289 0.0022025865 0.028860807 0.15570635
000020 6e 57 c4 3c a6 c8 37 bd ee d6 55 bd cd 0f 42 bd
       0.023967471 -0.044869088 -0.052206926 -0.04737835
000030 4d dd 9c bd 99 51 4d 3d 49 91 93 be a6 c7 03 be
       -0.07659397 0.050126646 -0.2882178 -0.12869129
000040 b9 7a 11 be c2 50 fc bb 8a 0e bc 3d f2 de a3 bc
       -0.14206971 -0.007700057 0.091824606 -0.02000377
000050 40 c6 52 3e 1d ba ab bd 94 0e dc 3b 0b 23 4c bd
       0.20583439 -0.08385108 0.006715605 -0.049838107
000060 04 34 0d be 62 34 14 be 9f 04 0a be 8d f6 3d 3e
       -0.13789374 -0.14473107 -0.13478325 0.18551083
000070 1a 24 ab 3d 42 db 89 bd
       0.08356495 -0.06731273

Target_Q_Net.linear2.weight f4 [3, 30]
000000 4a 4c 09 bf 2e 11 96 3d 1b ed 83 be 45 1b 0f 3f
       -0.5363203 0.073274955 -0.25766835 0.55900985
000010 32 ef 36 3e 53 8b 84 be 2e 99 24 3f a5 48 d9 be
       0.17864683 -0.25887546 0.64296234 -0.42438236
000020 de d3 ab 3d 42 42 2f 3f f0 8b 5d 3e 13 79 31 3d
       0.0839002 0.68460476 0.21635413 0.043328356
000030 23 b9 a7 be 37 ec 8e 3e 8c 1f 3c bf 45 2a 96 be
       -0.32758436 0.27914593 -0.73485637 -0.29329124
000040 17 e4 07 bf d9 52 65 be 7f d7 4e 3f 1e 68 ff bd
       -0.5308241 -0.22394885 0.8079757 -0.12471031
000050 30 b4 30 3e fa cc d1 3d 30 d8 96 3c 6c 61 3a be
       0.17256236 0.10244174 0.018413633 -0.18201226
000060 ba f6 ab 3e 63 fa 3e 3f 8d 5e 1d 3f 63 d4 b6 3f
       0.33586675 0.7460081 0.614724 1.4283565
000070 ce 95 0f bf 95 93 ab 3e 7f 63 da 3e ea d5 e1 be
       -0.5608796 0.33511034 0.42654034 -0.44108516
000080 cd 87 2b 3f 95 89 5f 3f 8b 8e ea 3e 87 d2 15 bf
       0.6700409 0.8731931 0.45811877 -0.58524364
000090 ad 98 5c bf 84 ab 0b bf 63 a9 13 bf 61 cc ac 3e
       -0.86170465 -0.5455859 -0.5768034 0.3374968
0000a0 fb 42 c3 3d 6f d9 d5 be d2 6a a9 3e e5 26 1b 3f
       0.0953426 -0.4176745 0.3308931 0.60606223
0000b0 03 93 b0 be 32 05 5d 3f fe ec c7 3d b9 6b 34 be
       -0.3448716 0.8633605 0.097619995 -0.17619218
0000c0 ea 2a 33 3f 58 b4 9c bd be 9c af 3f 88 05 22 bd
       0.69987357 -0.07651585 1.3719709 -0.039556056
0000d0 03 c4 52 be 0b d3 02 3f 59 0e eb be da da 9d 3e
       -0.20582585 0.51103276 -0.45909384 0.30831033
0000e0 61 a6 96 3d a6 ac ad 3c c4 18 ea 3e 7b b8 45 3f
       0.07355953 0.02120049 0.4572202 0.7723462
0000f0 52 63 88 bf 17 2d 8e be b0 ae 60 bd 03 13 5e be
       -1.065531 -0.27768776 -0.054854095 -0.2168694
000100 7c 48 ca bd 6a ee f5 bf 4f 58 11 bf 15 b8 e8 be
       -0.098771065 -1.9213383 -0.56775373 -0.45452943
000110 8e 61 8c bf e1 ba c5 3f 5b 24 71 3d 58 82 e6 be
       -1.0967271 1.5447656 0.058872562 -0.4502132
000120 55 99 87 be 32 67 9c 3f 14 6e 03 bf 61 12 a2 3d
       -0.2648417 1.2218993 -0.5133984 0.07913662
000130 71 ee 83 bf c9 2c aa be 26 e9 39 3f 6a 3f 86 bf
       -1.0307142 -0.33237293 0.7262138 -1.0488102
000140 51 e3 13 3f f4 6e 44 3f 89 0f e0 be c6 c4 bf 3e
       0.5776873 0.767318 -0.43761852 0.37454814
000150 3d a4 e8 3d f7 43 c3 be 17 ca 5a 3f bf 20 10 3f
       0.11359451 -0.3813779 0.85464615 0.56299967
000160 ff e0 cc 3d a4 8d b4 be
       0.10003852 -0.35264313

Target_Q_Net.linear2.bias f4 [3]
000000 f7 db 0c 41 65 04 21 41 42 c1 23 41
       8.803702 10.063573 10.234682
