Model/DQN/result/agent_dqn_600036_SH.pt (torch_old, 38521 bytes, 8 tensors)

Q_Net.linear1.weight f4 [30, 150]
00000000: 17dd bbbe 486d acbe 44ad 87be 5bb1 a7be
00000010: ecfc cbbe acd7 463c 4984 713d b439 103e
00000020: 90ec b1be 820b 90bd 90a7 7abe c161 aabe
00000030: 4f0e b4be dff6 a3be d8eb afbe 8150 a9bc
00000040: 8df8 edbc 4c09 d63d a953 babe ca06 23be
00000050: 5c75 7dbe cb95 c0be 0b57 90be e4ae b5be
00000060: e63d 98be 6588 cb3d 3bbd f13d 7057 ec3c
00000070: 0b11 b4be 2367 303d 6d73 a6be 4111 7ebe
00000080: 4c3f b3be d5d7 64be f6a6 a2be bef3 1f3e
00000090: 65f3 393d 2696 aa3b 088d 93be c9a0 48bd
000000a0: 0ce0 aebe add0 a9be 16c1 94be d9c4 82be
000000b0: a3c1 abbe 9b9a ed3d 1df7 853d 6bfd 8e3d
000000c0: d1e9 c3be af72 2dbd 3f9e 85be 044e 94be
000000d0: 544c 69be 418e a0be 9640 b9be 706c 233e
000000e0: 1f95 02b9 2a74 543c 0a5e 8fbe 8928 943d
000000f0: 1793 96be d644 83be 7d28 aebe 47c1 81be
00000100: 3436 c3be 9d78 d23d ff1a f0bb 3db2 21bd
00000110: 8c2a 76be 5b92 72bd 75ac b9be 7345 a7be
00000120: c735 76be 1115 a5be 17b8 bbbe 49dd b03c
00000130: 180b 2a3e 77bd 29bd 5610 76be 157d 21bd
00000140: ebb2 69be 013e b9be 8c94 b3be c261 93be
00000150: 36ee a3be aeef 873d 358b 193e 5f3b 2ebd
00000160: 3264 b5be 019f 9c3c b8d7 82be adf0 96be
00000170: ebf6 a7be b86e b7be 4af6 d0be 57c3 fb3d
00000180: 3935 2e3e c3e9 c63d cbfd 86be 5c3b 403e
00000190: a3b7 8fbe 6e36 a0be be2f 83be bae8 8cbe
000001a0: db39 94be 1152 923d 0b38 ec3d 4c27 9d3d
000001b0: 04f2 99be 7b1b 263e 3977 c2be 6d07 9dbe
000001c0: 504d a7be 5716 b3be 106c 98be 2415 143e
000001d0: ff1a 093e eb29 023e 59b7 bebe 2bd5 9e3e
000001e0: df3a afbe 9c55 b2be c54d adbe 1fb4 9bbe
000001f0: 2aa1 bfbe c5a7 593d 6702 20bd c8ca 753c
00000200: 3046 8fbe 6428 a13e 64f6 c4be a2e5 9ebe
00000210: 2ca5 bbbe 3e79 bebe 8a9b b0be 4666 b03d
00000220: 3d60 2abd f4c6 723d 4d76 bdbe c96f 9b3e
00000230: e376 6ebe ba03 73be a1a6 97be dd1e 9abe
00000240: 3444 e7be 244f bbbb e26e 853d 36f6 0b3e
00000250: a742 a8be 6574 863e 414e ad3c 14f4 c8bc
00000260: 19a4 acbd ee86 adbc 002c 4a3d bf82 613e
00000270: e661 283e 600d c53d 204a 493d bb11 0d3e
00000280: f9f4 7bbc 0b4b 4c3d 5b18 423d c10b 08bd
00000290: 8cde 293d 2ac6 cf3d 972f ce3d 3ac0 e7bc
000002a0: 2a12 b8bd 5e5e 2d3e 0686 453d 1d5b ee3b
000002b0: 3675 debc 0853 803d 11bc 053d 6d24 14bd
000002c0: 5c91 a23c c2b3 ad3d 5e73 723d da65 2f3e
000002d0: d89e f1bc 2b93 8ebd e100 82bd a6c2 4dbd
000002e0: f8ba 563c de78 9dbc b416 463d 99e8 ce3d
000002f0: f0ff 4bbc 488d 203e 774d b3bd 9d93 6dbd
00000300: de3c a5bd 8db1 81bd 5f02 98bd 56a3 203e
00000310: 6c2b 903d 836c 303d 3ef2 9ebd 5748 903d
00000320: 10cc 393d 894e 3ebb d944 58bd 31f6 8fbd
00000330: 56f1 08bb c177 cb3d 13c7 0e3e 12dd 2cbc
00000340: 59f9 743a 3b81 043d d89e 3a3b ee59 9d3c
00000350: 766e d13c 8e04 a53c b71a c73c e778 b33d
00000360: a02d 953c 061e 47bc 31f6 873d 4627 873d
00000370: ad93 7d3d a09d 08bc b720 e03c 5fd9 243d
00000380: a7bf e8bd 2a41 1c3e 59d4 9b3d 6a22 ba3d
00000390: 4858 6b3c ee3a 74bb cd4b 16bc b207 90bd
000003a0: ea99 99bd 3a1d 4dbd 891c dcbd c0de a93d
000003b0: 025b ed3c 6ee5 ce3c 35ab 173c b1fb 873d
000003c0: 25c8 7b3c 905a f93c 00da 383d c876 8dbd
000003d0: fb57 11bd 9d3d 9b3d ea2e 723c a959 e33d
000003e0: cd11 c3bd f826 a93d 9fbb 93bd 2a14 6ebd
000003f0: aa92 dbbc dd4d b2bc 529f 0c3c 8aa7 9f3d
-0.36692116 -0.33677125 -0.2649938 -0.327525 -0.39841402 0.012136381 0.058964048 0.14084512
-0.34750795 -0.07033445 -0.24477983 -0.33277705 -0.35167167 -0.32024285 -0.34359622 -0.02066827
-0.029049182 0.10450992 -0.36391953 -0.15920559 -0.247518 -0.37614283 -0.2819141 -0.35484993
-0.29734725 0.099381246 0.11803671 0.028850287 -0.35169253 0.04306711 -0.32509938 -0.2481127
-0.3500923 -0.22347958 -0.31768006 0.15620324 0.045398135 0.0052058874 -0.28818536 -0.04898146
-0.3415531 -0.3316702 -0.29053563 -0.25540808 -0.3354617 0.11601754 0.06541274 0.069819294
-0.38264325 -0.0423457 -0.26097295 -0.2896577 -0.22783023 -0.3135853 -0.36182088 0.15959334
-0.00012453318 0.012967149 -0.28001434 0.07234294 -0.29409096 -0.25638455 -0.34015265 -0.2534277
-0.3812729 0.102769114 -0.007327437 -0.039476622 -0.24039668 -0.059221607 -0.36264387 -0.32670173
-0.24043952 -0.32242635 -0.36663887 0.021589892 0.16605794 -0.041440453 -0.24029669 -0.03942593
-0.22822158 -0.36180118 -0.3507427 -0.2878552 -0.32017678 0.06637512 0.1499451 -0.04253709
-0.35428005 0.019118788 -0.25555205 -0.29480496 -0.3280557 -0.3582666 -0.40812904 0.122931175
0.1701249 0.09712555 -0.26365504 0.18772644 -0.2806979 -0.31291527 -0.25622362 -0.27521306
-0.2895039 0.07144559 0.11534127 0.07673511 -0.30067456 0.1622142 -0.37981585 -0.30669728
-0.32676172 -0.3497798 -0.29769945 0.1446119 0.13389204 0.12711303 -0.37249258 0.3102201
-0.34224603 -0.3483094 -0.33848396 -0.3041086 -0.37427646 0.053138513 -0.03906479 0.01500196
-0.27983236 0.31476128 -0.3846923 -0.3103457 -0.36649454 -0.37201875 -0.34493667 0.08613257
-0.041595686 0.059271768 -0.3700432 0.30358723 -0.23287539 -0.2373189 -0.29619315 -0.30101672
-0.45169222 -0.0057162214 0.0651529 0.13668141 -0.32863352 0.26260677 0.021155478 -0.024530448
-0.08429737 -0.021182504 0.049358368 0.22022532 0.16443595 0.09621692 0.049142957 0.13776295
-0.01537823 0.049876254 0.04738651 -0.033214334 0.041472003 0.10145219 0.10067671 -0.028289903
-0.089878395 0.1693053 0.048223518 0.007274045 -0.0271555 0.06265837 0.032650057 -0.03616755
0.019844703 0.08481552 0.059192054 0.17128697 -0.029494688 -0.06961664 -0.06347824 -0.05023446
0.0131061 -0.019222673 0.048361495 0.10102958 -0.012451157 0.15678895 -0.087550096 -0.058002103
-0.0806825 -0.06332693 -0.07422327 0.15687308 0.07039532 0.043072235 -0.07761048 0.07045048
0.045360625 -0.002903851 -0.052800033 -0.07029379 -0.00208958 0.099349506 0.13943128 -0.010550754
0.0009345017 0.032349806 0.0028476026 0.01920792 0.025565367 0.020143773 0.02430473 0.08763295
0.018210232 -0.012153154 0.06638754 0.06599288 0.061908413 -0.008338362 0.02735935 0.040246364
-0.1136468 0.15259233 0.076088615 0.09088595 0.01436431 -0.003726657 -0.009173346 -0.07032718
-0.0750006 -0.0500767 -0.1074763 0.08294439 0.02897406 0.025255885 0.0092571275 0.06639803
0.015367542 0.030438691 0.045129776 -0.06907421 -0.035484295 0.07580111 0.014781693 0.11101086
-0.095248796 0.08259386 -0.0721352 -0.0581247 -0.026803333 -0.021765644 0.008582907 0.077956274

Q_Net.linear1.bias f4 [30]
00000000: 7a5a 3fbe 9827 70bd 99bb 653d f5db 4abe
00000010: 786e 96bd 5ec6 d43c cd58 9b3d 2ce5 003e
00000020: b25b c43c 503a e6bd 3ed9 55bd 50aa 7bbd
00000030: 150d 9cbd 71a2 3c3d 8ea9 9dbe 299a e5bd
00000040: 2515 efbd 8955 fcbb 61b7 ec3d acd3 a3bc
00000050: 4df2 1c3e b08a c1bd 44b1 fd3c ce22 4cbd
00000060: 5fa9 2fbe 2133 3abe 0421 0abe 2ff3 3d3e
00000070: 1bcb f83d d21d b1bd
-0.18686858 -0.05863151 0.05608711 -0.1981047 -0.07345289 0.025973495 0.07585297 0.12587422
0.023969505 -0.11241591 -0.05220913 -0.06144172 -0.07619683 0.046053354 -0.30793422 -0.11211044
-0.11673955 -0.0077006263 0.11558414 -0.019998394 0.15326805 -0.09450281 0.030968316 -0.04983788
-0.17154454 -0.18183567 -0.13489157 0.18549798 0.12148114 -0.08648266

Q_Net.linear2.weight f4 [3, 30]
00000000: 40e5 2fbe b6ac 5d3d ccfe 61bf f062 163d
00000010: 2c3e 06be a184 35bf 1027 40be e4a8 afbd
00000020: 9c68 1ebf fc54 183d 2a65 4ebf 7f79 91bd
00000030: 7de8 023d c4f7 b43f df47 17bf 4983 543e
00000040: 9321 c3bd d0c8 6a3d 4319 213f 7e88 bb3c
00000050: cbfa acbe 23d7 96bf 2d11 fb3e 58af 9dbe
00000060: e3c4 d53d 647e 333f 6e72 3e3e aae0 c7be
00000070: bf12 0040 e5e6 ba3e be06 7abd 1f2e d1bd
00000080: 2638 b4bf 1819 f8be 2638 cc3e 78f3 913f
00000090: 8dbc bfbe aaf2 533e cd69 04c0 0eee b93d
000000a0: 204d c73d 748f 893d 165e 0ebe 78e1 d63d
000000b0: f6b5 563f 7eb4 d3bf 3441 abbf d181 233e
000000c0: 7ea1 3f40 afcc 1c3b 4df1 2dbf 0778 923c
000000d0: 6873 d9be b339 b93f f1ee 2bbf 1c5a 2cbf
000000e0: ca23 8cbe 4bfd b03e f767 c33f 72f1 ca3e
000000f0: 60eb fb3e 5d3d 943f 9dfa 68be 4f6c eb3f
00000100: 9815 e83f e916 66bf 08ef b43f e444 f9bf
00000110: 8dce b4bf c87a 53bd 3c07 643f ee52 323f
00000120: 9931 14bf 3385 353f fd68 9a3f 90f3 a93f
00000130: 9cf1 073f 29ba 25bd 4091 e1bf 1d34 48bf
00000140: e1f7 f03c 2731 bb3f d26a 6ebf 9eb9 9c3f
00000150: c441 a03f cd8e afbf 979a 343f b2b3 e8bf
00000160: 19cc b43f 2cdc 893c
-0.17177296 0.054119788 -0.88279414 0.036715448 -0.13109654 -0.709055 -0.18764901 -0.08577135
-0.6187837 0.037190422 -0.80623114 -0.07103252 0.03196 1.4138112 -0.5909404 0.20753206
-0.09527888 0.057320416 0.6292917 0.022892233 -0.3378509 -1.1784405 0.49036542 -0.3079784
0.10437944 0.7011473 0.18598339 -0.39038593 2.0011442 0.36504284 -0.061041586 -0.10213875
-1.4079635 -0.48456645 0.39886588 1.1402426 -0.3744854 0.20698038 -2.0689576 0.090786085
0.09731507 0.06716815 -0.13903078 0.104922235 0.838714 -1.6539457 -1.3379273 0.1596749
2.9942317 0.0023925712 -0.6794632 0.0178795 -0.4247086 1.4470733 -0.6716147 -0.67324996
-0.27371055 0.34568247 1.5266103 0.39637333 0.49203014 1.1581227 -0.22751851 1.8392428
1.813159 -0.8987871 1.4135447 -1.9474149 -1.4125534 -0.051630765 0.8907354 0.6965779
-0.5788818 0.7090637 1.206329 1.3277454 0.5310304 -0.04046074 -1.7622452 -0.7820452
0.029415073 1.4624375 -0.93131745 1.2244146 1.252007 -1.3715454 0.70548385 -1.8179839
1.4124786 0.016828619

Q_Net.linear2.bias f4 [3]
00000000: 890c f240 ce10 0241 75ff fe40
7.56403 8.129103 7.9686837

Target_Q_Net.linear1.weight f4 [30, 150]
00000000: 17dd bbbe 486d acbe 44ad 87be 5bb1 a7be
00000010: ecfc cbbe acd7 463c 4984 713d b439 103e
00000020: 90ec b1be 820b 90bd 90a7 7abe c161 aabe
00000030: 4f0e b4be dff6 a3be d8eb afbe 8150 a9bc
00000040: 8df8 edbc 4c09 d63d a953 babe ca06 23be
00000050: 5c75 7dbe cb95 c0be 0b57 90be e4ae b5be
00000060: e63d 98be 6588 cb3d 3bbd f13d 7057 ec3c
00000070: 0b11 b4be 2367 303d 6d73 a6be 4111 7ebe
00000080: 4c3f b3be d5d7 64be f6a6 a2be bef3 1f3e
00000090: 65f3 393d 2696 aa3b 088d 93be c9a0 48bd
000000a0: 0ce0 aebe add0 a9be 16c1 94be d9c4 82be
000000b0: a3c1 abbe 9b9a ed3d 1df7 853d 6bfd 8e3d
000000c0: d1e9 c3be af72 2dbd 3f9e 85be 044e 94be
000000d0: 544c 69be 418e a0be 9640 b9be 706c 233e
000000e0: 1f95 02b9 2a74 543c 0a5e 8fbe 8928 943d
000000f0: 1793 96be d644 83be 7d28 aebe 47c1 81be
00000100: 3436 c3be 9d78 d23d ff1a f0bb 3db2 21bd
00000110: 8c2a 76be 5b92 72bd 75ac b9be 7345 a7be
00000120: c735 76be 1115 a5be 17b8 bbbe 49dd b03c
00000130: 180b 2a3e 77bd 29bd 5610 76be 157d 21bd
00000140: ebb2 69be 013e b9be 8c94 b3be c261 93be
00000150: 36ee a3be aeef 873d 358b 193e 5f3b 2ebd
00000160: 3264 b5be 019f 9c3c b8d7 82be adf0 96be
00000170: ebf6 a7be b86e b7be 4af6 d0be 57c3 fb3d
00000180: 3935 2e3e c3e9 c63d cbfd 86be 5c3b 403e
00000190: a3b7 8fbe 6e36 a0be be2f 83be bae8 8cbe
000001a0: db39 94be 1152 923d 0b38 ec3d 4c27 9d3d
000001b0: 04f2 99be 7b1b 263e 3977 c2be 6d07 9dbe
000001c0: 504d a7be 5716 b3be 106c 98be 2415 143e
000001d0: ff1a 093e eb29 023e 59b7 bebe 2bd5 9e3e
000001e0: df3a afbe 9c55 b2be c54d adbe 1fb4 9bbe
000001f0: 2aa1 bfbe c5a7 593d 6702 20bd c8ca 753c
00000200: 3046 8fbe 6428 a13e 64f6 c4be a2e5 9ebe
00000210: 2ca5 bbbe 3e79 bebe 8a9b b0be 4666 b03d
00000220: 3d60 2abd f4c6 723d 4d76 bdbe c96f 9b3e
00000230: e376 6ebe ba03 73be a1a6 97be dd1e 9abe
00000240: 3444 e7be 244f bbbb e26e 853d 36f6 0b3e
00000250: a742 a8be 6574 863e 414e ad3c 14f4 c8bc
00000260: 19a4 acbd ee86 adbc 002c 4a3d bf82 613e
00000270: e661 283e 600d c53d 204a 493d bb11 0d3e
00000280: f9f4 7bbc 0b4b 4c3d 5b18 423d c10b 08bd
00000290: 8cde 293d 2ac6 cf3d 972f ce3d 3ac0 e7bc
000002a0: 2a12 b8bd 5e5e 2d3e 0686 453d 1d5b ee3b
000002b0: 3675 debc 0853 803d 11bc 053d 6d24 14bd
000002c0: 5c91 a23c c2b3 ad3d 5e73 723d da65 2f3e
000002d0: d89e f1bc 2b93 8ebd e100 82bd a6c2 4dbd
000002e0: f8ba 563c de78 9dbc b416 463d 99e8 ce3d
000002f0: f0ff 4bbc 488d 203e 774d b3bd 9d93 6dbd
00000300: de3c a5bd 8db1 81bd 5f02 98bd 56a3 203e
00000310: 6c2b 903d 836c 303d 3ef2 9ebd 5748 903d
00000320: 10cc 393d 894e 3ebb d944 58bd 31f6 8fbd
00000330: 56f1 08bb c177 cb3d 13c7 0e3e 12dd 2cbc
00000340: 59f9 743a 3b81 043d d89e 3a3b ee59 9d3c
00000350: 766e d13c 8e04 a53c b71a c73c e778 b33d
00000360: a02d 953c 061e 47bc 31f6 873d 4627 873d
00000370: ad93 7d3d a09d 08bc b720 e03c 5fd9 243d
00000380: a7bf e8bd 2a41 1c3e 59d4 9b3d 6a22 ba3d
00000390: 4858 6b3c ee3a 74bb cd4b 16bc b207 90bd
000003a0: ea99 99bd 3a1d 4dbd 891c dcbd c0de a93d
000003b0: 025b ed3c 6ee5 ce3c 35ab 173c b1fb 873d
000003c0: 25c8 7b3c 905a f93c 00da 383d c876 8dbd
000003d0: fb57 11bd 9d3d 9b3d ea2e 723c a959 e33d
000003e0: cd11 c3bd f826 a93d 9fbb 93bd 2a14 6ebd
000003f0: aa92 dbbc dd4d b2bc 529f 0c3c 8aa7 9f3d
-0.36692116 -0.33677125 -0.2649938 -0.327525 -0.39841402 0.012136381 0.058964048 0.14084512
-0.34750795 -0.07033445 -0.24477983 -0.33277705 -0.35167167 -0.32024285 -0.34359622 -0.02066827
-0.029049182 0.10450992 -0.36391953 -0.15920559 -0.247518 -0.37614283 -0.2819141 -0.35484993
-0.29734725 0.099381246 0.11803671 0.028850287 -0.35169253 0.04306711 -0.32509938 -0.2481127
-0.3500923 -0.22347958 -0.31768006 0.15620324 0.045398135 0.0052058874 -0.28818536 -0.04898146
-0.3415531 -0.3316702 -0.29053563 -0.25540808 -0.3354617 0.11601754 0.06541274 0.069819294
-0.38264325 -0.0423457 -0.26097295 -0.2896577 -0.22783023 -0.3135853 -0.36182088 0.15959334
-0.00012453318 0.012967149 -0.28001434 0.07234294 -0.29409096 -0.25638455 -0.34015265 -0.2534277
-0.3812729 0.102769114 -0.007327437 -0.039476622 -0.24039668 -0.059221607 -0.36264387 -0.32670173
-0.24043952 -0.32242635 -0.36663887 0.021589892 0.16605794 -0.041440453 -0.24029669 -0.03942593
-0.22822158 -0.36180118 -0.3507427 -0.2878552 -0.32017678 0.06637512 0.1499451 -0.04253709
-0.35428005 0.019118788 -0.25555205 -0.29480496 -0.3280557 -0.3582666 -0.40812904 0.122931175
0.1701249 0.09712555 -0.26365504 0.18772644 -0.2806979 -0.31291527 -0.25622362 -0.27521306
-0.2895039 0.07144559 0.11534127 0.07673511 -0.30067456 0.1622142 -0.37981585 -0.30669728
-0.32676172 -0.3497798 -0.29769945 0.1446119 0.13389204 0.12711303 -0.37249258 0.3102201
-0.34224603 -0.3483094 -0.33848396 -0.3041086 -0.37427646 0.053138513 -0.03906479 0.01500196
-0.27983236 0.31476128 -0.3846923 -0.3103457 -0.36649454 -0.37201875 -0.34493667 0.08613257
-0.041595686 0.059271768 -0.3700432 0.30358723 -0.23287539 -0.2373189 -0.29619315 -0.30101672
-0.45169222 -0.0057162214 0.0651529 0.13668141 -0.32863352 0.26260677 0.021155478 -0.024530448
-0.08429737 -0.021182504 0.049358368 0.22022532 0.16443595 0.09621692 0.049142957 0.13776295
-0.01537823 0.049876254 0.04738651 -0.033214334 0.041472003 0.10145219 0.10067671 -0.028289903
-0.089878395 0.1693053 0.048223518 0.007274045 -0.0271555 0.06265837 0.032650057 -0.03616755
0.019844703 0.08481552 0.059192054 0.17128697 -0.029494688 -0.06961664 -0.06347824 -0.05023446
0.0131061 -0.019222673 0.048361495 0.10102958 -0.012451157 0.15678895 -0.087550096 -0.058002103
-0.0806825 -0.06332693 -0.07422327 0.15687308 0.07039532 0.043072235 -0.07761048 0.07045048
0.045360625 -0.002903851 -0.052800033 -0.07029379 -0.00208958 0.099349506 0.13943128 -0.010550754
0.0009345017 0.032349806 0.0028476026 0.01920792 0.025565367 0.020143773 0.02430473 0.08763295
0.018210232 -0.012153154 0.06638754 0.06599288 0.061908413 -0.008338362 0.02735935 0.040246364
-0.1136468 0.15259233 0.076088615 0.09088595 0.01436431 -0.003726657 -0.009173346 -0.07032718
-0.0750006 -0.0500767 -0.1074763 0.08294439 0.02897406 0.025255885 0.0092571275 0.06639803
0.015367542 0.030438691 0.045129776 -0.06907421 -0.035484295 0.07580111 0.014781693 0.11101086
-0.095248796 0.08259386 -0.0721352 -0.0581247 -0.026803333 -0.021765644 0.008582907 0.077956274

Target_Q_Net.linear1.bias f4 [30]
00000000: 7a5a 3fbe 9827 70bd 99bb 653d f5db 4abe
00000010: 786e 96bd 5ec6 d43c cd58 9b3d 2ce5 003e
00000020: b25b c43c 503a e6bd 3ed9 55bd 50aa 7bbd
00000030: 150d 9cbd 71a2 3c3d 8ea9 9dbe 299a e5bd
00000040: 2515 efbd 8955 fcbb 61b7 ec3d acd3 a3bc
00000050: 4df2 1c3e b08a c1bd 44b1 fd3c ce22 4cbd
00000060: 5fa9 2fbe 2133 3abe 0421 0abe 2ff3 3d3e
00000070: 1bcb f83d d21d b1bd
-0.18686858 -0.05863151 0.05608711 -0.1981047 -0.07345289 0.025973495 0.07585297 0.12587422
0.023969505 -0.11241591 -0.05220913 -0.06144172 -0.07619683 0.046053354 -0.30793422 -0.11211044
-0.11673955 -0.0077006263 0.11558414 -0.019998394 0.15326805 -0.09450281 0.030968316 -0.04983788
-0.17154454 -0.18183567 -0.13489157 0.18549798 0.12148114 -0.08648266

Target_Q_Net.linear2.weight f4 [3, 30]
00000000: 3dd4 2fbe 5076 5d3d 8e03 62bf a978 163d
00000010: 0d2b 06be 9184 35bf 8415 40be d0ca afbd
00000020: 1067 1ebf b01b 183d ca61 4ebf 8381 91bd
00000030: 491e 033d 6bf9 b43f 534a 17bf 8175 543e
00000040: d643 c3bd 52cb 6a3d 6d1c 213f f11b bb3c
00000050: 33f1 acbe e2d7 96bf dd1a fb3e 40b5 9dbe
00000060: a5f7 d53d ba7f 333f b461 3e3e 7ada c7be
00000070: 5c12 0040 7dee ba3e d32d 79bd 4754 d1bd
00000080: c83e b4bf 2710 f8be b252 cc3e 6ff5 913f
00000090: 71a1 bfbe bbdc 533e af6a 04c0 a0bf b93d
000000a0: aa2d c73d 1ba2 893d 2e4c 0ebe c4c1 d63d
000000b0: e7ac 563f c5b2 d3bf 763e abbf c092 233e
000000c0: 0aa3 3f40 8c7e 203b 1ef5 2dbf 0945 913c
000000d0: 186c d9be 013d b93f 03e3 2bbf 7753 2cbf
000000e0: ea2f 8cbe 93ea b03e b669 c33f 86e9 ca3e
000000f0: 72eb fb3e 5d3d 943f c1fa 68be 4f6c eb3f
00000100: 9815 e83f e916 66bf 11ef b43f e444 f9bf
00000110: 8dce b4bf f57a 53bd 3c07 643f e552 323f
00000120: 9931 14bf 3385 353f fd68 9a3f 90f3 a93f
00000130: 93f1 073f feb9 25bd 4091 e1bf 1d34 48bf
00000140: 37f9 f03c 1e31 bb3f d26a 6ebf 9eb9 9c3f
00000150: c441 a03f cd8e afbf 979a 343f bbb3 e8bf
00000160: 19cc b43f c6db 893c
-0.17170806 0.05406791 -0.88286674 0.036736164 -0.1310236 -0.70905405 -0.18758208 -0.08583605
-0.6187601 0.03713578 -0.80617964 -0.071047805 0.032011304 1.4138616 -0.59097785 0.20747949
-0.09534423 0.057322808 0.62934 0.022840472 -0.3377777 -1.1784632 0.49043933 -0.30802345
0.10447625 0.7011677 0.18591958 -0.39033872 2.0011206 0.36510077 -0.060834717 -0.10221153
-1.4081659 -0.48449823 0.39906842 1.1403025 -0.37427858 0.2068967 -2.0690114 0.09069753
0.097255066 0.06720372 -0.13896248 0.104861766 0.8385758 -1.6538931 -1.3378437 0.1597395
2.994326 0.002448949 -0.67952144 0.017733114 -0.4246528 1.4471742 -0.6714327 -0.6731486
-0.27380306 0.34553966 1.5266635 0.3963129 0.49203068 1.1581227 -0.22751905 1.8392428
1.813159 -0.8987871 1.4135457 -1.9474149 -1.4125534 -0.051630933 0.8907354 0.69657737
-0.5788818 0.7090637 1.206329 1.3277454 0.5310299 -0.04046058 -1.7622452 -0.7820452
0.02941571 1.4624364 -0.93131745 1.2244146 1.252007 -1.3715454 0.70548385 -1.8179849
1.4124786 0.016828429

Target_Q_Net.linear2.bias f4 [3]
00000000: de0b f240 e40f 0241 75ff fe40
7.5639486 8.12888 7.9686837
