Model/DQN/result/agent_dqn_600862_SH.pt (torch_old, 38521 bytes, 8 tensors)

Q_Net.linear1.weight f4 [30, 150]
00000000: 7d27 bbbe bcb7 abbe 8ff7 86be d6fb a6be
00000010: 74d2 c6be a28c 473c 6f90 723d 153a 103e
00000020: 3537 b1be 0969 94bd 483c 79be 2bac a9be
00000030: aa58 b3be 5441 a3be 53c1 aabe 1dfe a8bc
00000040: 2658 ecbc 150a d63d 479e b9be 8215 29be
00000050: 430a 7cbe 2ae0 bfbe 68a1 8fbe 63f9 b4be
00000060: 0915 93be 7298 cb3d f404 f23d 9f5a ec3c
00000070: a45b b3be 2b91 0b3d eabd a5be 20a6 7cbe
00000080: c389 b2be d76c 63be 5d7e 9dbe c6f7 1f3e
00000090: 3f4a 3a3d 89a2 aa3b 99d7 92be 3a77 86bd
000000a0: 892a aebe 241b a9be 7e0b 94be 5c0f 82be
000000b0: 4599 a6be 7ea4 ed3d 8c22 863d 24fe 8e3d
000000c0: 6234 c3be ed06 83bd 3ae1 84be 0591 93be
000000d0: 32d2 67be 52d1 9fbe 3693 b2be 9d53 243e
000000e0: 0cad cf3c 798e 543c 7ea7 8ebe 29a9 563d
000000f0: afcd 95be 5a7f 82be f562 adbe e8fb 80be
00000100: 0a56 bcbe c331 d63d d16b 913c 01a2 21bd
00000110: cab8 74be 257e 96bd b3dd b8be a576 a6be
00000120: 1a98 74be 6046 a4be fbb3 b4be 2cdb c73c
00000130: 585d 433e 5d9f 29bd fe97 74be fa6f 48bd
00000140: b201 68be a165 b8be f1bb b2be 6589 92be
00000150: 5ce7 9cbe 25b2 8f3d efa3 303e f50b 2ebd
00000160: bca3 b4be 326a 193d d3f4 81be d60d 96be
00000170: fb13 a7be e98b b6be deee c9be f1c1 023e
00000180: bccb 433e 800b c73d 2438 86be 649f 563e
00000190: 2bca 8ebe f448 9fbe 3842 82be 4bfb 8bbe
000001a0: 0d32 8dbe 130d 9e3d d668 0a3e 3254 9d3d
000001b0: 6726 99be acdb 393e 9e7e c1be d00e 9cbe
000001c0: aa54 a6be db1d b2be 5d64 91be a6ec 1a3e
000001d0: 8c68 1c3e 6946 023e d8e4 bdbe 1b4d a83e
000001e0: 7636 aebe 3251 b1be 4c49 acbe c8af 9abe
000001f0: bb99 b8be cff8 783d 15c5 aabc 5afa 773c
00000200: 476c 8ebe f898 ad3e bbe5 c3be 19d5 9dbe
00000210: 6f94 babe b968 bdbe 1293 a9be e902 c23d
00000220: 0206 c3bc 0d6e 733d 1694 bcbe 6713 ad3e
00000230: c33b 6cbe b9c8 70be 0589 96be 7401 99be
00000240: 1a3b e0be 5ea0 7b3b 2f3c a93d 0f27 0c3e
00000250: 6057 a7be 8aa9 9b3e 20c0 33bd 3dac b8bd
00000260: 4a0a 19be df9a b1bd 5d00 03bc 48dd 413e
00000270: e722 203e eb5d 003e e26f 85bc 07a2 c93d
00000280: 7e34 a6bd c5e4 73bc fa3d 90bc 10c3 cabd
00000290: e2d4 a0bc 090a 573d b430 123e 6e16 183b
000002a0: b20d 1fbe 3577 243e 4604 87bc 75a6 6ebd
000002b0: ff41 bcbd 2823 27bb d8cd cabc 2042 85bd
000002c0: 562d 8b3d 2bbc f43d 2e78 cabb 02ac 383e
000002d0: d615 c2bd ad7f 09be 28ea 02be 6d88 ecbd
000002e0: 74eb 38bd 5fca 8d3b d847 e83d 661b 0a3e
000002f0: c251 9fbd 2589 203e c7a3 1dbe 7295 fcbd
00000300: 857c 16be 5b4b 04be 086b 10be 76f8 3f3e
00000310: c095 963d 50a6 813d 3c91 12be d79b 823d
00000320: 99ff acbc b380 8dbd 7fee f3bd 8c15 0cbe
00000330: 203d 8ebd 0bfc ff3d 41f6 d83d 5cce 3b3a
00000340: 6a90 84bd 52e3 503c 2a6f 80bd 0459 41bd
00000350: 92c7 26bd 539d 3dbd 16ab 17bd e333 f53d
00000360: 594a 3c3d 50b5 14ba 6401 443a a650 a73d
00000370: 8082 17bb 3167 97bd 4407 17bd 8358 cbbc
00000380: 7814 2bbe 93d9 4d3e 8653 253e 9da1 e63d
00000390: ea30 51bd ea63 8a3d 2897 92bd e4a3 08be
000003a0: 494b 0cbe f21a e8bd 0bdc 1ebe f239 3f3e
000003b0: 774d 3d3e dc2b 743d 133e 64bd e0f9 413e
000003c0: 195f 3dbd f121 02bd f56d 86bc 289c 06be
000003d0: 0905 a8bd 9fd5 353e acc7 223e 66bd 193e
000003e0: d18f 23be 5c10 563e a750 09be be62 f6bd
000003f0: 83ce b5bd 2f68 adbd 52c4 21bd 66db 263e
-0.36553565 -0.33538616 -0.26360747 -0.3261401 -0.38832438 0.012179526 0.059219774 0.14084657
-0.34612432 -0.07246596 -0.24339402 -0.33139166 -0.35028583 -0.3188578 -0.3335062 -0.020628983
-0.028850626 0.10451142 -0.3625357 -0.16512111 -0.2461329 -0.3747571 -0.2805283 -0.35346517
-0.28726986 0.09941186 0.11817351 0.028851805 -0.35030854 0.03407399 -0.32371455 -0.24672747
-0.3487073 -0.22209488 -0.3076047 0.15621862 0.045480963 0.005207364 -0.28680113 -0.065657094
-0.34016827 -0.3302852 -0.28915018 -0.25402343 -0.3253881 0.1160364 0.06549558 0.06982067
-0.38125902 -0.06397805 -0.25953084 -0.2882158 -0.22638777 -0.31214386 -0.34877938 0.16047521
0.02535107 0.012973421 -0.2786216 0.052407417 -0.29258487 -0.25487787 -0.3386456 -0.2519219
-0.36784393 0.1045871 0.017751606 -0.03946114 -0.23898616 -0.07348279 -0.36106643 -0.32512394
-0.23886147 -0.32084942 -0.35293564 0.024396501 0.19078577 -0.041411746 -0.23886105 -0.048934914
-0.22656897 -0.36015037 -0.34909013 -0.2862045 -0.30645263 0.070164 0.17250036 -0.042491872
-0.3528117 0.03745479 -0.253821 -0.2930743 -0.3263243 -0.35653618 -0.39440054 0.12769295
0.19120687 0.0971899 -0.26214707 0.2095924 -0.27888617 -0.31110346 -0.25441146 -0.2734016
-0.27577248 0.077173375 0.13516554 0.076820746 -0.2991211 0.18150204 -0.37791914 -0.3048005
-0.3248647 -0.34788403 -0.28396884 0.15129337 0.15274256 0.12722172 -0.37088656 0.32871327
-0.34025925 -0.3463226 -0.3364967 -0.30212235 -0.36054787 0.060784157 -0.02084593 0.015135372
-0.27816984 0.33905768 -0.38261208 -0.30826643 -0.3644137 -0.3699396 -0.33120018 0.09473211
-0.023806576 0.059431124 -0.3683173 0.33803865 -0.23069672 -0.2351407 -0.29401413 -0.2988392
-0.4379509 0.0038395147 0.08263432 0.13686775 -0.3268385 0.30402786 -0.043884397 -0.09017227
-0.14945331 -0.086721174 -0.007995692 0.18932068 0.15638314 0.12535827 -0.016288701 0.098453574
-0.08115481 -0.014886086 -0.017607678 -0.099004865 -0.01963276 0.052499805 0.14276391 0.0023206729
-0.15532568 0.16061099 -0.01648153 -0.058264215 -0.09192275 -0.0025503132 -0.024756357 -0.06506753
0.067957565 0.11949953 -0.0061788773 0.18034366 -0.09476821 -0.1342761 -0.12784636 -0.11549459
-0.04514642 0.004327103 0.11341828 0.13487014 -0.07779266 0.15677316 -0.15394507 -0.12333192
-0.14695938 -0.12919371 -0.14103329 0.18747124 0.07352781 0.0633055 -0.14313215 0.0637738
-0.021117972 -0.06909313 -0.11910724 -0.13680094 -0.069452524 0.12499245 0.10593844 0.0007164234
-0.06472857 0.01274951 -0.06271203 -0.047204033 -0.04071767 -0.046292614 -0.037028395 0.11972787
0.04596934 -0.00056727696 0.0007477014 0.08169679 -0.0023118556 -0.07392729 -0.036872163 -0.02482248
-0.16707027 0.20102529 0.16145143 0.11261294 -0.05107204 0.06757338 -0.07157737 -0.1334377
-0.13700594 -0.113332644 -0.15513627 0.18674448 0.18486582 0.05961214 -0.05572326 0.18942976
-0.04623327 -0.03177065 -0.016409853 -0.13145506 -0.082040854 0.17757271 0.15896481 0.15013656
-0.1597283 0.20904678 -0.13409673 -0.12030552 -0.088772796 -0.08467137 -0.039493866 0.16294631

Q_Net.linear1.bias f4 [30]
00000000: cd24 3fbe 3f0b 09be 1120 803e 4de2 adbe
00000010: 0a43 29be a741 743d 50d0 1b3d 4481 373e
00000020: e8bd fc3d edaa 2d3d 2a56 08bc f905 81bc
00000030: f837 afbd 43ea 903d 7e45 4abe 11ff debd
00000040: f121 9cbd 0f2c 47bc 3c1b 273e 89d4 c2bc
00000050: fa2f c33e d623 a5bc e181 08be f042 603c
00000060: e9d0 5bbe aeda 19be 12cc 9dbd a6da 673e
00000070: 2f95 c73d 1741 41be
-0.18666382 -0.13383196 0.25024465 -0.33961716 -0.1652948 0.059632923 0.03804046 0.17920405
0.12340909 0.042399336 -0.008321324 -0.015749918 -0.08555597 0.07075932 -0.19753072 -0.10888494
-0.07623661 -0.0121565005 0.16318983 -0.023782985 0.3812254 -0.02015869 -0.13330795 0.013687834
-0.21466412 -0.15024826 -0.07704939 0.22642002 0.097452514 -0.18872486

Q_Net.linear2.weight f4 [3, 30]
00000000: 2b9b a6be f1f1 51be eb1f a7be 776a 0d3e
00000010: 2d3f 36bf 8f8d 323f 4c0d 703e 52f0 7e3e
00000020: 43e4 ccbf 8e75 a9bf 7148 9ebd b85a 5bbe
00000030: 5a91 473f 30bd 4d3e 8708 55be 3471 1b3e
00000040: 5b6b e43e d51b 493e 4e70 4c3d 41ce 19bf
00000050: c4b4 b73e 99d0 8cbf 91f7 c13e 1be5 d0bd
00000060: 4c21 2d3e e563 913e 1406 2ebf 9f85 383f
00000070: 7ae7 c23f 181c 403d b3d5 b7be c1cb 53be
00000080: 9470 193f 94af 4bbd 87b4 c8be 4a7f 673f
00000090: 2baa f7be a906 06bf 7e55 b2bf 4434 6bbf
000000a0: cf5d 8fbd 7539 103e ef3d 5a3f 5b79 643f
000000b0: 2388 893e 2545 dabe b2ac 1abf 0bdc 9ebe
000000c0: edc8 bf3d f2c9 7a3d 7d51 283e 1ac8 003e
000000d0: fff3 993d ebe4 2b3e 1ad0 3fbd 7219 0f3f
000000e0: 2539 8e3e 215b 8d3f f1b0 b13f 9ee1 89be
000000f0: e266 92be db46 053f 9010 7c3f bf2b 803f
00000100: 48b8 a1be 492f bc3e b8df 103f 746c c53e
00000110: 99f6 5bbd 72fe 0cbf d431 50be 31e2 62bf
00000120: ec3b aa3e 97e6 01be 0d11 f5bd df88 973e
00000130: 74fd 99be a9e2 973e 65fd 36be f086 1c3f
00000140: 65e9 4e3e b4f2 8ebf 9945 0abb 1de1 033e
00000150: 33b4 ec3e 962a a3be f104 54be 6755 8e3f
00000160: 5a68 213d d25e 1f3e
-0.3254026 -0.2050245 -0.3264154 0.13810144 -0.7119015 0.6974725 0.23442572 0.24896362
-1.600716 -1.3239 -0.07728661 -0.21421325 0.77956164 0.200917 -0.20804034 0.15179902
0.44613156 0.19639523 0.04991179 -0.60080343 0.358801 -1.1001159 0.3788419 -0.101999484
0.16907233 0.28396526 -0.67978024 0.7207889 1.5226891 0.046901792 -0.35905227 -0.20683195
0.59937406 -0.04972799 -0.3920023 0.904286 -0.48372015 -0.5235391 -1.393234 -0.91876626
-0.070003144 0.14084418 0.85250753 0.89247674 0.26861677 -0.42630878 -0.6041976 -0.31027254
0.093644954 0.061227746 0.16437335 0.12576333 0.07517242 0.16786544 -0.04682932 0.558982
0.27777973 1.1043435 1.3882123 -0.26929945 -0.28594118 0.5206124 0.9846277 1.001335
-0.31585908 0.36754826 0.5659137 0.38559306 -0.05370197 -0.5507575 -0.20331508 -0.8862639
0.33248842 -0.1268562 -0.11966143 0.29596612 -0.30076182 0.29665115 -0.178701 0.611434
0.2020622 -1.1167817 -0.0021098612 0.12878843 0.4623123 -0.31868428 -0.2070501 1.1119813
0.039406158 0.15563515

Q_Net.linear2.bias f4 [3]
00000000: 19dd 1841 6262 0141 d795 1941
9.553979 8.086519 9.599082

Target_Q_Net.linear1.weight f4 [30, 150]
00000000: 7d27 bbbe bcb7 abbe 8ff7 86be d6fb a6be
00000010: 74d2 c6be a28c 473c 6f90 723d 153a 103e
00000020: 3537 b1be 0969 94bd 483c 79be 2bac a9be
00000030: aa58 b3be 5441 a3be 53c1 aabe 1dfe a8bc
00000040: 2658 ecbc 150a d63d 479e b9be 8215 29be
00000050: 430a 7cbe 2ae0 bfbe 68a1 8fbe 63f9 b4be
00000060: 0915 93be 7298 cb3d f404 f23d 9f5a ec3c
00000070: a45b b3be 2b91 0b3d eabd a5be 20a6 7cbe
00000080: c389 b2be d76c 63be 5d7e 9dbe c6f7 1f3e
00000090: 3f4a 3a3d 89a2 aa3b 99d7 92be 3a77 86bd
000000a0: 892a aebe 241b a9be 7e0b 94be 5c0f 82be
000000b0: 4599 a6be 7ea4 ed3d 8c22 863d 24fe 8e3d
000000c0: 6234 c3be ed06 83bd 3ae1 84be 0591 93be
000000d0: 32d2 67be 52d1 9fbe 3693 b2be 9d53 243e
000000e0: 0cad cf3c 798e 543c 7ea7 8ebe 29a9 563d
000000f0: afcd 95be 5a7f 82be f562 adbe e8fb 80be
00000100: 0a56 bcbe c331 d63d d16b 913c 01a2 21bd
00000110: cab8 74be 257e 96bd b3dd b8be a576 a6be
00000120: 1a98 74be 6046 a4be fbb3 b4be 2cdb c73c
00000130: 585d 433e 5d9f 29bd fe97 74be fa6f 48bd
00000140: b201 68be a165 b8be f1bb b2be 6589 92be
00000150: 5ce7 9cbe 25b2 8f3d efa3 303e f50b 2ebd
00000160: bca3 b4be 326a 193d d3f4 81be d60d 96be
00000170: fb13 a7be e98b b6be deee c9be f1c1 023e
00000180: bccb 433e 800b c73d 2438 86be 649f 563e
00000190: 2bca 8ebe f448 9fbe 3842 82be 4bfb 8bbe
000001a0: 0d32 8dbe 130d 9e3d d668 0a3e 3254 9d3d
000001b0: 6726 99be acdb 393e 9e7e c1be d00e 9cbe
000001c0: aa54 a6be db1d b2be 5d64 91be a6ec 1a3e
000001d0: 8c68 1c3e 6946 023e d8e4 bdbe 1b4d a83e
000001e0: 7636 aebe 3251 b1be 4c49 acbe c8af 9abe
000001f0: bb99 b8be cff8 783d 15c5 aabc 5afa 773c
00000200: 476c 8ebe f898 ad3e bbe5 c3be 19d5 9dbe
00000210: 6f94 babe b968 bdbe 1293 a9be e902 c23d
00000220: 0206 c3bc 0d6e 733d 1694 bcbe 6713 ad3e
00000230: c33b 6cbe b9c8 70be 0589 96be 7401 99be
00000240: 1a3b e0be 5ea0 7b3b 2f3c a93d 0f27 0c3e
00000250: 6057 a7be 8aa9 9b3e 20c0 33bd 3dac b8bd
00000260: 4a0a 19be df9a b1bd 5d00 03bc 48dd 413e
00000270: e722 203e eb5d 003e e26f 85bc 07a2 c93d
00000280: 7e34 a6bd c5e4 73bc fa3d 90bc 10c3 cabd
00000290: e2d4 a0bc 090a 573d b430 123e 6e16 183b
000002a0: b20d 1fbe 3577 243e 4604 87bc 75a6 6ebd
000002b0: ff41 bcbd 2823 27bb d8cd cabc 2042 85bd
000002c0: 562d 8b3d 2bbc f43d 2e78 cabb 02ac 383e
000002d0: d615 c2bd ad7f 09be 28ea 02be 6d88 ecbd
000002e0: 74eb 38bd 5fca 8d3b d847 e83d 661b 0a3e
000002f0: c251 9fbd 2589 203e c7a3 1dbe 7295 fcbd
00000300: 857c 16be 5b4b 04be 086b 10be 76f8 3f3e
00000310: c095 963d 50a6 813d 3c91 12be d79b 823d
00000320: 99ff acbc b380 8dbd 7fee f3bd 8c15 0cbe
00000330: 203d 8ebd 0bfc ff3d 41f6 d83d 5cce 3b3a
00000340: 6a90 84bd 52e3 503c 2a6f 80bd 0459 41bd
00000350: 92c7 26bd 539d 3dbd 16ab 17bd e333 f53d
00000360: 594a 3c3d 50b5 14ba 6401 443a a650 a73d
00000370: 8082 17bb 3167 97bd 4407 17bd 8358 cbbc
00000380: 7814 2bbe 93d9 4d3e 8653 253e 9da1 e63d
00000390: ea30 51bd ea63 8a3d 2897 92bd e4a3 08be
000003a0: 494b 0cbe f21a e8bd 0bdc 1ebe f239 3f3e
000003b0: 774d 3d3e dc2b 743d 133e 64bd e0f9 413e
000003c0: 195f 3dbd f121 02bd f56d 86bc 289c 06be
000003d0: 0905 a8bd 9fd5 353e acc7 223e 66bd 193e
000003e0: d18f 23be 5c10 563e a750 09be be62 f6bd
000003f0: 83ce b5bd 2f68 adbd 52c4 21bd 66db 263e
-0.36553565 -0.33538616 -0.26360747 -0.3261401 -0.38832438 0.012179526 0.059219774 0.14084657
-0.34612432 -0.07246596 -0.24339402 -0.33139166 -0.35028583 -0.3188578 -0.3335062 -0.020628983
-0.028850626 0.10451142 -0.3625357 -0.16512111 -0.2461329 -0.3747571 -0.2805283 -0.35346517
-0.28726986 0.09941186 0.11817351 0.028851805 -0.35030854 0.03407399 -0.32371455 -0.24672747
-0.3487073 -0.22209488 -0.3076047 0.15621862 0.045480963 0.005207364 -0.28680113 -0.065657094
-0.34016827 -0.3302852 -0.28915018 -0.25402343 -0.3253881 0.1160364 0.06549558 0.06982067
-0.38125902 -0.06397805 -0.25953084 -0.2882158 -0.22638777 -0.31214386 -0.34877938 0.16047521
0.02535107 0.012973421 -0.2786216 0.052407417 -0.29258487 -0.25487787 -0.3386456 -0.2519219
-0.36784393 0.1045871 0.017751606 -0.03946114 -0.23898616 -0.07348279 -0.36106643 -0.32512394
-0.23886147 -0.32084942 -0.35293564 0.024396501 0.19078577 -0.041411746 -0.23886105 -0.048934914
-0.22656897 -0.36015037 -0.34909013 -0.2862045 -0.30645263 0.070164 0.17250036 -0.042491872
-0.3528117 0.03745479 -0.253821 -0.2930743 -0.3263243 -0.35653618 -0.39440054 0.12769295
0.19120687 0.0971899 -0.26214707 0.2095924 -0.27888617 -0.31110346 -0.25441146 -0.2734016
-0.27577248 0.077173375 0.13516554 0.076820746 -0.2991211 0.18150204 -0.37791914 -0.3048005
-0.3248647 -0.34788403 -0.28396884 0.15129337 0.15274256 0.12722172 -0.37088656 0.32871327
-0.34025925 -0.3463226 -0.3364967 -0.30212235 -0.36054787 0.060784157 -0.02084593 0.015135372
-0.27816984 0.33905768 -0.38261208 -0.30826643 -0.3644137 -0.3699396 -0.33120018 0.09473211
-0.023806576 0.059431124 -0.3683173 0.33803865 -0.23069672 -0.2351407 -0.29401413 -0.2988392
-0.4379509 0.0038395147 0.08263432 0.13686775 -0.3268385 0.30402786 -0.043884397 -0.09017227
-0.14945331 -0.086721174 -0.007995692 0.18932068 0.15638314 0.12535827 -0.016288701 0.098453574
-0.08115481 -0.014886086 -0.017607678 -0.099004865 -0.01963276 0.052499805 0.14276391 0.0023206729
-0.15532568 0.16061099 -0.01648153 -0.058264215 -0.09192275 -0.0025503132 -0.024756357 -0.06506753
0.067957565 0.11949953 -0.0061788773 0.18034366 -0.09476821 -0.1342761 -0.12784636 -0.11549459
-0.04514642 0.004327103 0.11341828 0.13487014 -0.07779266 0.15677316 -0.15394507 -0.12333192
-0.14695938 -0.12919371 -0.14103329 0.18747124 0.07352781 0.0633055 -0.14313215 0.0637738
-0.021117972 -0.06909313 -0.11910724 -0.13680094 -0.069452524 0.12499245 0.10593844 0.0007164234
-0.06472857 0.01274951 -0.06271203 -0.047204033 -0.04071767 -0.046292614 -0.037028395 0.11972787
0.04596934 -0.00056727696 0.0007477014 0.08169679 -0.0023118556 -0.07392729 -0.036872163 -0.02482248
-0.16707027 0.20102529 0.16145143 0.11261294 -0.05107204 0.06757338 -0.07157737 -0.1334377
-0.13700594 -0.113332644 -0.15513627 0.18674448 0.18486582 0.05961214 -0.05572326 0.18942976
-0.04623327 -0.03177065 -0.016409853 -0.13145506 -0.082040854 0.17757271 0.15896481 0.15013656
-0.1597283 0.20904678 -0.13409673 -0.12030552 -0.088772796 -0.08467137 -0.039493866 0.16294631

Target_Q_Net.linear1.bias f4 [30]
00000000: cd24 3fbe 3f0b 09be 1120 803e 4de2 adbe
00000010: 0a43 29be a741 743d 50d0 1b3d 4481 373e
00000020: e8bd fc3d edaa 2d3d 2a56 08bc f905 81bc
00000030: f837 afbd 43ea 903d 7e45 4abe 11ff debd
00000040: f121 9cbd 0f2c 47bc 3c1b 273e 89d4 c2bc
00000050: fa2f c33e d623 a5bc e181 08be f042 603c
00000060: e9d0 5bbe aeda 19be 12cc 9dbd a6da 673e
00000070: 2f95 c73d 1741 41be
-0.18666382 -0.13383196 0.25024465 -0.33961716 -0.1652948 0.059632923 0.03804046 0.17920405
0.12340909 0.042399336 -0.008321324 -0.015749918 -0.08555597 0.07075932 -0.19753072 -0.10888494
-0.07623661 -0.0121565005 0.16318983 -0.023782985 0.3812254 -0.02015869 -0.13330795 0.013687834
-0.21466412 -0.15024826 -0.07704939 0.22642002 0.097452514 -0.18872486

Target_Q_Net.linear2.weight f4 [3, 30]
00000000: fb97 a6be 34b3 51be ed22 a7be 2592 0d3e
00000010: 1043 36bf 3091 323f d31a 703e 6ae2 7e3e
00000020: 40e9 ccbf e06d a9bf fbcc 9dbd 6668 5bbe
00000030: 9f8d 473f 4c95 4d3e f9f8 54be 6e33 1b3e
00000040: d757 e43e ce0b 493e 0cac 4c3d 04d2 19bf
00000050: 7ebb b73e 4ad2 8cbf fde4 c13e 2735 d1bd
00000060: d02e 2d3e 1f5c 913e 130a 2ebf 9a8f 383f
00000070: 73e9 c23f 597c 3f3d bde5 b7be 1b60 54be
00000080: 8a4b 193f 1926 4bbd 5e6a c8be 918a 673f
00000090: fab9 f7be f011 06bf 215b b2bf 8b3f 6bbf
000000a0: 9e86 90bd 1659 103e 3649 5a3f 146e 643f
000000b0: 0a65 893e ad33 dabe f9b7 1abf 7ac5 9ebe
000000c0: b96e bf3d 6e7e 7b3d 3131 283e b3e7 003e
000000d0: b138 9a3d ceb7 2b3e 4db7 3ebd 032b 0f3f
000000e0: 9322 8e3e 5248 8d3f 95b6 b13f e2f7 89be
000000f0: fb6c 92be 5924 053f 8205 7c3f d63e 803f
00000100: 1ba2 a1be 5e6a bc3e cbf5 103f 4d62 c53e
00000110: 0d84 5ebd cdfe 0cbf 7b6e 51be 4dc0 62bf
00000120: 5a8d aa3e 8289 02be 9608 f4bd b071 973e
00000130: 023a 9abe e58c 973e 69a0 37be d283 1c3f
00000140: e9d7 4f3e 2ae2 8ebf c149 c5ba 6865 033e
00000150: 2272 ec3e 20ac a2be 46a4 54be 334a 8e3f
00000160: db05 243d f5e8 1e3e
-0.32537827 -0.20478517 -0.32643834 0.13825281 -0.7119608 0.6975279 0.23447733 0.24891058
-1.6008682 -1.3236656 -0.077051125 -0.21426544 0.7795047 0.20076483 -0.207981 0.15156338
0.44598266 0.1963341 0.049968764 -0.60086083 0.35885233 -1.1001675 0.37870017 -0.10215216
0.16912389 0.28390595 -0.6798412 0.7209412 1.5227493 0.046749447 -0.35917464 -0.20739786
0.5988089 -0.04959688 -0.39143652 0.9044581 -0.48384076 -0.5237112 -1.393406 -0.91893834
-0.07056926 0.14096484 0.8526796 0.89230466 0.268349 -0.4261755 -0.6043697 -0.31010038
0.093472905 0.06139987 0.16425015 0.12588386 0.07530344 0.16769335 -0.046561528 0.55925006
0.27760753 1.1037695 1.3883845 -0.26946932 -0.2859877 0.5200859 0.98445904 1.0019176
-0.3156899 0.36799902 0.5662505 0.3855156 -0.054325152 -0.55076295 -0.20452301 -0.8857468
0.33310968 -0.12747768 -0.119157 0.29578924 -0.3012238 0.29599681 -0.17932285 0.6113864
0.20297207 -1.116277 -0.0015051888 0.12831652 0.46180826 -0.31771946 -0.2076579 1.1116394
0.040044647 0.15518554

Target_Q_Net.linear2.bias f4 [3]
00000000: dadc 1841 ae61 0141 4993 1941
9.553919 8.086348 9.598458
