Model/DQN/result/agent_dqn_000938_SZ.pt (torch_old, 38521 bytes, 8 tensors)

Q_Net.linear1.weight f4 [30, 150]
00000000: 44ac 85be 3c67 6dbe 49a1 23be 8d41 63be
00000010: 9ca0 8bbe 04ba 813c 33e9 7b3d 23f7 063e
00000020: 3134 79be 3bcc c63c 7825 0ebe 5d54 68be
00000030: cfb1 7bbe c90f 5bbe aad9 5ebe 9f71 23bc
00000040: 414c fcbc ab0b c03d d6de 84be 59da 91bd
00000050: f1e6 10be 006d 8abe a592 34be c92f 7ebe
00000060: de56 2fbe c97b fa3c 95c7 763d c521 843c
00000070: 58f8 7cbe 28f7 b13d 7ee1 5fbe ae72 11be
00000080: 4d6f 79be ecf3 eebd 6ec8 41be 883b 083e
00000090: bcef 843d 6411 58bb 65ac 3bbe 8783 0abc
000000a0: 1281 71be 2a57 66be 84c2 3cbe c401 19be
000000b0: d7f1 57be a9b4 b73d 7412 5d3d 0031 713d
000000c0: 3e24 8ebe f299 123c 0a9a 1dbe b2c9 3bbe
000000d0: 72e0 f8bd d0ad 53be a433 6ebe 860d 143e
000000e0: 547a b13a 29ba ac3b 07e1 32be e4b1 193e
000000f0: a0d3 3fbe 3b05 19be cda2 6fbe 71af 14be
00000100: 2e63 82be 5385 b93d dfe8 61ba 41be 42bd
00000110: 7319 0abe 6277 1a3d 96ec 82be dfc6 60be
00000120: 318a 08be 5e08 5bbe d6ae 74be dbca 0abd
00000130: 3ec5 233e d998 4abd adcc 09be 88cc 8a3d
00000140: 0775 f8bd 8497 82be fa63 7abe 3328 39be
00000150: cf8f 47be 2c09 163d 88fe 123e 58e0 5ebd
00000160: f357 7ebe 60a1 db3d f692 17be e38e 40be
00000170: 137f 62be 998c 80be 0683 8fbe b8a1 ed3d
00000180: 67da 323e 055e a53d 2c4d 21be 6fc9 683e
00000190: ecd5 31be dc7c 52be 0d17 19be 91e3 2bbe
000001a0: 9a8d 27be c931 5b3d e0e6 e13d 047e 4e3d
000001b0: d311 47be e1b1 093e 2394 8bbe f589 4cbe
000001c0: dcc1 60be b594 78be e05e 30be f034 0a3e
000001d0: e21c 033e 85c3 bf3d 663a 88be 317b 5f3e
000001e0: f1c8 70be 7bea 76be 6d50 6dbe 40f3 49be
000001f0: 04e4 7fbe 99b4 f83b 3b01 c8bd beac e0bc
00000200: c77a 31be 0678 273e 08d0 8dbe 0f20 50be
00000210: 73d2 84be 7152 87be 0dc5 60be aa77 153d
00000220: 3619 cabd 6fd3 8a3c ced4 86be 8007 633e
00000230: b035 01be 78a9 04be b810 42be a8fb 45be
00000240: 4236 aabe 8232 50bd a8ff 70bc e856 b63d
00000250: 5143 63be ec51 703e 790a 413d 1a6e a83a
00000260: 59de 6fbd 9e5c a93b e46c 9a3d d0fc 383e
00000270: 3335 2a3e 06d2 cd3d a45f 993d c840 283e
00000280: cc84 2e3c c9c5 9b3d 3b54 963d f3ea e9bb
00000290: f501 8a3d 95a1 a93d a652 a63d 44e0 e5bc
000002a0: 3843 83bd 646f 1d3e c228 983d ef25 083d
000002b0: 1c17 a5ba 609e b53d 67b7 6f3d 7e21 d83c
000002c0: 28a7 483b f7d5 aa3d ff25 ae3d cc65 f43d
000002d0: 3d07 72bb 6e4f 32bd 105f 19bd fb10 c5bc
000002e0: 64f5 193d b8c2 843c d0f9 163d c0f6 c63d
000002f0: cb29 5b3c 24f0 ab3d 8d95 7bbd 88b7 03bd
00000300: 1ccb 60bd eaec 18bd e18c 43bd 9e7f 0a3e
00000310: 98a6 303d a7e9 113d d9ea 53bd 9156 273c
00000320: 5745 923d ad1b c03c a29f dbbc 357e 34bd
00000330: 6657 c53c 1bc8 7c3d 4c7d f33d 6520 b8bc
00000340: 50ce db3c c50d 71bb 14e0 ed3c 3e22 3a3d
00000350: 9f64 533d e21c 3f3d 8400 4c3d 8585 8d3d
00000360: 073b 633c deba cabc ad12 bd3d 8e57 d8bb
00000370: fbc1 b43d e56b 913c e15d 5b3d d7a0 883d
00000380: db78 b2bd bc4b 0c3e 7128 b23d 2b57 a33d
00000390: af54 253d 7b14 7ebd 912c 8e3c 7833 34bd
000003a0: c17d 47bd 1dd2 c0bc ed20 a4bd a483 6f3d
000003b0: 9379 db3c cda1 5b3c 5dba 103d c51f d93b
000003c0: 80cb 293d 0917 693d e6d2 913d dd33 2ebd
000003d0: 3a78 37bc 3b35 563d 781b 0b3c a95b cc3d
000003e0: 87a7 8dbd 8925 c43c 7f3f 3ebd 0457 02bd
000003f0: bdd4 8aba 436d 933b 4056 fc3c f93b 533d
-0.2610799 -0.23183912 -0.15979494 -0.22192974 -0.27270973 0.01583577 0.061501693 0.13180213
-0.24336316 0.024267307 -0.1388148 -0.22688432 -0.24579547 -0.2139274 -0.2176272 -0.00997582
-0.03079808 0.093772255 -0.2595126 -0.07121725 -0.14150597 -0.27036285 -0.17634065 -0.24822916
-0.17122981 0.030576603 0.06024893 0.016129384 -0.2470411 0.086897194 -0.21863362 -0.14203903
-0.24358864 -0.11667618 -0.18924114 0.1330396 0.06491038 -0.003296935 -0.18327482 -0.00845421
-0.23584393 -0.22494188 -0.18433577 -0.1494208 -0.21088348 0.08970005 0.053972676 0.05888462
-0.27762026 0.008947836 -0.15390792 -0.1833866 -0.121521845 -0.20671773 -0.23261887 0.14458284
0.0013540485 0.0052712155 -0.17468654 0.15009266 -0.18733072 -0.14943402 -0.23401947 -0.1452005
-0.25466293 0.09058633 -0.00086177693 -0.04754472 -0.1348627 0.03771151 -0.25571126 -0.21950863
-0.13333966 -0.2138991 -0.2389482 -0.033884864 0.1599321 -0.049462173 -0.13456984 0.067772925
-0.12131696 -0.25506222 -0.244522 -0.18081741 -0.19488452 0.03662984 0.14354908 -0.05441317
-0.24838237 0.10724139 -0.14802155 -0.18804507 -0.22118787 -0.25107267 -0.2802965 0.11603111
0.17466126 0.080745734 -0.15752095 0.22733091 -0.17366761 -0.20555443 -0.149502 -0.16786028
-0.1636261 0.053514276 0.11030364 0.050413147 -0.19440393 0.13446762 -0.27261457 -0.19974501
-0.21948951 -0.24275477 -0.17223692 0.13496757 0.12803987 0.09363464 -0.26607054 0.21824338
-0.23514153 -0.24112885 -0.23175211 -0.19721699 -0.24989325 0.0075898883 -0.0976586 -0.02742612
-0.17331992 0.16354379 -0.27697778 -0.2032473 -0.2594181 -0.26430085 -0.21950169 0.036491074
-0.0986809 0.016946523 -0.26334232 0.2217083 -0.12618136 -0.12955272 -0.1895169 -0.1933428
-0.3324452 -0.050829418 -0.014709391 0.08903295 -0.22193648 0.2346875 0.047129128 0.0012850196
-0.058561657 0.0051685115 0.075403005 0.1806519 0.16621856 0.100498244 0.07488945 0.16430962
0.010651778 0.07606084 0.073402844 -0.007138604 0.067386545 0.082827725 0.08121233 -0.02806104
-0.06409305 0.15374523 0.07429649 0.0332393 -0.0012595388 0.08868098 0.058524515 0.026383158
0.003061721 0.08341592 0.08503341 0.11933479 -0.0036930584 -0.04353278 -0.037444174 -0.024055948
0.03758754 0.01620613 0.036859334 0.097150326 0.013376663 0.083954126 -0.06142192 -0.03215745
-0.0548812 -0.037335314 -0.047741774 0.13525245 0.043127626 0.03562322 -0.05173764 0.01021351
0.07142132 0.023450697 -0.026809517 -0.044065673 0.024089526 0.061714273 0.11889133 -0.022476384
0.026831776 -0.003678189 0.029037513 0.045442812 0.05160963 0.046658404 0.04980518 0.069102325
0.013869054 -0.024747308 0.09232078 -0.006602234 0.08826061 0.017751643 0.053556327 0.06671303
-0.087144576 0.13700765 0.0869912 0.0797561 0.040363964 -0.06203125 0.017355235 -0.043994397
-0.048703913 -0.02353769 -0.080140926 0.05847515 0.02679137 0.0134052755 0.03533398 0.0066261017
0.04145384 0.056906734 0.07120304 -0.04252993 -0.011198098 0.05229686 0.008490436 0.0997842
-0.06916719 0.02394368 -0.046447273 -0.031821266 -0.0010591965 0.004499109 0.030802846 0.051570866

Q_Net.linear1.bias f4 [30]
00000000: b18d 9cbd 7098 85bc 5eaa aa3d 2546 0dbe
00000010: b2ab edbc cb58 103b 72fb 33b9 fc7b 0b3e
00000020: 1833 c43c 61f2 04bc b115 56bd 0c20 40bd
00000030: eb15 31bd ec0b ba3c b19c 4ebe 5263 91bd
00000040: c4ad febd cdd2 e6bc 6eb9 35bd 71ff 9ebd
00000050: 84eb 693d 74be abbd 6f34 dd3b b37c cebc
00000060: ead0 e1bd c912 27be 2449 90bd 3ff2 bd3d
00000070: be3f c13d 15dc 89bd
-0.07644213 -0.01630804 0.08333276 -0.1379629 -0.029012535 0.002202558 -0.00017164441 0.13621515
0.023950145 -0.008114428 -0.05226678 -0.046905562 -0.043233793 0.022710763 -0.2017696 -0.07099022
-0.12435487 -0.02817669 -0.044366293 -0.07763565 0.05710937 -0.083859354 0.0067506353 -0.025205946
-0.11026175 -0.1631576 -0.070452005 0.092747204 0.09435986 -0.067314304

Q_Net.linear2.weight f4 [3, 30]
00000000: f7aa 27bf d837 943d 9836 60bd 0f3c 453f
00000010: f915 7dbf 0915 483e 9295 61be 6309 1f3e
00000020: 94da 3d3d 3b86 3dbe 2dc4 7fbe b78a 9d3d
00000030: 445d 433f c451 003f 2b80 51bf 5d82 12be
00000040: b5a0 56be 7911 b33e 9dd6 d9be c559 2b3f
00000050: 1fc7 f0bd c8e8 9e3d 3572 493e 7918 163f
00000060: 35d7 2a3d cdb0 383d 6572 283f f9e7 e33e
00000070: c91c 3b3e f0b7 0c3e 504b 083e 7fcb 01bc
00000080: 4906 583f ee6e 453f e796 703f 2eca a7be
00000090: e17e 1cbf af74 afbe 6d2b 03bf d79c 54bd
000000a0: 91f5 1f3e 8dfc e63e 7776 16be c03e f63e
000000b0: 014e 0c3f 4668 aa3f 4a33 843d 6223 37bc
000000c0: 1fe9 3c3e ff1b f43e dd84 5e3f 32a6 76bd
000000d0: 622d 33be d0af 37be 9c90 55bc 4ef5 113e
000000e0: 3a06 093f 3624 e43b 22ab e1bd 0b5d 683e
000000f0: ccda a9bf 552a 3d3c 7c5a b73e 2452 38bf
00000100: de2e 3f3f 1eae 36bf ead6 143e 438f 4cbf
00000110: 2c9f 41bf 43de 1bbe c793 3d3d f574 153f
00000120: 4874 a33c b065 bb3f 0980 d83e 91c4 cd3e
00000130: c1b0 d53d df4e 17be b699 c8be 4002 23bf
00000140: 56b3 f5bc 99a4 e83d a454 8abd 96fe 683f
00000150: 9252 bc3d a19a 1abf 317e 47be c55b bbbd
00000160: bd9f 173f 564a 1ebf
-0.65495247 0.07237214 -0.054739565 0.7704477 -0.9886165 0.19539274 -0.22029713 0.15530924
0.04635103 -0.18508236 -0.24977179 0.076924734 0.7631419 0.50124764 -0.81836194 -0.14307542
-0.20959742 0.34974268 -0.4254655 0.6693385 -0.11756729 0.07759243 0.19672473 0.5863109
0.041709144 0.045090485 0.6579955 0.4451292 0.182727 0.13742042 0.1330998 -0.007922052
0.8438459 0.7712239 0.9398026 -0.32771438 -0.611311 -0.3426871 -0.5123814 -0.051907387
0.1562102 0.45114556 -0.14693628 0.4809475 0.54806525 1.3313072 0.06455095 -0.0111778695
0.18448304 0.4767761 0.86921483 -0.06021709 -0.17497781 -0.17938161 -0.013034966 0.14253733
0.53525126 0.0069623245 -0.11018969 0.22691743 -1.3269897 0.011545737 0.35811222 -0.72000337
0.7468089 -0.7135943 0.14535108 -0.799061 -0.756335 -0.15221505 0.04628351 0.5838159
0.019952908 1.4640408 0.42285183 0.4018903 0.10434104 -0.1477618 -0.39179772 -0.6367531
-0.02999274 0.113595195 -0.06754425 0.9101347 0.091954365 -0.60392195 -0.19481732 -0.09148363
0.59228116 -0.6183218

Q_Net.linear2.bias f4 [3]
00000000: 6599 1441 d4ff 1e41 bd18 2c41
9.28745 9.937458 10.75604

Target_Q_Net.linear1.weight f4 [30, 150]
00000000: 44ac 85be 3c67 6dbe 49a1 23be 8d41 63be
00000010: 9ca0 8bbe 04ba 813c 33e9 7b3d 23f7 063e
00000020: 3134 79be 3bcc c63c 7825 0ebe 5d54 68be
00000030: cfb1 7bbe c90f 5bbe aad9 5ebe 9f71 23bc
00000040: 414c fcbc ab0b c03d d6de 84be 59da 91bd
00000050: f1e6 10be 006d 8abe a592 34be c92f 7ebe
00000060: de56 2fbe c97b fa3c 95c7 763d c521 843c
00000070: 58f8 7cbe 28f7 b13d 7ee1 5fbe ae72 11be
00000080: 4d6f 79be ecf3 eebd 6ec8 41be 883b 083e
00000090: bcef 843d 6411 58bb 65ac 3bbe 8783 0abc
000000a0: 1281 71be 2a57 66be 84c2 3cbe c401 19be
000000b0: d7f1 57be a9b4 b73d 7412 5d3d 0031 713d
000000c0: 3e24 8ebe f299 123c 0a9a 1dbe b2c9 3bbe
000000d0: 72e0 f8bd d0ad 53be a433 6ebe 860d 143e
000000e0: 547a b13a 29ba ac3b 07e1 32be e4b1 193e
000000f0: a0d3 3fbe 3b05 19be cda2 6fbe 71af 14be
00000100: 2e63 82be 5385 b93d dfe8 61ba 41be 42bd
00000110: 7319 0abe 6277 1a3d 96ec 82be dfc6 60be
00000120: 318a 08be 5e08 5bbe d6ae 74be dbca 0abd
00000130: 3ec5 233e d998 4abd adcc 09be 88cc 8a3d
00000140: 0775 f8bd 8497 82be fa63 7abe 3328 39be
00000150: cf8f 47be 2c09 163d 88fe 123e 58e0 5ebd
00000160: f357 7ebe 60a1 db3d f692 17be e38e 40be
00000170: 137f 62be 998c 80be 0683 8fbe b8a1 ed3d
00000180: 67da 323e 055e a53d 2c4d 21be 6fc9 683e
00000190: ecd5 31be dc7c 52be 0d17 19be 91e3 2bbe
000001a0: 9a8d 27be c931 5b3d e0e6 e13d 047e 4e3d
000001b0: d311 47be e1b1 093e 2394 8bbe f589 4cbe
000001c0: dcc1 60be b594 78be e05e 30be f034 0a3e
000001d0: e21c 033e 85c3 bf3d 663a 88be 317b 5f3e
000001e0: f1c8 70be 7bea 76be 6d50 6dbe 40f3 49be
000001f0: 04e4 7fbe 99b4 f83b 3b01 c8bd beac e0bc
00000200: c77a 31be 0678 273e 08d0 8dbe 0f20 50be
00000210: 73d2 84be 7152 87be 0dc5 60be aa77 153d
00000220: 3619 cabd 6fd3 8a3c ced4 86be 8007 633e
00000230: b035 01be 78a9 04be b810 42be a8fb 45be
00000240: 4236 aabe 8232 50bd a8ff 70bc e856 b63d
00000250: 5143 63be ec51 703e 790a 413d 1a6e a83a
00000260: 59de 6fbd 9e5c a93b e46c 9a3d d0fc 383e
00000270: 3335 2a3e 06d2 cd3d a45f 993d c840 283e
00000280: cc84 2e3c c9c5 9b3d 3b54 963d f3ea e9bb
00000290: f501 8a3d 95a1 a93d a652 a63d 44e0 e5bc
000002a0: 3843 83bd 646f 1d3e c228 983d ef25 083d
000002b0: 1c17 a5ba 609e b53d 67b7 6f3d 7e21 d83c
000002c0: 28a7 483b f7d5 aa3d ff25 ae3d cc65 f43d
000002d0: 3d07 72bb 6e4f 32bd 105f 19bd fb10 c5bc
000002e0: 64f5 193d b8c2 843c d0f9 163d c0f6 c63d
000002f0: cb29 5b3c 24f0 ab3d 8d95 7bbd 88b7 03bd
00000300: 1ccb 60bd eaec 18bd e18c 43bd 9e7f 0a3e
00000310: 98a6 303d a7e9 113d d9ea 53bd 9156 273c
00000320: 5745 923d ad1b c03c a29f dbbc 357e 34bd
00000330: 6657 c53c 1bc8 7c3d 4c7d f33d 6520 b8bc
00000340: 50ce db3c c50d 71bb 14e0 ed3c 3e22 3a3d
00000350: 9f64 533d e21c 3f3d 8400 4c3d 8585 8d3d
00000360: 073b 633c deba cabc ad12 bd3d 8e57 d8bb
00000370: fbc1 b43d e56b 913c e15d 5b3d d7a0 883d
00000380: db78 b2bd bc4b 0c3e 7128 b23d 2b57 a33d
00000390: af54 253d 7b14 7ebd 912c 8e3c 7833 34bd
000003a0: c17d 47bd 1dd2 c0bc ed20 a4bd a483 6f3d
000003b0: 9379 db3c cda1 5b3c 5dba 103d c51f d93b
000003c0: 80cb 293d 0917 693d e6d2 913d dd33 2ebd
000003d0: 3a78 37bc 3b35 563d 781b 0b3c a95b cc3d
000003e0: 87a7 8dbd 8925 c43c 7f3f 3ebd 0457 02bd
000003f0: bdd4 8aba 436d 933b 4056 fc3c f93b 533d
-0.2610799 -0.23183912 -0.15979494 -0.22192974 -0.27270973 0.01583577 0.061501693 0.13180213
-0.24336316 0.024267307 -0.1388148 -0.22688432 -0.24579547 -0.2139274 -0.2176272 -0.00997582
-0.03079808 0.093772255 -0.2595126 -0.07121725 -0.14150597 -0.27036285 -0.17634065 -0.24822916
-0.17122981 0.030576603 0.06024893 0.016129384 -0.2470411 0.086897194 -0.21863362 -0.14203903
-0.24358864 -0.11667618 -0.18924114 0.1330396 0.06491038 -0.003296935 -0.18327482 -0.00845421
-0.23584393 -0.22494188 -0.18433577 -0.1494208 -0.21088348 0.08970005 0.053972676 0.05888462
-0.27762026 0.008947836 -0.15390792 -0.1833866 -0.121521845 -0.20671773 -0.23261887 0.14458284
0.0013540485 0.0052712155 -0.17468654 0.15009266 -0.18733072 -0.14943402 -0.23401947 -0.1452005
-0.25466293 0.09058633 -0.00086177693 -0.04754472 -0.1348627 0.03771151 -0.25571126 -0.21950863
-0.13333966 -0.2138991 -0.2389482 -0.033884864 0.1599321 -0.049462173 -0.13456984 0.067772925
-0.12131696 -0.25506222 -0.244522 -0.18081741 -0.19488452 0.03662984 0.14354908 -0.05441317
-0.24838237 0.10724139 -0.14802155 -0.18804507 -0.22118787 -0.25107267 -0.2802965 0.11603111
0.17466126 0.080745734 -0.15752095 0.22733091 -0.17366761 -0.20555443 -0.149502 -0.16786028
-0.1636261 0.053514276 0.11030364 0.050413147 -0.19440393 0.13446762 -0.27261457 -0.19974501
-0.21948951 -0.24275477 -0.17223692 0.13496757 0.12803987 0.09363464 -0.26607054 0.21824338
-0.23514153 -0.24112885 -0.23175211 -0.19721699 -0.24989325 0.0075898883 -0.0976586 -0.02742612
-0.17331992 0.16354379 -0.27697778 -0.2032473 -0.2594181 -0.26430085 -0.21950169 0.036491074
-0.0986809 0.016946523 -0.26334232 0.2217083 -0.12618136 -0.12955272 -0.1895169 -0.1933428
-0.3324452 -0.050829418 -0.014709391 0.08903295 -0.22193648 0.2346875 0.047129128 0.0012850196
-0.058561657 0.0051685115 0.075403005 0.1806519 0.16621856 0.100498244 0.07488945 0.16430962
0.010651778 0.07606084 0.073402844 -0.007138604 0.067386545 0.082827725 0.08121233 -0.02806104
-0.06409305 0.15374523 0.07429649 0.0332393 -0.0012595388 0.08868098 0.058524515 0.026383158
0.003061721 0.08341592 0.08503341 0.11933479 -0.0036930584 -0.04353278 -0.037444174 -0.024055948
0.03758754 0.01620613 0.036859334 0.097150326 0.013376663 0.083954126 -0.06142192 -0.03215745
-0.0548812 -0.037335314 -0.047741774 0.13525245 0.043127626 0.03562322 -0.05173764 0.01021351
0.07142132 0.023450697 -0.026809517 -0.044065673 0.024089526 0.061714273 0.11889133 -0.022476384
0.026831776 -0.003678189 0.029037513 0.045442812 0.05160963 0.046658404 0.04980518 0.069102325
0.013869054 -0.024747308 0.09232078 -0.006602234 0.08826061 0.017751643 0.053556327 0.06671303
-0.087144576 0.13700765 0.0869912 0.0797561 0.040363964 -0.06203125 0.017355235 -0.043994397
-0.048703913 -0.02353769 -0.080140926 0.05847515 0.02679137 0.0134052755 0.03533398 0.0066261017
0.04145384 0.056906734 0.07120304 -0.04252993 -0.011198098 0.05229686 0.008490436 0.0997842
-0.06916719 0.02394368 -0.046447273 -0.031821266 -0.0010591965 0.004499109 0.030802846 0.051570866

Target_Q_Net.linear1.bias f4 [30]
00000000: b18d 9cbd 7098 85bc 5eaa aa3d 2546 0dbe
00000010: b2ab edbc cb58 103b 72fb 33b9 fc7b 0b3e
00000020: 1833 c43c 61f2 04bc b115 56bd 0c20 40bd
00000030: eb15 31bd ec0b ba3c b19c 4ebe 5263 91bd
00000040: c4ad febd cdd2 e6bc 6eb9 35bd 71ff 9ebd
00000050: 84eb 693d 74be abbd 6f34 dd3b b37c cebc
00000060: ead0 e1bd c912 27be 2449 90bd 3ff2 bd3d
00000070: be3f c13d 15dc 89bd
-0.07644213 -0.01630804 0.08333276 -0.1379629 -0.029012535 0.002202558 -0.00017164441 0.13621515
0.023950145 -0.008114428 -0.05226678 -0.046905562 -0.043233793 0.022710763 -0.2017696 -0.07099022
-0.12435487 -0.02817669 -0.044366293 -0.07763565 0.05710937 -0.083859354 0.0067506353 -0.025205946
-0.11026175 -0.1631576 -0.070452005 0.092747204 0.09435986 -0.067314304

Target_Q_Net.linear2.weight f4 [3, 30]
00000000: 3498 27bf fcb3 933d 785c 61bd d14e 453f
00000010: 3603 7dbf 0d60 483e a6e0 61be 7754 1f3e
00000020: 7fae 3c3d 373b 3dbe a107 80be e120 9e3d
00000030: 0d6e 433f fe3e 003f 7d90 51bf 4937 12be
00000040: 03ec 56be 2437 b33e 21fc d9be 876c 2b3f
00000050: 835a f1bd fa6e 9f3d 49bd 493e e52a 163f
00000060: e4aa 293d b884 373d 2685 283f 02c3 e33e
00000070: 0bd3 3a3e dc6c 0c3e 7e0b 083e 22f5 00bc
00000080: 1716 583f e27e 453f f186 703f 45aa a7be
00000090: d78e 1cbf c654 afbe 613b 03bf 8c9d 53bd
000000a0: f7b7 1f3e 641c e73e 888d 16be 063a f63e
000000b0: f95d 0c3f 4170 aa3f aff3 833d b7b2 36bc
000000c0: 56a6 3c3e 3439 f43e d494 5e3f 39ea 75bd
000000d0: 9600 33be 0cba 37be bd8d 59bc 7cb5 113e
000000e0: 2e16 093f 084a e43b 6f2b e1bd 8323 683e
000000f0: 2fdd a9bf 9cfa 3b3c a962 b73e 0e4d 38bf
00000100: c92a 3f3f 08a9 36bf 94c6 143e 2d8a 4cbf
00000110: 42a4 41bf 37cb 1bbe 6642 3d3d 0b7a 153f
00000120: a065 a33c e767 bb3f 358a d83e bdce cd3e
00000130: 1390 d53d 863a 17be e2a3 c8be 2afd 22bf
00000140: ed1a f5bc 4bcd e83d f22b 8abd 5603 693f
00000150: e029 bc3d b79f 1abf d969 47be 8384 bbbd
00000160: 81a4 173f 6c4f 1ebf
-0.6546662 0.07212064 -0.055019826 0.7707339 -0.98833025 0.1956789 -0.22058353 0.15559565
0.04606485 -0.1847962 -0.2500582 0.07721115 0.763398 0.5009612 -0.81861097 -0.14278902
-0.20988469 0.35003006 -0.42575172 0.66962475 -0.11784842 0.07784839 0.19701113 0.586592
0.04142274 0.044804305 0.6582817 0.44484717 0.18244569 0.13713402 0.13285634 -0.007870944
0.84408706 0.7714673 0.93955904 -0.32747093 -0.61155456 -0.34244365 -0.5126248 -0.05166392
0.15597521 0.45138848 -0.14702427 0.48091143 0.5483089 1.3315507 0.06442963 -0.011151007
0.18422827 0.47699893 0.86945844 -0.060037825 -0.17480692 -0.17942065 -0.013278422 0.14229387
0.5354947 0.006966833 -0.109946124 0.22669797 -1.3270625 0.011473324 0.3581746 -0.71992576
0.7467466 -0.7135167 0.14528877 -0.7989834 -0.7564126 -0.15214239 0.0462059 0.5838935
0.01994592 1.4641083 0.42292944 0.4019679 0.104278706 -0.14768419 -0.39187533 -0.6366755
-0.029920066 0.113672815 -0.06746663 0.91020715 0.091876745 -0.60399956 -0.19473971 -0.09156134
0.5923539 -0.6183994

Target_Q_Net.linear2.bias f4 [3]
00000000: 3a98 1441 d7fe 1e41 6c18 2c41
9.287165 9.937217 10.755962
