Model/DQN/result/agent_dqn_000568_SZ.pt (torch_old, 38521 bytes, 8 tensors)

Q_Net.linear1.weight f4 [30, 150]
00000000: 9620 5fbe 8ceb 40be a995 eebd 5a1d 37be
00000010: 12f1 62be 03d8 423c 1998 083d 9222 073e
00000020: 20a9 4cbe 70f6 2d3d feca c3bd ab2d 3cbe
00000030: 8068 4fbe 7474 2ebe e1af 29be 6879 16bd
00000040: 96a3 a5bd d261 bd3d 9c3e 5dbe 717c 83bd
00000050: 80e8 c9bd 2285 68be 7a3c 08be 8318 52be
00000060: d39f f5bd 1063 ea3b a86e e23b 3283 553c
00000070: 8c8c 50be dd10 b13d 34be 33be 9702 cbbd
00000080: 2d2c 4dbe 4194 97bd f3cc 0cbe b731 d83d
00000090: ce25 583c 289d 02bc 9a4c 0fbe 4ae0 c7bc
000000a0: 9d5f 45be 9415 3abe 4293 10be fa00 dabd
000000b0: d229 23be 950c 523d 10bf 6b3c fb62 5a3d
000000c0: 78f0 6fbe 91b7 3c3d 4f5b e3bd 37bf 0fbe
000000d0: a9f9 a0bd 0fc8 27be 7a14 3abe 9bc2 093e
000000e0: 4638 6abd 8061 83ba 3898 06be 644c fb3d
000000f0: e2a9 13be 6cf7 d9bd 396f 43be 622a d1bd
00000100: dac1 50be 68af 623d c595 5abd 84d1 5dbd
00000110: c2a9 bbbd 94df fb3a 10da 59be 4ea2 34be
00000120: 0ad2 b8bd 5e31 2fbe 8373 41be c00c c9bd
00000130: f0f4 c03d 1716 66bd 1327 bbbd 742d 16bc
00000140: 6d25 a1bd 1322 59be 6673 4ebe 905e 0dbe
00000150: 0c36 14be 9593 abbc b96c b03d a908 7dbd
00000160: ea33 52be 9241 9a3d bfb0 d8bd 40f4 14be
00000170: 0215 37be 5990 55be 4879 6cbe 9e6c 563d
00000180: 10b5 eb3d 9bb3 943d ab92 eabd efcb 353e
00000190: c752 06be 0d35 27be 3e3b dbbd 128f 00be
000001a0: 0b2b e8bd 2936 7fbb 78e1 513d ad6f 2b3d
000001b0: 3622 1bbe f98f 273d dd51 6bbe 1a1e 21be
000001c0: 05cf 34be 6421 4dbe 244d f8bd a9f1 b63d
000001d0: 4ba3 113e b5e4 af3d 7f87 64be c707 8e3d
000001e0: d4a2 44be c2f4 4abe 3112 41be 661d 1ebe
000001f0: db4e 4bbe cf89 5a3c 8574 c0bb 4ac3 09bd
00000200: 5e84 05be 941c 253e f8e1 6ebe 1c00 24be
00000210: fa05 5dbe 473c 62be 8b7c 2bbe 8960 bc3d
00000220: 9e4a 253c 7e3f 583c 7594 61be 4711 4c3e
00000230: fec1 a9bd 5c34 b1bd 5bbe 15be 9ae3 19be
00000240: ded4 90be c73c edbb 96cc 133d b08c b53d
00000250: 8622 37be 0207 353e 21f1 a83d 7623 173d
00000260: c99e babc 0396 253d 0209 013e 2cc2 a43d
00000270: c5f2 353d 3060 5d3d ff3c e53d f72e 283e
00000280: d194 3e3d 8a20 e43d c2ee df3d 88ff e63c
00000290: 0df6 f73d 4f49 8ebc f4d4 0ebd 31b7 96bd
000002a0: d1fe debc 31b4 103e 0482 e23d c1bb 8d3d
000002b0: ab71 0e3d 2f2d ff3d 583a e83d 0658 64bd
000002c0: 0829 73bd 4426 213d 9d78 f93d 325b 1a3e
000002d0: 644e 063d b6a5 e8bb 5fc4 80ba e614 483c
000002e0: 1ac9 c03d 07ca d2bc b9b4 373d 8936 623d
000002f0: 3141 4d3d 4ad1 f43d e699 cabc cb6d 8f3b
00000300: 552f 96bc d780 10ba 0834 1f3c defb 003e
00000310: 7a2c 8c3d cf1f 8dbb 5dd4 75bc c61a 3c3d
00000320: 5502 dc3d ed6a 753d 1bd5 193c 670b 01bc
00000330: 5fa1 a13d 6283 a63c 9cd6 f63d ff5c 7abd
00000340: adf0 813d 65b1 093d 2261 843d 65c2 a63d
00000350: 9b6f b23d 3072 a83d 813b d33d af41 483d
00000360: a231 29bc a017 81bd 7dde 033e f6ae 5fbc
00000370: cd2b fd3d 3740 5a3d 72bc b63d dd81 d13d
00000380: ae0a 0bbd 2a2f d73d bf45 2a3d f8a9 2a3d
00000390: 9cff 9c3d b124 ccbc e7c2 573d ff7f 0cbc
000003a0: ecdd 57bc 0d5b 423c 994b dabc 225e 853c
000003b0: 333e 38bd 173b cebc 1366 923d f3d5 483d
000003c0: fe87 9d3d 454f bd3d 17a5 da3d 8586 ebbb
000003d0: 5fdb 2f3d 2e77 a83c c346 b2bd eb5e 783d
000003e0: 3ea7 07bd dce3 7c3d 535f 2abc 1ceb 733b
000003f0: afb6 0e3d c468 243d a327 b53d 9898 0a3d
-0.21789774 -0.18839854 -0.11649639 -0.1788229 -0.22162274 0.0118923215 0.033348177 0.13196781
-0.19986391 0.04247135 -0.09560202 -0.18376796 -0.20254707 -0.17036611 -0.16570999 -0.036736876
-0.08087842 0.09247173 -0.21605915 -0.0642022 -0.09858799 -0.22707036 -0.1330432 -0.20517163
-0.11993375 0.0071529225 0.006910164 0.013031768 -0.20366114 0.086457945 -0.17553025 -0.09912603
-0.20036383 -0.07401324 -0.13750057 0.10556357 0.013192607 -0.007972039 -0.13994065 -0.024398942
-0.19274755 -0.18172294 -0.14118674 -0.106447175 -0.15933922 0.05128153 0.014388815 0.05331705
-0.23431575 0.0460735 -0.111014 -0.14037786 -0.07860119 -0.1638491 -0.18171874 0.13453142
-0.057182573 -0.0010023564 -0.13144004 0.1227043 -0.14420274 -0.10642895 -0.19085397 -0.10213162
-0.20386449 0.05534306 -0.053365488 -0.054154888 -0.09163238 0.0019216412 -0.2127459 -0.1764004
-0.09024437 -0.17108676 -0.1889172 -0.09816885 0.09421718 -0.05617341 -0.09138312 -0.00916611
-0.078684665 -0.21204405 -0.20161209 -0.13805604 -0.14473742 -0.020944396 0.08614487 -0.061775837
-0.20527616 0.07532038 -0.10580587 -0.14546299 -0.17879108 -0.20855846 -0.2309314 0.05234968
0.11509144 0.072608195 -0.11453756 0.17753576 -0.13117515 -0.16328831 -0.10704659 -0.12554577
-0.11336335 -0.0038942194 0.051240414 0.04185455 -0.15149769 0.040908787 -0.22980447 -0.15734139
-0.17657097 -0.20032269 -0.121240884 0.08932812 0.14222448 0.08588544 -0.22317313 0.06935077
-0.19202739 -0.1981993 -0.18854596 -0.15440902 -0.198543 0.01333852 -0.005873265 -0.033633508
-0.13038775 0.16124183 -0.23328388 -0.16015667 -0.21584311 -0.22093306 -0.16746728 0.091981
0.010088591 0.0131987315 -0.22029288 0.19928466 -0.08288954 -0.08652565 -0.14623396 -0.1502823
-0.28287405 -0.0072399112 0.03608378 0.08864725 -0.17884263 0.17678455 0.08249117 0.036899053
-0.022780793 0.040426265 0.12601092 0.08044848 0.044420976 0.05404681 0.11193275 0.16424166
0.04652864 0.11139019 0.10934211 0.028198019 0.12107477 -0.01736894 -0.034871057 -0.0735916
-0.027221115 0.14131238 0.11059955 0.06920577 0.03477637 0.1245979 0.11339253 -0.05574801
-0.059365302 0.039343134 0.12181208 0.15073851 0.032789603 -0.0070998324 -0.0009824148 0.012212014
0.09413357 -0.0257311 0.044850085 0.05522779 0.050111 0.11953981 -0.024731588 0.004377102
-0.018333117 -0.00055123627 0.009716995 0.1259608 0.06844421 -0.0043067704 -0.015004245 0.04592397
0.10742632 0.059916425 0.009389187 -0.007876254 0.07892107 0.02032632 0.12052652 -0.061123844
0.063447334 0.033616442 0.06463839 0.081425466 0.08712693 0.082249045 0.10314084 0.048890766
-0.010326775 -0.06303334 0.12877841 -0.013652554 0.1236187 0.053283896 0.08922662 0.102298476
-0.03394573 0.10507043 0.04157042 0.041666 0.07665941 -0.02491984 0.052676108 -0.0085754385
-0.013175469 0.0118625285 -0.026647376 0.016280238 -0.044981193 -0.02517466 0.07148375 0.049032163
0.07691954 0.09243635 0.1067602 -0.007187667 0.042933818 0.020564642 -0.08704903 0.060637396
-0.03311848 0.06174074 -0.010398704 0.0037218994 0.03484219 0.040138975 0.08845451 0.03383693

Q_Net.linear1.bias f4 [30]
00000000: f1ac 1fbd 6a80 263c 0339 553d bda5 24bd
00000010: 5fb0 edbc 8f01 64bc 1166 7bbb b57a 113e
00000020: 5d88 213c 61f5 cdbb 932e 56bd c01b 9ebd
00000030: 2b15 3cbd 2c64 bb3c 85fb 30be ec77 91bd
00000040: c81d babd 210d 9c3b 19f8 38bd f8a2 50bc
00000050: a1eb 693d 3cd3 ecbd 5588 233d 447b cebc
00000060: fa33 e2bd fcc6 25be cd2c 31bd f949 593d
00000070: be3f c13d 478e dfbd
-0.03898329 0.010162452 0.052056324 -0.040197123 -0.029014764 -0.013916387 -0.0038360397 0.14206965
0.009859172 -0.006285355 -0.05229051 -0.07720137 -0.045918625 0.022874914 -0.17283447 -0.071029514
-0.090877116 0.0047623073 -0.04515848 -0.012734167 0.05710948 -0.11563727 0.03992494 -0.025205262
-0.1104507 -0.16189188 -0.043255616 0.05304906 0.09435986 -0.10915809

Q_Net.linear2.weight f4 [3, 30]
00000000: b014 7abf 212f 0c3f 44bd 1bbf 2dc4 ef3e
00000010: e776 8dbf 0379 483f e456 8b3f 5410 bebe
00000020: 4fef ca3e 9cb0 633f 3104 a9bd 73f6 18be
00000030: e3f8 a7be baa5 fa3e 24bf f1be e25b 413f
00000040: 19ba 9dbf 8568 94bf c648 23bf 5e3c 803e
00000050: 0fbb 2640 1243 f03e aa58 893e d90b c23e
00000060: 3c23 33bf 72fc 83bd cea2 0bbf a75d 133f
00000070: 57bc 743e 94ad 7d3e ba65 05bf 7620 553f
00000080: 79f8 413f 4201 843e 8522 dabe 1332 9ebf
00000090: 0b02 86be 705c 4b3c 2b54 ccbf 9cbd 1940
000000a0: 1059 153f 32d8 6ebf 09f8 41bd f7c7 ac3f
000000b0: 98ed db3f d1b5 c93f fc9c 96bf f022 a9bf
000000c0: 8884 d13d c512 83bf e656 4e40 593d 8cbf
000000d0: c376 a6bf 0741 2fbe 9d69 3dbf 01bd 0740
000000e0: 8fce a8bf bb4f 703f ed89 ab3f 28d9 45be
000000f0: 15c0 c0bf 553b 903f 7fe6 a93f 044f 97bf
00000100: 4fac 3cbf 2acc cbbf 0ca2 643e 87eb 75bc
00000110: 80d6 adbf f776 b33f e84d b13e b0c8 6abe
00000120: 6c03 23bf 8349 cf3f a585 e33d 57b0 ac3f
00000130: 6f13 9fbf a8fa a6bf 3696 51bf 5d8f 02c0
00000140: 3017 733f bac5 59bf a51c dabe 60fa c93f
00000150: cdc7 bbbe cc41 783f 5bb1 9ebf 3482 5d3f
00000160: 416d 923f e88e d5bf
-0.97687817 0.54759413 -0.6083567 0.46829358 -1.1051911 0.7830965 1.0885892 -0.37121832
0.39635703 0.8894136 -0.082527526 -0.14937763 -0.32807073 0.48954564 -0.4721614 0.7553083
-1.2322417 -1.1594397 -0.6378292 0.25046057 2.6051672 0.4692617 0.26825458 0.37899664
-0.6997564 -0.064446345 -0.54545295 0.5756478 0.23899971 0.24773246 -0.5210835 0.83252656
0.75769764 0.2578221 -0.4260446 -1.2359031 -0.26173434 0.012412176 -1.5963186 2.4021978
0.58339024 -0.9329864 -0.047355685 1.3498524 1.7181883 1.5758611 -1.1766658 -1.3213787
0.102303565 -1.0240103 3.2240539 -1.0956222 -1.3004993 -0.1711465 -0.7398928 2.120911
-1.3188037 0.9387166 1.3401467 -0.1932112 -1.5058619 1.1268107 1.3273467 -1.1820989
-0.7370042 -1.5921681 0.22327441 -0.015009767 -1.3581085 1.402068 0.3462975 -0.22928119
-0.63677096 1.6194309 0.11109475 1.3491315 -1.2427806 -1.3045244 -0.8186983 -2.0400002
0.94957256 -0.8506733 -0.4259998 1.5779533 -0.36675873 0.969754 -1.2397875 0.865268
1.1439592 -1.6684237

Q_Net.linear2.bias f4 [3]
00000000: da9e b83f f14d 5840 fe05 1b40
1.4423478 3.3797572 2.4222407

Target_Q_Net.linear1.weight f4 [30, 150]
00000000: 9620 5fbe 8ceb 40be a995 eebd 5a1d 37be
00000010: 12f1 62be 03d8 423c 1998 083d 9222 073e
00000020: 20a9 4cbe 70f6 2d3d feca c3bd ab2d 3cbe
00000030: 8068 4fbe 7474 2ebe e1af 29be 6879 16bd
00000040: 96a3 a5bd d261 bd3d 9c3e 5dbe 717c 83bd
00000050: 80e8 c9bd 2285 68be 7a3c 08be 8318 52be
00000060: d39f f5bd 1063 ea3b a86e e23b 3283 553c
00000070: 8c8c 50be dd10 b13d 34be 33be 9702 cbbd
00000080: 2d2c 4dbe 4194 97bd f3cc 0cbe b731 d83d
00000090: ce25 583c 289d 02bc 9a4c 0fbe 4ae0 c7bc
000000a0: 9d5f 45be 9415 3abe 4293 10be fa00 dabd
000000b0: d229 23be 950c 523d 10bf 6b3c fb62 5a3d
000000c0: 78f0 6fbe 91b7 3c3d 4f5b e3bd 37bf 0fbe
000000d0: a9f9 a0bd 0fc8 27be 7a14 3abe 9bc2 093e
000000e0: 4638 6abd 8061 83ba 3898 06be 644c fb3d
000000f0: e2a9 13be 6cf7 d9bd 396f 43be 622a d1bd
00000100: dac1 50be 68af 623d c595 5abd 84d1 5dbd
00000110: c2a9 bbbd 94df fb3a 10da 59be 4ea2 34be
00000120: 0ad2 b8bd 5e31 2fbe 8373 41be c00c c9bd
00000130: f0f4 c03d 1716 66bd 1327 bbbd 742d 16bc
00000140: 6d25 a1bd 1322 59be 6673 4ebe 905e 0dbe
00000150: 0c36 14be 9593 abbc b96c b03d a908 7dbd
00000160: ea33 52be 9241 9a3d bfb0 d8bd 40f4 14be
00000170: 0215 37be 5990 55be 4879 6cbe 9e6c 563d
00000180: 10b5 eb3d 9bb3 943d ab92 eabd efcb 353e
00000190: c752 06be 0d35 27be 3e3b dbbd 128f 00be
000001a0: 0b2b e8bd 2936 7fbb 78e1 513d ad6f 2b3d
000001b0: 3622 1bbe f98f 273d dd51 6bbe 1a1e 21be
000001c0: 05cf 34be 6421 4dbe 244d f8bd a9f1 b63d
000001d0: 4ba3 113e b5e4 af3d 7f87 64be c707 8e3d
000001e0: d4a2 44be c2f4 4abe 3112 41be 661d 1ebe
000001f0: db4e 4bbe cf89 5a3c 8574 c0bb 4ac3 09bd
00000200: 5e84 05be 941c 253e f8e1 6ebe 1c00 24be
00000210: fa05 5dbe 473c 62be 8b7c 2bbe 8960 bc3d
00000220: 9e4a 253c 7e3f 583c 7594 61be 4711 4c3e
00000230: fec1 a9bd 5c34 b1bd 5bbe 15be 9ae3 19be
00000240: ded4 90be c73c edbb 96cc 133d b08c b53d
00000250: 8622 37be 0207 353e 21f1 a83d 7623 173d
00000260: c99e babc 0396 253d 0209 013e 2cc2 a43d
00000270: c5f2 353d 3060 5d3d ff3c e53d f72e 283e
00000280: d194 3e3d 8a20 e43d c2ee df3d 88ff e63c
00000290: 0df6 f73d 4f49 8ebc f4d4 0ebd 31b7 96bd
000002a0: d1fe debc 31b4 103e 0482 e23d c1bb 8d3d
000002b0: ab71 0e3d 2f2d ff3d 583a e83d 0658 64bd
000002c0: 0829 73bd 4426 213d 9d78 f93d 325b 1a3e
000002d0: 644e 063d b6a5 e8bb 5fc4 80ba e614 483c
000002e0: 1ac9 c03d 07ca d2bc b9b4 373d 8936 623d
000002f0: 3141 4d3d 4ad1 f43d e699 cabc cb6d 8f3b
00000300: 552f 96bc d780 10ba 0834 1f3c defb 003e
00000310: 7a2c 8c3d cf1f 8dbb 5dd4 75bc c61a 3c3d
00000320: 5502 dc3d ed6a 753d 1bd5 193c 670b 01bc
00000330: 5fa1 a13d 6283 a63c 9cd6 f63d ff5c 7abd
00000340: adf0 813d 65b1 093d 2261 843d 65c2 a63d
00000350: 9b6f b23d 3072 a83d 813b d33d af41 483d
00000360: a231 29bc a017 81bd 7dde 033e f6ae 5fbc
00000370: cd2b fd3d 3740 5a3d 72bc b63d dd81 d13d
00000380: ae0a 0bbd 2a2f d73d bf45 2a3d f8a9 2a3d
00000390: 9cff 9c3d b124 ccbc e7c2 573d ff7f 0cbc
000003a0: ecdd 57bc 0d5b 423c 994b dabc 225e 853c
000003b0: 333e 38bd 173b cebc 1366 923d f3d5 483d
000003c0: fe87 9d3d 454f bd3d 17a5 da3d 8586 ebbb
000003d0: 5fdb 2f3d 2e77 a83c c346 b2bd eb5e 783d
000003e0: 3ea7 07bd dce3 7c3d 535f 2abc 1ceb 733b
000003f0: afb6 0e3d c468 243d a327 b53d 9898 0a3d
-0.21789774 -0.18839854 -0.11649639 -0.1788229 -0.22162274 0.0118923215 0.033348177 0.13196781
-0.19986391 0.04247135 -0.09560202 -0.18376796 -0.20254707 -0.17036611 -0.16570999 -0.036736876
-0.08087842 0.09247173 -0.21605915 -0.0642022 -0.09858799 -0.22707036 -0.1330432 -0.20517163
-0.11993375 0.0071529225 0.006910164 0.013031768 -0.20366114 0.086457945 -0.17553025 -0.09912603
-0.20036383 -0.07401324 -0.13750057 0.10556357 0.013192607 -0.007972039 -0.13994065 -0.024398942
-0.19274755 -0.18172294 -0.14118674 -0.106447175 -0.15933922 0.05128153 0.014388815 0.05331705
-0.23431575 0.0460735 -0.111014 -0.14037786 -0.07860119 -0.1638491 -0.18171874 0.13453142
-0.057182573 -0.0010023564 -0.13144004 0.1227043 -0.14420274 -0.10642895 -0.19085397 -0.10213162
-0.20386449 0.05534306 -0.053365488 -0.054154888 -0.09163238 0.0019216412 -0.2127459 -0.1764004
-0.09024437 -0.17108676 -0.1889172 -0.09816885 0.09421718 -0.05617341 -0.09138312 -0.00916611
-0.078684665 -0.21204405 -0.20161209 -0.13805604 -0.14473742 -0.020944396 0.08614487 -0.061775837
-0.20527616 0.07532038 -0.10580587 -0.14546299 -0.17879108 -0.20855846 -0.2309314 0.05234968
0.11509144 0.072608195 -0.11453756 0.17753576 -0.13117515 -0.16328831 -0.10704659 -0.12554577
-0.11336335 -0.0038942194 0.051240414 0.04185455 -0.15149769 0.040908787 -0.22980447 -0.15734139
-0.17657097 -0.20032269 -0.121240884 0.08932812 0.14222448 0.08588544 -0.22317313 0.06935077
-0.19202739 -0.1981993 -0.18854596 -0.15440902 -0.198543 0.01333852 -0.005873265 -0.033633508
-0.13038775 0.16124183 -0.23328388 -0.16015667 -0.21584311 -0.22093306 -0.16746728 0.091981
0.010088591 0.0131987315 -0.22029288 0.19928466 -0.08288954 -0.08652565 -0.14623396 -0.1502823
-0.28287405 -0.0072399112 0.03608378 0.08864725 -0.17884263 0.17678455 0.08249117 0.036899053
-0.022780793 0.040426265 0.12601092 0.08044848 0.044420976 0.05404681 0.11193275 0.16424166
0.04652864 0.11139019 0.10934211 0.028198019 0.12107477 -0.01736894 -0.034871057 -0.0735916
-0.027221115 0.14131238 0.11059955 0.06920577 0.03477637 0.1245979 0.11339253 -0.05574801
-0.059365302 0.039343134 0.12181208 0.15073851 0.032789603 -0.0070998324 -0.0009824148 0.012212014
0.09413357 -0.0257311 0.044850085 0.05522779 0.050111 0.11953981 -0.024731588 0.004377102
-0.018333117 -0.00055123627 0.009716995 0.1259608 0.06844421 -0.0043067704 -0.015004245 0.04592397
0.10742632 0.059916425 0.009389187 -0.007876254 0.07892107 0.02032632 0.12052652 -0.061123844
0.063447334 0.033616442 0.06463839 0.081425466 0.08712693 0.082249045 0.10314084 0.048890766
-0.010326775 -0.06303334 0.12877841 -0.013652554 0.1236187 0.053283896 0.08922662 0.102298476
-0.03394573 0.10507043 0.04157042 0.041666 0.07665941 -0.02491984 0.052676108 -0.0085754385
-0.013175469 0.0118625285 -0.026647376 0.016280238 -0.044981193 -0.02517466 0.07148375 0.049032163
0.07691954 0.09243635 0.1067602 -0.007187667 0.042933818 0.020564642 -0.08704903 0.060637396
-0.03311848 0.06174074 -0.010398704 0.0037218994 0.03484219 0.040138975 0.08845451 0.03383693

Target_Q_Net.linear1.bias f4 [30]
00000000: f1ac 1fbd 6a80 263c 0339 553d bda5 24bd
00000010: 5fb0 edbc 8f01 64bc 1166 7bbb b57a 113e
00000020: 5d88 213c 61f5 cdbb 932e 56bd c01b 9ebd
00000030: 2b15 3cbd 2c64 bb3c 85fb 30be ec77 91bd
00000040: c81d babd 210d 9c3b 19f8 38bd f8a2 50bc
00000050: a1eb 693d 3cd3 ecbd 5588 233d 447b cebc
00000060: fa33 e2bd fcc6 25be cd2c 31bd f949 593d
00000070: be3f c13d 478e dfbd
-0.03898329 0.010162452 0.052056324 -0.040197123 -0.029014764 -0.013916387 -0.0038360397 0.14206965
0.009859172 -0.006285355 -0.05229051 -0.07720137 -0.045918625 0.022874914 -0.17283447 -0.071029514
-0.090877116 0.0047623073 -0.04515848 -0.012734167 0.05710948 -0.11563727 0.03992494 -0.025205262
-0.1104507 -0.16189188 -0.043255616 0.05304906 0.09435986 -0.10915809

Target_Q_Net.linear2.weight f4 [3, 30]
00000000: c109 79bf fffe 0b3f c8f0 19bf 146e eb3e
00000010: a8d0 8dbf 4af3 473f 76cf 8a3f b1a1 b9be
00000020: e952 cd3e e9bc 643f 47dd a9bd a045 1abe
00000030: b917 a6be 69d2 fc3e 1d4c f3be 8f28 413f
00000040: ee4c 9dbf 2966 94bf 7c32 24bf b774 7f3e
00000050: cca6 2640 fe31 f03e e103 893e b4bb c13e
00000060: c8a9 32bf 0938 93bd 30fa 08bf c29c 123f
00000070: 2f20 6f3e 82ff 7c3e 1c91 05bf a1fe 543f
00000080: 7984 413f fd69 843e 0f4d d9be 5b6e 9ebf
00000090: 1f56 85be 5263 693c 1421 ccbf 40bc 1940
000000a0: 3b37 163f 3645 6fbf 5cb3 4fbd 15fa ac3f
000000b0: d8ae db3f 385a c93f 4893 95bf 43f3 a8bf
000000c0: afc6 bc3d c1d6 82bf 7e3a 4e40 393e 8cbf
000000d0: 11b0 a6bf 2b51 31be 5ef7 3cbf 4fd9 0740
000000e0: 200f a9bf abf4 6c3f ca93 ad3f 18eb 45be
000000f0: 45f2 c0bf 7f36 903f 6fde a93f 4c64 97bf
00000100: 89d3 3cbf d09a cbbf 27af 643e 5ce5 6dbc
00000110: cbda adbf 797c b33f 395e b13e 7199 6abe
00000120: 11f8 22bf 1845 cf3f 43b7 e23d bf8a ac3f
00000130: 501a 9fbf 07f6 a6bf 7181 51bf cda7 02c0
00000140: 30f2 713f f9bd 59bf 0506 dabe 31d1 c93f
00000150: 2dd9 bbbe e8e0 773f 16ad 9ebf 8368 5d3f
00000160: f869 923f 1894 d5bf
-0.9728051 0.5468597 -0.6013303 0.4598242 -1.1079302 0.78105605 1.0844562 -0.36256173
0.40102318 0.89350754 -0.082941584 -0.15065622 -0.32439974 0.4937928 -0.47519007 0.7545251
-1.2289102 -1.1593677 -0.64139533 0.24946867 2.6039305 0.4691314 0.26760772 0.3783852
-0.69790316 -0.07188422 -0.53506756 0.57270443 0.23352121 0.24706843 -0.52174544 0.8320103
0.7559276 0.25862113 -0.42441604 -1.2377428 -0.26042268 0.014244871 -1.5947595 2.4021149
0.58678025 -0.9346498 -0.05070816 1.3513819 1.7162733 1.5730658 -1.1685572 -1.3199238
0.092175834 -1.0221788 3.22232 -1.0956489 -1.3022481 -0.1731612 -0.7381495 2.1226385
-1.3207741 0.92560834 1.3560727 -0.19327962 -1.5073935 1.1266631 1.3271006 -1.1827483
-0.7376028 -1.590662 0.2233244 -0.014520016 -1.3582395 1.4022361 0.346422 -0.22910096
-0.6365977 1.6192961 0.11070111 1.3479842 -1.2429905 -1.3043832 -0.81838137 -2.0414917
0.94510174 -0.850555 -0.42582718 1.5766965 -0.3668913 0.96827555 -1.2396572 0.864876
1.1438589 -1.668582

Target_Q_Net.linear2.bias f4 [3]
00000000: 4762 b93f 1c6c 5840 c94e 1b40
1.4483117 3.3815985 2.4266837
