Model/DDQN/result/agent_ddqn_000002_SZ.pt (torch_old, 39326 bytes, 10 tensors)

Q_Net.linear1.weight f4 [30, 150]
000000 6f f2 93 3f 12 c3 8f 3f 50 12 48 3f 14 34 be 3f
       1.155836 1.1231406 0.7815294 1.4859643
000010 f6 aa 96 40 a9 bd e1 40 f3 d5 fa 3f a1 a6 ee 3e
       4.7083693 7.054402 1.9596542 0.46611503
000020 52 a4 95 3f 7d cd 62 be e6 31 92 3f 10 8f 84 3f
       1.1690772 -0.221487 1.1421478 1.0356159
000030 a0 f4 5a 3f 87 85 b0 3f b0 30 94 40 fe 14 93 40
       0.8552952 1.3790749 4.6309433 4.5963125
000040 a5 34 11 40 bd 5b 15 3f 76 f3 88 3f 26 f0 8b 3c
       2.2688382 0.58343107 1.0699298 0.017082285
000050 dc b3 78 3f 5c 2a 97 3f 0d e7 5d 3f 55 75 99 3f
       0.97149444 1.1809802 0.8668068 1.1988932
000060 b5 de 86 40 35 e2 59 40 c7 7e 13 c0 a5 26 90 3e
       4.214686 3.4044316 -2.3046129 0.28154483
000070 42 a6 92 3f 3c f9 b3 3e 70 6f 75 3f c4 48 6f 3f
       1.1456988 0.35151088 0.95873165 0.93470407
000080 65 d7 42 3f 7a a9 9e 3f 57 39 86 40 78 7c 5f 3f
       0.76109916 1.239547 4.1944995 0.872993
000090 6b 8b ab c0 34 61 0a be 28 e5 89 3f 13 02 6e 3e
       -5.360769 -0.13513643 1.0773058 0.23242979
0000a0 77 59 7e 3f 42 c7 7b 3f bd 58 58 3f b6 8e 94 3f
       0.9935526 0.9835092 0.84510404 1.1606052
0000b0 74 0d 84 40 62 44 08 3f 2f a6 a4 c0 3b 75 27 be
       4.126642 0.53229344 -5.145286 -0.16353314
0000c0 88 34 90 3f ac 48 12 3e 6c ab 89 3f bf 5b 8c 3f
       1.1266031 0.14285535 1.0755439 1.0965499
0000d0 7d d7 76 3f 75 4c a7 3f 9b 8c 8c 40 be 0b 8f 40
       0.9642256 1.3070208 4.3921638 4.4701834
0000e0 17 dd 0e c0 cd f3 cd 3d 66 72 80 3f 54 14 80 be
       -2.2322443 0.10056267 1.0034912 -0.2501551
0000f0 fa f7 82 3f 5d 95 90 3f 5d e6 45 3f e2 a1 a2 3f
       1.0231926 1.1295582 0.7730463 1.2705653
000100 60 a4 90 40 5b bd 62 40 50 d8 a1 c0 89 9e f2 3d
       4.5200653 3.5428073 -5.0576553 0.118466444
000110 cb a0 8b 3f 82 e6 41 bc 06 f7 99 3f 9f 5a 90 3f
       1.0908445 -0.0118347425 1.202851 1.1277655
000120 46 fe 69 3f 71 44 a7 3f 57 50 9b 40 aa 77 88 40
       0.91403615 1.3067762 4.853557 4.2646074
000130 d2 eb 36 bf 13 98 72 3f 1e 8f 8d 3f 5f 1f 24 3e
       -0.71453583 0.94763297 1.1059301 0.16027592
000140 7c 18 94 3f 89 e5 93 3f 3a d3 76 3f f7 cf a5 3f
       1.1569972 1.1554424 0.96416056 1.2954091
000150 bd 1b 95 40 99 b9 0c bf a6 d7 30 bf 77 af ba 3f
       4.659636 -0.549707 -0.69079053 1.4584798
000160 aa 69 94 3f e0 0f 31 3e 81 fe 94 3f 02 c2 9a 3f
       1.1594746 0.17291212 1.1640168 1.2090456
000170 b6 f3 74 3f 6f 15 a3 3f c9 d5 8e 40 b4 d9 9f bf
       0.95684373 1.2740916 4.463597 -1.2488313
000180 05 38 48 c0 27 ba fc 3f ba cf 8a 3f d3 d2 d7 3e
       -3.1284192 1.9744309 1.0844643 0.42153034
000190 9c a0 83 3f 99 e2 86 3f 67 c1 6b 3f 50 a5 a0 3f
       1.0283389 1.0537902 0.92091984 1.2550449
0001a0 6c 3e 83 40 f7 fd 32 c0 0e 3f c8 c0 a8 35 c8 3f
       4.10137 -2.7967508 -6.257697 1.5641375
0001b0 b9 8c 80 3f 51 6f 76 3e 93 52 88 3f be 8b 86 3f
       1.0042945 0.24065901 1.06502 1.0511396
0001c0 2f 07 55 3f 2d 9b 9c 3f 91 56 8e 40 e3 f1 5f 3f
       0.83214086 1.2234856 4.448067 0.87478465
0001d0 d9 f4 ce c0 2b 22 ea 3f 16 c1 7d 3f 77 07 93 3c
       -6.4673886 1.8291677 0.9912275 0.017947895
0001e0 f1 ac a0 3f d3 75 99 3f cf 82 78 3f b4 87 c2 3f
       1.2552778 1.1989082 0.970746 1.5197663
0001f0 44 a6 b7 40 0e bd 00 3f 88 ff a5 3f 1a bd 53 40
       5.739046 0.50288475 1.2968607 3.3084168
000200 46 7d 8c 3f 2b 0c fa be 9f c8 d9 3e 05 24 07 3f
       1.097573 -0.48837408 0.42535874 0.52789336
000210 ef 92 8e 3e d5 f6 60 3f ce bc 44 c0 92 1c 8d c0
       0.27846476 0.87876636 -3.0740237 -4.4097376
000220 9e 86 00 c1 f1 76 80 bf eb 32 6d 3f c0 fe 9e bf
       -8.032866 -1.0036298 0.9265582 -1.2421494
000230 fa cd a3 be be fa 26 bf 76 0e 5f bf 3d 0b b1 be
       -0.31993085 -0.6522635 -0.8713144 -0.34578887
000240 f7 5a 96 c0 29 ad cf c0 df 22 9a c0 8a ce b5 c0
       -4.698604 -6.4898877 -4.8167567 -5.6814623
000250 f6 49 3c 3f 42 98 51 3f ee 02 b2 3f 73 2a bd 3f
       0.73550355 0.8187295 1.3907144 1.477858
000260 13 a4 c3 3f fb ce a5 3f e7 07 ec 3f 7b 13 f5 c0
       1.5284446 1.295379 1.8439912 -7.658628
000270 df ae ca 3e ba 33 8e c0 fc e3 cf 3f e9 2a 24 bd
       0.3958654 -4.4438143 1.624145 -0.040079985
000280 ad a4 af 3f 5b a2 af 3f 2b 76 b7 3f 5f b8 9f 3f
       1.372213 1.3721422 1.4332937 1.247814
000290 87 fb 04 40 8a 6b a6 c0 c9 8a 7f 3f 76 0f 95 c0
       2.077852 -5.2006273 0.99821144 -4.6581373
0002a0 c2 a6 c5 3f e8 b9 10 bd 72 9c ba 3f 70 61 b7 3f
       1.5441515 -0.035333544 1.4578993 1.432661
0002b0 f9 fe c9 3f fb d6 9e 3f 29 0d 02 40 41 2e a1 c0
       1.5780936 1.2409357 2.0320532 -5.036896
0002c0 9c 7f 3b 40 a9 ce 9d c0 e9 55 c3 3f ee 6d 3a bd
       2.9296637 -4.931477 1.5260593 -0.045514993
0002d0 56 ce c9 3f 4c 25 be 3f a4 29 d2 3f a6 59 a2 3f
       1.5766094 1.4855132 1.6418958 1.2683609
0002e0 2a 98 1e 40 b9 71 8f c0 27 af 6d 40 b0 5b 8b c0
       2.4780374 -4.482632 3.7138155 -4.3549423
0002f0 55 33 cd 3f 94 21 18 3d 6b 03 c0 3f dd af c1 3f
       1.603129 0.037141398 1.5001043 1.5131794
000300 93 13 cc 3f 56 ab a5 3f bb 46 15 40 5a ed f1 c0
       1.5943474 1.2942913 2.332442 -7.5602236
000310 63 23 4e 40 4d da 8e c0 e5 d2 c5 3f 8e 97 b9 3d
       3.2209098 -4.464148 1.5454985 0.0906211
000320 56 8a b4 3f b1 f8 bc 3f a4 96 cd 3f a5 d6 9f 3f
       1.4104717 1.4763395 1.6061597 1.2487379
000330 37 97 29 40 41 29 d9 c0 a9 cb 44 40 a9 6d 96 c0
       2.6498544 -6.786286 3.0749304 -4.7008862
000340 5d 0e c1 3f 59 e1 92 3e ae e0 b6 3f d5 ec b2 3f
       1.5082508 0.28687552 1.4287317 1.3978525
000350 af a6 cd 3f 70 82 b4 3f 7d 46 2b 40 62 8d be c0
       1.6066493 1.4102306 2.6761773 -5.9547586
000360 2c c4 86 40 b4 d1 96 c0 66 39 ca 3f 83 51 47 3c
       4.211447 -4.7130985 1.5798767 0.01216543
000370 8f 55 b0 3f 39 e8 c6 3f e7 ff cd 3f a7 c0 ac 3f
       1.377611 1.5539619 1.609372 1.3496293
000380 99 9f 24 40 84 b2 a9 c0 3b 62 1a 40 cf 02 97 c0
       2.572241 -5.3030415 2.4122455 -4.719093
000390 a5 1d be 3f c7 77 af bc 0c f3 b8 3f 19 fb be 3f
       1.4852797 -0.021419419 1.4449172 1.4920379
0003a0 32 72 d2 3f d5 7c aa 3f 68 aa 3c 40 c5 70 30 c0
       1.64411 1.3319346 2.9479008 -2.756883
0003b0 9c 69 a5 40 51 ad 87 c0 0e 7c c6 3f a0 22 fa 3c
       5.169142 -4.239907 1.5506608 0.030534089
0003c0 28 76 cc 3f 38 62 ae 3f 91 e9 d4 3f 15 39 b7 3f
       1.5973558 1.3623724 1.6633779 1.4314295
0003d0 0d 4b 54 40 5e e3 20 3e 83 9c 82 40 63 65 53 c0
       3.3170807 0.15711734 4.0816054 -3.3030632
0003e0 00 ec b8 3f 19 10 44 3e 58 0f c2 3f 7c f2 d3 3f
       1.4447021 0.19146766 1.5160933 1.6558375
0003f0 2a 27 e2 3f 72 05 b2 3f 61 85 40 40 ce ba 57 bf
       1.7668202 1.3907912 3.0081408 -0.84269416

Q_Net.linear1.bias f4 [30]
000000 25 ca c4 be fa ae db 40 76 77 a8 40 d6 fa 09 bf
       -0.38435474 6.8651094 5.2645826 -0.5389837
000010 06 d4 3e 41 77 ea ac bf 87 05 46 40 3d 1d 24 40
       11.926764 -1.3509053 3.0940874 2.5642846
000020 1d 86 2c 3f ac f4 3e 40 51 6d fc 3f 2a 27 e7 40
       0.6739214 2.9836836 1.9720861 7.223531
000030 8a af 8c 40 50 6a b8 bd 49 2a 7b be f1 59 20 c0
       4.396428 -0.090046525 -0.2452785 -2.5054896
000040 8b 38 21 c0 0b e2 2d be 9f 19 51 bf 28 89 bf 3f
       -2.519076 -0.1698076 -0.8167972 1.4963732
000050 c9 67 fb 40 d3 19 1a 3f 5a 17 c9 3f c0 dd 18 3f
       7.856419 0.60195655 1.5710251 0.59713364
000060 43 fb 0b 41 4e 56 f7 40 f1 dd de 3f 29 8f 84 40
       8.748843 7.7292852 1.7411481 4.1424756
000070 64 51 05 40 e9 33 ac 40
       2.0830927 5.3813367

Q_Net.fc_A.weight f4 [3, 30]
000000 ce e8 9b 3e 1b bf 2e 3e bb 16 43 be 23 15 9f bd
       0.30451053 0.17065088 -0.1905164 -0.077677034
000010 09 55 0d 3e d7 db f9 3e c4 ec 9e bc d6 86 aa bd
       0.1380197 0.48800537 -0.019400008 -0.08326499
000020 31 a4 0f 3c 08 e2 e7 3c 37 2d e3 3d 49 2d 0c bd
       0.008767174 0.028306022 0.110926084 -0.034222875
000030 35 98 d0 3b a1 74 15 be 3c ad 65 3e 5f c7 29 be
       0.0063658007 -0.14595272 0.22429365 -0.1657996
000040 66 08 ad bd 87 c3 c0 be c7 73 d5 3e 00 f7 16 3e
       -0.084488675 -0.37649176 0.41689894 0.1474266
000050 52 6e 9c 3e 32 46 21 bd 05 82 9f 3e 1b ba f9 bd
       0.30552918 -0.039373584 0.31153885 -0.121937
000060 14 4b 99 3d 9e 5b 02 3e d6 8a 9a 3e 93 f1 cb 3e
       0.07485023 0.12730262 0.30184048 0.39832744
000070 da f3 cc 3d d8 b0 18 3e ed 4e c6 3e 3a 6f ec be
       0.100074485 0.1491121 0.3873209 -0.4617861
000080 26 19 29 3e f4 5b 1a 3e 00 90 d0 be 38 57 6b 3e
       0.165135 0.1507414 -0.40734863 0.2298249
000090 ba 56 56 3e c4 90 cb 3e f2 e6 55 3e c7 88 46 3e
       0.20931521 0.39758885 0.2088888 0.19388114
0000a0 f3 23 53 be 6b 22 ed bd fa ad b3 be d3 8d 59 3d
       -0.20619182 -0.1157883 -0.3509367 0.05311377
0000b0 7a 14 e5 3e 32 51 a6 3e 20 b0 75 3e ae 58 01 3f
       0.44742185 0.32483822 0.23992968 0.5052594
0000c0 18 8b 68 bd dc 6f ac be 3c 81 11 bf 8b cf da 3e
       -0.056773275 -0.33679092 -0.5683782 0.42736468
0000d0 47 ce d8 be de 60 35 3e 62 49 a8 be 0c 6e 81 be
       -0.42344877 0.17712733 -0.32868487 -0.25279272
0000e0 05 fa af be 47 6d 57 bf 70 22 01 be 59 94 58 be
       -0.34370437 -0.8415112 -0.12610793 -0.2115034
0000f0 39 69 a4 3e 74 4c 4d 3d 82 19 2e be cf d5 7b 3c
       0.3211153 0.05012174 -0.17001918 0.0153708
000100 d6 2e 15 3e af 26 db bd 83 a6 e1 bc f5 fd d8 bd
       0.14568648 -0.10700738 -0.02754522 -0.105953135
000110 a7 6e 82 3d 61 b9 86 3c 85 91 83 3d 50 b3 b1 bc
       0.063687615 0.016445817 0.0642424 -0.021691948
000120 a9 4a 12 3d 89 5d 2a 3e 09 e5 6c 3d 3c 05 36 bd
       0.035715733 0.16637243 0.057835612 -0.044438586
000130 65 97 0f be 10 23 03 3d 0f 7b ba 3e 7a ea 00 3e
       -0.14022596 0.03201586 0.3642201 0.12589446
000140 82 a5 8e 3e 01 65 91 3d 1e 10 21 3e 4e 38 1c be
       0.27860647 0.07099343 0.15728804 -0.15255854
000150 0d 0f 9a bd 58 85 34 3e 63 75 42 3e 6a d3 48 3e
       -0.07522402 0.17628992 0.18990092 0.19611898
000160 53 3f 1e 3e 6b 65 0a 3e
       0.15453844 0.1351525

Q_Net.fc_A.bias f4 [3]
000000 03 d7 41 41 35 0e 81 c1 6c e8 8c bf
       12.114993 -16.131937 -1.100843

Q_Net.fc_V.weight f4 [1, 30]
000000 97 1c b4 3c 8b 8f 37 be 87 4a 00 3e 06 07 74 3e
       0.021986289 -0.17925851 0.1252843 0.23830804
000010 68 f2 40 be a9 55 05 be 47 f9 b0 3d 8a 62 48 3e
       -0.1884247 -0.13020958 0.08641296 0.1956884
000020 12 85 69 3d ad 9b 80 3d c8 33 ad be ef 3a fe bc
       0.05701167 0.06279693 -0.33828568 -0.031033961
000030 92 8c 10 be 5c 50 34 3e 34 4b 4f 3e ba 91 a8 3d
       -0.14116123 0.1760878 0.20243531 0.0823092
000040 bf 66 85 3e b0 92 c4 3e 07 45 18 bf 2e 61 2a be
       0.26054952 0.38393164 -0.5948033 -0.16638634
000050 bc 6c ab be fa 4d 02 3f a9 cd 9e be f8 83 02 3e
       -0.33481395 0.5090023 -0.3101628 0.12745655
000060 b6 92 04 bd 75 a6 1e be 23 ea 37 bf 2a 5e 97 be
       -0.032366477 -0.15493186 -0.7184164 -0.2956403
000070 2c b4 ea bd bb 7d ce bd
       -0.11460146 -0.10082575

Target_Q_Net.linear1.weight f4 [30, 150]
000000 c0 e3 93 3f 37 b4 8f 3f 93 f5 47 3f 79 25 be 3f
       1.1553879 1.1226872 0.7810909 1.4855186
000010 3e ae 96 40 a9 b7 e1 40 e0 c7 fa 3f 74 95 ee 3e
       4.70877 7.0536695 1.9592247 0.465984
000020 a9 96 95 3f 57 bb 62 be 8d 24 92 3f 41 81 84 3f
       1.1686603 -0.22141777 1.1417404 1.0351945
000030 d1 d8 5a 3f 19 78 b0 3f bb 34 94 40 76 16 93 40
       0.85487086 1.3786651 4.631437 4.596492
000040 cf 3e 11 40 49 54 15 3f d1 e5 88 3f 5b 54 8c 3c
       2.2694585 0.58331734 1.0695134 0.017130068
000050 ee 99 78 3f 67 1c 97 3f e8 cd 5d 3f 69 67 99 3f
       0.9710988 1.1805543 0.86642313 1.1984683
000060 fd e2 86 40 ac ec 59 40 d3 77 13 c0 5a 20 90 3e
       4.2152085 3.4050703 -2.3041885 0.28149682
000070 ba 98 92 3f e2 fe b3 3e d4 57 75 3f 34 2f 6f 3f
       1.1452858 0.35155398 0.9583714 0.934314
000080 29 bf 42 3f 3d 9d 9e 3f 36 3e 86 40 2c c3 5f 3f
       0.7607294 1.2391735 4.195094 0.87407184
000090 55 81 ab c0 98 3d 0a be e2 d7 89 3f 95 17 6e 3e
       -5.3595376 -0.13500059 1.0769007 0.23251183
0000a0 5f 4a 7e 3f 80 b4 7b 3f e3 46 58 3f 55 86 94 3f
       0.9933223 0.98322296 0.84483165 1.1603495
0000b0 56 14 84 40 89 b7 08 3f 68 91 a4 c0 7c a2 26 be
       4.1274824 0.5340505 -5.14275 -0.1627292
0000c0 1e 28 90 3f 2e 54 12 3e cd a3 89 3f 23 54 8c 3f
       1.1262243 0.14289925 1.0753113 1.0963176
0000d0 9d ca 76 3f 32 45 a7 3f d8 92 8c 40 c0 1a 8f 40
       0.96402913 1.3067992 4.3929253 4.4720154
0000e0 d9 b4 0e c0 58 9a d0 3d b8 66 80 3f 23 12 80 be
       -2.229788 0.10185689 1.0031347 -0.25013837
0000f0 44 f0 82 3f ac 8d 90 3f 67 d7 45 3f c4 9a a2 3f
       1.0229573 1.1293235 0.772818 1.2703481
000100 c2 aa 90 40 74 d9 62 40 17 c6 a1 c0 3f d5 f5 3d
       4.5208445 3.5445223 -5.055431 0.12003564
000110 ba 95 8b 3f c8 00 43 bc 8f f1 99 3f ac 54 90 3f
       1.0905068 -0.011902042 1.2026843 1.127584
000120 e1 f3 69 3f 6b 3e a7 3f d3 57 9b 40 32 88 88 40
       0.91387755 1.3065923 4.8544707 4.2666254
000130 56 29 36 bf 7f 1a 73 3f e5 84 8d 3f 7b 25 24 3e
       -0.71156824 0.94962305 1.1056181 0.16029923
000140 62 11 94 3f 8b df 93 3f c4 c6 76 3f 6c c9 a5 3f
       1.1567805 1.1552595 0.9639704 1.2952094
000150 ec 21 95 40 2d 58 0c bf 40 60 30 bf 98 f4 ba 3f
       4.660391 -0.54822046 -0.68896866 1.4605894
000160 ee 5f 94 3f cc 10 31 3e cf f8 94 3f be ba 9a 3f
       1.1591775 0.17291564 1.163843 1.2088239
000170 18 e8 74 3f bd 0e a3 3f 77 dc 8e 40 95 94 9f bf
       0.95666647 1.2738873 4.464412 -1.2467219
000180 be 1b 48 c0 7e 06 fd 3f 97 c6 8a 3f 0b d2 d7 3e
       -3.1266932 1.9767606 1.0841855 0.42152438
000190 29 9b 83 3f 3b dc 86 3f ea b3 6b 3f 7d 9f a0 3f
       1.0281726 1.0535959 0.920714 1.2548672
0001a0 7c 44 83 40 a8 da 32 c0 ca 36 c8 c0 12 87 c8 3f
       4.10211 -2.7945957 -6.256688 1.566622
0001b0 28 84 80 3f aa 8b 76 3e a7 4c 88 3f f1 84 86 3f
       1.0040331 0.24076715 1.0648392 1.050932
0001c0 dc f9 54 3f 25 95 9c 3f 9d 5c 8e 40 f0 cc 60 3f
       0.83193755 1.2233015 4.4488053 0.8781271
0001d0 44 ea ce c0 db 75 ea 3f c3 b0 7d 3f 27 0f 94 3c
       -6.466097 1.8317217 0.9909784 0.018073631
0001e0 09 a9 a0 3f b4 70 99 3f e4 79 78 3f 6a 83 c2 3f
       1.2551585 1.1987519 0.9706099 1.5196354
0001f0 0d ad b7 40 22 a4 01 3f 20 53 a6 3f f4 ea 53 40
       5.7398744 0.5064107 1.2994118 3.3112154
000200 bc 75 8c 3f 73 fe f9 be 64 af d9 3e c6 1b 07 3f
       1.097343 -0.48826942 0.42516625 0.52776754
000210 7b 79 8e 3e 94 ec 60 3f 34 b2 44 c0 e6 0b 8d c0
       0.27827057 0.8786099 -3.0733767 -4.4077024
000220 20 86 00 c1 55 1f 80 bf 35 24 6d 3f 5d fb 9e bf
       -8.032745 -1.0009562 0.9263337 -1.242046
000230 49 ea a3 be ca 08 27 bf 1e 1c 5f bf 52 27 b1 be
       -0.32014683 -0.65247786 -0.8715228 -0.34600312
000240 dd 55 96 c0 40 a0 cf c0 26 24 9a c0 35 bb b5 c0
       -4.6979814 -6.488312 -4.8169127 -5.6791024
000250 5d 3b 3c 3f fc 9e 51 3f db 3a b2 3f 62 63 bd 3f
       0.7352808 0.81883216 1.3924211 1.4795954
000260 0d db c3 3f dc 07 a6 3f 73 11 ec 3f f8 06 f5 c0
       1.5301224 1.2971148 1.8442825 -7.6571007
000270 68 bc cb 3e 43 1e 8e c0 94 1a d0 3f 20 c0 23 bd
       0.3979218 -4.441194 1.6258111 -0.039978147
000280 88 db af 3f 49 da af 3f aa ad b7 3f 82 ef 9f 3f
       1.3738871 1.373849 1.4349873 1.2494967
000290 5d ff 04 40 53 68 a6 c0 5b 00 80 3f 17 fb 94 c0
       2.0780861 -5.200235 1.0000108 -4.6556506
0002a0 70 dd c5 3f 68 23 10 bd 9a d1 ba 3f 63 98 b7 3f
       1.5458202 -0.035190016 1.4595215 1.434338
0002b0 d4 33 ca 3f d0 0d 9f 3f 14 0f 02 40 28 33 a1 c0
       1.5797067 1.242609 2.0321703 -5.0374947
0002c0 66 95 3b 40 34 be 9d c0 55 8c c3 3f 93 38 3a bd
       2.9309936 -4.929468 1.5277201 -0.04546411
0002d0 2b 01 ca 3f 09 5a be 3f 36 5d d2 3f 38 8e a2 3f
       1.5781606 1.4871227 1.6434696 1.2699652
0002e0 f7 97 1e 40 a9 77 8f c0 15 b6 6d 40 74 51 8b c0
       2.4780252 -4.483357 3.7142384 -4.353693
0002f0 37 69 cd 3f f6 23 18 3d ad 30 c0 3f e5 df c1 3f
       1.6047734 0.03714367 1.5014855 1.5146452
000300 1c 42 cc 3f 89 da a5 3f 87 42 15 40 5a fa f1 c0
       1.5957675 1.2957317 2.3321855 -7.5618105
000310 82 06 4e 40 5c dc 8e c0 7a 07 c6 3f 93 8d b9 3d
       3.2191472 -4.4643993 1.5471032 0.09060206
000320 71 b6 b4 3f 07 26 bd 3f 50 c1 cd 3f c1 02 a0 3f
       1.4118177 1.477723 1.6074619 1.250084
000330 28 93 29 40 12 36 d9 c0 da 9e 44 40 59 79 96 c0
       2.6496067 -6.7878504 3.0721955 -4.702313
000340 a2 41 c1 3f ce de 92 3e a3 0c b7 3f 1a 19 b3 3f
       1.5098155 0.2868561 1.4300731 1.3992035
000350 8a d1 cd 3f 0a af b4 3f 27 43 2b 40 41 97 be c0
       1.6079571 1.4115918 2.6759737 -5.9559636
000360 36 b2 86 40 e9 e2 96 c0 89 6b ca 3f 66 59 47 3c
       4.2092543 -4.715199 1.5814067 0.01216731
000370 3c 7f b0 3f 0e 12 c7 3f 59 29 ce 3f c2 eb ac 3f
       1.3788829 1.5552385 1.6106368 1.3509448
000380 92 9b 24 40 a7 c1 a9 c0 78 46 1a 40 47 1a 97 c0
       2.5719953 -5.304889 2.410551 -4.7219577
000390 83 4e be 3f 74 c2 af bc 3c 20 b9 3f 6d 25 bf 3f
       1.486771 -0.021455027 1.4462962 1.4933296
0003a0 79 9d d2 3f aa a8 aa 3f b7 aa 3c 40 5e 81 30 c0
       1.6454307 1.3332722 2.9479196 -2.757896
0003b0 69 61 a5 40 4e c5 87 c0 54 ac c6 3f 5c 44 fa 3c
       5.168141 -4.242835 1.552134 0.030550174
0003c0 3c a1 cc 3f ed 8f ae 3f 0a 15 d5 3f ff 65 b7 3f
       1.5986705 1.3637673 1.6647046 1.4328002
0003d0 74 49 54 40 cf b5 1e 3e 67 9a 82 40 33 99 53 c0
       3.3169832 0.15499042 4.081348 -3.3062255
0003e0 81 1b b9 3f ff 27 44 3e 70 39 c2 3f 44 1e d4 3f
       1.4461519 0.19155882 1.5173779 1.6571736
0003f0 ba 52 e2 3f eb 30 b2 3f 5f 86 40 40 0c 24 58 bf
       1.7681496 1.3921179 3.0082014 -0.84430003

Target_Q_Net.linear1.bias f4 [30]
000000 47 80 c4 be a7 af db 40 aa 78 a8 40 1b e1 09 bf
       -0.38379118 6.865192 5.2647295 -0.5385911
000010 87 cf 3e 41 08 f2 ac bf 61 0f 46 40 f9 18 24 40
       11.925666 -1.3511362 3.0946887 2.5640242
000020 9f 89 2c 3f 92 03 3f 40 52 62 fc 3f 72 1c e7 40
       0.67397493 2.984593 1.9717505 7.2222223
000030 ea aa 8c 40 ac cd b6 bd 81 9f 7a be e4 4e 20 c0
       4.3958635 -0.089259475 -0.24474908 -2.504815
000040 0e 2a 21 c0 5d 71 2d be 4b 52 51 bf 39 61 bf 3f
       -2.5181918 -0.16937776 -0.81766194 1.4951545
000050 9f 62 fb 40 46 6b 1a 3f 60 fd c8 3f 1a 32 19 3f
       7.8557887 0.60319936 1.5702324 0.59842074
000060 66 fd 0b 41 d8 54 f7 40 a7 b5 de 3f d9 91 84 40
       8.749365 7.729107 1.7399186 4.1428037
000070 67 56 05 40 26 37 ac 40
       2.0833986 5.381732

Target_Q_Net.fc_A.weight f4 [3, 30]
000000 ca e6 9b 3e c6 c4 2e 3e 77 fc 42 be e8 22 9f bd
       0.30449516 0.1706725 -0.1904162 -0.0777033
000010 a1 82 0d 3e 45 dc f9 3e 68 24 9e bc aa 97 aa bd
       0.13819362 0.48800865 -0.01930447 -0.08329709
000020 2f 02 0f 3c 69 fd e7 3c 41 27 e3 3d fd 00 0c bd
       0.008728548 0.028319078 0.110914715 -0.03418063
000030 7b 15 d3 3b 43 85 15 be d4 b3 65 3e 03 bd 29 be
       0.0064417697 -0.14601617 0.2243188 -0.16576008
000040 d6 03 ad bd 5a c4 c0 be 73 6e d5 3e d5 e3 16 3e
       -0.08447997 -0.37649804 0.4168583 0.14735349
000050 5c 79 9c 3e ab 17 21 bd bf 82 9f 3e 8d a7 f9 bd
       0.3056134 -0.039329212 0.3115444 -0.12190161
000060 d5 d2 99 3d ca 5c 02 3e 93 94 9a 3e f0 f0 cb 3e
       0.07510916 0.12730709 0.30191478 0.39832258
000070 3c cb cc 3d 7b be 18 3e 34 2e c6 3e f5 7c ec be
       0.099997014 0.14916413 0.38707125 -0.46189085
000080 28 fe 28 3e 8e 54 1a 3e 47 b6 d0 be f0 44 6b 3e
       0.16503203 0.15071318 -0.40764067 0.22975516
000090 46 37 56 3e 72 8a cb 3e 65 c6 55 3e b4 6a 46 3e
       0.20919523 0.39754063 0.20876463 0.19376642
0000a0 bc 28 53 be 0e 31 ed bd 9a c0 b3 be 9d 29 59 3d
       -0.20621008 -0.11581622 -0.3510788 0.0530182
0000b0 7f 14 e5 3e 6e 3f a6 3e 16 8a 75 3e da 52 01 3f
       0.447422 0.32470268 0.23978457 0.50517046
0000c0 16 b3 68 bd c0 69 ac be 80 91 11 bf 36 c8 da 3e
       -0.056811415 -0.3367443 -0.5686264 0.42730874
0000d0 8e c9 d8 be 64 48 35 3e d8 66 a8 be b1 75 81 be
       -0.42341274 0.17703396 -0.32890964 -0.25285104
0000e0 3e ff af be 7f 70 57 bf 0c 4b 01 be 99 b3 58 be
       -0.34374422 -0.8415603 -0.12626284 -0.21162261
0000f0 85 79 a4 3e 2b 66 4d 3d f2 15 2e be 18 67 7c 3c
       0.32123962 0.050146263 -0.17000559 0.015405439
000100 58 5b 15 3e 41 19 db bd 81 27 e1 bc c8 e6 d8 bd
       0.14585626 -0.10698176 -0.027484657 -0.10590893
000110 f6 9a 82 3d a6 c5 87 3c b0 9a 83 3d d0 de b1 bc
       0.06377213 0.016573738 0.06425989 -0.02171269
000120 a2 bb 12 3d 1a 75 2a 3e f3 ce 6c 3d f5 9a 35 bd
       0.03582347 0.16646233 0.05781455 -0.04433723
000130 96 89 0f be 7e 4d 03 3d 61 81 ba 3e 14 f3 00 3e
       -0.14017329 0.032056324 0.36426833 0.12592727
000140 45 aa 8e 3e 5e 6f 91 3d 34 0b 21 3e e1 22 1c be
       0.2786428 0.0710132 0.1572693 -0.1524768
000150 e7 0f 9a bd c0 94 34 3e 36 6f 42 3e ff e2 48 3e
       -0.075225644 0.17634869 0.18987736 0.19617842
000160 89 6e 1e 3e fa 66 0a 3e
       0.15471853 0.13515845

Target_Q_Net.fc_A.bias f4 [3]
000000 fd d7 41 41 00 0e 81 c1 b6 ef 8c bf
       12.1152315 -16.131836 -1.1010654

Target_Q_Net.fc_V.weight f4 [1, 30]
000000 b7 bc b4 3c 06 7d 37 be e9 43 00 3e ee 0e 74 3e
       0.022062642 -0.17918786 0.12525906 0.2383382
000010 ea 08 41 be d6 45 05 be 9a e1 b0 3d 41 79 48 3e
       -0.18851057 -0.13014922 0.0863678 0.19577505
000020 80 dd 69 3d 99 b3 80 3d 76 31 ad be 20 d5 fe bc
       0.057096004 0.062842555 -0.33826798 -0.031107485
000030 60 9a 10 be b8 60 34 3e e0 4e 4f 3e f5 6a a8 3d
       -0.1412139 0.1761502 0.20244932 0.082235254
000040 da 71 85 3e f9 9c c4 3e 69 43 18 bf 0d 55 2a be
       0.26063424 0.3840101 -0.5947786 -0.16634007
000050 e9 61 ab be d6 4b 02 3f f5 ca 9e be 60 82 02 3e
       -0.33473137 0.50896966 -0.3101422 0.12745047
000060 d3 81 04 bd 52 a9 1e be 92 ed 37 bf b6 6c 97 be
       -0.032350373 -0.15494278 -0.7184688 -0.29575127
000070 9b c4 ea bd 59 2f ce bd
       -0.11463281 -0.100676246
