Model/DDQN/result/agent_ddqn_600031_SH.pt (torch_old, 39326 bytes, 10 tensors)

Q_Net.linear1.weight f4 [30, 150]
000000 18 5a 35 c1 32 63 35 c1 94 cc 39 c1 eb 30 30 c1
       -11.334496 -11.336718 -11.612446 -11.011943
000010 05 c5 2c c0 b4 4e 05 40 ab 97 b2 40 ad 56 0e c1
       -2.699525 2.0829287 5.581014 -8.896161
000020 26 ee 36 c1 af fc e3 bd 1b da 2d c1 9d 8f 37 c1
       -11.433142 -0.1113218 -10.865748 -11.472562
000030 b3 3a 37 c1 2e 89 2d c1 51 0d 1b c0 dc 3b a0 40
       -11.451831 -10.845991 -2.4226878 5.007307
000040 23 30 9b 40 8a 0e 9b c0 86 6b 37 c1 6b b6 92 3d
       4.849626 -4.845525 -11.463751 0.071637
000050 9e c9 2a c1 c7 f7 2b c1 7c 08 30 c1 87 98 29 c1
       -10.674223 -10.7479925 -11.002071 -10.599738
000060 e9 e5 3f c0 af 61 1f 40 84 6b eb 3f 06 f3 82 bf
       -2.9984076 2.4903371 1.8392186 -1.0230415
000070 c5 1b 34 c1 46 6c 00 3f 22 4a 2c c1 58 0a 2f c1
       -11.25678 0.5016521 -10.768099 -10.940025
000080 b0 6c 2f c1 9d 58 2a c1 39 fe 2e c0 38 ba d0 40
       -10.964035 -10.646634 -2.7342665 6.522732
000090 75 1d 3d bb 2a ec c8 3e ba a2 33 c1 1c fe 24 3f
       -0.002885667 0.3924268 -11.227228 0.6445024
0000a0 41 e1 2f c1 06 b3 2a c1 72 13 2e c1 0b ec 29 c1
       -10.992494 -10.668707 -10.879747 -10.620128
0000b0 66 88 40 c0 a7 99 a2 40 66 aa 0a c0 29 84 d0 3e
       -3.008325 5.0812564 -2.1666503 0.4072583
0000c0 44 13 32 c1 5c 48 86 3f 2d b1 34 c1 05 a7 31 c1
       -11.1297035 1.0490832 -11.293256 -11.103276
0000d0 69 11 36 c1 15 4f 2f c1 ad 00 36 c0 9a bc 4d 41
       -11.379251 -10.956807 -2.8437912 12.858545
0000e0 d9 70 e6 c0 63 c3 10 bf fb 4a 34 c1 91 e7 53 3d
       -7.2012753 -0.56548136 -11.268306 0.05173451
0000f0 0d cf 31 c1 df 00 32 c1 16 8d 3a c1 57 bb 2f c1
       -11.1130495 -11.125213 -11.659445 -10.983237
000100 23 88 a0 bf f4 5f 5e 41 35 2a 9e c0 61 49 b2 bf
       -1.2541546 13.898426 -4.942652 -1.3928643
000110 eb b2 32 c1 78 70 e9 3e 2c 4e 33 c1 86 b8 30 c1
       -11.168681 0.4559362 -11.206585 -11.04505
000120 40 46 36 c1 04 5f 31 c1 05 86 0e c0 c5 29 09 41
       -11.392151 -11.085697 -2.22693 8.572698
000130 32 3d cd c0 68 da fe bf f3 d5 32 c1 44 2c 5a 3e
       -6.41372 -1.9910402 -11.177234 0.21305948
000140 5c e0 3a c1 7e 3c 37 c1 0a 29 40 c1 b6 3d 37 c1
       -11.679775 -11.452269 -12.010019 -11.452566
000150 ff af 2c c0 28 a3 96 40 e7 0a 81 c0 3b c3 6b c0
       -2.698242 4.7074165 -4.032581 -3.683791
000160 4e 3b 33 c1 24 2a c1 3d 4d 2b 40 c1 25 c5 3c c1
       -11.201979 0.09431866 -12.0105715 -11.798131
000170 dd a6 40 c1 e0 6d 3b c1 93 9a 47 c0 ee 7f b2 3d
       -12.040738 -11.714325 -3.1188095 0.08715807
000180 2a 38 df be 57 b1 cf c0 63 5e 36 c1 da 56 ce 3d
       -0.43597537 -6.490398 -11.398044 0.10075159
000190 28 b4 3c c1 83 46 40 c1 c9 a0 3f c1 50 a9 3c c1
       -11.793983 -12.017215 -11.976754 -11.791336
0001a0 6a 27 08 c0 b0 8b 1f 40 56 66 89 bf 4b 0c eb c0
       -2.1274056 2.4929008 -1.0734355 -7.3452506
0001b0 ab 54 38 c1 18 8e 63 3e 5b a9 40 c1 ad 1c 38 c1
       -11.520671 0.22222173 -12.041347 -11.507001
0001c0 58 1c 41 c1 1d e8 39 c1 f3 8e 8f bf 57 33 c5 c0
       -12.06942 -11.619168 -1.12155 -6.162517
0001d0 1e 43 bc 40 8f 25 01 c1 2d f7 39 c1 20 e1 37 3e
       5.883193 -8.07167 -11.622846 0.17956972
0001e0 98 e9 40 c1 ed 2c 43 c1 d9 b5 44 c1 75 03 3f c1
       -12.05703 -12.198468 -12.294396 -11.938344
0001f0 cc ab 80 bf 8c 6e 47 c1 26 c7 f6 bf 5a 64 e1 c0
       -1.0052428 -12.464489 -1.9279525 -7.0435
000200 ed b2 39 c1 62 3f 37 bf ab 79 46 c1 38 93 46 c1
       -11.606183 -0.7158109 -12.404704 -12.410942
000210 d0 07 49 c1 66 69 43 c1 28 da ab c0 17 ff 69 c1
       -12.564407 -12.213232 -5.3703804 -14.624778
000220 c8 5e 73 40 e3 e6 11 c1 b7 61 3c c1 e6 d1 ec bf
       3.80266 -9.118869 -11.773856 -1.8501556
000230 5f da 3b c1 da 40 47 c1 22 eb 4a c1 3b 33 42 c1
       -11.740813 -12.453333 -12.682405 -12.137507
000240 08 d0 15 c0 b6 4f 0b 41 f2 4c c5 41 c6 7b dc c0
       -2.3408222 8.706961 24.66257 -6.890109
000250 53 71 3c c1 4b d4 cf 3f 1c 81 76 c0 9c e5 6d c0
       -11.777667 1.6236662 -3.8516302 -3.7171392
000260 64 84 58 c0 a7 13 84 c0 22 7d 30 c0 ae 45 b3 40
       -3.3830805 -4.127399 -2.7576375 5.602256
000270 96 c8 a6 c0 b6 9b 5b 41 e8 b2 63 c0 e0 1b 5b 3e
       -5.2119856 13.725515 -3.5577946 0.21397352
000280 d8 34 53 c0 76 be 77 c0 3b 82 54 c0 85 38 78 c0
       -3.3001003 -3.8709998 -3.3204486 -3.8784497
000290 0b ad 9f bf 66 94 20 c0 7c f2 04 bf e0 16 66 41
       -1.2474684 -2.5090575 -0.519325 14.380585
0002a0 7a 0a 63 c0 33 f5 f2 3d bb 7a 61 c0 31 65 57 c0
       -3.5475144 0.11863174 -3.5231159 -3.3655512
0002b0 dd b8 3c c0 89 83 72 c0 fc b1 ef bf dc be d2 c0
       -2.9487832 -3.7892783 -1.8726192 -6.5857983
0002c0 18 4e 06 bf 21 22 57 41 b5 94 62 c0 00 e3 50 be
       -0.5246291 13.445832 -3.5403264 -0.20399094
0002d0 c1 d8 74 c0 2c 96 6c c0 1f 4a 51 c0 34 b0 84 c0
       -3.8257296 -3.6966658 -3.270149 -4.146509
0002e0 21 b7 0c c0 f6 74 ba c0 c2 ba 91 c0 eb 4e 46 41
       -2.1986773 -5.8267775 -4.5540476 12.394267
0002f0 57 b2 60 c0 ef 15 57 be a8 c8 73 c0 f6 7e 71 c0
       -3.510885 -0.21004461 -3.809122 -3.773374
000300 a2 4a 6b c0 36 a6 89 c0 fa be 11 c0 38 a3 23 c1
       -3.6764302 -4.3015394 -2.2772813 -10.227348
000310 75 33 4c c0 2c f1 33 41 9b ab 65 c0 90 87 84 be
       -3.1906407 11.24638 -3.588599 -0.25884676
000320 1f e5 7b c0 77 70 77 c0 9c cd 6c c0 49 d2 82 c0
       -3.9358594 -3.8662393 -3.7000494 -4.0881696
000330 d2 29 09 c0 55 89 01 c1 c2 18 62 c0 cd 53 19 41
       -2.1431775 -8.096028 -3.532761 9.582959
000340 1d 9e 6a c0 35 04 4a be 1d de 70 c0 de a4 80 c0
       -3.6659005 -0.19728167 -3.7635567 -4.0201254
000350 45 c3 65 c0 a9 47 80 c0 48 10 01 c0 29 cf ba c0
       -3.5900433 -4.0087476 -2.0166187 -5.837788
000360 33 85 c2 bf 35 7c 12 41 ed 96 65 c0 d0 93 8f be
       -1.5196899 9.155324 -3.5873368 -0.2804246
000370 58 de 86 c0 04 01 6a c0 ca f9 66 c0 c8 51 7f c0
       -4.2146416 -3.656312 -3.608996 -3.9893665
000380 06 68 46 c0 b6 70 10 c0 43 a9 7f c0 42 b5 cd 40
       -3.100099 -2.2568793 -3.994706 6.428376
000390 57 da 6f c0 99 04 0e be ba 19 8d c0 6f e6 7b c0
       -3.7477014 -0.13868941 -4.4093904 -3.9359396
0003a0 e8 91 7c c0 b9 5a 8e c0 0f e4 77 c0 27 d1 46 bf
       -3.9464054 -4.4485745 -3.8732946 -0.7766289
0003b0 a0 c6 bb c0 61 a1 82 40 a3 c0 71 c0 5d 81 f9 3d
       -5.867996 4.0821996 -3.7773826 0.12182877
0003c0 00 81 5d c0 c5 cb 8f c0 c7 19 70 c0 08 0f 8c c0
       -3.4609985 -4.493624 -3.7515733 -4.376835
0003d0 f7 7e 69 bf 1e ba 1d 41 73 94 55 bf 88 d3 a8 40
       -0.9120936 9.857939 -0.8342964 5.2758217
0003e0 fb 37 76 c0 6e 4f 44 3c 0e 77 74 c0 55 aa 5d c0
       -3.8471668 0.011981828 -3.8197665 -3.4635212
0003f0 e6 d0 5c c0 0a 75 6c c0 b8 8a e1 bf 5d b8 6a 40
       -3.4502501 -3.6946435 -1.7620459 3.6675026

Q_Net.linear1.bias f4 [30]
000000 65 e8 b0 c0 0b fe 2f 3e 4e 56 4a 41 4c 3b c0 c0
       -5.5283685 0.17186753 12.6460705 -6.0072384
000010 30 53 db 40 d5 be 7f 3e 03 66 89 3f 39 c5 0f 3f
       6.8539047 0.2497514 1.0734257 0.5616031
000020 4b 2e 8b 40 be 94 a5 40 17 d7 b1 40 76 ba 94 3f
       4.349401 5.174407 5.557506 1.1619403
000030 2a 2c 25 40 1e d4 37 3f 2a 7c 5d c1 c7 6b 2f c1
       2.5808206 0.7180804 -13.8428135 -10.963813
000040 ee 8a 0a c1 5f 7d 9d c0 28 bc 7d 3f 72 a1 a5 40
       -8.658918 -4.921554 0.9911523 5.1759577
000050 c3 10 95 40 8b 7c d0 c0 e4 5d 31 c0 22 5e e1 bf
       4.658296 -6.515203 -2.7713556 -1.7606852
000060 bc e0 d6 bf 2d 0a d3 3f ff 3d be c0 16 ff 25 41
       -1.6787333 1.648748 -5.945068 10.374777
000070 b4 a8 91 c0 04 c8 08 40
       -4.5518436 2.137208

Q_Net.fc_A.weight f4 [3, 30]
000000 ad a1 1a 3f b2 e8 03 40 ca d2 2c 3f 1d 2b 8b 3f
       0.6040295 2.0610776 0.6750914 1.0872532
000010 23 91 7d be 36 21 8b bf 9d e1 1e be 87 08 79 bf
       -0.24762397 -1.086951 -0.15515752 -0.97278637
000020 a1 3c d2 be 40 df 0c 3f df 8b 16 3f cc 78 4d be
       -0.4106188 0.5502815 0.58807176 -0.20065612
000030 12 87 b9 bf 02 b3 f3 be b6 66 d0 3f bb d9 7c 3f
       -1.4494345 -0.4759751 1.6281345 0.9876973
000040 1e 64 ef be 2f 94 a2 3d b1 c1 de bf 2a aa 4c bf
       -0.4675607 0.0793842 -1.740286 -0.7994715
000050 c2 fd d0 bf d1 33 19 3c 92 72 76 3e d2 ce 37 bf
       -1.6327441 0.009350733 0.24067143 -0.7179996
000060 07 c9 01 bf a5 47 cd 3f 12 bf 63 3f 8c 75 4c 3e
       -0.5069737 1.6037489 0.88963425 0.19966716
000070 90 73 64 be 09 e5 89 3e 3d 6c 7e 3f b4 66 8a 3f
       -0.22309709 0.26932552 0.9938391 1.0812593
000080 6c 0f 13 bc 06 e4 8a 3f 8f d4 55 be 62 72 55 bf
       -0.008975845 1.0850837 -0.20881866 -0.8337766
000090 7f f0 0a 3e 41 e9 58 bf 0e f2 b5 3e 9f 6e 05 3f
       0.13568304 -0.8473092 0.35536236 0.5212192
0000a0 a7 a8 01 3f 54 e2 90 39 24 49 b3 bd 3d 8d bb be
       0.5064797 0.00027634448 -0.08754185 -0.36631194
0000b0 67 97 5b 3e 3d 7d 5a 3f eb 28 85 be e1 57 0b bf
       0.21444474 0.8534735 -0.2600778 -0.5443097
0000c0 60 8f 34 be 78 7b 32 bf 62 a1 f0 3e f8 81 3f 3f
       -0.17632818 -0.6971965 0.46998125 0.7480769
0000d0 40 92 22 3e b8 ba 3e bf 16 fe ae be 77 07 88 be
       0.15876102 -0.7450366 -0.34178227 -0.26568195
0000e0 19 2e 84 bd 0f 37 3b bf cf 3e 6f be 0e 7f 37 3e
       -0.06454105 -0.7313089 -0.23363803 0.17919561
0000f0 24 aa 1f be a7 50 f1 bf 51 66 63 bf ce f3 fe bf
       -0.15592247 -1.8852738 -0.88828 -1.9918153
000100 01 66 06 3e b4 79 9c 3f 1d 6f 2e 3f e6 6d 96 3e
       0.13124849 1.2224641 0.68138295 0.2938072
000110 91 23 83 3e 61 fd e5 be ae f8 30 bf 35 70 cd 3e
       0.25613073 -0.44919875 -0.69129455 0.4012467
000120 a5 1b 97 3f 5e 08 01 3f e7 58 66 3b c2 f8 c4 bd
       1.1805311 0.5040339 0.0035148205 -0.09617759
000130 9a 59 5a 3f 28 86 ab 3e 9b 5b 21 40 de d8 ee 3e
       0.8529297 0.3350079 2.5212162 0.46649832
000140 12 d6 2d 3e 84 ae 6f 3e 49 68 00 bf df 38 96 3f
       0.16976193 0.23406416 -0.50159127 1.1736106
000150 79 e1 8d 3f f7 2b da bf 4e 60 7c bf 23 9c 12 be
       1.1084434 -1.7044667 -0.9858445 -0.14317374
000160 48 60 90 3f ce 60 1a bf
       1.1279383 -0.6030396

Q_Net.fc_A.bias f4 [3]
000000 d9 fe 7a 41 a9 56 84 c1 23 93 92 c1
       15.687219 -16.542315 -18.321844

Q_Net.fc_V.weight f4 [1, 30]
000000 82 9a 6e be ac 28 fd bf 05 cf a0 bf a9 8a c8 bf
       -0.23301128 -1.9778037 -1.2563177 -1.5667316
000010 5b bf e7 3d 08 73 64 3f 80 2a 01 3f 22 03 f8 3e
       0.11315795 0.89238024 0.50455475 0.4843989
000020 6c 7e 93 3f f5 20 b8 be d6 40 eb be 94 60 d6 3e
       1.1522956 -0.35962644 -0.45947903 0.41870558
000030 b9 aa c9 3f 49 2e c1 3e a8 8f 00 c0 7b e1 c7 be
       1.5755225 0.37730625 -2.008768 -0.39039215
000040 23 70 0f 3f d6 27 3b 3e 7f 31 6a 3e ff b0 e7 3e
       0.5603048 0.18276915 0.22870444 0.45252225
000050 cd bb 35 40 f0 db 3b 3d b5 7a 73 be c5 79 7e 3f
       2.8395875 0.045864046 -0.23777278 0.99404556
000060 09 25 16 3f 65 f5 36 3f 80 0a 8e bf 51 2b 50 be
       0.5865026 0.7146819 -1.1096954 -0.20329024
000070 81 91 00 3f 23 58 a2 be
       0.5022202 -0.31707868

Target_Q_Net.linear1.weight f4 [30, 150]
000000 98 5d 35 c1 a3 66 35 c1 fe cf 39 c1 9c 34 30 c1
       -11.33535 -11.337558 -11.613279 -11.012844
000010 1e cc 2c c0 a9 4a 05 40 4b 8a b2 40 c1 5c 0e c1
       -2.6999583 2.082682 5.5793815 -8.897645
000020 5a f1 36 c1 17 f2 e3 bd b3 dd 2d c1 0c 93 37 c1
       -11.433924 -0.11130159 -10.866626 -11.4734
000030 17 3e 37 c1 d4 8c 2d c1 40 14 1b c0 b0 32 a0 40
       -11.452659 -10.846882 -2.423111 5.0061874
000040 3b 25 9b 40 d8 1b 9b c0 ca 6e 37 c1 2b f2 92 3d
       4.8482947 -4.847149 -11.464548 0.07175096
000050 23 cd 2a c1 61 fb 2b c1 0b 0c 30 c1 0e 9c 29 c1
       -10.675082 -10.748872 -11.00294 -10.600599
000060 b6 ed 3f c0 6c 49 1f 40 f7 20 eb 3f 4e 29 83 bf
       -2.9988837 2.4888563 1.8369435 -1.024698
000070 13 1f 34 c1 b7 60 00 3f 47 4d 2c c1 e6 0d 2f c1
       -11.2575865 0.50147575 -10.768867 -10.940893
000080 e3 6f 2f c1 0d 5c 2a c1 d1 00 2f c0 31 b3 d0 40
       -10.964816 -10.647473 -2.7344248 6.521874
000090 94 a2 7b bb 51 2e c8 3e 03 a6 33 c1 b4 f4 24 3f
       -0.0038396465 0.39097837 -11.22803 0.6443589
0000a0 e5 e3 2f c1 23 b6 2a c1 19 16 2e c1 ec ee 29 c1
       -10.993138 -10.669467 -10.880395 -10.620831
0000b0 91 82 40 c0 1b 9a a2 40 9a 89 0a c0 77 fc cf 3e
       -3.0079691 5.0813117 -2.1646485 0.40622303
0000c0 72 16 32 c1 37 4d 86 3f 2a b4 34 c1 96 a9 31 c1
       -11.13048 1.0492314 -11.293985 -11.103903
0000d0 33 14 36 c1 f8 51 2f c1 73 ff 35 c0 2c bc 4d 41
       -11.379931 -10.957512 -2.8437164 12.85844
0000e0 2d 64 e6 c0 4e ff 10 bf 22 4e 34 c1 55 71 54 3d
       -7.1997285 -0.56639564 -11.269075 0.051865894
0000f0 3d d2 31 c1 ca 03 32 c1 0a 90 3a c1 67 be 2f c1
       -11.113828 -11.125925 -11.660166 -10.983985
000100 0d 8c a0 bf dc 5d 5e 41 aa 25 9e c0 7c 67 b2 bf
       -1.254274 13.897915 -4.9420977 -1.3937831
000110 12 b6 32 c1 77 74 e9 3e 48 51 33 c1 b9 bb 30 c1
       -11.169451 0.45596668 -11.207344 -11.045831
000120 6d 49 36 c1 22 62 31 c1 67 86 0e c0 7f 27 09 41
       -11.392926 -11.086458 -2.2269533 8.572143
000130 87 3b cd c0 39 f7 fe bf 19 d9 32 c1 dc 3c 5a 3e
       -6.4135165 -1.9919196 -11.178002 0.21312279
000140 73 e3 3a c1 a0 3f 37 c1 30 2c 40 c1 c1 40 37 c1
       -11.68053 -11.453033 -12.010788 -11.453309
000150 b0 b0 2c c0 ec a3 96 40 b2 fe 80 c0 f3 d0 6b c0
       -2.6982841 4.70751 -4.0310907 -3.6846282
000160 73 3e 33 c1 8c 89 c1 3d 8c 2e 40 c1 3e c8 3c c1
       -11.202746 0.09450063 -12.011364 -11.798887
000170 0f aa 40 c1 fe 70 3b c1 3b 9c 47 c0 11 49 b3 3d
       -12.041518 -11.715086 -3.1189106 0.08754171
000180 66 12 de be 8b b8 cf c0 8a 61 36 c1 11 80 ce 3d
       -0.43373412 -6.491277 -11.398813 0.100830205
000190 78 b7 3c c1 dd 49 40 c1 10 a4 3f c1 c4 ac 3c c1
       -11.794792 -12.018033 -11.977554 -11.792179
0001a0 5a 29 08 c0 23 a2 1f 40 41 31 89 bf f8 13 eb c0
       -2.127524 2.494271 -1.0718156 -7.3461876
0001b0 d9 57 38 c1 fd bd 63 3e 89 ac 40 c1 e8 1f 38 c1
       -11.521447 0.22240444 -12.042123 -11.50779
0001c0 75 1f 41 c1 5b eb 39 c1 d8 90 8f bf 45 23 c5 c0
       -12.07018 -11.61996 -1.1216078 -6.1605554
0001d0 83 52 bc 40 54 29 01 c1 5c fa 39 c1 6c 17 38 3e
       5.885072 -8.07259 -11.623623 0.17977685
0001e0 f2 ec 40 c1 1e 30 43 c1 2f b9 44 c1 b0 06 3f c1
       -12.057848 -12.199247 -12.295211 -11.939133
0001f0 c4 b1 80 bf 95 6a 47 c1 c8 ba f6 bf 73 6c e1 c0
       -1.005425 -12.463521 -1.9275751 -7.0444884
000200 22 b6 39 c1 2c 3f 37 bf f6 7c 46 c1 99 96 46 c1
       -11.606966 -0.7158077 -12.405508 -12.411767
000210 01 0b 49 c1 d6 6c 43 c1 9a dc ab c0 d9 fa 69 c1
       -12.5651865 -12.214071 -5.370679 -14.623742
000220 53 3c 73 40 06 eb 11 c1 ef 64 3c c1 aa cc ec bf
       3.800557 -9.119879 -11.774642 -1.8499959
000230 e2 dd 3b c1 2f 44 47 c1 ac ee 4a c1 b1 36 42 c1
       -11.741671 -12.454146 -12.6832695 -12.138352
000240 36 d5 15 c0 46 53 0b 41 7f 43 c5 41 14 85 dc c0
       -2.3411384 8.70783 24.657957 -6.891245
000250 99 74 3c c1 8c d8 cf 3f aa 9e 76 c0 61 02 6e c0
       -11.778466 1.623796 -3.853434 -3.7188952
000260 bd a1 58 c0 3c 22 84 c0 00 8e 30 c0 c9 59 b3 40
       -3.3848717 -4.129179 -2.758667 5.60471
000270 dd c6 a6 c0 bc a0 5b 41 88 cf 63 c0 a6 ef 5a 3e
       -5.2117753 13.726742 -3.5595417 0.21380481
000280 12 54 53 c0 0a dc 77 c0 a8 a0 54 c0 3c 57 78 c0
       -3.3020062 -3.872805 -3.3223057 -3.8803244
000290 5b d7 9f bf 5b 96 20 c0 1f 4f 05 bf ea 1a 66 41
       -1.2487596 -2.509177 -0.52073854 14.381571
0002a0 77 27 63 c0 c4 b6 f2 3d 1d 9a 61 c0 ad 84 57 c0
       -3.5492837 0.11851266 -3.5250313 -3.367473
0002b0 d6 d7 3c c0 33 a4 72 c0 f7 d9 ef bf 01 bf d2 c0
       -2.9506736 -3.791272 -1.8738393 -6.585816
0002c0 b7 89 06 bf 6b 25 57 41 10 b2 62 c0 55 f6 50 be
       -0.52553886 13.446635 -3.542118 -0.20406468
0002d0 e5 f6 74 c0 6c b5 6c c0 b2 68 51 c0 ac bf 84 c0
       -3.8275692 -3.698573 -3.272015 -4.1483974
0002e0 07 c8 0c c0 60 7b ba c0 5d b3 91 c0 24 52 46 41
       -2.1997087 -5.8275604 -4.553145 12.395054
0002f0 cb cf 60 c0 1e 32 57 be c1 e7 73 c0 03 9d 71 c0
       -3.5126827 -0.21015212 -3.8110201 -3.7752082
000300 26 69 6b c0 ce b5 89 c0 86 d0 11 c0 bf af 23 c1
       -3.6782928 -4.303443 -2.2783523 -10.230407
000310 89 42 4c c0 ef f3 33 41 4e c9 65 c0 23 97 84 be
       -3.191561 11.247054 -3.5904117 -0.25896558
000320 aa 04 7c c0 e2 8f 77 c0 eb ec 6c c0 1c e2 82 c0
       -3.9377847 -3.868157 -3.7019603 -4.0901012
000330 7a 3c 09 c0 53 8f 01 c1 85 31 62 c0 0f 56 19 41
       -2.1443162 -8.097491 -3.5342724 9.58351
000340 15 bc 6a c0 31 f3 49 be dc fd 70 c0 8b b4 80 c0
       -3.6677296 -0.19721676 -3.7654943 -4.022039
000350 2a e2 65 c0 80 57 80 c0 be 23 01 c0 da d0 ba c0
       -3.591929 -4.010681 -2.0178065 -5.8379946
000360 36 ad c2 bf 05 7e 12 41 28 b5 65 c0 a7 8a 8f be
       -1.520911 9.1557665 -3.589182 -0.2803547
000370 f1 ee 86 c0 4f 22 6a c0 e0 1a 67 c0 1f 73 7f c0
       -4.2166677 -3.658344 -3.6110153 -3.9914014
000380 fd 7e 46 c0 9c 83 10 c0 df ef 7f c0 1b b7 cd 40
       -3.1015007 -2.2580328 -3.9990156 6.4286017
000390 fe f8 6f c0 61 3a 0e be 8e 29 8d c0 80 06 7c c0
       -3.7495723 -0.13889457 -4.4113226 -3.9378967
0003a0 c0 b1 7c c0 a7 6a 8e c0 a0 f6 77 c0 78 06 47 bf
       -3.948349 -4.450519 -3.8744278 -0.77744246
0003b0 4a c6 bb c0 4c a3 82 40 6f df 71 c0 4b bf f8 3d
       -5.867955 4.0824337 -3.7792623 0.12145861
0003c0 26 a2 5d c0 8a db 8f c0 d7 39 70 c0 39 1f 8c c0
       -3.4630218 -4.495549 -3.7535303 -4.3788114
0003d0 94 d5 69 bf 04 af 1d 41 9f 16 55 bf 55 d4 a8 40
       -0.9134152 9.855228 -0.8323764 5.2759194
0003e0 1f 57 76 c0 f5 86 3e 3c ba 99 74 c0 ba cb 5d c0
       -3.8490674 0.011628856 -3.8218827 -3.4655595
0003f0 ee f2 5c c0 2e 97 6c c0 66 c3 e1 bf 99 81 6a 40
       -3.4523273 -3.6967273 -1.7637756 3.66416

Target_Q_Net.linear1.bias f4 [30]
000000 71 ea b0 c0 f0 02 2f 3e 2b 59 4a 41 71 41 c0 c0
       -5.5286183 0.17090964 12.64677 -6.0079885
000010 d2 47 db 40 24 15 80 3e f7 9a 89 3f e5 6b 0f 3f
       6.852517 0.2501613 1.0750417 0.5602401
000020 88 20 8b 40 40 94 a5 40 b6 c7 b1 40 07 b4 94 3f
       4.347721 5.174347 5.555629 1.161744
000030 31 36 25 40 97 17 38 3f 69 7f 5d c1 20 76 2f c1
       2.5814326 0.71910995 -13.843606 -10.966339
000040 87 89 0a c1 66 6f 9d c0 69 35 7e 3f 56 b0 a5 40
       -8.658576 -4.9198484 0.9930025 5.1777754
000050 bc 16 95 40 2c 91 d0 c0 1c 6c 31 c0 8c 32 e1 bf
       4.659025 -6.517721 -2.7722235 -1.7593551
000060 75 91 d6 bf 88 e7 d2 3f a7 42 be c0 14 10 26 41
       -1.676314 1.6476908 -5.9456363 10.378925
000070 19 a7 91 c0 90 9e 08 40
       -4.5516477 2.134678

Target_Q_Net.fc_A.weight f4 [3, 30]
000000 43 ac 1a 3f c6 e8 03 40 97 db 2c 3f e6 22 8b 3f
       0.604191 2.0610824 0.6752257 1.0870025
000010 b3 87 7d be 93 22 8b bf 25 eb 1e be 00 18 79 bf
       -0.24758796 -1.0869926 -0.15519388 -0.97302246
000020 ab 2a d2 be 09 cd 0c 3f 7d a2 16 3f 89 57 4d be
       -0.41048178 0.5500036 0.5884169 -0.20052923
000030 f8 8c b9 bf 2e 95 f3 be 16 5d d0 3f d8 fa 7c 3f
       -1.4496145 -0.47574753 1.6278408 0.9882026
000040 a9 61 ef be b0 aa a2 3d 4c c0 de bf 69 96 4c bf
       -0.46754196 0.07942712 -1.7402434 -0.7991701
000050 4c 07 d1 bf b8 7a 19 3c 18 1f 76 3e 93 dd 37 bf
       -1.6330352 0.009367637 0.24035299 -0.7182247
000060 8e c6 01 bf 5c 4a cd 3f be b4 63 3f 47 96 4c 3e
       -0.50693595 1.6038318 0.88947666 0.19979201
000070 3c 6d 64 be 0f b9 89 3e 54 68 7e 3f 6e 67 8a 3f
       -0.22307295 0.26899 0.9937794 1.0812814
000080 7d ad 13 bc bb e6 8a 3f 8a d7 55 be b8 78 55 bf
       -0.009013531 1.0851663 -0.20883003 -0.8338733
000090 09 fd 0a 3e 4b ff 58 bf 00 ec b5 3e ce 7b 05 3f
       0.13573088 -0.84764546 0.35531616 0.52142036
0000a0 ab 9d 01 3f 12 09 ad 39 ab d7 b2 bd d9 a5 bb be
       0.5063121 0.0003300389 -0.08732542 -0.3664997
0000b0 dd cc 5b 3e 27 67 5a 3f e4 04 85 be 09 58 0b bf
       0.21464868 0.8531365 -0.25980294 -0.54431206
0000c0 30 9d 34 be ce 89 32 bf 38 bc f0 3e 8a 82 3f 3f
       -0.17638087 -0.69741523 0.470186 0.7480856
0000d0 d6 f3 22 3e cd b7 3e bf 64 fb ae be 2c 12 88 be
       0.15913329 -0.7449921 -0.3417617 -0.26576364
0000e0 40 c6 83 bd bb 3c 3b bf 06 38 6f be 2d c7 37 3e
       -0.064342976 -0.7313954 -0.23361215 0.17947073
0000f0 25 f4 1f be 7a 51 f1 bf 9d 71 63 bf 2e e5 fe bf
       -0.15620477 -1.885299 -0.88845235 -1.991369
000100 91 54 06 3e c1 7d 9c 3f 35 70 2e 3f 3b bc 96 3e
       0.13118197 1.2225877 0.68139964 0.29440483
000110 52 0d 83 3e 39 d0 e5 be 83 1b 31 bf 2f 51 cd 3e
       0.255961 -0.44885424 -0.69182605 0.40101
000120 fa 1e 97 3f 12 fb 00 3f f3 52 7e 3b b7 4a c6 bd
       1.1806328 0.503831 0.0038806766 -0.096822195
000130 30 49 5a 3f b4 79 ab 3e 38 5b 21 40 f7 b2 ee 3e
       0.85267925 0.3349129 2.5211926 0.46620914
000140 20 34 2e 3e 0a a1 6f 3e a4 5e 00 bf 66 47 96 3f
       0.17012072 0.23401275 -0.5014441 1.1740539
000150 a9 dd 8d 3f 04 2e da bf 44 5b 7c bf 3c c6 12 be
       1.108327 -1.7045293 -0.9857676 -0.14333433
000160 3c 5d 90 3f d1 49 1a bf
       1.1278453 -0.60268885

Target_Q_Net.fc_A.bias f4 [3]
000000 e8 fd 7a 41 b9 57 84 c1 00 91 92 c1
       15.686989 -16.542833 -18.3208

Target_Q_Net.fc_V.weight f4 [1, 30]
000000 f0 76 6e be a6 2b fd bf 0b cf a0 bf 30 91 c8 bf
       -0.23287559 -1.9778945 -1.2563184 -1.5669308
000010 2f c2 e7 3d 17 84 64 3f 4c 25 01 3f ac ba f7 3e
       0.113163345 0.89264053 0.50447536 0.48384607
000020 a2 7e 93 3f 86 47 b8 be 00 1e eb be 0e 62 d6 3e
       1.152302 -0.35992068 -0.45921326 0.41871685
000030 7d a5 c9 3f 64 46 c1 3e 34 92 00 c0 0c b7 c7 be
       1.5753628 0.37749016 -2.0089235 -0.3900684
000040 21 6e 0f 3f 54 27 3b 3e ea 21 6a 3e 8c cb e7 3e
       0.5602742 0.18276721 0.228645 0.4527248
000050 6f b9 35 40 ad c1 3b 3d 62 53 73 be 89 6d 7e 3f
       2.839443 0.045839 -0.23762277 0.9938589
000060 57 2f 16 3f 0e f3 36 3f 2a 0f 8e bf 3a 1d 50 be
       0.58665985 0.7146462 -1.1098378 -0.20323649
000070 5f 91 00 3f 41 4f a2 be
       0.5022182 -0.3170109
