Model/DDQN/result/agent_ddqn_002415_SZ.pt (torch_old, 39326 bytes, 10 tensors)

Q_Net.linear1.weight f4 [30, 150]
00000000: 34d9 89bd 6b7f 20be 6859 0bbe eff9 43bd
00000010: 51dc 3b3f c986 48bf 063e 49bf 9982 2340
00000020: c8f6 debc 0908 433c b217 05be 0982 bcbd
00000030: 2bb7 c0bc 960c 9c3b 7f1a 473f 4a94 8d3d
00000040: dd34 05bf e7b1 2140 d4c8 18be d851 1bbc
00000050: d839 95bd 8193 62bd 8d69 1abd b7b6 11bd
00000060: e0ce 273f 9d6f 073e 5863 d5be fec9 1840
00000070: 292a b3bd c6a1 cb3c 271c 43bd d947 21be
00000080: d308 9bbd a3f1 17be ecdf 243f 044c e3be
00000090: ca30 babe 3fc4 0b40 e9f2 c3bc 2d0e 1ebc
000000a0: 9c88 f2bd 96f1 1bbe 2b08 d7bb 50d8 1abe
000000b0: 503a 253f 4e13 e2bd 4b18 433e 8971 ff3f
000000c0: 0a48 a1bd 6cd4 dd3c 0c3d 07be f54b c3bd
000000d0: 2fc1 f3bd 95f0 d2bd 6335 253f a267 edbe
000000e0: 77fc fcbc 45bd e43f d927 e9bb cbd4 a739
000000f0: 9609 0bbe f309 79bc b45c a7bd ef25 23be
00000100: 2240 1a3f 3014 07bf b882 91be 0fc2 cd3f
00000110: bdb0 92bd c3da d3ba e619 203b f071 78bd
00000120: 9323 0ebe 994e 15be 5c5f 013f e28d 0fbf
00000130: 7e5e b7be dad4 c33f 41f9 4bbd 2b6d a9bc
00000140: 9eda dfbd 3bf9 cabd cedc a8bb 2cc7 c9bd
00000150: 8e7e 003f 1b50 64bf 6c80 e9bd 81ca b53f
00000160: d5a6 d6bd cdb3 04bd a0be ddbd 2f81 cabc
00000170: fcac c3bd b72e abbd 9942 123f 47ff 16bf
00000180: 9d0a 063e 6f71 983f 62c7 92bd 88d8 00ba
00000190: e919 13be af01 9339 922b 5cbc 1121 76bc
000001a0: 1ee7 093f bec8 2bbf 9725 38be 07cf 993f
000001b0: 52af b0bd 396d 92bc f6e4 253d 5545 92bd
000001c0: 175f 61bc b565 b7bd 2e13 323f 2b4f 173e
000001d0: 0ca3 883e 14b1 a13f 2a9f bcbd e58a 97bc
000001e0: 7f16 ebbc 703c 5dbc 46f9 863d fba2 b0bc
000001f0: 2608 1f3f 8895 453e 3abf eebe bea4 a23f
00000200: f770 e93b 4c6c 783d f97c 7cbd 9dc0 d93c
00000210: 6c58 093c 5896 0d3b 37ac 2a3f 6222 e03e
00000220: 8a64 ddbe f34e a13f f386 cdbd e099 d2bc
00000230: 07d4 c73c 9831 20bd bbdf 3bbd 4284 343d
00000240: d09d 423f ca3b 613f 2deb 8bbd bba2 aa3f
00000250: da20 ae3c ed32 4c3d 0753 cdbe 4358 0fbf
00000260: a605 ccbe e796 04bf 2bf8 dfbd 9e07 97be
00000270: d9cb b5be c99e 493f 6abc d6be 4c1d 193b
00000280: f208 01bf fb3e 0cbf 0ef2 d1be 6d7d 0dbf
00000290: 622a 2fbe f469 8d3d eb6f 153e 5169 243f
000002a0: 9ccc fcbe a4bd ba3c 0dfc ffbe cb2a ecbe
000002b0: 927b 0cbf c4ef 0dbf fd08 4abe 7891 c9be
000002c0: c584 a03e b946 183f 3284 debe aca9 9fbc
000002d0: 3c4e 08bf c1e9 debe 014e 07bf c47c 09bf
000002e0: 96f6 52be d13d 0cbf 076b de3e 5d0e 0f3f
000002f0: 44f8 f7be 5ff1 2f3c 366f d8be 1f43 e8be
00000300: a495 efbe fec3 f0be a91b 18bd e582 f23b
00000310: 0dcb c03e 1bfc 013f 7cfd f6be a53e 8bbc
00000320: eee4 09bf 2814 c8be d857 c7be dafd dcbe
00000330: 4dde e3bd a929 af3e bb78 743d 650e 053f
00000340: 3ce0 e9be d89c 37bc 30be febe 1f77 d1be
00000350: b263 01bf 8887 d2be bbe5 d6bd a07b e5bd
00000360: 469c 04be 1c5d f13e a8e5 d1be 48df ddbc
00000370: 2220 c0be 5a9c ecbe 46c1 e2be d0f2 05bf
00000380: dcab 49be 7083 a3bd 6bcf 15be 3ab6 f73e
00000390: 181c e0be 9a95 0bbd 75b8 ccbe 4b30 dcbe
000003a0: 935a 00bf 1321 c1be e1a5 30be 5a9c 27bf
000003b0: 50af 4f3e 6524 173f 0b85 f6be 0e77 953c
000003c0: 7a5a e3be 75e9 09bf 8ea0 dcbe 4705 01bf
000003d0: 49f9 fdbd 1d6d 0bbf 5f6d 9f3e cfbb 2a3f
000003e0: ed28 dabe 58af 6ab9 6f52 e1be d27b 00bf
000003f0: 07a8 03bf 2e89 cfbe 5f5f a5bc 1a3f 81be
-0.06730881 -0.15673606 -0.13608325 -0.047845777 0.7338305 -0.78330666 -0.78610265 2.554846
-0.027217284 0.011903771 -0.1299732 -0.0920449 -0.023524841 0.0047622425 0.77774805 0.069130495
-0.5203379 2.5264833 -0.1492036 -0.009479962 -0.072864234 -0.055316452 -0.037698317 -0.03557464
0.6555004 0.13226171 -0.41677356 2.3873286 -0.08748276 0.024857413 -0.04763427 -0.15750064
-0.075700425 -0.14838271 0.6440418 -0.44393933 -0.36365348 2.183853 -0.02391954 -0.009646934
-0.118424624 -0.15228876 -0.006562253 -0.15121579 0.645421 -0.11038838 0.19052236 1.9956523
-0.078750685 0.02707883 -0.13206881 -0.09535972 -0.11902081 -0.10299794 0.64534587 -0.46368128
-0.030882103 1.787026 -0.007115346 0.00032011265 -0.13577875 -0.015200126 -0.081719786 -0.1593244
0.6025411 -0.5276518 -0.28420043 1.6074847 -0.071626164 -0.0016163219 0.00244295 -0.060655534
-0.13880758 -0.14580764 0.5053613 -0.5607587 -0.3581428 1.5299332 -0.049798254 -0.020681938
-0.1093037 -0.09910818 -0.005153275 -0.09852442 0.5019311 -0.8918473 -0.11401448 1.4202424
-0.104810394 -0.032398034 -0.108273745 -0.024719803 -0.095544785 -0.083585195 0.5713287 -0.5898327
0.13089986 1.1909617 -0.071669355 -0.0004915078 -0.14365353 0.0002803928 -0.013438122 -0.015022532
0.5386828 -0.67103183 -0.1798309 1.2016305 -0.0862719 -0.017874347 0.040501557 -0.0714213
-0.013755581 -0.08954946 0.69560516 0.14776294 0.26686895 1.2632165 -0.09210046 -0.018498847
-0.02869725 -0.013503179 0.06590514 -0.02156209 0.6212181 0.19295323 -0.4663027 1.2706525
0.007124062 0.060650155 -0.06164262 0.026581103 0.008382898 0.0021604504 0.6666903 0.43776232
-0.43240768 1.2602218 -0.10035505 -0.025708139 0.024393095 -0.039109796 -0.045867663 0.044071443
0.7602205 0.87981856 -0.068319656 1.3330911 0.0212559 0.049853254 -0.40102407 -0.5599405
-0.3984806 -0.5179276 -0.10936006 -0.29498 -0.35507086 0.7875791 -0.41940624 0.002336341
-0.50404274 -0.547836 -0.41004986 -0.5526951 -0.17106012 0.069049746 0.14593475 0.642232
-0.49374855 0.022795506 -0.49996987 -0.46126398 -0.54876053 -0.5544398 -0.19729991 -0.39368796
0.31351295 0.59482914 -0.43460232 -0.019490086 -0.53244376 -0.43537715 -0.528534 -0.53706
-0.20601878 -0.54781824 0.4344103 0.5588129 -0.484316 0.0107387 -0.42272347 -0.4536371
-0.46793854 -0.4702453 -0.037135754 0.0074008578 0.37654915 0.5077531 -0.48240268 -0.016997645
-0.53864944 -0.39077878 -0.38934207 -0.43162423 -0.11126385 0.34211472 0.05968545 0.5197509
-0.4567889 -0.011206828 -0.49754477 -0.40911195 -0.5054275 -0.41119027 -0.10493036 -0.1120522
-0.12950239 0.4714135 -0.40995526 -0.027084008 -0.37524515 -0.46213037 -0.4428808 -0.5232363
-0.19694465 -0.07984054 -0.14629905 0.48381215 -0.43771434 -0.034078218 -0.3998448 -0.43005595
-0.50138205 -0.37720546 -0.17250778 -0.6547295 0.2028172 0.5903991 -0.4814838 0.018245246
-0.44404966 -0.5387185 -0.43091244 -0.5039868 -0.12401063 -0.5446337 0.3113813 0.66692823
-0.4260935 -0.000223813 -0.44008204 -0.50188935 -0.51428264 -0.40534347 -0.020187078 -0.25243455

Q_Net.linear1.bias f4 [30]
00000000: aa76 273f 1435 17be 0d6d ad3c 26a1 b6be
00000010: 2cda e9bd da94 f5bc 0519 f5bd f605 993d
00000020: ed56 b93e 2d9e 2a3e e755 5b3c 5945 25bf
00000030: 648b a23f f44e 773a 7827 7bbe a9dd 55bc
00000040: 0699 d13e 6851 1dbf 4a3f c4be 977e e3bd
00000050: a810 01bf 4c7e f8ba 75e4 48be 5e74 5ebd
00000060: 705d 683e 676e f83d 6664 a3bd e339 acbd
00000070: 90f1 98bf 5b1d 603d
0.6541544 -0.14766341 0.021170164 -0.35669822 -0.11418566 -0.029978205 -0.11967663 0.0747184
0.36199132 0.16661902 0.01338718 -0.6455894 1.2698789 0.0009434067 -0.24526775 -0.013053336
0.4093706 -0.6145234 -0.38329536 -0.111081295 -0.5041604 -0.0018958538 -0.196184 -0.054310195
0.22691894 0.121304326 -0.07978134 -0.084094785 -1.1948719 0.054715496

Q_Net.fc_A.weight f4 [3, 30]
00000000: 54c2 69bd 43ae 37bd fb73 d83d e7d9 ef3d
00000010: 16cc 813c 900e ddbd 9ec9 143c 732d a3bc
00000020: 89f2 86bd 3e69 d5bc d8ee 9d3d 0072 b53c
00000030: 6ef4 cd3c b6a8 b63d a402 013d a95b c53c
00000040: 6392 df3d 09dd e03d f34b 513d 000e a6bc
00000050: a7b8 ea3d 48bc d33c 5bf5 bf3d f4e8 0e3d
00000060: 3f4f 903b 392b 763d cc51 33bd 64c6 c2bd
00000070: c27e 573c 615e c03d d6cb 6ebd 4440 2cbd
00000080: 9820 e13d 3493 e53d 3a4f 733c 2d9c d9bd
00000090: 3253 9a3b 9e58 c7bd a4ea 6fbd b38e b2bc
000000a0: 953a 033e 9d87 903c 2bca fe3c 9ad7 8b3d
000000b0: 265a 363d 7b48 913d 1293 ca3d 460b f53d
000000c0: 4c08 773d a44d 043d 2d06 d33d f1a7 0d3d
000000d0: 33cb b23d 4211 b73a c7b0 9fba 6fcb 753d
000000e0: 0a15 bbbc 077b 92bd 4773 28bc 75ef 8f3d
000000f0: dc6c 6fbd d875 35bd 9f9d e33d eaff e33d
00000100: 6eb5 3dbc 7e79 d0bd edc1 9e3b 1c97 c5bd
00000110: 6dbf 78bd 1a1d adbc 612b 033e bb39 9a3c
00000120: 77d9 fa3c 36db 8a3d b7dd 323d 609b 993d
00000130: 3648 cc3d 4bec f93d 6aff 693d ced4 7c3d
00000140: 9017 cf3d c714 103d 95f0 ac3d 7126 76bd
00000150: 307b 1c3b 643a bd3d ee5c d2bc 1430 e23c
00000160: 8484 74bc 52b0 a4bb
-0.05707009 -0.044843923 0.105689965 0.117114834 0.015844386 -0.10793793 0.009081272 -0.019919133
-0.06589229 -0.02605116 0.077115715 0.022149086 0.025140967 0.08918898 0.03149666 0.024091559
0.10916593 0.10979659 0.05109782 -0.020270348 0.11461001 0.025846615 0.0937297 0.03489013
0.004403978 0.060099814 -0.04377918 -0.09510496 0.01315278 0.09393001 -0.05829986 -0.042053476
0.10992545 0.112097174 0.014850432 -0.10625491 0.0047096247 -0.09733699 -0.05857338 -0.02179656
0.12815316 0.01764279 0.03110226 0.06828232 0.044519566 0.07093903 0.09891333 0.11965041
0.060310647 0.032300606 0.10303912 0.03458399 0.087301634 0.0013966935 -0.0012183421 0.060008463
-0.02283718 -0.07152372 -0.0102813905 0.07028095 -0.058453426 -0.044301838 0.11114048 0.11132796
-0.011578901 -0.10179423 0.004844895 -0.096479625 -0.060729433 -0.02113204 0.12809516 0.018826356
0.030621273 0.067800924 0.043668475 0.075003386 0.09974711 0.122032724 0.057128347 0.061726384
0.10111916 0.035176065 0.08444325 -0.060095254 0.0023877136 0.09239653 -0.025679078 0.027610816
-0.014924172 -0.005025902

Q_Net.fc_A.bias f4 [3]
00000000: 5c31 31bf 0377 7a3d 408f 253f
-0.6921594 0.061148655 0.6467171

Q_Net.fc_V.weight f4 [1, 30]
00000000: eedd dc3a 8950 293a 978d 2ebb 5288 1f3b
00000010: 641e c43c b10c 37bb d5ec c63a 0e17 dc3c
00000020: e0a2 a7ba de59 ceba 921b 9fbd 5c7d 09ba
00000030: e1ca ed39 9785 f83b bbfa 22bb e03b 90bc
00000040: 815c 913b 9274 a8bb 204e 3cba d073 febc
00000050: 1de1 8f3b 7acb 84bb be91 693b 062e d23c
00000060: 2e7a bb39 0166 eebc fd26 b7bb d2e9 3e3d
00000070: afd1 ba3c 39b4 a23c
0.0016850808 0.0006458839 -0.0026634687 0.0024342728 0.023940273 -0.0027931149 0.0015176783 0.026866462
-0.0012789629 -0.0015743335 -0.077689305 -0.0005244815 0.0004535532 0.0075842845 -0.0024868685 -0.017606676
0.004436076 -0.0051408494 -0.00071832724 -0.031061083 0.0043908493 -0.0040525766 0.0035639848 0.025656711
0.0003575845 -0.029101374 -0.0055893646 0.046609707 0.022805063 0.019861327

Target_Q_Net.linear1.weight f4 [30, 150]
00000000: 90f1 89bd b28b 20be 3b65 0bbe ba2b 44bd
00000010: 72da 3b3f bd82 48bf d93c 49bf 5b82 2340
00000020: 1755 dfbc b986 423c f223 05be ee99 bcbd
00000030: af1a c1bc da84 9a3b de18 473f a8cb 8d3d
00000040: b534 05bf 84b1 2140 afd4 18be 90ed 1bbc
00000050: f353 95bd 1cc5 62bd 659c 1abd 54ea 11bd
00000060: e3cc 273f 726a 073e 6e6d d5be 49c9 1840
00000070: 3d42 b3bd afb1 cb3c 834d 43bd e954 21be
00000080: 0022 9bbd 9ffe 17be 92de 243f ee3d e3be
00000090: 212e babe 75c3 0b40 a353 c4bc a6d1 1dbc
000000a0: 9f9f f2bd d7fd 1bbe 4b84 d8bb 39e4 1abe
000000b0: 0739 253f 5bf3 e1bd ee2d 433e 4970 ff3f
000000c0: 0760 a1bd ee0c de3c 8f48 07be 4b63 c3bd
000000d0: afd8 f3bd 4f08 d3bd ca33 253f 8e6f edbe
000000e0: 384c fdbc 45bc e43f 5aa5 eabb 6982 b139
000000f0: 3714 0bbe 77ba 79bc 1d73 a7bd c830 23be
00000100: 133f 1a3f 7414 07bf 7e7c 91be b6c1 cd3f
00000110: 31c8 92bd 7be2 d2ba 023b 1d3b 669d 78bd
00000120: ec2e 0ebe ec59 15be db5d 013f 678d 0fbf
00000130: 945a b7be 8fd4 c33f 0e28 4cbd e44a a9bc
00000140: 02f0 dfbd db0f cbbd 7b3c aabb dcdd c9bd
00000150: f77c 003f 6b4d 64bf 027d e9bd a2ca b53f
00000160: ebbd d6bd 1ca2 04bd 9dd3 ddbd bcd0 cabc
00000170: 82c1 c3bd d942 abbd 4041 123f 67fb 16bf
00000180: 7f12 063e f971 983f 25de 92bd b841 01ba
00000190: bc24 13be 0285 7c39 e0d4 5cbc 6dc8 76bc
000001a0: 3ce5 093f 2ac2 2bbf 132f 38be accf 993f
000001b0: eac5 b0bd 5a63 92bc f6bc 253d ed59 92bd
000001c0: 7902 62bc 9579 b7bd 9e11 323f 2f7c 173e
000001d0: c59e 883e 31b2 a13f 58b5 bcbd c878 97bc
000001e0: 9d6b ebbc c0dd 5dbc 3fe4 863d 10f6 b0bc
000001f0: a506 1f3f 45c2 453e acc2 eebe e4a5 a23f
00000200: 2210 e83b e668 783d f7a3 7cbd 3670 d93c
00000210: e9b3 083c 5a4b 0b3b dcaa 2a3f 8439 e03e
00000220: 2067 ddbe 8950 a13f 9e9c cdbd 0ea4 d2bc
00000230: 9c7a c73c d157 20bd 7309 3cbd 505b 343d
00000240: 5f9b 423f d343 613f 8628 8cbd fca3 aa3f
00000250: bcc9 ad3c fa48 4c3d 5056 cdbe c559 0fbf
00000260: 5308 ccbe a398 04bf 4cf4 dfbd 1d0f 97be
00000270: 2af2 b5be 8395 493f 64be d6be e4b8 1a3b
00000280: 190a 01bf 7140 0cbf e8f4 d1be b97e 0dbf
00000290: a821 2fbe 6784 8d3d 9162 153e 4760 243f
000002a0: a1ce fcbe 02c5 ba3c d3fd ffbe fe2c ecbe
000002b0: 937c 0cbf 84f0 0dbf 3cfe 49be 559b c9be
000002c0: 54a1 a03e e23e 183f 3086 debe 87a8 9fbc
000002d0: 0d4f 08bf b6eb debe f74e 07bf 7a7d 09bf
000002e0: f4ea 52be b43c 0cbf 0284 de3e cf07 0f3f
000002f0: 31fa f7be 8cff 2f3c a170 d8be 5044 e8be
00000300: 1d97 efbe 3bc5 f0be 3cec 17bd 0e5a f33b
00000310: f9e6 c03e edf6 013f 59ff f6be d2ff 8abc
00000320: 7de5 09bf bf15 c8be 6459 c7be 66ff dcbe
00000330: cdc5 e3bd 302a af3e bcf9 743d df0a 053f
00000340: fbe1 e9be 71eb 36bc debe febe 4a78 d1be
00000350: 3564 01bf db87 d2be 8ccb d6bd 7d43 e5bd
00000360: de5c 04be 0f5a f13e 3ce7 d1be 0ba0 ddbc
00000370: b220 c0be 0e9d ecbe 55c2 e2be b1f2 05bf
00000380: 699c 49be d44c a3bd 0378 15be a1b6 f73e
00000390: 851d e0be 18a6 0bbd a8b9 ccbe 3131 dcbe
000003a0: 1e5b 00bf e121 c1be 129b 30be 0599 27bf
000003b0: afdf 4f3e ed24 173f 7086 f6be 3ece 953c
000003c0: ed5b e3be f6e9 09bf cea1 dcbe f905 01bf
000003d0: e7e2 fdbd b869 0bbf f577 9f3e 2fbc 2a3f
000003e0: 522a dabe 6787 32b9 4753 e1be 647c 00bf
000003f0: b1a8 03bf e289 cfbe caf8 a4bc 482e 81be
-0.067355275 -0.1567829 -0.13612835 -0.047893263 0.73380196 -0.7832449 -0.7860847 2.5548313
-0.027262254 0.011872941 -0.13001993 -0.09209047 -0.023572294 0.004715544 0.7777232 0.0692361
-0.5203355 2.5264597 -0.14924882 -0.0095170885 -0.07291403 -0.05536376 -0.037746806 -0.035623863
0.6554701 0.132242 -0.4168505 2.3872855 -0.08752868 0.024865 -0.047681343 -0.15755047
-0.07574844 -0.14843224 0.64402115 -0.44383186 -0.3636332 2.1838048 -0.023965662 -0.009632504
-0.118468516 -0.15233551 -0.0066075674 -0.15126123 0.6454014 -0.110327445 0.1906049 1.9956142
-0.07879644 0.027105775 -0.13211273 -0.09540423 -0.119065635 -0.10304319 0.6453215 -0.46374172
-0.030920133 1.7869955 -0.0071608247 0.00033857234 -0.1358193 -0.015242211 -0.08176253 -0.15936577
0.60252494 -0.52765584 -0.28415293 1.6074741 -0.0716709 -0.0016089225 0.002399147 -0.06069698
-0.13885087 -0.14585084 0.5053384 -0.5607514 -0.35811293 1.5299243 -0.049842887 -0.020665593
-0.1093445 -0.099151336 -0.005195198 -0.098567694 0.5019068 -0.8918063 -0.114007965 1.4202464
-0.10485443 -0.032381162 -0.10831378 -0.024757735 -0.09558393 -0.083623596 0.57130814 -0.5897736
0.13092993 1.1909782 -0.07171277 -0.00049307523 -0.14369482 0.00024082142 -0.013478488 -0.015062434
0.5386541 -0.67093146 -0.17986707 1.2016501 -0.08631499 -0.01786964 0.04046341 -0.07146058
-0.013794535 -0.08958737 0.6955813 0.14793466 0.26683632 1.2632505 -0.09214276 -0.01849021
-0.028737837 -0.013541639 0.06586503 -0.021601707 0.62119514 0.19312389 -0.46632898 1.2706876
0.0070820013 0.060646914 -0.061679807 0.026542764 0.008343675 0.002125463 0.6666696 0.4379388
-0.4324274 1.2602702 -0.10039638 -0.025712993 0.024350457 -0.03914625 -0.04590745 0.044032395
0.7601833 0.87994117 -0.06843667 1.3331294 0.021214359 0.049874283 -0.40104914 -0.5599635
-0.398501 -0.51795405 -0.10935268 -0.29503718 -0.3553632 0.7874376 -0.41942132 0.0023608739
-0.5040603 -0.5478583 -0.4100716 -0.5527149 -0.17102683 0.06910019 0.14588381 0.6420941
-0.49376395 0.022799019 -0.4999834 -0.46128076 -0.54877585 -0.5544512 -0.19725889 -0.3937632
0.31373084 0.5947095 -0.43461752 -0.01948954 -0.5324562 -0.43539208 -0.52854866 -0.5370709
-0.2059744 -0.54780126 0.4346009 0.5587129 -0.48433068 0.0107420795 -0.4227343 -0.45364618
-0.46794978 -0.47025475 -0.037090525 0.007426507 0.37676218 0.50767404 -0.4824169 -0.016967688
-0.53865796 -0.3907909 -0.38935387 -0.43163604 -0.11121712 0.34211874 0.059808478 0.5196971
-0.45680222 -0.011164532 -0.49754995 -0.40912086 -0.5054353 -0.41119274 -0.10488042 -0.11194513
-0.12926051 0.47139022 -0.4099673 -0.027053853 -0.37524945 -0.46213573 -0.4428889 -0.5232344
-0.19688572 -0.07973638 -0.14596562 0.48381522 -0.43772522 -0.034093946 -0.39985394 -0.4300628
-0.50139034 -0.3772116 -0.17246655 -0.65467864 0.20300172 0.5904072 -0.48149443 0.01828682
-0.4440607 -0.5387262 -0.43092197 -0.5039974 -0.12396794 -0.5445819 0.31146207 0.66693395
-0.42610413 -0.00017025844 -0.44008848 -0.50189805 -0.5142928 -0.40534884 -0.020138163 -0.25230622

Target_Q_Net.linear1.bias f4 [30]
00000000: 4b74 273f 952a 17be f2f7 ae3c 99ba b6be
00000010: 745b eabd 7d50 f6bc 5c2f f5bd a040 993d
00000020: ea33 b93e b67d 2a3e e2d0 5c3c d045 25bf
00000030: 818a a23f b1c4 8a3a f72c 7bbe 2e17 57bc
00000040: b697 d13e 224d 1dbf be40 c4be 3d36 e3bd
00000050: a80a 01bf 88b7 e2ba de29 49be bb6c 5ebd
00000060: a078 683e f6e6 f83d 5821 a3bd ff21 acbd
00000070: 6bef 98bf 0d4f 5f3d
0.65411824 -0.14762338 0.021358464 -0.35689238 -0.114432245 -0.030067677 -0.11971924 0.07483029
0.3617242 0.16649517 0.013477536 -0.6455965 1.2698518 0.0010587183 -0.24528871 -0.013128085
0.4093606 -0.6144582 -0.38330644 -0.110943295 -0.50406885 -0.0017297128 -0.19644877 -0.054302912
0.22702265 0.12153427 -0.07965344 -0.08404922 -1.1948065 0.054518748

Target_Q_Net.fc_A.weight f4 [3, 30]
00000000: 61b2 69bd 628e 37bd 8082 d83d e2e1 ef3d
00000010: 53ca 813c 091f ddbd 8a0e 153c 1b32 a3bc
00000020: c6e5 86bd dc07 d5bc 8ced 9d3d 18e8 b53c
00000030: e44f ce3c 8a9a b63d 25eb 003d 8f31 c53c
00000040: ad74 df3d efbe e03d 6635 513d b447 a6bc
00000050: 49db ea3d 3848 d33c 8810 c03d 88e4 0e3d
00000060: 762b 8f3b 9c3b 763d 9ead 33bd 8bc9 c2bd
00000070: fe99 533c 345c c03d 24d4 6ebd 664b 2cbd
00000080: 2619 e13d dd95 e53d f55a 733c 259a d9bd
00000090: 86da 9a3b 5159 c7bd 46fc 6fbd e6aa b2bc
000000a0: 7639 033e db1f 913c dfba fe3c 2ee6 8b3d
000000b0: 49f7 353d ca48 913d 339b ca3d 3e06 f53d
000000c0: b7f0 763d 8f67 043d 02f8 d23d fca7 0d3d
000000d0: 18b3 b23d c09a b83a 4cc1 a3ba d4c5 753d
000000e0: 7b00 bbbc 087a 92bd 8ed2 24bc 9304 903d
000000f0: ee70 6fbd 2680 35bd e19a e33d 3bf6 e33d
00000100: 24ba 3dbc 2271 d0bd 27df 9d3b f495 c5bd
00000110: 14c4 78bd 1f53 adbc 712c 033e 4baa 993c
00000120: cf97 fa3c 5bd8 8a3d 5c21 333d 7da1 993d
00000130: dd53 cc3d 8dfe f93d d41d 6a3d a1d7 7c3d
00000140: 3c0a cf3d 9f36 103d 96ef ac3d ab2a 76bd
00000150: 23d7 1e3b 9a37 bd3d 73fc d1bc c035 e23c
00000160: 4f90 74bc d35c a5bb
-0.05705488 -0.04481352 0.10571766 0.117130056 0.015843546 -0.10796935 0.009097705 -0.019921353
-0.065867946 -0.026004724 0.07711324 0.022205397 0.02518458 0.08916195 0.03147425 0.024071483
0.10910926 0.10973918 0.051076315 -0.020297863 0.114676066 0.025791273 0.09378153 0.034885913
0.0043691946 0.06011544 -0.043866746 -0.095110975 0.012915133 0.09392586 -0.05830778 -0.042064093
0.10991125 0.11210225 0.014853229 -0.10625104 0.004725757 -0.09733833 -0.058590196 -0.021810006
0.12814888 0.017715385 0.031094966 0.06831013 0.044425283 0.070939615 0.09892883 0.11964081
0.060288157 0.032325324 0.1030121 0.03458403 0.08725566 0.0014084205 -0.001249352 0.060003117
-0.022827378 -0.07152182 -0.010059966 0.070321225 -0.058457308 -0.044311665 0.11113525 0.11130949
-0.011580024 -0.10177828 0.0048178616 -0.09647742 -0.06073387 -0.0211578 0.12809922 0.01875796
0.030589966 0.06779548 0.043732986 0.075015046 0.09976933 0.12206755 0.057157353 0.061729077
0.10109374 0.03520834 0.08444135 -0.060099285 0.0024237118 0.09239121 -0.025633072 0.02761352
-0.014926984 -0.005046466

Target_Q_Net.fc_A.bias f4 [3]
00000000: ff28 31bf 52a1 793d d891 253f
-0.6920318 0.060944863 0.64675665

Target_Q_Net.fc_V.weight f4 [1, 30]
00000000: ed15 e23a ff83 2b3a 2902 2ebb 3c35 203b
00000010: 0f21 c43c d1a3 31bb ecbf c33a 2720 dc3c
00000020: 2972 a1ba e797 cbba 191c 9fbd 2476 11ba
00000030: 061b 013a 5d37 f73b 6668 23bb f43e 90bc
00000040: e844 933b 2d3f a9bb 80bc 3cba 9335 febc
00000050: 87d2 913b df26 85bb 8512 6a3b 1447 d23c
00000060: 5856 aa39 2f78 eebc 9005 b8bb 90ee 3e3d
00000070: a085 bc3c caba a23c
0.0017248966 0.0006542801 -0.002655158 0.0024445793 0.023941545 -0.0027105699 0.0014934517 0.0268708
-0.0012317348 -0.0015532941 -0.07769031 -0.00055489154 0.0004924986 0.0075444416 -0.0024934052 -0.017608143
0.0044942982 -0.005165002 -0.00071997195 -0.031031406 0.0044501456 -0.0040634717 0.0035716605 0.025668658
0.00032489258 -0.029110042 -0.0056158975 0.04661423 0.023012936 0.019864459
