Model/DDQN/result/agent_ddqn_000001_SZ.pt (torch_old, 39326 bytes, 10 tensors)

Q_Net.linear1.weight f4 [30, 150]
000000 40 44 71 3f 53 b9 72 3f 5e 90 56 3f b2 58 86 3f
       0.94244766 0.9481403 0.83814037 1.0495818
000010 d4 5e 8a 3f 7a 1e 6f 3f ca 13 4a 3f cb d3 fa 3f
       1.0810189 0.9340588 0.78936446 1.9595884
000020 64 20 7e 3f a8 19 e0 3b f4 6c 77 3f 91 fc 56 3f
       0.99268174 0.006838996 0.96650624 0.83979136
000030 45 8c 4e 3f 49 50 7c 3f e7 9a a6 3f 6f c8 6a 3f
       0.80682784 0.98560005 1.3016022 0.9171209
000040 bf 49 06 3f 2e 0a d6 3f 50 82 64 3f fa bf dc bc
       0.5245628 1.6721857 0.8926134 -0.02694701
000050 b1 e1 53 3f 33 f9 69 3f 77 56 62 3f 46 57 5b 3f
       0.8276625 0.9139587 0.88413185 0.85680044
000060 67 d0 84 3f af cb b0 bc 36 00 1f 3f 43 e1 9a 3f
       1.0376099 -0.021581499 0.62109697 1.2099994
000070 6c 5e 79 3f 5a 93 36 3d fe 69 50 3f a6 1b 4b 3f
       0.974097 0.04457412 0.8141173 0.79339063
000080 69 32 4d 3f ba ee 69 3f 52 49 7e 3f 81 f5 76 bf
       0.80155045 0.9137989 0.9933063 -0.9646836
000090 3c 5b 6f bf 76 26 1b 3f 99 13 69 3f ce 0b 37 bd
       -0.9349859 0.6060556 0.9104553 -0.044688992
0000a0 1e 3e 45 3f aa 55 46 3f 27 de 4f 3f f3 97 4d 3f
       0.7704791 0.77474463 0.8119835 0.8030998
0000b0 f9 a9 78 3f c7 6d a8 bf a3 c9 fc 3c 89 bd 26 3e
       0.9713436 -1.3158501 0.030857867 0.1628324
0000c0 30 d7 73 3f 9b 9d 90 3c d5 70 58 3f dd 35 62 3f
       0.95250225 0.017653277 0.8454717 0.8836344
0000d0 bd 79 5c 3f 8b de 6b 3f f1 c3 83 3f 94 fe 4c bf
       0.8612326 0.9213645 1.0294172 -0.80075955
0000e0 65 21 04 be 70 e5 08 bd 62 d6 51 3f 0f fb 70 bb
       -0.12903364 -0.033421934 0.8196775 -0.0036770736
0000f0 1e 8e 55 3f 28 90 5e 3f d4 ef 3f 3f e5 c1 5f 3f
       0.8341998 0.86938715 0.74975324 0.87405235
000100 b3 fe 9f 3f b8 90 84 bf 1a d1 a5 be 63 52 ff bd
       1.2499603 -1.0356665 -0.32386094 -0.12466886
000110 4b 68 68 3f 3b d8 94 bb 5c 2a 64 3f 2d 8d 6d 3f
       0.9078414 -0.0045423782 0.89127135 0.9279354
000120 b7 48 55 3f 0d f5 5b 3f a4 0d 91 3f 37 b5 fb bf
       0.8331408 0.8592079 1.1332288 -1.9664677
000130 78 67 e1 be 1b 90 1a be 5a 68 67 3f 87 99 cc bb
       -0.44024253 -0.15094034 0.903936 -0.006243888
000140 c0 d0 53 3f e8 1c 4d 3f 60 87 45 3f 16 09 49 3f
       0.827404 0.8012223 0.7715969 0.7852949
000150 e8 22 88 3f a2 f2 32 c0 31 53 99 3e 27 90 a6 be
       1.0635653 -2.7960591 0.29946283 -0.32531855
000160 ca b5 6f 3f 89 15 67 bc 43 b7 4e 3f 6f c2 5b 3f
       0.93636763 -0.0141042555 0.80748385 0.8584356
000170 de b4 3c 3f 73 b6 57 3f 4f 87 81 3f 26 15 42 c0
       0.7371348 0.8426277 1.0119418 -3.0325408
000180 90 93 89 bc 40 df 15 bf 8e 56 57 3f 29 de d3 3b
       -0.016793996 -0.5854378 0.84116447 0.0064656925
000190 b9 31 4f 3f 85 cf 36 3f 59 05 49 3f 7e c0 47 3f
       0.80935246 0.714104 0.78523785 0.78028095
0001a0 12 c7 6b 3f 08 2d 37 c0 e8 f5 0e 3e 55 0c 5e bf
       0.9210063 -2.8621235 0.13960993 -0.8673757
0001b0 96 17 44 3f a6 8d 36 3b 96 90 4f 3f 27 56 4a 3f
       0.7659849 0.0027855425 0.81079996 0.7903771
0001c0 b5 37 41 3f 63 40 52 3f 23 c0 86 3f 07 c0 20 c0
       0.7547563 0.82129496 1.0527385 -2.5117204
0001d0 3c 14 a0 bf 10 47 59 bf 3a 43 40 3f 63 23 fc 3c
       -1.2506175 -0.8487406 0.7510258 0.030778592
0001e0 34 1d 54 3f bc f8 47 3f 06 fd 45 3f 83 b9 5d 3f
       0.8285706 0.78113914 0.7733921 0.86611193
0001f0 d1 28 8f 3f 6a d1 bd bf 71 31 33 bf 55 2a 56 bf
       1.1184331 -1.4829533 -0.69997317 -0.83658344
000200 5c 6c 54 3f 59 1e 37 bc 7f 51 31 3f f0 19 51 3f
       0.82977843 -0.011176669 0.6926498 0.816802
000210 cf c6 41 3f d5 a6 62 3f 88 e5 56 3f 6a f7 36 c0
       0.7569398 0.88535815 0.83943987 -2.858851
000220 46 64 78 bf 42 74 8e bf fe 10 3c 3f 85 5f a3 bd
       -0.97028005 -1.1129229 0.7346343 -0.07977203
000230 7c eb 6a 3f 35 f1 41 3f 2d 4c 4d 3f 36 07 4a 3f
       0.9176557 0.7575868 0.8019436 0.78917253
000240 80 29 bb 3f 53 ab 17 bf 6b c4 04 40 73 19 68 bf
       1.462204 -0.59245795 2.0744884 -0.9066383
000250 e2 43 40 3f 30 46 c3 3d 65 35 a0 bd 32 8f 2e be
       0.7510358 0.095348716 -0.07822684 -0.17046812
000260 1e 0c 15 be 61 fc 44 be 44 92 77 3d 4d ca 43 bf
       -0.14555404 -0.192369 0.060442224 -0.7648056
000270 68 88 01 be 14 52 70 bf 6a 89 ed bd 4d 08 a9 3b
       -0.12649691 -0.9387524 -0.11598475 0.0051584602
000280 e1 f5 52 be 19 30 06 be 1a b9 30 be 1d e3 33 be
       -0.20601608 -0.13104285 -0.1725811 -0.17567106
000290 61 fb 1c bd 85 0d a8 bf f1 14 8c be 92 6f 7d bf
       -0.03832567 -1.3129126 -0.27359727 -0.9899837
0002a0 8b 7e 2f be 3a 54 2c bc 3d 3f 73 bd ba f4 e3 bd
       -0.17138116 -0.010518128 -0.05938648 -0.11130662
0002b0 f6 9e 8f bd 6d a1 51 be a4 2d d2 bd 2c 69 59 bf
       -0.07012741 -0.20471735 -0.102626115 -0.84926105
0002c0 bc ce 96 be e7 35 6e bf c3 50 23 be 61 90 a3 39
       -0.294546 -0.93051 -0.15948777 0.00031197353
0002d0 ad b1 79 bd 36 05 85 bd 84 a1 b2 bd 4b 79 31 be
       -0.06096046 -0.064951345 -0.08722213 -0.17331426
0002e0 c5 32 3a 3d fc 06 f1 be 07 09 97 bc c3 aa 26 bf
       0.045458574 -0.4707564 -0.018436922 -0.6510431
0002f0 73 d0 9a bd cb bb 92 bc 65 94 90 bd c2 90 7b bd
       -0.0755929 -0.017911812 -0.07059554 -0.06141735
000300 e1 ed cf bd 81 a1 3e be a3 4e 04 be d8 9c df be
       -0.10152794 -0.18616296 -0.12920623 -0.4367435
000310 61 2f 2a be 00 1f ff be 5c 06 f1 bd 21 cb a1 3c
       -0.16619636 -0.4982834 -0.11768791 0.01975018
000320 60 d6 4e be 56 57 e0 bd de 81 f8 bd 13 c4 40 be
       -0.20198965 -0.10954158 -0.12134145 -0.18824796
000330 06 cf 73 bd cc 74 82 bf de 8a e5 be 77 4c 0d bf
       -0.059523605 -1.0191894 -0.4483251 -0.551948
000340 fa 30 17 be d9 39 8c 3b 71 9b 50 be ce 7c 5f be
       -0.14764777 0.004279357 -0.20371796 -0.21824953
000350 6d a9 12 be 37 8f e7 bd a0 98 f0 bd 35 d8 d5 be
       -0.14322443 -0.11306613 -0.11747861 -0.41766515
000360 fe f0 93 3b b0 f5 10 bf 58 77 95 bd 1d af ac 3c
       0.0045148125 -0.5662489 -0.07298154 0.021079594
000370 31 0b 2d be 61 df be bd 3c db b6 bd b5 65 12 be
       -0.168988 -0.0931995 -0.089285344 -0.1429661
000380 da 0a 14 bc 00 8a 27 3e 5d c5 20 3e 05 d3 95 be
       -0.00903579 0.16361237 0.15700288 -0.29262558
000390 8f 2e 1c be 94 fc e3 bb 53 2e 11 be 80 9a d6 bd
       -0.15252136 -0.0069576 -0.14177828 -0.10478687
0003a0 75 f7 5e bd 83 a4 f7 bd 73 3c 76 3c 6f 14 1c 3f
       -0.054435212 -0.12091925 0.015029061 0.6096868
0003b0 bc d3 92 be a8 d2 60 be 1d 3a a2 bd b6 61 df 3b
       -0.28677166 -0.21955359 -0.079212405 0.006817068
0003c0 a5 62 68 bd 3f 1d 39 be b7 f1 9b bd d0 55 c7 bc
       -0.0567347 -0.18077563 -0.07614463 -0.02433291
0003d0 54 f0 87 3d 64 ef 1c 3f ea 65 08 bf 4d 8e 59 3d
       0.06637636 0.6130278 -0.5328051 0.053114224
0003e0 9e ed 41 be 3b 0f df 3b 0b 45 21 be e3 aa 73 bd
       -0.189383 0.0068072355 -0.15748994 -0.059489142
0003f0 4e 5b 0f bd 10 99 15 be fc 83 7d 3a b7 88 0c 3f
       -0.034999184 -0.1460917 0.0009670851 0.5489611

Q_Net.linear1.bias f4 [30]
000000 05 bb 81 3f e0 ec 67 3d ec 44 ee be 15 44 85 3d
       1.0135199 0.056622386 -0.46536958 0.06507126
000010 ad 20 2d 3d 39 58 93 3e 3e f3 58 3f 97 21 88 bf
       0.04226749 0.28778246 0.8474616 -1.0635251
000020 f5 b8 aa 3e 82 70 88 bf 47 e8 c6 bd b7 1a 01 bf
       0.33344236 -1.0659335 -0.09712272 -0.5043139
000030 19 a4 2e 3e 4a 58 6c bf 39 71 6d bd bd 68 8e bd
       0.17054786 -0.9232222 -0.057969306 -0.06953571
000040 f8 29 65 bc 9d d3 22 be 3e b2 08 bf 6a fd 84 be
       -0.013987057 -0.15901037 -0.53396976 -0.2597459
000050 b1 6e c7 be 01 f1 de 3e 15 93 0b bf 20 66 5d 3f
       -0.38951638 0.43543246 -0.54521304 0.86483955
000060 93 a9 fb 3f 6a 6d b4 be 0c 28 dd bd 9f 67 ff be
       1.9661125 -0.35239726 -0.10798654 -0.49883744
000070 a5 1d 66 be 22 93 3a be
       -0.22472246 -0.18220189

Q_Net.fc_A.weight f4 [3, 30]
000000 ba 1c c4 3d 8b 04 7e bc 8f e2 bf bc 3f 79 8c 3b
       0.09575792 -0.015504013 -0.023423461 0.0042869146
000010 65 d9 90 3b 65 07 da 3d c8 7a cb bc d3 f5 9c 3d
       0.0044204467 0.10645942 -0.02483882 0.07664075
000020 3a 46 b3 3c 50 cb 6c 3d 76 9c 61 bd 51 8f 9b 3d
       0.021884073 0.05781108 -0.055080853 0.07595695
000030 6d 60 54 3d df 86 6a 3d 4f fa 03 3e 1d 51 ca bb
       0.05184977 0.05725753 0.12888454 -0.0061742202
000040 51 07 87 bd d7 8a c8 3d 0e 0a f8 3d ae fc 05 bd
       -0.06593192 0.097921066 0.12111293 -0.032711677
000050 e9 4b 42 3d 2a d4 0e 3e 44 ae 35 3c 20 64 e1 bc
       0.047435675 0.13948122 0.011088911 -0.027513564
000060 4d 48 06 3e c2 72 7c 3d 3b ee 99 bc 1c 35 bc bd
       0.13113518 0.06163288 -0.018790355 -0.09189817
000070 ea ff 6a 3d db 45 84 bc 5c 64 c7 3d 3f a0 27 bc
       0.057372965 -0.016146591 0.09735939 -0.010231077
000080 7f 28 fd bc 27 0a e5 ba 4e 50 ce 3a 6e 6b dd 3d
       -0.0309031 -0.0017474339 0.0015740485 0.10811506
000090 13 3f cd bc 09 0f 9b 3d 62 b6 c6 3c 95 c8 6a 3d
       -0.02505449 0.07571227 0.024256889 0.057320196
0000a0 70 43 61 bd 1b 06 a3 3d bf 22 61 3d 52 b6 7e 3d
       -0.054995954 0.07960149 0.054964777 0.062185593
0000b0 a1 f0 01 3e 85 10 8e bc 74 95 80 bd 20 67 c9 3d
       0.12689449 -0.017341862 -0.06278506 0.09834123
0000c0 53 54 02 3e 4d 33 45 bd 6c 4a 2b 3d 43 2c 0f 3e
       0.1272748 -0.048144627 0.04181902 0.13981728
0000d0 0b da a2 3c dd f4 fb bc dd 37 07 3e 23 c3 71 3d
       0.019879362 -0.030756408 0.13204904 0.059023988
0000e0 d6 28 96 bc 7e 4e 96 bd 1d 50 79 3d 67 0c ea bc
       -0.018330019 -0.0733919 0.060867418 -0.028570367
0000f0 cf d8 c2 3d d2 bf 31 bc 8a 31 ea bc 4a d9 51 ba
       0.09514009 -0.010848956 -0.028588075 -0.0008005096
000100 95 12 ac 3b d2 38 d9 3d d5 36 d1 bc b7 ad a7 3d
       0.0052512386 0.10606541 -0.025538841 0.0818743
000110 e7 a3 bd 3c 12 3f 6b 3d 5a e3 65 bd cd b8 9b 3d
       0.023149444 0.057433195 -0.056125022 0.07603607
000120 49 fb 5b 3d 9d 67 7b 3d af 34 03 3e 45 cd fe bb
       0.05370644 0.06137811 0.12813066 -0.007775935
000130 fd 0a 77 bd 7b ab ca 3d 57 8f 01 3e f2 54 06 bd
       -0.060313214 0.098959886 0.12652336 -0.032795854
000140 1a 65 35 3d 16 1e 0f 3e de b0 7f 3c 0c eb f3 bc
       0.04428587 0.1397632 0.015606133 -0.029775165
000150 73 97 06 3e b5 9f 77 3d c8 8d 98 bc 9c 7b bb bd
       0.13143711 0.060455043 -0.018622294 -0.09154436
000160 3a f5 48 3d 27 31 da bc
       0.04906199 -0.026634766

Q_Net.fc_A.bias f4 [3]
000000 7f 17 28 bf 7c 60 ac be fa 58 83 3f
       -0.6566085 -0.33667362 1.0261528

Q_Net.fc_V.weight f4 [1, 30]
000000 68 6d 1c ba 2d 00 45 bb 4a 7e 0c 3a 19 c7 36 b9
       -0.00059672305 -0.003005992 0.00053593947 -0.00017431042
000010 d2 2c 34 3a d8 50 a9 ba ea 9e 89 3b 42 50 13 39
       0.0006873134 -0.001291777 0.0041998522 0.00014048911
000020 e9 9b 91 ba e8 c2 91 3b 2e 98 c5 3a 16 bb 93 ba
       -0.0011109087 0.0044482835 0.001507526 -0.0011270966
000030 74 8a 91 b8 88 cb 64 ba b6 3f f7 39 f5 b6 5c bb
       -6.939928e-05 -0.0008727838 0.0004715898 -0.0033678387
000040 8d 1a 1b b7 85 e8 aa b9 f0 f8 0e b9 8f 06 8c 3a
       -9.244902e-06 -0.00032598167 -0.00013634912 0.0010683107
000050 b4 4a d7 3a 3e b9 b1 b9 ba 9f c7 3a 2a 51 6c 3a
       0.0016425462 -0.00033898087 0.0015230097 0.000901478
000060 42 86 77 39 ec ef 65 b9 ca cc 46 3a 02 0d dc ba
       0.0002360577 -0.0002192852 0.00075836165 -0.0016788545
000070 b4 3d 96 bb 90 b4 81 3b
       -0.0045849923 0.0039582923

Target_Q_Net.linear1.weight f4 [30, 150]
000000 78 43 71 3f 82 b8 72 3f 90 8f 56 3f 4d 58 86 3f
       0.94243574 0.94812787 0.8381281 1.0495697
000010 ae 5e 8a 3f c2 21 6f 3f 24 17 4a 3f 0a d5 fa 3f
       1.0810144 0.93410885 0.7894156 1.9596264
000020 8d 1f 7e 3f c4 1b e0 3b 29 6c 77 3f c6 fb 56 3f
       0.9926689 0.0068392474 0.96649414 0.83977926
000030 7b 8b 4e 3f 7b 4f 7c 3f bb 9a a6 3f fb c9 6a 3f
       0.8068158 0.9855878 1.301597 0.9171445
000040 be 4c 06 3f 6e 0b d6 3f 79 81 64 3f c8 be dc bc
       0.5246085 1.6722238 0.8926006 -0.02694644
000050 e3 e0 53 3f 69 f8 69 3f aa 55 62 3f 78 56 5b 3f
       0.82765025 0.9139467 0.88411963 0.85678816
000060 29 d0 84 3f e6 b9 b0 bc 34 01 1f 3f 75 e2 9a 3f
       1.0376025 -0.021573018 0.6211121 1.2100359
000070 99 5d 79 3f aa 96 36 3d 29 69 50 3f d5 1a 4b 3f
       0.97408444 0.04457728 0.8141046 0.7933782
000080 92 31 4d 3f e9 ed 69 3f a8 48 7e 3f ec f5 76 bf
       0.80153763 0.9137865 0.99329615 -0.96468997
000090 b7 5d 6f bf 86 28 1b 3f c6 12 69 3f 91 15 37 bd
       -0.9350237 0.6060871 0.9104427 -0.0446983
0000a0 47 3d 45 3f da 54 46 3f 50 dd 4f 3f 22 97 4d 3f
       0.77046627 0.77473223 0.8119707 0.80308735
0000b0 3d a9 78 3f 1d 6e a8 bf 6d 55 fc 3c 53 c4 26 3e
       0.9713324 -1.3158604 0.030802453 0.16285829
0000c0 5c d6 73 3f 40 85 90 3c 01 70 58 3f 09 35 62 3f
       0.9524896 0.017641664 0.84545904 0.88362175
0000d0 ec 78 5c 3f b4 dd 6b 3f 98 c3 83 3f 4c fe 4c bf
       0.8612201 0.9213517 1.0294065 -0.80075526
0000e0 b4 2a 04 be e9 cd 08 bd 8e d5 51 3f a9 67 71 bb
       -0.12906915 -0.033399496 0.81966484 -0.0036835468
0000f0 4f 8d 55 3f 57 8f 5e 3f 06 ef 3f 3f 14 c1 5f 3f
       0.83418745 0.8693747 0.74974096 0.8740399
000100 5e fe 9f 3f 6f 90 84 bf 91 d4 a5 be 6e 47 ff bd
       1.2499502 -1.0356578 -0.32388738 -0.12464796
000110 78 67 68 3f 02 fb 94 bb 91 29 64 3f 5c 8c 6d 3f
       0.9078288 -0.004546524 0.89125925 0.92792296
000120 ef 47 55 3f 3d f4 5b 3f 54 0d 91 3f eb b4 fb bf
       0.83312887 0.85919553 1.1332192 -1.9664587
000130 41 69 e1 be cd 8a 1a be 88 67 67 3f 9c 9a cc bb
       -0.44025615 -0.15092011 0.9039235 -0.006244017
000140 f8 cf 53 3f 22 1c 4d 3f 96 86 45 3f 51 08 49 3f
       0.8273921 0.8012105 0.77158487 0.78528315
000150 a8 22 88 3f 84 f2 32 c0 c7 53 99 3e 8a 8d a6 be
       1.0635576 -2.796052 0.2994673 -0.3252986
000160 f9 b4 6f 3f 3b 1d 67 bc 82 b6 4e 3f a7 c1 5b 3f
       0.9363552 -0.01410609 0.80747235 0.85842365
000170 19 b4 3c 3f ae b5 57 3f 1a 87 81 3f e0 14 42 c0
       0.7371231 0.84261596 1.0119355 -3.032524
000180 0e 6d 89 bc e0 dd 15 bf c0 55 57 3f 5b cb d3 3b
       -0.016775634 -0.5854168 0.8411522 0.006463451
000190 f4 30 4f 3f c6 ce 36 3f 96 04 49 3f b9 bf 47 3f
       0.8093407 0.7140926 0.7852262 0.7802692
0001a0 9e c6 6b 3f e7 2c 37 c0 14 fd 0e 3e fa 0a 5e bf
       0.9209994 -2.8621156 0.13963729 -0.867355
0001b0 c8 16 44 3f e1 75 36 3b d3 8f 4f 3f 65 55 4a 3f
       0.7659726 0.0027841257 0.81078833 0.7903655
0001c0 f5 36 41 3f 9e 3f 52 3f ed bf 86 3f dd bf 20 c0
       0.7547448 0.8212832 1.0527321 -2.5117104
0001d0 24 13 a0 bf b6 45 59 bf 6c 42 40 3f d0 28 fc 3c
       -1.2505841 -0.84871995 0.7510135 0.03078118
0001e0 6c 1c 54 3f f7 f7 47 3f 46 fc 45 3f bb b8 5d 3f
       0.8285587 0.7811274 0.77338064 0.8661
0001f0 92 28 8f 3f 8a d1 bd bf da 30 33 bf 17 29 56 bf
       1.1184256 -1.4829571 -0.69996417 -0.8365645
000200 91 6b 54 3f 98 07 37 bc ae 50 31 3f 27 19 51 3f
       0.82976633 -0.011171244 0.6926373 0.81679004
000210 02 c6 41 3f 03 a6 62 3f ed e4 56 3f 8f f7 36 c0
       0.7569276 0.88534564 0.83943063 -2.8588598
000220 33 65 78 bf c2 73 8e bf 30 10 3c 3f 3c 5d a3 bd
       -0.9702942 -1.1129076 0.734622 -0.079767674
000230 b7 ea 6a 3f 68 f0 41 3f 65 4b 4d 3f 68 06 4a 3f
       0.91764396 0.75757456 0.8019317 0.78916025
000240 4b 29 bb 3f f7 aa 17 bf b1 c4 04 40 75 18 68 bf
       1.4621977 -0.59245247 2.074505 -0.9066232
000250 17 43 40 3f ca 46 c3 3d eb 9b a0 bd 62 c2 2e be
       0.7510237 0.09534986 -0.07842239 -0.17066339
000260 24 3f 15 be 49 2f 45 be b6 11 77 3d 72 be 43 bf
       -0.14574867 -0.19256319 0.060319625 -0.7646247
000270 8f 34 01 be 1b 43 70 bf c7 f1 ed bd c3 4c a9 3b
       -0.12617706 -0.93852395 -0.11618381 0.0051666214
000280 50 29 53 be 82 63 06 be 9e ec 30 be dd 16 34 be
       -0.20621228 -0.13123897 -0.17277762 -0.17586847
000290 17 85 1d bd 54 08 a8 bf 80 04 8c be 92 60 7d bf
       -0.038457002 -1.3127542 -0.27347183 -0.9897548
0002a0 a2 b2 2f be d8 1a 2c bc 13 11 74 bd db 5b e4 bd
       -0.17157987 -0.010504447 -0.059586596 -0.111503325
0002b0 1d 07 90 bd a4 d5 51 be 41 7e d2 bd 4d 66 59 bf
       -0.07032607 -0.20491654 -0.10277987 -0.84921724
0002c0 18 de 96 be 1e 29 6e bf e6 84 23 be 72 02 aa 39
       -0.2946632 -0.9303149 -0.15968665 0.0003242675
0002d0 4a 82 7a bd f2 6d 85 bd 6e 09 b3 bd c7 ad 31 be
       -0.06115941 -0.06515111 -0.08742033 -0.17351447
0002e0 1c 93 39 3d 58 fc f0 be 8b 6a 98 bc 3b 9f 26 bf
       0.04530631 -0.47067523 -0.018605491 -0.65086716
0002f0 bb 38 9b bd cc a4 92 bc 3f fc 90 bd e5 60 7c bd
       -0.0757918 -0.017900847 -0.07079362 -0.061615843
000300 35 55 d0 bd f1 d5 3e be e5 76 04 be 91 91 df be
       -0.10172502 -0.186363 -0.1293598 -0.43665746
000310 a1 6d 2a be 5b 09 ff be 96 6e f1 bd 3f e0 a1 3c
       -0.16643383 -0.49811825 -0.11788671 0.01976025
000320 a6 0a 4f be 6b bf e0 bd fe e9 f8 bd 94 f8 40 be
       -0.20218906 -0.1097401 -0.121540055 -0.18844825
000330 5b 6e 74 bd ba 70 82 bf 91 a1 e5 be da 42 0d bf
       -0.059675556 -1.0190651 -0.44849828 -0.5518013
000340 1c 65 17 be 67 98 8c 3b 17 cf 50 be de b0 5f be
       -0.14784664 0.0042906287 -0.20391499 -0.21844813
000350 3a dd 12 be a5 f7 e7 bd e1 e2 f0 bd 18 c9 d5 be
       -0.14342204 -0.11326531 -0.11762024 -0.41754985
000360 72 d7 92 3b 2c ec 10 bf 80 df 95 bd 06 e0 ac 3c
       0.0044812495 -0.5661037 -0.0731802 0.021102916
000370 e1 3e 2d be 28 47 bf bd 8d 42 b7 bd 65 99 12 be
       -0.16918518 -0.09339744 -0.089482404 -0.14316328
000380 de 6d 16 bc 64 a2 27 3e 02 b4 20 3e 95 c0 95 be
       -0.009181468 0.16370541 0.15693668 -0.2924849
000390 91 62 1c be 90 05 e3 bb 6d 62 11 be 9d 01 d7 bd
       -0.15271975 -0.0069281533 -0.14197703 -0.104983546
0003a0 ed c6 5f bd c7 0c f8 bd 42 b3 73 3c a3 15 1c 3f
       -0.05463307 -0.12111812 0.014874281 0.60970515
0003b0 d9 e9 92 be f5 b1 60 be 2c a2 a2 bd 1c 06 e0 3b
       -0.28694037 -0.21942885 -0.07941088 0.006836666
0003c0 b3 31 69 bd 3e 51 39 be ae 58 9c bd d0 f4 c8 bc
       -0.056932162 -0.18097398 -0.07634102 -0.024530798
0003d0 cf a1 87 3d 52 f1 1c 3f 94 6c 08 bf 10 07 5a 3d
       0.066226594 0.61305726 -0.5329068 0.05322939
0003e0 9b 21 42 be 6e 39 e0 3b 2c 79 21 be 71 7a 74 bd
       -0.18958132 0.0068427837 -0.1576888 -0.05968708
0003f0 35 2b 10 bd 19 cd 15 be 0e b4 54 3a 7a 88 0c 3f
       -0.035197455 -0.1462902 0.00081139884 0.54895747

Target_Q_Net.linear1.bias f4 [30]
000000 b4 ba 81 3f 79 44 67 3d 03 42 ee be 98 49 85 3d
       1.0135102 0.056461785 -0.46534738 0.065081775
000010 c4 2c 2d 3d 1f 55 93 3e d0 f6 58 3f 88 21 88 bf
       0.04227902 0.2877588 0.84751606 -1.0635233
000020 c3 bb aa 3e fa 70 88 bf 63 d9 c6 bd 37 1c 01 bf
       0.33346376 -1.0659478 -0.09709432 -0.5043368
000030 25 a3 2e 3e 85 59 6c bf 89 69 6d bd 66 37 8e bd
       0.17054422 -0.92324096 -0.057961974 -0.0694416
000040 00 19 65 bc 21 d5 22 be 58 b3 08 bf b4 ee 84 be
       -0.013983011 -0.15901615 -0.53398657 -0.25963366
000050 5b 71 c7 be 0f f0 de 3e 95 96 0b bf 8d 67 5d 3f
       -0.3895367 0.43542525 -0.54526645 0.8648613
000060 93 a9 fb 3f 82 6e b4 be cf 22 dd bd 7e 73 ff be
       1.9661125 -0.3524056 -0.10797655 -0.498928
000070 7a 1d 66 be 1f 82 3a be
       -0.22472182 -0.182137

Target_Q_Net.fc_A.weight f4 [3, 30]
000000 b0 1c c4 3d 2c dd 7d bc 5e c3 bf bc a1 cf 8c 3b
       0.09575784 -0.015494626 -0.023408588 0.004297212
000010 52 db 90 3b 74 00 da 3d c5 84 cb bc 11 f2 9c 3d
       0.0044206763 0.10644618 -0.024843583 0.07663358
000020 54 4c b3 3c ef cc 6c 3d af 95 61 bd e3 8f 9b 3d
       0.021886982 0.057812627 -0.05507439 0.075958036
000030 26 58 54 3d 6f 86 6a 3d ad fa 03 3e cc fc c9 bb
       0.051841877 0.057257112 0.12888594 -0.006164169
000040 76 10 87 bd 4a 85 c8 3d 4f 01 f8 3d 09 fc 05 bd
       -0.065949365 0.09791048 0.121096246 -0.032711063
000050 45 53 42 3d 95 d3 0e 3e cc 5f 35 3c 5b 36 e1 bc
       0.047442693 0.139479 0.011070203 -0.027491739
000060 0f 49 06 3e 00 74 7c 3d 80 fc 99 bc f4 37 bc bd
       0.13113807 0.061634064 -0.01879716 -0.0919036
000070 66 04 6b 3d 54 31 84 bc d6 68 c7 3d f8 bc 27 bc
       0.05737724 -0.016136803 0.09736793 -0.010237925
000080 81 3b fd bc 32 94 e5 ba a8 dc cc 3a 7e 70 dd 3d
       -0.030912163 -0.0017515479 0.0015629726 0.10812472
000090 2b 42 cd bc 98 10 9b 3d 81 bb c6 3c 9b d0 6a 3d
       -0.025055965 0.075715244 0.02425933 0.057327848
0000a0 19 42 61 bd 2d 0a a3 3d 5d 2f 61 3d 8d ba 7e 3d
       -0.054994676 0.07960925 0.05497681 0.062189627
0000b0 d9 ef 01 3e 70 31 8e bc 57 94 80 bd 9a 67 c9 3d
       0.12689151 -0.017357558 -0.062782936 0.098342136
0000c0 94 57 02 3e 1f 37 45 bd 5d 37 2b 3d b0 2b 0f 3e
       0.12728721 -0.04814827 0.041800845 0.13981509
0000d0 0c 04 a3 3c 40 02 fc bc 04 38 07 3e a4 b9 71 3d
       0.01989939 -0.030762792 0.13204962 0.05901493
0000e0 25 14 96 bc 6c 4b 96 bd d2 53 79 3d b7 0d ea bc
       -0.018320153 -0.07338604 0.060870953 -0.028570993
0000f0 ae d3 c2 3d ae ba 31 bc e3 39 ea bc 74 9a 54 ba
       0.09513031 -0.010847731 -0.028592056 -0.00081101735
000100 19 65 ac 3b 93 40 d9 3d ed 20 d1 bc e1 ae a7 3d
       0.005261075 0.1060802 -0.025528396 0.081876524
000110 ab 93 bd 3c ef 35 6b 3d 0d ea 65 bd a3 b2 9b 3d
       0.023141703 0.057424482 -0.05613141 0.076024316
000120 5a fc 5b 3d ed 64 7b 3d 3c 35 03 3e 78 82 fe bb
       0.053707458 0.061375547 0.12813276 -0.007767018
000130 5b e7 76 bd 07 b2 ca 3d e1 93 01 3e 15 51 06 bd
       -0.06027923 0.09897237 0.12654068 -0.03279217
000140 39 74 35 3d 51 1f 0f 3e aa ac 7f 3c 76 fd f3 bc
       0.04430029 0.1397679 0.015605131 -0.029783946
000150 9a 95 06 3e 24 aa 77 3d 23 87 98 bc e0 7b bb bd
       0.13143006 0.060464993 -0.018619126 -0.09154487
000160 94 ed 48 3d 47 3e da bc
       0.049054697 -0.026641024

Target_Q_Net.fc_A.bias f4 [3]
000000 4d 18 28 bf 7d 68 ac be 8a 5b 83 3f
       -0.6566208 -0.33673468 1.026231

Target_Q_Net.fc_V.weight f4 [1, 30]
000000 2d ab 1d ba 5d 18 45 bb 61 3c 0e 3a 8e 19 33 b9
       -0.0006014582 -0.0030074336 0.0005425867 -0.0001708029
000010 c1 6e 37 3a d8 88 ab ba a4 49 8b 3b 20 ea 0c 39
       0.00069973996 -0.0013087047 0.004250722 0.00013438659
000020 1d 1f 92 ba 7d 3c 92 3b bd da c4 3a 69 a7 94 ba
       -0.0011148188 0.004462777 0.0015018802 -0.0011341396
000030 63 d3 9a b8 8f 3c 65 ba 3b a3 fa 39 77 cc 5d bb
       -7.382666e-05 -0.00087446807 0.00047805332 -0.0033843794
000040 a6 86 b9 36 38 d3 ac b9 b6 38 08 b9 b0 bd 8a 3a
       5.529105e-06 -0.00032963767 -0.00012991097 0.0010585096
000050 a4 8c d8 3a 44 37 af b9 e9 e1 c8 3a 10 db 6e 3a
       0.0016521406 -0.00033419777 0.0015326116 0.00091116223
000060 58 9f 81 39 21 fd 65 b9 90 84 49 3a d4 51 dc ba
       0.00024723518 -0.0002193344 0.0007687295 -0.0016809055
000070 f0 a2 96 bb d5 c2 81 3b
       -0.0045970604 0.0039599934
