Model/DDQN/result/agent_ddqn_000625_SZ.pt (torch_old, 39326 bytes, 10 tensors)

Q_Net.linear1.weight f4 [30, 150]
3.078703 3.1727529 2.7684944 3.4783268 7.8841653 6.0623894 -1.0359043 1.4444631
3.1846776 -0.2158051 3.047727 2.964544 2.7596226 3.3207047 7.864054 6.835569
0.32827348 1.6287702 3.0698383 0.012973226 2.9391336 3.065729 2.7375004 3.1237288
7.5227547 5.6531696 -0.47017303 1.5592297 3.1417158 0.14151599 2.9442396 2.914485
2.745174 3.2830794 7.543304 5.2961674 -2.0665915 1.1185557 3.0706613 0.073508635
2.8516622 2.9692442 2.81811 3.0721862 7.2285495 4.5170374 -5.28191 0.45280465
3.0996203 0.036863342 2.8986416 2.9450977 2.7863796 3.155035 7.3067837 5.961294
-4.6750603 -0.18388581 2.955475 -0.032131992 2.8976932 2.9887064 2.5391736 3.133795
7.422313 1.3600993 -8.97786 -0.7003429 3.0311506 0.14998214 3.0789948 2.9959543
2.7497947 3.199776 7.796939 0.23617141 -1.5498817 -0.18908612 3.0359502 0.112332456
3.03069 2.9690692 2.7317219 3.199488 7.9598637 -3.7331033 1.7286906 0.3308435
3.0812557 -0.21710123 2.895263 2.9871664 2.6901987 3.061382 7.562591 -5.8392467
-2.296192 0.28142065 2.9772656 -0.31860745 2.8624163 2.8124638 2.6988318 3.0082257
7.5608625 -5.989426 -4.6577916 0.04350043 2.8881013 -0.15077059 2.9355888 2.9547722
2.7270193 3.0823169 7.979723 -1.401442 -3.0178149 0.5642897 2.8737304 0.28474316
2.9460387 2.9440682 2.6924171 3.210514 8.854412 -3.7951438 -1.0919604 1.3502696
2.9505706 0.55644065 2.3042507 2.3324547 2.0941734 2.719511 0.864452 -6.878417
-6.5268745 -2.681094 2.7854652 -0.63642377 1.7713103 1.3661462 1.0891467 1.7852622
-0.24603269 -3.6349568 -0.8483319 -5.6573772 2.629653 0.25854048 -1.1802869 -1.2511171
-1.0327556 -1.4096466 1.8424429 -4.7078495 0.8696851 -3.9724863 -1.0723432 0.0036132531
-1.070428 -1.2338454 -1.0296537 -1.2330707 2.069613 -2.6083164 1.5443099 -3.9542916
-1.1138622 0.03870551 -1.0374429 -1.0032699 -0.75585103 -1.2183294 1.9630029 -3.9357812
1.0492839 -4.4416637 -1.1075866 0.03282345 -0.9003979 -1.0390798 -0.74414974 -1.263032
2.616541 -5.218048 1.0567675 -3.7485976 -1.0050093 0.029656235 -0.9799103 -0.9545666
-0.84843194 -1.2276087 2.2116566 -8.323082 -0.37186936 -3.997825 -1.0431299 -0.0023251653
-1.1316596 -1.0196551 -0.8753245 -1.3354856 2.4522665 -6.9798827 0.0115855355 -4.539804
-1.0754359 0.08514861 -1.2679329 -1.1881081 -0.9047208 -1.3011544 2.4034264 -5.6399226
-0.012687074 -5.331284 -1.0207148 0.03148407 -1.2296585 -1.144891 -0.95493627 -1.3056524
2.420066 -2.3066368 -2.3399324 -5.659531 -1.1153148 0.05070187 -1.1839288 -1.093587
-0.9053428 -1.3206398 2.4363058 -2.973383 1.2080643 -5.5381947 -1.0541129 0.025608608
-0.90031725 -1.205071 -0.8770117 -1.1413176 3.0568438 -0.41831478 0.7943143 -4.565217
-1.1432993 0.051248692 -1.0200864 -0.8744605 -0.76405424 -1.1200398 2.3956041 -3.7661679
00000000: 7809 4540 620e 4b40 032f 3140 e89c 5e40
00000010: 154b fc40 18ff c140 8398 84bf 2be4 b83f
00000020: c2d1 4b40 03fc 5cbe f60d 4340 17bb 3d40
00000030: a89d 3040 6d86 5440 55a6 fb40 fbbc da40
00000040: 7613 a83e 8b7b d03f 3b78 4440 a78d 543c
00000050: c41a 3c40 e734 4440 3533 2f40 2ceb 4740
00000060: 68ba f040 c4e6 b440 85ba f0be d794 c73f
00000070: df11 4940 91e9 103e 6c6e 3c40 ec86 3a40
00000080: eeb0 2f40 f91d 5240 bf62 f140 347a a940
00000090: 0943 04c0 d52c 8f3f b785 4440 b28b 963d
000000a0: a281 3640 1908 3e40 ea5b 3440 b39e 4440
000000b0: 4750 e740 928b 9040 6805 a9c0 03d6 e73e
000000c0: 2e60 4640 04fe 163d 5883 3940 7b7c 3c40
000000d0: 0b54 3240 18ec 4940 2cd1 e940 ecc2 be40
000000e0: 189a 95c0 904c 3cbe 8126 3d40 d69c 03bd
000000f0: ce73 3940 f746 3f40 d281 2240 1990 4840
00000100: 9783 ed40 bc17 ae3f 51a5 0fc1 ac49 33bf
00000110: 5ffe 4140 eb94 193e 400e 4540 b7bd 3f40
00000120: a3fc 2f40 21c9 4c40 8680 f940 ebd6 713e
00000130: 8662 c6bf cb9f 41be 024d 4240 8f0e e63d
00000140: d3f6 4140 3b05 3e40 88d4 2e40 69c4 4c40
00000150: 34b7 fe40 2aeb 6ec0 bc45 dd3f 5264 a93e
00000160: 4b33 4540 c94f 5ebe fd4b 3940 bc2d 3f40
00000170: 372c 2c40 afed 4340 bf00 f240 1cdb bac0
00000180: cff4 12c0 5e16 903e 858b 3e40 8420 a3be
00000190: d431 3740 68ff 3340 a9b9 2c40 c586 4040
000001a0: 96f2 f140 61a9 bfc0 a10c 95c0 822d 323d
000001b0: a7d6 3840 9b63 1abe b0e0 3b40 fd1a 3d40
000001c0: 7c87 2e40 ae44 4540 e459 ff40 7462 b3bf
000001d0: e123 41c0 4a75 103f 33eb 3740 dbc9 913e
000001e0: e68b 3c40 9d6b 3c40 9050 2c40 1079 4d40
000001f0: acab 0d41 a3e3 72c0 5cc5 8bbf a2d5 ac3f
00000200: 26d6 3c40 e572 0e3f d878 1340 f046 1540
00000210: f006 0640 780c 2e40 ba4c 5d3f fe1b dcc0
00000220: 28dc d0c0 0b97 2bc0 1045 3240 abec 22bf
00000230: 4cba e23f e1dd ae3f 2969 8b3f 7983 e43f
00000240: feef 7bbe 22a3 68c0 482c 59bf 3c09 b5c0
00000250: 3c4c 2840 6b5f 843e a413 97bf 9b24 a0bf
00000260: 5631 84bf 4d6f b4bf 2bd5 eb3f b4a6 96c0
00000270: afa3 5e3f 373d 7ec0 8b42 89bf 54cc 6c3b
00000280: c903 89bf a5ee 9dbf b1cb 83bf 43d5 9dbf
00000290: 8a74 0440 a8ee 26c0 f2ab c53f 1d13 7dc0
000002a0: 0993 8ebf ab89 1e3d eeca 84bf 266b 80bf
000002b0: 747f 41bf 38f2 9bbf ae43 fb3f d7e3 7bc0
000002c0: ef4e 863f 1c22 8ec0 66c5 8dbf e271 063d
000002d0: 7a80 66bf 9100 85bf 9980 3ebf 08ab a1bf
000002e0: 6875 2740 40fa a6c0 2844 873f 06e9 6fc0
000002f0: 25a4 80bf a2f1 f23c 67db 7abf 7a5e 74bf
00000300: d632 59bf 4822 9dbf c88b 0d40 582b 05c1
00000310: a965 bebe 5ddc 7fc0 4885 85bf cd61 18bb
00000320: 39da 90bf 0f84 82bf 4415 60bf 31f1 aabf
00000330: eff1 1c40 335b dfc0 42d1 3d3c 1346 91c0
00000340: e2a7 89bf 6562 ae3d a04b a2bf ed13 98bf
00000350: c89b 67bf 3a8c a6bf bdd1 1940 3f7a b4c0
00000360: 72dd 4fbc e199 aac0 c8a6 82bf 71f5 003d
00000370: 7365 9dbf ca8b 92bf b476 74bf 9e1f a7bf
00000380: 5de2 1a40 f09f 13c0 74c1 15c0 e11a b5c0
00000390: a3c2 8ebf c4ac 4f3d fb8a 97bf a9fa 8bbf
000003a0: 8cc4 67bf ba0a a9bf 6fec 1b40 e84b 3ec0
000003b0: daa1 9a3f e438 b1c0 2ced 86bf 25c9 d13c
000003c0: 317b 66bf c43f 9abf d783 60bf b216 92bf
000003d0: 54a3 4340 5b2d d6be 2f58 4b3f 4216 92c0
000003e0: a257 92bf 26ea 513d 3192 82bf a5dc 5fbf
000003f0: 0f99 43bf 775d 8fbf 9451 1940 e508 71c0

Q_Net.linear1.bias f4 [30]
3.1703475 6.5427113 7.1730437 -2.9367495 10.0069065 -1.413568 5.1109915 1.4727741
1.2898985 3.5666425 2.679209 7.0151367 4.7635255 -2.6705987 -1.1639436 -0.94869965
-2.3530095 -1.7285578 2.0207174 2.677905 7.391705 -1.663415 2.1440022 4.0002065
7.367654 5.0794735 4.109656 2.9675856 0.19373086 5.521214
00000000: f9e6 4a40 e45d d140 9389 e540 b4f3 3bc0
00000010: 4a1c 2041 ccef b4bf 3e8d a340 dd83 bc3f
00000020: 651b a53f df43 6440 2978 2b40 007c e040
00000030: cd6e 9840 17eb 2ac0 1bfc 94bf fbdd 72bf
00000040: b597 16c0 6241 ddbf 6f53 0140 cc62 2b40
00000050: d988 ec40 c8ea d4bf 5537 0940 b101 8040
00000060: d2c3 eb40 0c8b a240 4d82 8340 ecec 3d40
00000070: 6261 463e c9ad b040

Q_Net.fc_A.weight f4 [3, 30]
0.34854037 -0.035861105 -0.049770355 0.01311355 -0.072630554 0.28318238 0.04576761 0.03125713
0.10462839 0.1008106 0.0025499084 -0.06672042 -0.10670061 -0.078008436 0.23445061 0.013768855
0.026798204 -0.2120255 0.3336126 0.09300955 0.0395181 -0.0485997 0.23813826 -0.07223828
-0.06872105 0.082133986 0.3408442 0.2326207 0.13505957 -0.016761834 0.346167 -0.12131978
-0.053120397 0.033155475 -0.09006287 0.27787367 0.0459873 0.24076337 0.099321544 0.10633615
-0.0042994814 -0.09530388 -0.09394091 -0.043596096 0.31694284 0.36884478 0.048749886 0.26766777
0.19420987 -0.17381632 -0.07014425 0.44420162 -0.39386553 0.02271841 -0.15496993 0.06067291
-0.3319234 -0.6938138 -0.05979131 -0.011437257 0.3378631 -0.015334896 -0.046902698 0.033896573
-0.072016105 0.2524917 0.043918345 0.028247194 0.09917814 0.08127004 -0.046974257 -0.053408455
-0.09975843 -0.021514915 0.21311305 0.052105453 0.034940638 -0.047695763 0.2859021 -0.01798065
0.057973716 0.09900347 0.1323507 -0.028253539 -0.123188205 0.077238746 0.13668698 0.16024122
0.097341634 -0.009444713
00000000: e273 b23e 18e3 12bd 00dc 4bbd 37da 563c
00000010: 54bf 94bd 48fd 903e d176 3b3d 7a07 003d
00000020: 6947 d63d ca75 ce3d 5d1c 273b b7a4 88bd
00000030: d985 dabd e3c2 9fbd d213 703e c396 613c
00000040: e887 db3c 361d 59be 45cf aa3e ca7b be3d
00000050: bbdd 213d 7b10 47bd 84da 733e aaf1 93bd
00000060: 9fbd 8cbd dd35 a83d 2283 ae3e 1f34 6e3e
00000070: 0e4d 0a3e 1d50 89bc cd3c b13e 8176 f8bd
00000080: c694 59bd 09ce 073d e272 b8bd 7545 8e3e
00000090: 2e5d 3c3d ac8a 763e 1869 cb3d c4c6 d93d
000000a0: aae2 8cbb ae2e c3bd 1864 c0bd d291 32bd
000000b0: 5546 a23e 39d9 bc3e f6ad 473d c00b 893e
000000c0: f4de 463e e8fc 31be caa7 8fbd 656e e33e
000000d0: bea8 c9be f51b ba3c 70b0 1ebe 2884 783d
000000e0: ddf1 a9be c89d 31bf bce7 74bd 5563 3bbc
000000f0: 64fc ac3e 373f 7bbc 0b1d 40bd 22d7 0a3d
00000100: 2e7d 93bd 9846 813e b9e3 333d a966 e73c
00000110: e91d cb3d e870 a63d 1468 40bd d3c2 5abd
00000120: 264e ccbd 0c40 b0bc 4f3a 5a3e 876c 553d
00000130: ea1d 0f3d a25c 43bd c361 923e 284c 93bc
00000140: d975 6d3d 55c2 ca3d f186 073e f773 e7bc
00000150: 194a fcbd 592f 9e3d acf7 0b3e 4616 243e
00000160: 0d5b c73d ffbd 1abc

Q_Net.fc_A.bias f4 [3]
16.367592 -17.363628 -4.1780696
00000000: d4f0 8241 b6e8 8ac1 bfb2 85c0

Q_Net.fc_V.weight f4 [1, 30]
-0.00387288 -0.009739381 -0.00020907057 0.06621482 0.00052028586 -0.017765485 0.000102744336 0.04917358
-0.0029216844 -0.0056286445 -0.09696071 -0.0013548556 0.0081152525 0.26333916 0.013613066 0.13130471
0.009896607 0.28261164 -0.472058 -0.20012455 -0.018055733 0.42105952 -0.21151713 0.09336209
-0.09894711 -0.0046193353 -0.57697755 -0.3312931 -0.07929317 0.0071824845
00000000: 25d0 7dbb ed91 1fbc f439 5bb9 a39b 873d
00000010: cb63 083a ec88 91bc 7278 d738 3c6a 493d
00000020: bb79 3fbb 7e70 b8bb 5693 c6bd 6995 b1ba
00000030: d6f5 043c 64d4 863e 5609 5f3c be74 063e
00000040: 6125 223c 79b2 903e 96b1 f1be 73ed 4cbe
00000050: 9ee9 93bc 1d95 d73e f297 58be a034 bf3d
00000060: c8a4 cabd cb5d 97bb cdb4 13bf 409f a9be
00000070: 7564 a2bd 0c5b eb3b

Target_Q_Net.linear1.weight f4 [30, 150]
3.0786548 3.1727037 2.7684453 3.4782782 7.884108 6.0623493 -1.0359036 1.4443556
3.1846285 -0.21593042 3.0476806 2.964497 2.7595754 3.3206584 7.8640056 6.835702
0.32843158 1.6286944 3.0697896 0.012870142 2.9390903 3.0656826 2.7374556 3.123684
7.522719 5.65334 -0.46982956 1.5592033 3.1416676 0.14146121 2.944195 2.9144409
2.7451293 3.2830358 7.5432644 5.2963705 -2.0663056 1.1185572 3.070614 0.07347337
2.8516166 2.9691992 2.818065 3.0721414 7.2285023 4.5172415 -5.2815967 0.45282486
3.0995731 0.036862142 2.8985953 2.9450529 2.7863333 3.1549902 7.306728 5.961471
-4.67489 -0.18385555 2.9554281 -0.032148387 2.897647 2.98866 2.539127 3.1337488
7.4222574 1.3601977 -8.977781 -0.7003069 3.0311038 0.14997345 3.0789478 2.9959078
2.7497475 3.19973 7.796877 0.23623636 -1.5498697 -0.18905333 3.0359035 0.112294525
3.0306413 2.9690228 2.7316747 3.1994393 7.9597964 -3.7330596 1.7286329 0.33085698
3.0812085 -0.21710816 2.8952157 2.987118 2.6901515 3.061334 7.562537 -5.839061
-2.2960634 0.28143525 2.9772184 -0.3185788 2.8623698 2.8124173 2.6987853 3.0081787
7.560816 -5.9892745 -4.657632 0.043518927 2.8880544 -0.15071145 2.9355428 2.9547257
2.7269733 3.0822704 7.9796777 -1.401226 -3.0176773 0.56431955 2.8736837 0.28481472
2.9459949 2.9440222 2.6923716 3.2104695 8.854382 -3.7949464 -1.0916978 1.3503412
2.950524 0.55649954 2.3042085 2.3324108 2.0941303 2.7194688 0.8644304 -6.8782315
-6.5266666 -2.6809764 2.7854192 -0.63635784 1.7712696 1.3661044 1.089105 1.7852215
-0.24605864 -3.6348183 -0.8481312 -5.6572504 2.629608 0.25861615 -1.180348 -1.2511678
-1.0328089 -1.4097043 1.8423339 -4.708822 0.8689838 -3.9722912 -1.0723897 0.0035547025
-1.0704781 -1.2339073 -1.0297014 -1.2331239 2.0695105 -2.609246 1.5435956 -3.9541361
-1.1139094 0.03877076 -1.0375032 -1.0033233 -0.75590384 -1.2183812 1.962855 -3.9366
1.0486928 -4.44161 -1.1076355 0.03288645 -0.90044457 -1.0391363 -0.74420506 -1.2630806
2.6164613 -5.218527 1.0564255 -3.7485404 -1.0050582 0.029642921 -0.9799515 -0.95460445
-0.84848547 -1.2276527 2.211557 -8.323188 -0.37247488 -3.997732 -1.0431775 -0.0024607708
-1.1317173 -1.0197059 -0.8753735 -1.3355434 2.452101 -6.980384 0.010518211 -4.539775
-1.0754852 0.08511767 -1.2679896 -1.1881744 -0.90478086 -1.3012205 2.4032855 -5.64021
-0.013324834 -5.331299 -1.0207651 0.031453677 -1.2297179 -1.1449412 -0.9549888 -1.3057101
2.4199338 -2.3071702 -2.3403552 -5.6595902 -1.1153668 0.0507603 -1.1839811 -1.0936489
-0.9054014 -1.3206923 2.4362354 -2.9735894 1.2085037 -5.5382504 -1.0541649 0.025569968
-0.90037215 -1.2051202 -0.8770639 -1.141365 3.0567193 -0.4184133 0.7946141 -4.5652823
-1.1433514 0.05119186 -1.0201365 -0.87451315 -0.76410675 -1.1200901 2.3954961 -3.7663624
00000000: ae08 4540 940d 4b40 352e 3140 1c9c 5e40
00000010: 9d4a fc40 c4fe c140 7d98 84bf a5e0 b83f
00000020: f4d0 4b40 dd1c 5dbe 330d 4340 52ba 3d40
00000030: e29c 3040 ab85 5440 efa5 fb40 12be da40
00000040: 2f28 a83e 0f79 d03f 6f77 4440 4add 523c
00000050: 0e1a 3c40 2534 4440 7932 2f40 70ea 4740
00000060: 1dba f040 29e8 b440 808d f0be f993 c73f
00000070: 1511 4940 35db 103e b16d 3c40 3386 3a40
00000080: 33b0 2f40 421d 5240 6c62 f140 de7b a940
00000090: 5a3e 04c0 e22c 8f3f f184 4440 3579 963d
000000a0: e380 3640 5c07 3e40 2d5b 3440 f79d 4440
000000b0: e44f e740 3e8d 9040 d702 a9c0 a9d8 e73e
000000c0: 685f 4640 c2fc 163d 9682 3940 bf7b 3c40
000000d0: 4953 3240 5ceb 4940 b7d0 e940 5fc4 be40
000000e0: b398 95c0 a144 3cbe bc25 3d40 07ae 03bd
000000f0: 0c73 3940 3546 3f40 0f81 2240 578f 4840
00000100: 2283 ed40 f51a ae3f fea4 0fc1 5047 33bf
00000110: 9bfd 4140 a492 193e 7b0d 4540 f4bc 3f40
00000120: ddfb 2f40 60c8 4c40 0480 f940 f2e7 713e
00000130: 2162 c6bf 3297 41be 3e4c 4240 acfa e53d
00000140: 07f6 4140 7804 3e40 c2d3 2e40 9dc3 4c40
00000150: a7b6 fe40 73ea 6ec0 d843 dd3f 1666 a93e
00000160: 8532 4540 9a51 5ebe 374b 3940 f12c 3f40
00000170: 712b 2c40 e5ec 4340 4e00 f240 96d9 bac0
00000180: b4f2 12c0 4818 903e bf8a 3e40 c31c a3be
00000190: 1131 3740 a5fe 3340 e6b8 2c40 0086 4040
000001a0: 34f2 f140 23a8 bfc0 520b 95c0 e740 323d
000001b0: e2d5 3840 1a54 1abe efdf 3b40 3a1a 3d40
000001c0: bb86 2e40 eb43 4540 8559 ff40 605b b3bf
000001d0: a021 41c0 3f77 103f 6fea 3740 3cd3 913e
000001e0: 2e8b 3c40 dc6a 3c40 d14f 2c40 5578 4d40
000001f0: 8cab 0d41 67e0 72c0 c1bc 8bbf fbd7 ac3f
00000200: 63d5 3c40 c176 0e3f 2778 1340 3846 1540
00000210: 3b06 0640 c70b 2e40 504b 5d3f 791a dcc0
00000220: 74da d0c0 1e95 2bc0 4f44 3240 59e8 22bf
00000230: f6b8 e23f 82dc ae3f cb67 8b3f 2382 e43f
00000240: ccf6 7bbe dda0 68c0 201f 59bf 3208 b5c0
00000250: 7f4b 2840 5669 843e a515 97bf 4426 a0bf
00000260: 1533 84bf 3171 b4bf 99d1 eb3f abae 96c0
00000270: b975 5e3f 053a 7ec0 1144 89bf 03f6 683b
00000280: 6d05 89bf adf0 9dbf 41cd 83bf 01d7 9dbf
00000290: dc72 0440 e3fd 26c0 8a94 c53f 9110 7dc0
000002a0: 9594 8ebf 17ce 1e3d e8cc 84bf e66c 80bf
000002b0: ea82 41bf eaf3 9bbf d53e fb3f 41f1 7bc0
000002c0: 913b 863f ab21 8ec0 00c7 8dbf f1b3 063d
000002d0: 8983 66bf 6b02 85bf 3984 3ebf a0ac a1bf
000002e0: 1a74 2740 2cfe a6c0 f338 873f 16e8 6fc0
000002f0: bfa5 80bf b6d5 f23c 1ade 7abf f560 74bf
00000300: 5836 59bf b923 9dbf 268a 0d40 c72b 05c1
00000310: 07b5 bebe d7da 7fc0 d786 85bf e244 21bb
00000320: 1ddc 90bf b985 82bf 7a18 60bf 16f3 aabf
00000330: 39ef 1c40 4e5f dfc0 9354 2c3c d645 91c0
00000340: 80a9 89bf 2c52 ae3d 7c4d a2bf 1916 98bf
00000350: b89f 67bf 658e a6bf 6ecf 1940 9a7c b4c0
00000360: 6850 5abc 009a aac0 6ea8 82bf 92d5 003d
00000370: 6567 9dbf 6f8d 92bf 257a 74bf 8221 a7bf
00000380: 32e0 1a40 ada8 13c0 61c8 15c0 5d1b b5c0
00000390: 57c4 8ebf 08ea 4f3d b18c 97bf b0fc 8bbf
000003a0: 63c8 67bf 720c a9bf 48eb 1b40 4a4f 3ec0
000003b0: 40b0 9a3f 5939 b1c0 e0ee 86bf 1c78 d13c
000003c0: ca7e 66bf 6141 9abf 4287 60bf 4018 92bf
000003d0: 4aa1 4340 453a d6be d46b 4b3f cb16 92c0
000003e0: 5759 92bf 8eae 513d d593 82bf 18e0 5fbf
000003f0: 809c 43bf 1d5f 8fbf cf4f 1940 150c 71c0

Target_Q_Net.linear1.bias f4 [30]
3.1702812 6.542618 7.1730614 -2.9367557 10.006919 -1.4134604 5.110989 1.4732218
1.2898595 3.5665095 2.6792266 7.0151277 4.763662 -2.6702735 -1.163919 -0.9484731
-2.3529658 -1.7283758 2.0203893 2.6775396 7.39177 -1.6636091 2.1434398 4.000246
7.367655 5.0794373 4.109849 2.9673517 0.19351217 5.5213256
00000000: e3e5 4a40 205d d140 b889 e540 cef3 3bc0
00000010: 571c 2041 45ec b4bf 398d a340 8892 bc3f
00000020: 1e1a a53f b141 6440 7378 2b40 ed7b e040
00000030: eb6f 9840 c3e5 2ac0 4cfb 94bf 22cf 72bf
00000040: fe96 16c0 6b3b ddbf 0f4e 0140 cf5c 2b40
00000050: 6189 ec40 25f1 d4bf 1e2e 0940 0402 8040
00000060: d4c3 eb40 c08a a240 e283 8340 17e9 3d40
00000070: 0e28 463e b3ae b040

Target_Q_Net.fc_A.weight f4 [3, 30]
0.34860614 -0.035910573 -0.049846407 0.013095105 -0.07277256 0.28318688 0.045758914 0.031217437
0.10455697 0.10083637 0.002462688 -0.06672341 -0.10680848 -0.07806171 0.23439883 0.0137346815
0.026750095 -0.21200691 0.33349618 0.09295723 0.03949128 -0.0486415 0.23819293 -0.072245754
-0.0687859 0.08222526 0.34079182 0.23254205 0.13507967 -0.016814731 0.346123 -0.1213289
-0.05309506 0.033128686 -0.09002626 0.2778628 0.046002626 0.24082097 0.0993696 0.10632906
-0.0043091476 -0.095352724 -0.09386256 -0.043607842 0.31697923 0.3688147 0.048762545 0.2676734
0.19421063 -0.17378324 -0.07016663 0.44420096 -0.3938582 0.022794222 -0.1548732 0.060673032
-0.33192065 -0.6938412 -0.059759073 -0.011406568 0.3378595 -0.01525826 -0.046861388 0.033929076
-0.071923755 0.25250027 0.04391113 0.02820676 0.09921062 0.08125653 -0.0468578 -0.053342152
-0.09975603 -0.021470645 0.2131241 0.052169885 0.034979586 -0.047713995 0.2859821 -0.017979741
0.058004595 0.09903357 0.13230322 -0.028317565 -0.12322889 0.077107765 0.13672344 0.16034967
0.09729048 -0.009428384
00000000: 817c b23e f716 13bd bf2b 4cbd da8c 563c
00000010: c809 95bd dffd 903e b36d 3b3d b6bb ff3c
00000020: f721 d63d 4c83 ce3d 0c65 213b 48a6 88bd
00000030: 68be dabd d1de 9fbd 3f06 703e 6e07 613c
00000040: 0423 db3c 5718 59be 03c0 aa3e 5c60 be3d
00000050: 9cc1 213d 4f3c 47bd d9e8 733e 95f5 93bd
00000060: 9fdf 8cbd b865 a83d 447c ae3e 811f 6e3e
00000070: 5352 0a3e 0cbf 89bc 0937 b13e 497b f8bd
00000080: 357a 59bd f2b1 073d b05f b8bd 0844 8e3e
00000090: 406d 3c3d c699 763e 4a82 cb3d 0dc3 d93d
000000a0: c033 8dbb 4a48 c3bd 043b c0bd 239e 32bd
000000b0: 1a4b a23e 48d5 bc3e 3cbb 473d 7d0c 893e
000000c0: 27df 463e 3cf4 31be 86b3 8fbd 4f6e e33e
000000d0: c8a7 c9be f3ba ba3c 1597 1ebe 4984 783d
000000e0: 81f1 a9be 949f 31bf eec5 74bd 9de2 3abc
000000f0: ecfb ac3e c8fd 79bc baf1 3fbd 37f9 0a3d
00000100: c34c 93bd b747 813e 28dc 333d dd11 e73c
00000110: f02e cb3d d369 a63d f7ed 3fbd 4d7d 5abd
00000120: e44c ccbd 35e3 afbc 343d 5a3e 17b0 553d
00000130: c146 0f3d c06f 43bd 3f6c 923e 404a 93bc
00000140: 3a96 6d3d 1dd2 ca3d 7f7a 073e 3dfa e7bc
00000150: 6e5f fcbd adea 9d3d 3b01 0c3e b432 243e
00000160: 3b40 c73d 8279 1abc

Target_Q_Net.fc_A.bias f4 [3]
16.367393 -17.363668 -4.177762
00000000: 6cf0 8241 cbe8 8ac1 3ab0 85c0

Target_Q_Net.fc_V.weight f4 [1, 30]
-0.0038540668 -0.009690403 -0.00022468992 0.06621261 0.00051793864 -0.017906908 0.00013488778 0.049118966
-0.0029176371 -0.0056945877 -0.0970151 -0.0013104099 0.008147541 0.26332724 0.013641497 0.13129474
0.00990662 0.2826092 -0.47209573 -0.20016715 -0.017994089 0.4210245 -0.21153755 0.09334209
-0.09900738 -0.004537131 -0.5770183 -0.33131465 -0.07935225 0.007284426
00000000: 8394 7cbb 7fc4 1ebc be9a 6bb9 7a9a 873d
00000010: 46c6 073a 82b1 92bc aa70 0d39 f830 493d
00000020: d435 3fbb aa99 babb daaf c6bd 0fc2 abba
00000030: 447d 053c d4d2 863e 9680 5f3c 2172 063e
00000040: 604f 223c 27b2 903e 88b6 f1be 9ef8 4cbe
00000050: 5768 93bc 8690 d73e 4d9d 58be 232a bf3d
00000060: 62c4 cabd 37ac 94bb 79b7 13bf 13a2 a9be
00000070: 6f83 a2bd 32b2 ee3b
