Model/DDQN/result/agent_ddqn_600028_SH.pt (torch_old, 39326 bytes, 10 tensors)

Q_Net.linear1.weight f4 [30, 150]
00000000: 3482 e1c0 d171 e2c0 5b27 ecc0 901e d7c0
00000010: 3e5d 8d3d 49de 8140 c1f8 0341 9dff fbc0
00000020: b11d e6c0 d2dc 17bf 1a45 d3c0 1c5c e5c0
00000030: ac5c e7c0 f7f3 cfc0 9243 fe3e 8935 e440
00000040: 31a0 ed40 2a92 73c0 9cfe e6c0 7597 8c3d
00000050: 7795 d0c0 4593 d0c0 2f34 ddc0 72fa cac0
00000060: 2f32 c2be d132 6640 923b 313f 4173 98be
00000070: 23c4 e0c0 06bc 5e3e 8023 d8c0 514e d7c0
00000080: f434 ddc0 fc50 d1c0 e8da 13bf 7b49 a140
00000090: c6bc 1fc0 d1bc 2b3f a6f8 e0c0 033f 093f
000000a0: c0d3 e0c0 70f6 d3c0 0b39 dcc0 6484 d2c0
000000b0: 8950 93bf cae2 6c40 4d25 a8c0 7f5e 6a3e
000000c0: 7700 dfc0 5a76 8e3f 1f4a e7c0 17bc e2c0
000000d0: 7ca3 edc0 4549 dbc0 a8fb 30bf 745c 3641
000000e0: b31b 20c1 1372 60bf 03e1 e3c0 34a9 88be
000000f0: 9b02 e3c0 19f6 e0c0 2ce7 f4c0 868a ddc0
00000100: 7cec 0f3f 62ae 3a41 2806 fbc0 2686 edbf
00000110: db41 e1c0 5d13 ce3e c1a3 e5c0 3d2e dfc0
00000120: 5c51 edc0 73b1 ddc0 3736 78be 96f8 de40
00000130: 3512 f9c0 47f4 20c0 f8fe e1c0 8f93 fcbb
00000140: ca26 f5c0 6c3e edc0 7ec9 ffc0 c542 ebc0
00000150: 6c16 1ebf b35c 5440 81ea b6c0 1a9b 88c0
00000160: 8d3c e3c0 6600 7b3d e346 ffc0 317f f7c0
00000170: de11 01c1 7415 f3c0 6dbe 89bf a0a8 69bf
00000180: cf35 dbbf 6028 e0c0 a2df e9c0 e920 483e
00000190: d9ae f7c0 a820 ffc0 27cb ffc0 a4b5 f6c0
000001a0: f9e2 8cbe f32c ff3f ba52 33c0 748e f6c0
000001b0: 04e4 edc0 e6a7 8e3e 74ff fdc0 a735 eec0
000001c0: 8c1f 00c1 c627 f1c0 f3e9 2b3f caff e3c0
000001d0: d33e 4640 4710 02c1 a823 f1c0 a3c7 2f3e
000001e0: aa26 00c1 533c 02c1 957a 04c1 8156 f8c0
000001f0: 3d49 4c3f 665c 63c1 8954 25c0 14e4 ddc0
00000200: 0bbb f0c0 e349 22bf e0b5 07c1 ff8b 05c1
00000210: 8eb2 09c1 fd8c 01c1 4ebe 82c0 399c 91c1
00000220: 316c 253e 403b 10c1 ebe2 f6c0 41c7 debf
00000230: 3717 f3c0 332c 08c1 2247 0bc1 9b98 01c1
00000240: aa2a e9be 3c01 f940 b2ab a141 83c2 c4c0
00000250: f890 f6c0 0844 ed3f 4e6e 8fbf ca27 98bf
00000260: 1f0b 50bf 7e4f bfbf b227 fbbf 1efe 7940
00000270: 8d7e 1ec1 ba3c 1b41 36c8 35bf 5f03 8f3e
00000280: 8239 f9be f5da 8bbf 39e1 0bbf fc99 81bf
00000290: bd19 0dbf 6683 19c0 e5f5 2ec0 ab63 2541
000002a0: 735c 34bf 685c fc3d ff5c 0dbf 043c f5be
000002b0: fac9 8ebd 325e 59bf 9a59 39bf bf48 d3c0
000002c0: 24f9 1dc0 0ce4 1f41 da9f 2dbf 507d e5be
000002d0: 64bd 71bf e6b6 3bbf 2b48 d2be 3fa6 9fbf
000002e0: e70b aebf 5aa8 19c1 eb9b d7c0 9e0d 0f41
000002f0: 6f34 25bf 8245 d7be de98 73bf 8c2b 71bf
00000300: 56e6 4bbf 9df3 b7bf 72b9 96bf 604b 5ec1
00000310: 07b3 74c0 19f2 f440 f77f 39bf e5de 97be
00000320: 13f1 80bf 17dd 80bf fd2e 5cbf f427 9abf
00000330: 89f7 1ebf 287a 40c1 2ce4 c7be 5ed5 c640
00000340: 07f1 4abf a730 afbe 19d4 6cbf b0d6 93bf
00000350: 892c 3fbf 8386 89bf 5c1c 15bf 3a14 29c1
00000360: 13a0 f43f 9187 b340 5c88 37bf 15a7 e5be
00000370: 023e 9bbf 1327 58bf 32b0 4bbf 8012 85bf
00000380: 52e4 b4bf 92ba e9bf 8f7a cf3f 950e 5840
00000390: 986e 5bbf c0bd c53d 31bc b1bf f903 76bf
000003a0: 36d4 67bf 0940 afbf 7b0f 03c0 3e68 2940
000003b0: d0ba aa3f fd53 b23f 543c 5ebf d363 053f
000003c0: 3894 23bf 3d7f b6bf 49d8 6fbf b1ef a6bf
000003d0: 27c1 e63e 6459 3541 b3e9 7d40 2e23 1040
000003e0: a371 73bf 9f8e f4bd dc68 62bf 597e 37bf
000003f0: be95 19bf 8f73 4cbf 2c71 00bf 6332 cf40
-7.047144 -7.0763936 -7.379804 -6.722481 0.0690255 4.0583844 8.248231 -7.874953
-7.1911244 -0.5932132 -6.6021852 -7.167494 -7.2300625 -6.498531 0.49660927 7.131535
7.4258046 -3.8057961 -7.2185802 0.06864826 -6.518245 -6.517977 -6.91262 -6.343072
-0.37928912 3.5968516 0.6923152 -0.29775432 -7.0239425 0.21751413 -6.7543335 -6.72831
-6.912714 -6.541136 -0.577559 5.04022 -2.4958968 0.67084986 -7.0303526 0.53611773
-7.0258484 -6.6238327 -6.8819633 -6.578661 -1.1508952 3.701342 -5.2545533 0.2288761
-6.9688067 1.1129868 -7.227798 -7.08546 -7.4262066 -6.852694 -0.69133997 11.397572
-10.0067625 -0.87674063 -7.1212173 -0.26691592 -7.094068 -7.030041 -7.653219 -6.9231596
0.5622022 11.667574 -7.8445015 -1.8556564 -7.039289 0.40249148 -7.1762395 -6.9743943
-7.4161816 -6.9279113 -0.24239431 6.967845 -7.7834725 -2.5149095 -7.062374 -0.00770802
-7.660985 -7.41387 -7.993346 -7.3519006 -0.61752963 3.318158 -5.716126 -4.2689333
-7.1011415 0.061279677 -7.977403 -7.7342763 -8.066862 -7.596369 -1.0761238 -0.91272926
-1.7125796 -7.0049286 -7.308549 0.19543804 -7.7400937 -7.9727364 -7.993549 -7.709673
-0.27516916 1.9935592 -2.8019242 -7.7048893 -7.434084 0.2786247 -7.9374332 -7.4440494
-8.007702 -7.536105 0.67153853 -7.1249743 3.0975845 -8.128974 -7.5356026 0.17165999
-8.009439 -8.139728 -8.279927 -7.7605596 0.7979925 -14.210058 -2.5832846 -6.9340916
-7.5228324 -0.6339399 -8.481903 -8.346679 -8.606092 -8.096921 -4.0857306 -18.20128
0.16154553 -9.014465 -7.7152 -1.7404557 -7.596584 -8.510791 -8.704866 -8.099757
-0.45540363 7.7814007 20.208836 -6.148744 -7.7051964 1.8536386 -1.1205537 -1.1887143
-0.8126697 -1.4946134 -1.9621489 3.906135 -9.905896 9.702326 -0.7100862 0.2793226
-0.48676687 -1.0926195 -0.5464054 -1.0125117 -0.551174 -2.398645 -2.7337582 10.336833
-0.70453566 0.123223126 -0.55220026 -0.4789735 -0.06972118 -0.84909356 -0.72402346 -6.60263
-2.4683313 9.9931755 -0.6782204 -0.44822168 -0.9442961 -0.73325956 -0.41070685 -1.2472609
-1.3597382 -9.603601 -6.737783 8.9408245 -0.6453313 -0.42045218 -0.9515513 -0.9420707
-0.7964834 -1.437122 -1.1775343 -13.893402 -3.823427 7.654553 -0.72460884 -0.29662243
-1.007357 -1.0067471 -0.860092 -1.2043443 -0.6209646 -12.029823 -0.3904127 6.213546
-0.7927403 -0.34216806 -0.92511135 -1.1549892 -0.7467733 -1.0744175 -0.582464 -10.567438
1.9111351 5.6102986 -0.7169244 -0.44854036 -1.2128298 -0.8443462 -0.7956573 -1.0396271
-1.4132178 -1.8260062 1.6209277 3.37589 -0.8571563 0.096553326 -1.3885556 -0.9609981
-0.90558183 -1.3691417 -2.0478199 2.6469874 1.3338261 1.3931881 -0.86810803 0.52105445
-0.6389804 -1.425758 -0.936894 -1.3041898 0.4506924 11.334324 3.9673889 2.2521472
-0.9509527 -0.11941265 -0.8844125 -0.71677166 -0.59994113 -0.7986383 -0.50172687 6.4749007

Q_Net.linear1.bias f4 [30]
00000000: 1f61 4ec0 5673 a83f fa93 6841 f475 35c1
00000010: 4586 a440 2957 5ec0 be20 3b40 1cea 85c0
00000020: e8ea 2840 22fb 0541 ab7f 8c40 f7e2 24c0
00000030: 4236 2ac0 bf7c 3bc0 6986 5dc1 536c 43c1
00000040: 040d 23c1 ca67 18c1 e6d1 43c0 50a6 cb40
00000050: 3c9a 9040 5891 473f 3dd2 8cc0 d696 8140
00000060: 487b 213d 603d e23f 6243 89bf 1bf6 ad40
00000070: a923 0ec1 3d5c 8140
-3.2246778 1.3160198 14.536127 -11.341297 5.1413903 -3.4740698 2.9238734 -4.184828
2.6393375 8.373812 4.3905845 -2.5763528 -2.6595616 -2.929489 -13.845315 -12.213946
-10.190678 -9.525339 -3.0596862 6.364052 4.5188274 0.7795615 -4.400664 4.0496626
0.03942421 1.767498 -1.0723689 5.436292 -8.883706 4.0425096

Q_Net.fc_A.weight f4 [3, 30]
00000000: b904 a23e ca0c 1640 7026 1a3f 7fb3 e43e
00000010: 4cc7 d1be dbfa 09be a270 0a3e 47f5 cdbf
00000020: 64d7 4ebe 4170 8c3f e46d 643f bf70 843e
00000030: 3d50 80bf aa68 65bf d5ed bb3f 2a95 943f
00000040: 9a97 98bc 288a f13d 7093 16c0 8b43 7abf
00000050: 5824 c3bf c34d 08be 1865 37bf 88ce fdbd
00000060: 7f26 0fbf 327f ff3f 82c6 843e f0f8 1b3f
00000070: 011d 34be feda 0dbe cc81 be3f 37ff 6f3f
00000080: fabf a33e 0d39 953f 906d 72be e5a2 b2bf
00000090: 5215 7b3e 265a 3fbf 6419 323f 96d5 0d3f
000000a0: 73b6 ac3f 505d babe 73cb 48be 32c6 30bf
000000b0: 07ff 6d3e a2d6 4d3f 9c44 23bf 8479 3fbf
000000c0: f91b 82be f9eb 27bf 2271 e53e 4c1f 553f
000000d0: c0d2 933f cafb ccbf 0852 b4be c0df 8bbf
000000e0: ff88 253e b0eb 93bf 29d5 95be a6b5 a53f
000000f0: 0313 74be c467 09c0 f611 89bf a9cf c6bf
00000100: 306a b03e 4a8d 173f dd61 483e ffdf 963f
00000110: f67e 9cbe 2ada 89bf 7dd4 c5bf 66ba 953e
00000120: 9fc8 5b3f f7e7 9e3f b3e6 1c3e 9e80 85be
00000130: d836 2e3f 12fd d43e e0a2 5340 f219 313f
00000140: 6b77 4e3e e781 993e c1f7 60be 61c6 973f
00000150: f497 8f3f 5e60 bfbf 2aba 08bf 91e5 3dbe
00000160: a13a a03f 9d4c 80bf
0.31644228 2.3445306 0.602149 0.44668195 -0.40972364 -0.134746 0.13519529 -1.6090478
-0.20199353 1.0971757 0.8923018 0.25867268 -1.0024487 -0.8961283 1.4681956 1.1608021
-0.018626977 0.11793929 -2.3527489 -0.9775931 -1.5245466 -0.13310914 -0.7163863 -0.12392908
-0.55918115 1.9960692 0.259327 0.60926723 -0.17589189 -0.1385307 1.4883361 0.937488
0.31982404 1.1658036 -0.23674607 -1.3955961 0.24519852 -0.7474693 0.69569993 0.5540403
1.3493179 -0.36399317 -0.1960886 -0.6905242 0.23241816 0.8040563 -0.63776565 -0.74794793
-0.25411966 -0.6559444 0.44812876 0.8325088 1.1548691 -1.601434 -0.35218835 -1.0927658
0.16165541 -1.1556301 -0.2926419 1.294606 -0.23835377 -2.1469584 -1.0708606 -1.5532123
0.34456015 0.59199965 0.19568582 1.1787108 -0.30565614 -1.0769703 -1.5455471 0.29243773
0.85853 1.241454 0.1532238 -0.2607469 0.68052435 0.41599327 3.306816 0.69180214
0.20162742 0.2998192 -0.2196951 1.1857415 1.1218247 -1.4951284 -0.53409064 -0.18544604
1.2517892 -1.002338

Q_Net.fc_A.bias f4 [3]
00000000: 7ade d73f f07a 15c0 200d 3cc1
1.686477 -2.3356285 -11.753204

Q_Net.fc_V.weight f4 [1, 30]
00000000: 7abc 8e3e 4072 2ac0 1dd6 bbbf 5035 08c0
00000010: edc8 ce3e 6b7f 0840 00ea 203f 8f12 db3f
00000020: 76df a73f 865c 46bf 7626 10bf 456f 6b3f
00000030: 6545 0640 9b1a b33f 131b 0bc0 16a8 25bf
00000040: 435e 863f 4ba5 ae3e f248 aa3d fdee 773f
00000050: eee9 4040 2e9e 9a3e d29a 90be 7162 ab3f
00000060: 62e8 483f 3368 863f f46b b7bf a909 9dbc
00000070: cb53 3d3f 5664 48bd
0.2787817 -2.6632233 -1.4674717 -2.128254 0.4038767 2.132777 0.62857056 1.7115039
1.311507 -0.7748493 -0.56308687 0.9196666 2.0979855 1.3992494 -2.1735275 -0.64709604
1.0497516 0.34110484 0.083146945 0.9684904 3.014278 0.30198807 -0.2824312 1.3389417
0.7847959 1.0500549 -1.432982 -0.019169645 0.7395598 -0.048923813

Target_Q_Net.linear1.weight f4 [30, 150]
00000000: 2f6f e1c0 cc5e e2c0 8b14 ecc0 520b d7c0
00000010: ac45 923d 58f0 8140 c200 0441 c0f3 fbc0
00000020: f90a e6c0 d7ee 17bf 7632 d3c0 3849 e5c0
00000030: 264a e7c0 02e1 cfc0 8566 ff3e 1631 e440
00000040: 7896 ed40 797b 73c0 e0eb e6c0 9d4b 8b3d
00000050: dd82 d0c0 a080 d0c0 ca21 ddc0 bce7 cac0
00000060: 0010 c1be d426 6640 9ff5 303f bbe1 97be
00000070: 75b1 e0c0 e370 5e3e c310 d8c0 ad3b d7c0
00000080: 7c22 ddc0 3a3e d1c0 f044 13bf 3d55 a140
00000090: c4b8 1fc0 230d 2c3f f2e5 e0c0 0332 093f
000000a0: dcc0 e0c0 9fe3 d3c0 6026 dcc0 8771 d2c0
000000b0: 0b03 93bf 2904 6d40 3110 a8c0 52b4 6b3e
000000c0: c1ed dec0 3c63 8e3f 0f37 e7c0 3ca9 e2c0
000000d0: 9990 edc0 2e36 dbc0 d55c 30bf 9969 3641
000000e0: 9010 20c1 ef0c 60bf 3cce e3c0 c6dd 88be
000000f0: d9ef e2c0 36e3 e0c0 6dd4 f4c0 9677 ddc0
00000100: 4c76 103f f2ae 3a41 f004 fbc0 d955 edbf
00000110: 132f e1c0 2601 ce3e 3891 e5c0 9b1b dfc0
00000120: e43e edc0 e39e ddc0 8c31 76be efe6 de40
00000130: d225 f9c0 9adf 20c0 39ec e1c0 74f9 05bc
00000140: 6714 f5c0 d02b edc0 3fb7 ffc0 1a30 ebc0
00000150: 4895 1dbf c645 5440 15fb b6c0 b793 88c0
00000160: dd29 e3c0 56b5 783d c534 ffc0 156d f7c0
00000170: f308 01c1 3903 f3c0 0f7d 89bf 1211 6abf
00000180: a360 dbbf 6e25 e0c0 07cd e9c0 7965 473e
00000190: 959c f7c0 7b0e ffc0 10b9 ffc0 43a3 f6c0
000001a0: a1c7 8bbe 2ed1 fe3f a934 33c0 a88d f6c0
000001b0: 74d1 edc0 f9c6 8e3e 35ed fdc0 6023 eec0
000001c0: 8716 00c1 4215 f1c0 1076 2c3f a911 e4c0
000001d0: 7469 4640 3e11 02c1 2911 f1c0 6673 2f3e
000001e0: e31d 00c1 3d33 02c1 da71 04c1 2c44 f8c0
000001f0: 99c9 4c3f 2e64 63c1 202b 25c0 bfe9 ddc0
00000200: a8a8 f0c0 81ae 22bf ffac 07c1 3c83 05c1
00000210: eca9 09c1 0a84 01c1 e5ac 82c0 569c 91c1
00000220: 0196 283e 2a3e 10c1 a1d0 f6c0 25d9 debf
00000230: 7f05 f3c0 4f23 08c1 793e 0bc1 858f 01c1
00000240: 9721 e8be 90ff f840 16b0 a141 e6c8 c4c0
00000250: c27e f6c0 1b4a ed3f 5eff 8fbf 49b8 98bf
00000260: 5b2c 51bf 52e0 bfbf c7a2 fbbf f927 7a40
00000270: 287a 1ec1 6450 1b41 7beb 36bf a10c 903e
00000280: 6c7c fbbe 966c 8cbf 7904 0dbf 902b 82bf
00000290: 4612 0ebf 6858 19c0 ebf7 2ec0 6476 2541
000002a0: ab7f 35bf 7251 fd3d f283 0ebf e481 f7be
000002b0: 49e9 97bd 2682 5abf 4c63 3abf cb31 d3c0
000002c0: d615 1ec0 95f5 1f41 97c3 2ebf 8e24 e6be
000002d0: 09e6 72bf 48de 3cbf 7892 d4be 783a a0bf
000002e0: 5d8b aebf 3ca6 19c1 6eab d7c0 d41c 0f41
000002f0: 0659 26bf 4698 d7be debf 74bf a854 72bf
00000300: 2a0c 4dbf e588 b8bf 2d37 97bf bc4f 5ec1
00000310: 5bca 74c0 da0d f540 e7a4 3abf 90a3 97be
00000320: 0584 81bf 0571 81bf d954 5dbf 04bc 9abf
00000330: 15ef 1fbf 3879 40c1 c42e c8be 1cee c640
00000340: 2a16 4cbf 9029 afbe 42fb 6dbf a769 94bf
00000350: fc50 40bf cf19 8abf b712 16bf 8d19 29c1
00000360: b0da f43f 679e b340 d8ad 38bf 416e e5be
00000370: 8cd1 9bbf 944d 59bf bcd5 4cbf 2aa7 85bf
00000380: 225a b5bf 5307 eabf 71fa cf3f f836 5840
00000390: 4994 5cbf f1dd c43d c84e b2bf 162a 77bf
000003a0: 75f8 68bf b2d4 afbf 044b 03c0 be76 2940
000003b0: 4a23 ab3f 539c b23f eb61 5fbf db98 053f
000003c0: 70b8 24bf ee11 b7bf a3fc 70bf cd82 a7bf
000003d0: 98d5 e43e c256 3541 a806 7e40 293f 1040
000003e0: 5497 74bf 4282 f3bd 718c 63bf 0aa3 38bf
000003f0: dcb7 1abf 5399 4dbf 7765 01bf 3838 cf40
-7.044822 -7.074072 -7.3775077 -6.720132 0.07142195 4.060589 8.250185 -7.8735046
-7.1888394 -0.59348816 -6.59991 -7.165188 -7.2278013 -6.496217 0.49882904 7.130992
7.424618 -3.8044112 -7.2162933 0.068015315 -6.5159745 -6.5157013 -6.9103746 -6.340788
-0.3770752 3.5961199 0.6912479 -0.29664406 -7.021662 0.2172275 -6.752046 -6.7260346
-6.9104595 -6.538846 -0.57527065 5.041655 -2.4956522 0.67207545 -7.0280695 0.53591937
-7.0235424 -6.621536 -6.8796844 -6.5763583 -1.1485304 3.703379 -5.2519765 0.23018005
-6.9665227 1.1124034 -7.225471 -7.0831585 -7.423901 -6.8503637 -0.6889165 11.400781
-10.004044 -0.87519735 -7.118925 -0.267317 -7.0917783 -7.0277357 -7.650931 -6.920848
0.56430507 11.667711 -7.8443527 -1.8541824 -7.0369964 0.4023525 -7.173977 -6.97212
-7.413927 -6.9256454 -0.24042338 6.96569 -7.7858667 -2.5136476 -7.060086 -0.00817715
-7.6587405 -7.411598 -7.991119 -7.349622 -0.6155591 3.3167586 -5.7181497 -4.2680316
-7.0988603 0.06071981 -7.9751916 -7.7320657 -8.064685 -7.5941434 -1.074129 -0.914323
-1.7138866 -7.004569 -7.3062778 0.19472302 -7.737864 -7.9705176 -7.9913406 -7.7074294
-0.27300742 1.9907587 -2.8000891 -7.704792 -7.431818 0.2788618 -7.935206 -7.441818
-8.0055 -7.533845 0.6736765 -7.127156 3.1001863 -8.1292095 -7.5333447 0.17133865
-8.007297 -8.137509 -8.277796 -7.758322 0.79995114 -14.211958 -2.5807571 -6.9347835
-7.520588 -0.6354752 -8.479735 -8.34454 -8.603985 -8.094736 -4.0836053 -18.201336
0.16463472 -9.015177 -7.7129674 -1.7410017 -7.594421 -8.50862 -8.702752 -8.097539
-0.45338127 7.7811966 20.21098 -6.1495237 -7.7029734 1.853824 -1.1249807 -1.1931239
-0.81708306 -1.4990332 -1.9659051 3.9086897 -9.904823 9.707127 -0.71453065 0.28134635
-0.49118364 -1.0970638 -0.5508495 -1.0169544 -0.55496633 -2.396021 -2.7338817 10.341404
-0.7089793 0.1236905 -0.5567008 -0.48341286 -0.074175425 -0.8535484 -0.72807765 -6.5998282
-2.4700828 9.997457 -0.68267196 -0.44949764 -0.94882256 -0.73776674 -0.41517997 -1.2517843
-1.363628 -9.603085 -6.7396765 8.944538 -0.6497959 -0.42108363 -0.95605266 -0.94660425
-0.80096686 -1.4416777 -1.1813713 -13.894466 -3.8248508 7.657941 -0.7290787 -0.29616976
-1.0118414 -1.0112616 -0.8645759 -1.2088628 -0.62474185 -12.029594 -0.3909818 6.216566
-0.7972132 -0.34211397 -0.92961514 -1.1594743 -0.7512357 -1.0789126 -0.58622307 -10.568738
1.9129238 5.613086 -0.72140265 -0.4481068 -1.2173324 -0.84884 -0.8001363 -1.044164
-1.4168131 -1.8283485 1.6248304 3.378355 -0.86163765 0.096126445 -1.3930292 -0.96548593
-0.91004115 -1.3736784 -2.0514536 2.6478724 1.3370144 1.3953956 -0.87258786 0.52186364
-0.6434393 -1.4302347 -0.94135493 -1.3086792 0.4469421 11.333681 3.9691563 2.253855
-0.9554341 -0.11890079 -0.8888617 -0.7212378 -0.604368 -0.8031208 -0.5054545 6.4756126

Target_Q_Net.linear1.bias f4 [30]
00000000: f03c 4ec0 d1eb a73f 0d89 6841 3c78 35c1
00000010: 358f a440 2d6f 5ec0 3842 3b40 58cf 85c0
00000020: 6aef 2840 7bf7 0541 428b 8c40 72d0 24c0
00000030: fa21 2ac0 c374 3bc0 ac8f 5dc1 428a 43c1
00000040: 5401 23c1 d971 18c1 1290 43c0 f2b6 cb40
00000050: 03aa 9040 b62c 483f 37a0 8cc0 2895 8140
00000060: c3a2 2d3d 2be8 e13f 2f22 89bf f5c2 ad40
00000070: bd22 0ec1 cc67 8140
-3.2224693 1.311884 14.53346 -11.341854 5.1424813 -3.4755356 2.9259167 -4.1815605
2.6396127 8.37292 4.3919992 -2.5752225 -2.6583238 -2.9290016 -13.847576 -12.221254
-10.187824 -9.527795 -3.0556684 6.366082 4.5207534 0.78193223 -4.3945575 4.0494576
0.04239155 1.7648977 -1.0713557 5.4300485 -8.883481 4.0439205

Target_Q_Net.fc_A.weight f4 [3, 30]
00000000: 5080 a13e 4211 1640 dafe 193f e87a e43e
00000010: f40c d2be a547 06be ad03 0a3e 3717 cebf
00000020: a73d 51be 7280 8c3f 5b85 643f 0940 843e
00000030: c822 80bf 3e55 65bf 47e8 bb3f 94a3 943f
00000040: 856b 95bc fa0f f13d f29e 16c0 d393 7abf
00000050: 0f2f c3bf 6cdd 09be 5d1f 37bf e271 febd
00000060: db7f 0fbf a98c ff3f d786 843e 0cda 1b3f
00000070: a982 34be 32d6 0ebe 14a0 be3f d533 6f3f
00000080: ef20 a43e 532c 953f ce6e 72be 7cd3 b2bf
00000090: ecaa 7a3e 077d 3fbf 01bd 323f 77d1 0d3f
000000a0: 7c47 ad3f 6752 babe df10 4bbe 6f38 30bf
000000b0: 613d 6d3e a4d3 4d3f 8828 23bf ed9a 3fbf
000000c0: e7d4 81be 93c4 27bf e641 e53e 0f45 553f
000000d0: d5c6 933f d423 cdbf edd8 b3be 7ce9 8bbf
000000e0: b218 263e 67d4 93bf c3cf 95be c7e8 a53f
000000f0: 14ce 73be ad4e 09c0 a914 89bf 7dc1 c6bf
00000100: 2593 b03e 2617 173f 51d5 483e e903 973f
00000110: 4dfa 9cbe b9e4 89bf d833 c6bf bad1 953e
00000120: a8c5 5b3f d9a2 9e3f a56b 1d3e 29a2 85be
00000130: 811a 2e3f 9430 d53e 1ca6 5340 d239 313f
00000140: b8d5 4e3e 78e4 993e 7183 61be f5e0 973f
00000150: 56a2 8f3f 0063 bfbf 98b7 08bf 5dfc 3dbe
00000160: 5d41 a03f 7454 80bf
0.31543207 2.3448033 0.601545 0.4462502 -0.41025507 -0.13113268 0.13477965 -1.6100835
-0.20433675 1.0976698 0.89265984 0.25830105 -1.0010614 -0.89583194 1.468026 1.161242
-0.018239746 0.117706254 -2.3534513 -0.9788181 -1.5248736 -0.13463372 -0.7153223 -0.12424065
-0.56054467 1.9964801 0.25884125 0.6087959 -0.17627968 -0.13948897 1.4892602 0.93438464
0.32056376 1.1654152 -0.23675081 -1.397079 0.24479264 -0.7480015 0.6981965 0.55397743
1.353744 -0.36390993 -0.19830655 -0.6883611 0.23167945 0.8040106 -0.6373372 -0.74845773
-0.25357744 -0.65534323 0.4477684 0.833085 1.1545054 -1.6026559 -0.3512644 -1.0930629
0.16220358 -1.1549195 -0.29260072 1.2961663 -0.23809081 -2.145427 -1.070943 -1.5527798
0.34487262 0.59019697 0.19612624 1.1798068 -0.30659714 -1.0772926 -1.5484571 0.2926157
0.85848475 1.2393447 0.15373094 -0.2610028 0.6800919 0.41638625 3.3070135 0.6922885
0.20198715 0.3005712 -0.22022797 1.1865526 1.1221416 -1.4952087 -0.5340514 -0.185533
1.2519947 -1.0025773

Target_Q_Net.fc_A.bias f4 [3]
00000000: b523 d73f c243 15c0 a701 3cc1
1.6807772 -2.3322606 -11.750403

Target_Q_Net.fc_V.weight f4 [1, 30]
00000000: 7eca 8f3e 3882 2ac0 2fd6 bbbf cf41 08c0
00000010: 3f01 cf3e bc93 0840 65ed 203f 4a27 db3f
00000020: 03ee a73f 7a5d 46bf ffac 0fbf 858c 6b3f
00000030: 1e6c 0640 b975 b33f b91d 0bc0 b98f 25bf
00000040: c77b 863f a4ab ae3e 0f05 aa3d d59a 773f
00000050: ddec 4040 63f6 9a3e c82b 90be 0b71 ab3f
00000060: 1d0b 493f b16a 863f 6a63 b7bf 3fba 9abc
00000070: 9165 3d3f 64c9 41bd
0.28084177 -2.664198 -1.4674739 -2.1290166 0.40430638 2.134017 0.62862235 1.7121365
1.311951 -0.77486384 -0.56123346 0.9201129 2.100349 1.4020301 -2.1736891 -0.6467243
1.0506524 0.34115326 0.08301746 0.9672063 3.014457 0.30266103 -0.28158402 1.3393873
0.7853258 1.050131 -1.4327214 -0.018887637 0.73983103 -0.0473112
