Model/DDQN/result/agent_ddqn_000651_SZ.pt (torch_old, 39326 bytes, 10 tensors)

Q_Net.linear1.weight f4 [30, 150]
00000000: a9f8 4e40 3d41 5340 29d2 3840 4a93 6540
00000010: 20e8 1141 a986 f040 c292 5dc0 7df4 8c3f
00000020: 0da0 5740 ce8a b3ba f032 5340 e580 4640
00000030: f2c6 3d40 c0d9 6040 d20c 1541 ca41 0b41
00000040: 30e5 62bf 8a88 d53f 28fe 5040 dc15 d4bd
00000050: 7878 4f40 3bc0 5140 5ce6 3d40 3953 5a40
00000060: be1a 1141 8385 f640 02d0 373f 0c07 0840
00000070: 248f 5640 cfb9 393c 32ec 4b40 9aef 4a40
00000080: 1153 3e40 23c0 6240 739d 0f41 b6ad cb40
00000090: 854d a3bf 8a79 ec3f e446 5240 688c b83d
000000a0: 1946 4540 7e33 4e40 aaa0 4140 bf4e 5940
000000b0: 2c1d 0e41 3276 cd40 5480 f2bf f2b7 9f3f
000000c0: 9c58 5440 ab15 d23d f4c6 4440 59a4 4840
000000d0: b7ec 3b40 0ce6 5740 a12f 0e41 81ed fc40
000000e0: 11e9 b7be 34c7 b83e 5fb5 4a40 af9d eb3d
000000f0: 4b94 4640 19c5 4940 36de 2c40 422e 5640
00000100: 35e2 1241 aa13 eb40 51e6 40c0 3f5a 62be
00000110: 9680 4f40 3dce 123e 3abd 4f40 fe7e 4e40
00000120: c941 3b40 d9fa 5b40 ecf1 1741 5e0e b240
00000130: c186 3540 99d3 473d 405b 4f40 71bc 463e
00000140: 7ec6 4d40 d50c 4940 f603 3740 f9e4 5a40
00000150: 7e86 1b41 5bef 6e40 cc91 4640 6115 d73e
00000160: c30d 5240 acef 673e 3caf 4240 e324 4740
00000170: 7a73 3240 306a 4e40 8908 1441 541e 313e
00000180: 1c9b 11c0 c6b3 ab3d 4bd7 4a40 3f6c 98bd
00000190: 9c23 4340 d378 3f40 73fd 3440 01d2 4d40
000001a0: b46f 1541 ac54 3bbf 01e8 85c0 1be8 50be
000001b0: 0021 4540 ea15 47be 09bf 4640 8eaf 4d40
000001c0: 9944 3b40 4edc 5740 a360 1d41 bf63 3c40
000001d0: 15bd 18c0 fe86 603e 140e 4440 6d0d 2ebd
000001e0: 1aa8 4a40 e2ad 4640 9c27 3840 5456 5a40
000001f0: 0cbd 2341 6b2b 4ac0 0da4 78c0 287c 883f
00000200: f04a 4940 bee4 023f 13fc 2a40 4616 3540
00000210: 4609 2140 fbfb 4640 2452 8a40 b557 a2c0
00000220: ddf0 3dc0 165d 07c0 6480 4040 54cd ebbe
00000230: 1988 1f40 50cf 0640 69c4 e43f 9128 2240
00000240: 1308 8640 ccf9 1041 7a2c fb40 2298 1ac0
00000250: 6351 3b40 ae6f abbd 5064 02c0 c4f5 0bc0
00000260: 67b4 fdbf c818 13c0 b8b9 c03e 32cf c7bf
00000270: 7182 e3be 2edf 63c0 fcd2 02c0 883c 0e3d
00000280: f5ac fabf b715 09c0 9823 fdbf 9709 07c0
00000290: 917e 153f 6991 c8be 7419 19c0 2937 4cc0
000002a0: 1a9e 04c0 970a 2b3d e188 ebbf 650f f9bf
000002b0: 6917 d5bf b236 03c0 5cf1 1a3f e185 f8bf
000002c0: c09c 54c0 f670 48c0 dca7 02c0 aaf0 a93c
000002d0: 25af e0bf 4330 f0bf 5407 d4bf 01b7 01c0
000002e0: 231b 9a3f 18c3 0cbf bf4a ab3d 64f8 12c0
000002f0: 88c2 f6bf 6ea2 8bbd dc5d f6bf e507 e6bf
00000300: f6e5 e6bf 41ac 01c0 3018 563f 8344 99c0
00000310: b92a 87bf cd05 37c0 7ee4 fbbf 602b b4bd
00000320: f065 09c0 36d6 00c0 879f f9bf b956 10c0
00000330: dd70 653f bb3c bbc0 c021 28c0 78e0 7dc0
00000340: bbf2 00c0 ab80 1abd 259b 0fc0 fc4f 0fc0
00000350: 33b4 01c0 0adf 0fc0 c5ef 803f 043b 88c0
00000360: f12f 87c0 a6e5 9fc0 a59f fbbf fa8e 3bbb
00000370: 323d 0ec0 1e8c 05c0 fbea fcbf 27fd 09c0
00000380: b623 933f 6d49 603d 5bed a6bf 2a40 b0c0
00000390: eb46 04c0 af43 0d3c ae61 0bc0 c8e4 06c0
000003a0: 9dc8 fdbf 53c5 0ec0 e023 933f eeb2 02bf
000003b0: 089a 13c0 2cb3 b0c0 afd1 00c0 94de 5d3c
000003c0: 0746 eebf a66e 10c0 1f01 fcbf aa16 05c0
000003d0: 23ad f03f 2229 ac40 2500 5dbd ed47 91c0
000003e0: 4094 06c0 418e 443d 5fbb ffbf c37e e9bf
000003f0: 31af ebbf f1c4 febf 040f a23f 01f8 873f
3.233927 3.3008568 2.8878272 3.5871148 9.119171 7.516438 -3.4620824 1.1012112
3.3691437 -0.0013697983 3.299984 3.101617 2.9652677 3.5132904 9.31563 8.703562
-0.8863096 1.6682293 3.2655125 -0.10355732 3.2417278 3.2773578 2.967185 3.4113295
9.069029 7.703798 0.7180177 2.12543 3.3524866 0.011335804 3.1862912 3.170874
2.97382 3.542977 8.97594 6.364955 -1.2758032 1.8474591 3.2855768 0.09011155
3.0824034 3.2218928 3.0254312 3.3954313 8.882122 6.420678 -1.8945413 1.2478011
3.3179083 0.10258039 3.0746431 3.135031 2.936323 3.373416 8.886628 7.903992
-0.35920003 0.3608948 3.16732 0.11504685 3.102801 3.152655 2.7010627 3.3465734
9.180226 7.3461504 -3.0140574 -0.22104739 3.2422233 0.14336486 3.2459245 3.226501
2.9258902 3.4371855 9.496563 5.564254 2.8363497 0.04878578 3.2399445 0.19407822
3.21524 3.1414082 2.8596168 3.4202254 9.720335 3.733359 3.1026487 0.42008498
3.28209 0.22650021 3.0419455 3.1116264 2.7882981 3.2252312 9.252084 0.17296726
-2.2750921 0.083838984 3.1693904 -0.07442521 3.0490484 2.9917495 2.8279693 3.2159426
9.339771 -0.73176074 -4.184571 -0.20401041 3.0801392 -0.19441953 3.1054099 3.21384
2.9260619 3.3728213 9.836093 2.943588 -2.3865407 0.21926495 3.0633593 -0.042493273
3.16651 3.104363 2.8774176 3.411519 10.233654 -3.1589 -3.8850129 1.066289
3.1451988 0.5113028 2.6716354 2.8294845 2.516191 3.1091297 4.322527 -5.0732064
-2.9678261 -2.1150565 3.0078363 -0.4605509 2.4926817 2.1064034 1.787244 2.533726
4.1884856 9.060986 7.8491793 -2.4155354 2.9268425 -0.083709106 -2.0373726 -2.1868753
-1.982068 -2.2983875 0.37641692 -1.5610106 -0.44435456 -3.5604968 -2.0441275 0.034725696
-1.9584032 -2.1419504 -1.9776487 -2.1099603 0.5839625 -0.3917344 -2.3921785 -3.1908667
-2.0721498 0.041758146 -1.8401147 -1.9457823 -1.6647769 -2.0502133 0.60524535 -1.9415857
-3.3220673 -3.1318946 -2.0414953 0.02074464 -1.755345 -1.8764728 -1.6564736 -2.0267947
1.2039531 -0.5498519 0.08363866 -2.2964106 -1.9278116 -0.068180904 -1.9247394 -1.7971159
-1.8038929 -2.0261385 0.8363066 -4.7896132 -1.0559913 -2.859729 -1.9679105 -0.087973356
-2.1468468 -2.0130744 -1.9501809 -2.2552931 0.8962534 -5.8511634 -2.62706 -3.9668255
-2.014815 -0.037720364 -2.2438443 -2.2392569 -2.0266235 -2.2479882 1.0073172 -4.257204
-4.224602 -4.9967833 -1.9658095 -0.0028619156 -2.222485 -2.086677 -1.975921 -2.1560762
1.1495273 0.054757524 -1.3041185 -5.5078325 -2.0668285 0.008622094 -2.177837 -2.1077137
-1.9826847 -2.2307937 1.1495323 -0.51054275 -2.3062763 -5.5218716 -2.012798 0.013541836
-1.8615121 -2.2567534 -1.9687842 -2.0795083 1.8802837 5.380021 -0.053955216 -4.54003
-2.1027985 0.047987226 -1.9979056 -1.824181 -1.8412839 -1.9903852 1.2660832 1.062256

Q_Net.linear1.bias f4 [30]
00000000: b627 9340 1cd8 9640 589c ea40 0f47 88c0
00000010: cdd8 1641 3f9e 06bf 7e75 be40 00b2 833f
00000020: a69c 393f 3f2d 4040 a633 6840 682b c640
00000030: dce1 a540 5c2d 66c0 34fe e1bf 4b8b 97bf
00000040: 7cc3 46c0 31bc e6bf abde 1340 775b 2a40
00000050: 44a3 eb40 6184 99bf e354 0540 3348 9340
00000060: 3927 e140 3887 9540 833d 6b40 4fbc 5f40
00000070: 1420 ad3d f702 7040
4.5985975 4.7138805 7.331585 -4.258674 9.42793 -0.52585214 5.9518423 1.0288696
0.7250465 3.0027616 3.6281524 6.1927986 5.1838207 -3.5965185 -1.7655702 -1.1839384
-3.1056814 -1.8026181 2.3104656 2.6618326 7.36368 -1.1993524 2.083306 4.6025634
7.036038 4.672756 3.6756294 3.4958684 0.08453384 3.750181

Q_Net.fc_A.weight f4 [3, 30]
00000000: 7470 a83e 3a31 acbd 0d06 c33b d3cf f33c
00000010: 9a0e ffbd d97f 883e d639 753c 84f8 7d3d
00000020: e5d7 143e 6d19 0a3e 11c2 e43c 41af 98bd
00000030: 83e9 1bbe 9def 9bbd 9d41 743e 01dc ff3c
00000040: 01f8 8d3d 8e6e 42be b089 953e 26e7 c43d
00000050: 4a8d 65bc 349b 30bd 6027 473e b1ce 83bd
00000060: a8d6 9fbd a565 e33c c2dc a93e febe 4c3e
00000070: b9fe db3d 5426 103d 981c b63e d938 cdbc
00000080: 92d1 e0ba efa5 6e3d 5cb3 05be 037d 933e
00000090: c246 6cbc 24b6 3e3e 6231 013e 60be 913d
000000a0: ebb7 b8bd d467 c4bd 723e f1bc 1e80 24bb
000000b0: fa0c 833e 728c a63e e3c7 e1bc ef2a 743e
000000c0: 4444 783e 7371 3bbe ca3a 8fbc b2bb df3e
000000d0: 84ad adbe eae5 83bc be2a 12be 7b52 a53d
000000e0: b20d a5be 9814 22bf 4f37 3a3d 353a 7fbd
000000f0: 507e a43e 068c c2bd b874 84bd b269 beba
00000100: d28f a6bd 7f02 953e 31f7 6a3d 2ea2 9a3d
00000110: 07fc ed3d 714f 783d 239a 1b3c e9b1 9cbd
00000120: 1c0c b0bc 393c 5cbd 00de 803e 421f 8f3d
00000130: dda5 043d 4d9c f7bc 5d6e 853e c3b6 9dbc
00000140: 3fcc a03c 969e d53d a6c8 b73d d72b 86bc
00000150: 8a3f 03be 4832 5e3d 4f0d 063e 3ab7 f63d
00000160: 2927 863d 2ebc 2abb
0.32898295 -0.08407827 0.005951649 0.029762184 -0.12453957 0.2666004 0.014967402 0.06200458
0.14535482 0.13486262 0.02792457 -0.07455302 -0.15225796 -0.07614062 0.23853154 0.031232836
0.069320686 -0.18987486 0.2920661 0.096144006 -0.014010737 -0.043116763 0.19448614 -0.06435908
-0.07804614 0.027758429 0.33176237 0.19994733 0.10741944 0.035192803 0.3556869 -0.025051521
-0.00171523 0.058263715 -0.13056701 0.28806314 -0.014421167 0.18624169 0.12616494 0.07116389
-0.090194546 -0.09590116 -0.029448722 -0.0025100778 0.25595838 0.32529026 -0.027561134 0.23844503
0.24244791 -0.18304996 -0.017484087 0.43697888 -0.33921444 -0.016100843 -0.14274117 0.080723725
-0.3223701 -0.63312674 0.045462903 -0.06231137 0.3212762 -0.094993636 -0.06467575 -0.0014527349
-0.081329 0.29103467 0.057364646 0.075504646 0.11620336 0.060622636 0.009497198 -0.07651121
-0.02149015 -0.05376837 0.25169373 0.06988384 0.032384742 -0.030225897 0.26060763 -0.019252187
0.019628642 0.104306385 0.089738175 -0.016378326 -0.12817207 0.05424717 0.13091014 0.120466664
0.06550438 -0.0026052105

Q_Net.fc_A.bias f4 [3]
00000000: 15a9 7941 df42 8ec1 4e8a 31c0
15.60378 -17.782652 -2.7740664

Q_Net.fc_V.weight f4 [1, 30]
00000000: 3d10 8f3c d20e 4f3d 92b1 b5bc 087d bc3d
00000010: b549 003a bfeb a5bc f979 153c 11ff 393d
00000020: 3e1d 64bc 2370 223d de0c 4d3c 4bea eabc
00000030: 6075 75bd 61c1 5b3e 0fa6 403a da91 eb3d
00000040: 173c 2d3d 0623 603e 068b c3be 23a8 1dbe
00000050: daf9 bfbd 79c7 cb3e 65b3 38be 3870 6a3d
00000060: 1d85 8abd 6c19 b93c 491f 0fbf 8378 9bbe
00000070: 229a 66bd dd8d 42bd
0.017463798 0.050551243 -0.022179399 0.09203535 0.00048937957 -0.020254014 0.009123319 0.045409266
-0.0139229875 0.039657723 0.012515275 -0.028676173 -0.05992639 0.21460487 0.00073489634 0.11502428
0.042293634 0.2188836 -0.38192004 -0.1539617 -0.09373827 0.39800623 -0.18037184 0.057235926
-0.067636706 0.02259513 -0.5590711 -0.3036538 -0.056299336 -0.047498573

Target_Q_Net.linear1.weight f4 [30, 150]
00000000: 6dfc 4e40 d644 5340 c7d5 3840 1b97 6540
00000010: 63e8 1141 3e88 f040 7a92 5dc0 9ef5 8c3f
00000020: b0a3 5740 21f1 abba d236 5340 ae84 4640
00000030: b7ca 3d40 afdd 6040 140d 1541 e342 0b41
00000040: 43df 62bf 908c d53f d401 5140 5517 d4bd
00000050: 687c 4f40 35c4 5140 3aea 3d40 4257 5a40
00000060: 061b 1141 e988 f640 39d5 373f 6f0a 0840
00000070: da92 5640 efa9 383c 25f0 4b40 9cf3 4a40
00000080: e656 3e40 40c4 6240 c59d 0f41 6ab0 cb40
00000090: de47 a3bf 9282 ec3f a34a 5240 7d67 b83d
000000a0: 294a 4540 8d37 4e40 a4a4 4140 d652 5940
000000b0: 781d 0e41 d477 cd40 9c7e f2bf b3c3 9f3f
000000c0: 695c 5440 8a14 d23d f8ca 4440 86a8 4840
000000d0: cff0 3b40 1cea 5740 dd2f 0e41 06ee fc40
000000e0: 1fe0 b7be 01fc b83e 34b9 4a40 e3ae eb3d
000000f0: 4e98 4640 2ac9 4940 2fe2 2c40 4a32 5640
00000100: 77e2 1241 e614 eb40 5de8 40c0 15ea 61be
00000110: 7384 4f40 14e1 123e 3ac1 4f40 fd82 4e40
00000120: d145 3b40 e6fe 5b40 27f2 1741 2610 b240
00000130: 2785 3540 2c9c 493d 215f 4f40 93cb 463e
00000140: 7bca 4d40 d310 4940 ed07 3740 f3e8 5a40
00000150: b086 1b41 08f3 6e40 4f91 4640 c44d d73e
00000160: a811 5240 21f6 673e 1bb3 4240 eb28 4740
00000170: 6277 3240 2a6e 4e40 aa08 1441 513f 313e
00000180: 179f 11c0 797f ac3d 2fdb 4a40 0871 98bd
00000190: 9d27 4340 b27c 3f40 5601 3540 fcd5 4d40
000001a0: e66f 1541 c649 3bbf a5e8 85c0 8882 50be
000001b0: e924 4540 9819 47be 26c3 4640 9ab3 4d40
000001c0: be48 3b40 50e0 5740 cd60 1d41 4968 3c40
000001d0: f4bc 18c0 a4f1 603e 0512 4440 8215 2ebd
000001e0: 02ac 4a40 e9b1 4640 9a2b 3840 415a 5a40
000001f0: 0cbd 2341 952c 4ac0 2aae 78c0 2888 883f
00000200: e04e 4940 7ce1 023f ffff 2a40 1a1a 3540
00000210: 330d 2140 c8ff 4640 6352 8a40 9658 a2c0
00000220: 72f4 3dc0 5357 07c0 5284 4040 5bcb ebbe
00000230: 178c 1f40 43d3 0640 65cc e43f 8c2c 2240
00000240: 7008 8640 75f9 1041 a72d fb40 4b92 1ac0
00000250: 5355 3b40 6f71 abbd 695d 02c0 e6ee 0bc0
00000260: b2a6 fdbf d411 13c0 d4fe c03e 54c3 c7bf
00000270: 44ec e3be d0ee 63c0 20cc 02c0 4703 0f3d
00000280: 539f fabf b50e 09c0 a415 fdbf b102 07c0
00000290: bb9e 153f 068e c8be 1029 19c0 3e47 4cc0
000002a0: 3e97 04c0 139f 2b3d 707b ebbf bf01 f9bf
000002b0: 120a d5bf fc2f 03c0 a60e 1b3f 1989 f8bf
000002c0: 8ec2 54c0 e081 48c0 07a1 02c0 1b0b aa3c
000002d0: b2a1 e0bf c922 f0bf c6f9 d3bf 44b0 01c0
000002e0: 852a 9a3f 3ac1 0cbf 86e5 a73d 370a 13c0
000002f0: e3b4 f6bf adad 8bbd e54f f6bf 2dfa e5bf
00000300: 0cd8 e6bf 60a5 01c0 3a3a 563f 0f45 99c0
00000310: 784c 87bf a215 37c0 cdd6 fbbf 214a b4bd
00000320: be5e 09c0 e0ce 00c0 3591 f9bf 8f4f 10c0
00000330: 7992 653f 8a43 bbc0 1f2e 28c0 48ec 7dc0
00000340: d5eb 00c0 8c98 1abd d793 0fc0 d448 0fc0
00000350: 03ad 01c0 10d8 0fc0 1101 813f ad3a 88c0
00000360: 1f35 87c0 18e9 9fc0 b991 fbbf 3544 2cbb
00000370: 7836 0ec0 2a85 05c0 e1dc fcbf 48f6 09c0
00000380: 7233 933f 86c0 5f3d 09f8 a6bf 9543 b0c0
00000390: fe3f 04c0 7f6b 0f3c 065b 0bc0 03de 06c0
000003a0: ebba fdbf abbe 0ec0 fb33 933f 8bd7 02bf
000003b0: 519a 13c0 c2b6 b0c0 cdca 00c0 05a5 623c
000003c0: a638 eebf 0d68 10c0 bdf3 fbbf f90f 05c0
000003d0: 53bd f03f ca24 ac40 6dc5 5dbd 3f4b 91c0
000003e0: 648d 06c0 3e8a 453d aead ffbf af71 e9bf
000003f0: 24a2 ebbf 9ab7 febf 5921 a23f fde4 873f
3.2341568 3.3010764 2.888048 3.5873477 9.119235 7.516631 -3.4620652 1.1012456
3.3693657 -0.0013118127 3.300221 3.1018481 2.9654977 3.5135305 9.315693 8.70383
-0.8862192 1.6683521 3.2657366 -0.10356013 3.2419682 3.2776005 2.967421 3.4115758
9.0690975 7.7042127 0.71809727 2.1256368 3.352713 0.011270984 3.1865323 3.1711187
2.9740539 3.5432281 8.976018 6.365285 -1.2756307 1.8477347 3.2858055 0.09004114
3.0826514 3.2221406 3.0256739 3.395681 8.8821945 6.4208775 -1.8944888 1.2481598
3.3181403 0.10257824 3.0748882 3.1352859 2.9365728 3.373664 8.886685 7.9040556
-0.35913178 0.36129764 3.167554 0.11507966 3.103046 3.152903 2.7013052 3.3468194
9.180289 7.346301 -3.0141823 -0.22061951 3.242459 0.14343673 3.2461686 3.226745
2.9261363 3.4374328 9.496619 5.5644712 2.836252 0.049221203 3.2401812 0.19413595
3.2154834 3.1416519 2.8598588 3.420468 9.720383 3.7335835 3.102619 0.42051518
3.2823277 0.22652484 3.0421817 3.1118724 2.7885365 3.2254739 9.252115 0.1730931
-2.275335 0.08422751 3.169628 -0.07443434 3.0492928 2.9919858 2.8282065 3.2161856
9.339819 -0.73159444 -4.184649 -0.20362294 3.0803778 -0.19443357 3.105661 3.214087
2.9263148 3.373066 9.836133 2.943865 -2.3865328 0.21967179 3.0635998 -0.04250098
3.1667485 3.1046088 2.8776612 3.4117587 10.233654 -3.158971 -3.8856301 1.0666552
3.1454391 0.5112531 2.6718748 2.829718 2.5164306 3.1093616 4.322557 -5.0733137
-2.9680448 -2.1147048 3.0080762 -0.46053585 2.4929254 2.1066444 1.7874876 2.533969
4.18853 9.060903 7.849323 -2.415179 2.9270828 -0.08371245 -2.0369513 -2.1864562
-1.9816496 -2.2979631 0.37694418 -1.5606484 -0.44516194 -3.561451 -2.0437088 0.034915235
-1.9579872 -2.1415226 -1.9772229 -2.1095393 0.5844533 -0.39170855 -2.3931313 -3.1918483
-2.071731 0.041899752 -1.8397045 -1.9453658 -1.6643698 -2.0498037 0.60569227 -1.9416839
-3.3243747 -3.132927 -2.0410783 0.020757249 -1.7549345 -1.8760616 -1.65606 -2.0263834
1.2044226 -0.5498234 0.08198075 -2.2974985 -1.9273952 -0.068202354 -1.9243132 -1.7966973
-1.8034682 -2.0257187 0.83682597 -4.78968 -1.0570211 -2.8606954 -1.9674927 -0.088032015
-2.1464076 -2.0126266 -1.9497439 -2.2548559 0.89676625 -5.8519945 -2.627815 -3.9675465
-2.014394 -0.037743136 -2.2433984 -2.23882 -2.0261848 -2.2475624 1.007845 -4.2571626
-4.2252345 -4.997204 -1.9653846 -0.0026285772 -2.2220745 -2.0862527 -1.9754907 -2.1556568
1.1500075 0.054626964 -1.3044444 -5.5082498 -2.0664058 0.008753656 -2.1774306 -2.1073005
-1.9822668 -2.2303874 1.1500238 -0.5111014 -2.3062937 -5.5223093 -2.012378 0.013833289
-1.8611038 -2.2563508 -1.9683758 -2.0791 1.8807777 5.379491 -0.054143358 -4.5404353
-2.1023798 0.04822754 -1.9974878 -1.8237818 -1.8408856 -1.9899781 1.2666427 1.0616757

Target_Q_Net.linear1.bias f4 [30]
00000000: 4028 9340 e5dc 9640 4196 ea40 2c4e 88c0
00000010: 37d9 1641 3978 06bf 0576 be40 3bbb 833f
00000020: 0d6d 393f a12f 4040 b833 6840 4829 c640
00000030: 54e4 a540 0f19 66c0 55fc e1bf f27d 97bf
00000040: abd1 46c0 b4a1 e6bf 71c4 1340 154c 2a40
00000050: 37aa eb40 8e94 99bf c94c 0540 4546 9340
00000060: 952e e140 0c89 9540 0844 6b40 4fb4 5f40
00000070: b679 ad3d 78fc 6f40
4.5986633 4.7144647 7.3308415 -4.2595425 9.428031 -0.52527195 5.9519067 1.0291513
0.72432023 3.002907 3.6281567 6.192539 5.184122 -3.5952795 -1.7655131 -1.183531
-3.106547 -1.8018098 2.3088648 2.6608937 7.364528 -1.199846 2.0828116 4.602328
7.0369363 4.6729794 3.6760273 3.4953802 0.0847048 3.7497845

Target_Q_Net.fc_A.weight f4 [3, 30]
00000000: 5481 a83e 9a8c abbd c8a9 c33b e303 f43c
00000010: b220 ffbd 0177 883e 40a9 723c 0ed3 7d3d
00000020: 1a0b 153e 1032 0a3e 5332 e63c 02f2 98bd
00000030: 5cfc 1bbe c117 9cbd b558 743e 14bf ff3c
00000040: 714e 8e3d d56a 42be 307f 953e eed8 c43d
00000050: a6a0 67bc 8d90 30bd 1646 473e 0baf 83bd
00000060: 50ca 9fbd cf3b e33c 84dd a93e fdba 4c3e
00000070: 2518 dc3d f486 113d c60f b63e 011c cebc
00000080: 51d2 c4ba 8cc9 6e3d 6ad3 05be 1b7c 933e
00000090: d228 6dbc c4b5 3e3e 472a 013e baa7 913d
000000a0: 57eb b8bd 9626 c4bd c917 f1bc 8ce6 1dbb
000000b0: 3314 833e 208a a63e fa24 e3bc 0a33 743e
000000c0: 2862 783e bb65 3bbe 1ff9 8dbc f4ba df3e
000000d0: aeb1 adbe 1b49 84bc 2f2c 12be d750 a53d
000000e0: a60d a5be ae16 22bf 8561 3a3d 12dd 7fbd
000000f0: fb7d a43e 37be c2bd 68cf 84bd b93f c4ba
00000100: f94a a6bd 890b 953e 1c8f 6b3d b1ad 9a3d
00000110: 7bc9 ed3d 7333 783d b562 1b3c a5aa 9cbd
00000120: f0c7 afbc 8d52 5cbd b8d0 803e 562b 8f3d
00000130: ebbc 043d e0d7 f7bc 546a 853e 6dd6 9dbc
00000140: 3e78 a03c 9c9c d53d 4eb1 b73d d93e 86bc
00000150: ba43 03be 1240 5e3d be0b 063e 4cc9 f63d
00000160: 0b03 863d 1329 30bb
0.3291117 -0.08376427 0.0059711672 0.02978701 -0.12457408 0.26653293 0.01481086 0.061968856
0.14555016 0.1349566 0.028100168 -0.07468034 -0.15232986 -0.07621718 0.23861964 0.031219043
0.06948555 -0.18986066 0.291986 0.096116886 -0.014137423 -0.043106604 0.1946033 -0.06429871
-0.0780226 0.02773848 0.33176816 0.19993205 0.10746793 0.035529092 0.3555891 -0.025159838
-0.0015016292 0.05829768 -0.1306893 0.28805622 -0.014475064 0.18624026 0.12613784 0.071120694
-0.090292625 -0.09577672 -0.029430287 -0.0024093715 0.25601348 0.32527256 -0.027727593 0.23847595
0.24256194 -0.18300526 -0.017330704 0.4369732 -0.3392462 -0.01614814 -0.14274667 0.080720596
-0.32236975 -0.63315856 0.045503158 -0.06246669 0.32127365 -0.09508937 -0.06484872 -0.0014972604
-0.08119769 0.29110363 0.057509527 0.0755266 0.11610695 0.06059594 0.009483983 -0.07649735
-0.021457642 -0.053789664 0.2515924 0.069906875 0.03240673 -0.030254304 0.26057684 -0.019267285
0.019588586 0.104302615 0.08969365 -0.01638739 -0.12818804 0.05426032 0.13090417 0.12050113
0.06543549 -0.002687995

Target_Q_Net.fc_A.bias f4 [3]
00000000: 3fa7 7941 0443 8ec1 8c84 31c0
15.603332 -17.782722 -2.773715

Target_Q_Net.fc_V.weight f4 [1, 30]
00000000: b33a 903c 3f35 503d 365f b7bc c968 bc3d
00000010: 1d1d 323a 7d5c a6bc f94e 143c 5732 3a3d
00000020: 935f 62bc bcaf 223d 3c84 4f3c 5366 ecbc
00000030: 977c 75bd 8bc1 5b3e a03b 333a 4c73 eb3d
00000040: 6103 2e3d f628 603e 728e c3be 7da9 1dbe
00000050: 6b47 c0bd b4c5 cb3e 509b 38be e96d 6a3d
00000060: 4a8e 8abd 8316 b93c c220 0fbf ad82 9bbe
00000070: 3144 67bd ae27 43bd
0.017606115 0.05083203 -0.022384267 0.09199674 0.00067944993 -0.020307774 0.009052032 0.045458164
-0.013816732 0.039718375 0.0126658045 -0.028857386 -0.05993327 0.2146055 0.0006837193 0.114966005
0.04248369 0.21890625 -0.38194615 -0.15396686 -0.09388622 0.39799273 -0.18027997 0.057233725
-0.06765421 0.022593742 -0.5590936 -0.30373135 -0.056461517 -0.047645263
