Model/DDQN/result/agent_ddqn_600570_SH.pt (torch_old, 39326 bytes, 10 tensors)

Q_Net.linear1.weight f4 [30, 150]
-4.6747746 -4.4522653 -5.167482 -4.360299 2.8427157 3.694216 1.5932579 -4.888502
-4.459101 0.11480927 -5.1441565 -4.846367 -4.922516 -4.5669007 2.944299 6.9330044
4.310142 -3.526512 -4.676135 -0.13159356 -4.949471 -5.247991 -5.6194754 -4.928667
2.5944555 7.3125744 2.7407258 -1.2236215 -4.62397 0.39398232 -5.599548 -5.229385
-5.4558563 -5.0639706 2.3296192 2.843519 0.08117759 -1.6712698 -4.7953634 0.5729732
-5.438648 -5.859111 -5.615462 -5.43202 2.2178519 3.7340784 -2.2937586 -2.964911
-4.8303347 1.0093521 -5.7621455 -5.6649227 -5.6173983 -5.56942 1.9695573 7.698746
-5.4223094 -5.027316 -5.083734 0.2727721 -5.945236 -5.1775103 -6.2131367 -5.6293893
3.2781816 7.307749 -4.4508414 -7.2341003 -5.139177 1.099365 -6.061472 -5.9590206
-6.076168 -5.6703615 2.2964008 4.480582 -4.0683484 -8.634671 -5.2822094 1.2103975
-6.923881 -6.1780653 -7.239357 -6.491491 1.8411744 2.5518742 -3.4390144 -10.8009405
-5.470817 1.0832853 -7.0965 -7.2460723 -7.308424 -6.806772 0.74765146 -3.9592197
-1.8769308 -12.7864275 -5.7826486 1.4216552 -6.3244133 -6.8167844 -6.9470263 -6.6465015
1.9865512 0.066568695 -4.0774016 -11.878103 -5.930702 0.9163009 -6.3723097 -6.126797
-6.6510987 -5.8035083 1.9594669 -6.246751 3.8180287 -11.130195 -6.0220075 1.3498026
-6.3672304 -6.4483476 -6.6657887 -6.1002674 1.939223 -13.091517 -2.4294891 -9.019693
-5.9986434 1.0097095 -6.9624033 -6.916321 -7.2420254 -6.62165 -2.6390276 -17.086813
-1.8407598 -10.898426 -6.1911445 -0.09750588 -5.945 -6.889725 -6.99922 -6.393901
-0.085733846 7.176104 20.823574 -8.782566 -6.1607842 2.991234 -7.198523 -6.4386535
-6.8357267 -7.1265087 -4.8001018 4.850974 0.04895829 0.924458 -6.7836103 0.42152673
-7.587243 -7.7098446 -7.2495914 -7.6389933 -3.6805978 -4.549015 -2.0016608 0.28900665
-6.939355 0.5114466 -7.9221573 -7.8312016 -7.6695743 -8.143689 -4.667361 -8.829709
-0.917675 -1.7034454 -7.0855455 0.6468549 -8.445195 -7.939903 -7.6202846 -8.583535
-5.224671 -13.232093 0.425598 -3.3597057 -7.2197046 0.8356687 -8.506324 -8.526592
-8.596687 -8.676386 -4.7963486 -13.586895 1.4940969 -4.6793284 -7.4535437 0.5520658
-8.515618 -8.627688 -8.411169 -8.844798 -4.9357567 -15.704447 0.50127506 -6.0582604
-7.6417174 0.19424132 -8.858003 -8.275975 -8.359081 -8.561678 -5.4708524 -11.049371
0.15809903 -7.6211686 -7.738263 -0.44818932 -9.312632 -8.515709 -8.92838 -8.698013
-6.4774 -2.7697403 -2.7933486 -10.828213 -8.046152 -0.95203966 -9.7772 -9.065178
-9.763168 -9.188722 -7.2406106 -0.8536007 -1.7226123 -12.7517 -8.238424 -0.36024466
-8.385155 -10.05353 -9.18754 -9.037556 -4.311438 8.434901 2.905841 -8.439035
-8.37908 0.62259537 -7.5970507 -8.141499 -8.013699 -8.035171 -3.6542385 8.5475855
00000000: c197 95c0 f578 8ec0 035c a5c0 9287 8bc0
00000010: 0eef 3540 096e 6c40 e0ef cb3f 9c6e 9cc0
00000020: f5b0 8ec0 1f21 eb3d ee9c a4c0 7015 9bc0
00000030: 4085 9dc0 0d24 92c0 656f 3c40 2cdb dd40
00000040: afec 8940 5fb2 61c0 e6a2 95c0 76c0 06be
00000050: 1162 9ec0 8bef a7c0 bed2 b3c0 a4b7 9dc0
00000060: 8f0b 2640 9c00 ea40 0d68 2f40 a19f 9cbf
00000070: 90f7 93c0 0db8 c93e 7f2f b3c0 1f57 a7c0
00000080: 6096 aec0 0c0c a2c0 7b18 1540 37fc 3540
00000090: 7040 a63d 2bec d5bf 9e73 99c0 5fae 123f
000000a0: 6809 aec0 d67d bbc0 ddb1 b3c0 1cd3 adc0
000000b0: 49f1 0d40 24fb 6e40 f1cc 12c0 1ac1 3dc0
000000c0: 1a92 9ac0 7332 813f 7f63 b8c0 0c47 b5c0
000000d0: bac1 b3c0 b038 b2c0 741a fc3f 215c f640
000000e0: 8f83 adc0 c6df a0c0 f3ad a2c0 c9a8 8b3e
000000f0: 603f bec0 2aae a5c0 04d2 c6c0 f523 b4c0
00000100: bacd 5140 14d9 e940 4b6d 8ec0 c07d e7c0
00000110: 2374 a4c0 feb7 8c3f 94f7 c1c0 4cb0 bec0
00000120: f86f c2c0 9a73 b5c0 3bf8 1240 ee60 8f40
00000130: e92f 82c0 9d27 0ac1 dc07 a9c0 4eee 9a3f
00000140: 6f90 ddc0 b6b2 c5c0 d0a8 e7c0 4bba cfc0
00000150: 9aab eb3f e851 2340 d018 5cc0 a7d0 2cc1
00000160: ef10 afc0 18a9 8a3f 8716 e3c0 d3df e7c0
00000170: 9cde e9c0 14d1 d9c0 1666 3f3f db63 7dc0
00000180: 453f f0bf 3595 4cc1 750b b9c0 ccf8 b53f
00000190: 9861 cac0 1923 dac0 0a4e dec0 24b0 d4c0
000001a0: 4f47 fe3f 2b55 883d 137a 82c0 b60c 3ec1
000001b0: 50c8 bdc0 b292 6a3f f6e9 cbc0 b90e c4c0
000001c0: cdd5 d4c0 57b6 b9c0 d0cf fa3f 62e5 c7c0
000001d0: 955a 7440 4715 32c1 49b4 c0c0 55c6 ac3f
000001e0: 5ac0 cbc0 dd58 cec0 244e d5c0 6435 c3c0
000001f0: 7638 f83f db76 51c1 c07c 1bc0 aa50 10c1
00000200: e3f4 bfc0 293e 813f 02cc dec0 8052 ddc0
00000210: acbe e7c0 8fe4 d3c0 d4e5 28c0 cbb1 88c1
00000220: 049e ebbf f45f 2ec1 db1d c6c0 2ab1 c7bd
00000230: 713d bec0 a178 dcc0 9cf9 dfc0 d69a ccc0
00000240: 3a95 afbd a5a2 e540 ae96 a641 6485 0cc1
00000250: 2525 c5c0 6170 3f40 4d5a e6c0 7309 cec0
00000260: 46be dac0 5c0c e4c0 6f9a 99c0 2e3b 9b40
00000270: 7d88 483d 48a9 6c3f 5613 d9c0 5ad2 d73e
00000280: b2ca f2c0 0cb7 f6c0 a7fc e7c0 a272 f4c0
00000290: ea8e 6bc0 8891 91c0 361b 00c0 aef8 933e
000002a0: 320f dec0 2aee 023f 5082 fdc0 3499 fac0
000002b0: 276d f5c0 8d4c 02c1 055b 95c0 7d46 0dc1
000002c0: c0ec 6abf 800a dabf cabc e2c0 4898 253f
000002d0: 851f 07c1 af13 fec0 5fd9 f3c0 2956 09c1
000002e0: 8130 a7c0 a7b6 53c1 fbe7 d93e 6b05 57c0
000002f0: d207 e7c0 62ee 553f e719 08c1 ec6c 08c1
00000300: 088c 09c1 7ad2 0ac1 b07b 99c0 ec63 59c1
00000310: 913e bf3f 0fbd 95c0 6e83 eec0 2f54 0d3f
00000320: f93f 08c1 030b 0ac1 2694 06c1 4b84 0dc1
00000330: b8f1 9dc0 6a45 7bc1 9053 003f 45dd c1c0
00000340: f388 f4c0 32e7 463e 61ba 0dc1 656a 04c1
00000350: ccbe 05c1 a2fc 08c1 3911 afc0 39ca 30c1
00000360: b6e4 213e 9de0 f3c0 da9f f7c0 1279 e5be
00000370: 8a00 15c1 5840 08c1 a5da 0ec1 102b 0bc1
00000380: dc46 cfc0 6d43 31c0 39c6 32c0 5c40 2dc1
00000390: 0abd 00c1 dfb8 73bf 696f 1cc1 f80a 11c1
000003a0: f035 1cc1 0105 13c1 15b3 e7c0 9385 5abf
000003b0: 8f7e dcbf f706 4cc1 96d0 03c1 fd71 b8be
000003c0: 9829 06c1 42db 20c1 2a00 13c1 d499 10c1
000003d0: 4df7 89c0 5bf5 0641 4df9 3940 4a06 07c1
000003e0: b610 06c1 6962 1f3f 0a1b f3c0 9443 02c1
000003f0: 1c38 00c1 0f90 00c1 0bdf 69c0 e9c2 0841

Q_Net.linear1.bias f4 [30]
-1.3140482 -2.9228978 12.184903 -4.0327168 3.2183902 5.4911714 -4.0326705 3.7650933
5.416635 -1.2839671 8.141277 -3.7417667 4.7311473 -10.584285 -11.800295 -10.921255
-11.673693 -0.8025045 -3.43708 4.6832376 9.16287 -8.405637 7.5001283 0.4173994
-1.2220896 14.032082 -4.487883 10.219897 -1.3988833 -0.35205865
00000000: bb32 a8bf c210 3bc0 5df5 4241 040c 81c0
00000010: 1bfa 4d40 adb7 af40 a30b 81c0 4af7 7040
00000020: 1355 ad40 0959 a4bf ac42 0241 1b79 6fc0
00000030: 8f65 9740 3b59 29c1 02ce 3cc1 76bd 2ec1
00000040: 72c7 3ac1 ef70 4dbf 1ef9 5bc0 15dd 9540
00000050: 1e9b 1241 7d7d 06c1 0d01 f040 60b5 d53e
00000060: 6f6d 9cbf 6883 6041 bd9c 8fc0 b384 2341
00000070: 9c0e b3bf 0841 b4be

Q_Net.fc_A.weight f4 [3, 30]
0.17009147 1.659264 -0.39069447 1.5637116 -0.122812 -0.17676 0.38612458 -0.18693891
-0.5080944 0.36673787 -0.17929551 -0.6843732 -0.9143898 0.03796184 2.219999 0.11771067
-0.440263 0.036788877 -3.1960633 -1.3316998 -0.4217436 0.25502 -0.012511323 -0.16032325
-0.014633654 3.0072014 0.4247126 -1.4450101 0.3911006 -0.02156885 1.7164844 3.5222847
2.3746147 1.4163544 0.9578197 -0.27386907 -0.33973134 -1.8280656 -0.29946148 2.0025475
-0.16727437 -0.7795155 -0.9638923 -0.8196746 -0.34261566 1.1711036 -0.7227855 -1.4048408
2.1191607 -1.7229393 -2.2076154 0.1286098 0.85292953 -0.7638111 -1.0383675 -1.7646208
1.2641698 0.27431652 -0.439467 0.20483536 0.19448525 -2.1719651 0.31478113 -2.9275122
-0.7036079 -0.3610345 0.67452484 0.44263697 -0.043619607 -0.4433289 -0.2738266 0.9642389
1.1382973 0.915549 -2.4794521 0.007992442 1.2107857 0.35029638 2.8025618 1.6462195
0.34435475 0.22394732 -1.017977 0.5212293 -0.036752984 -0.16504532 -1.6661649 0.6481952
0.33137754 -1.046191
00000000: 752c 2e3e c362 d43f 1b09 c8be b427 c83f
00000010: dc84 fbbd 9300 35be 1fb2 c53e ea6c 3fbe
00000020: 7912 02bf 11c5 bb3e 3e99 37be 1533 2fbf
00000030: 7315 6abf e07d 1b3d 7714 0e40 4b12 f13d
00000040: 276a e1be efaf 163d 4d8c 4cc0 2475 aabf
00000050: c7ee d7be fb91 823e 4bfc 4cbc c72b 24be
00000060: fec1 6fbc fd75 4040 ee73 d93e 17f6 b8bf
00000070: 563e c83e 28b1 b0bc c3b5 db3f 1d6d 6140
00000080: b0f9 1740 1a4b b53f ac33 753f 9138 8cbe
00000090: 44f1 adbe 0efe e9bf 0453 99be bd29 0040
000000a0: f949 2bbe 548e 47bf a5c1 76bf 32d6 51bf
000000b0: 526b afbe b9e6 953f 7808 39bf d3d1 b3bf
000000c0: 54a0 0740 4689 dcbf 9249 0dc0 4ab2 033e
000000d0: 9759 5a3f 2089 43bf 3ae9 84bf 18df e1bf
000000e0: 51d0 a13f 3773 8c3e d201 e1be 5cc0 513e
000000f0: 2427 473e 7a01 0bc0 fe2a a13e 5c5c 3bc0
00000100: a61f 34bf 84d9 b8be a9ad 2c3f 50a1 e23e
00000110: 79aa 32bd 01fc e2be 0033 8cbe 5cd8 763f
00000120: bab3 913f 6b61 6a3f 58af 1ec0 bbf2 023c
00000130: 07fb 9a3f 0c5a b33e 2c5d 3340 52b7 d23f
00000140: 444f b03e 7252 653e 124d 82bf 496f 053f
00000150: 4c8a 16bd a401 29be e444 d5bf 1ff0 253f
00000160: 51aa a93e 96e9 85bf

Q_Net.fc_A.bias f4 [3]
26.253227 -26.715862 -24.405321
00000000: 9c06 d241 16ba d5c1 193e c3c1

Q_Net.fc_V.weight f4 [1, 30]
-1.3371836 -3.9403057 -2.0614004 -2.8040812 -0.70713615 1.7420177 0.9932496 1.2619549
-0.0829104 -1.3064032 -0.022323547 1.2837408 2.2080271 1.3130287 -1.0478061 -0.6739047
1.4756749 0.6426025 -1.3770922 2.0918558 1.9518505 0.08324112 -0.9049476 1.2591244
0.6114056 3.2589784 -2.344603 -2.1650345 0.5499283 -0.48278058
00000000: d528 abbf f82d 7cc0 fced 03c0 1176 33c0
00000010: e006 35bf 70fa de3f 9b45 7e3f bd87 a13f
00000020: eecc a9bd 3838 a7bf dfdf b6bc 9e51 a43f
00000030: 5150 0d40 5311 a83f 831e 86bf 0585 2cbf
00000040: eae2 bc3f 9981 243f 8f44 b0bf f7e0 0540
00000050: 3dd6 f93f 527a aa3d a5aa 67bf fd2a a13f
00000060: 1485 1c3f 1a93 5040 fa0d 16c0 ed8f 0ac0
00000070: 1ac8 0c3f 042f f7be

Target_Q_Net.linear1.weight f4 [30, 150]
-4.6747594 -4.452237 -5.1674256 -4.3602524 2.844007 3.693894 1.597522 -4.8882337
-4.459026 0.11475948 -5.144169 -4.846405 -4.922461 -4.5668406 2.9455068 6.930446
4.3106546 -3.5264142 -4.676073 -0.13153574 -4.949553 -5.248008 -5.619547 -4.928682
2.595618 7.308847 2.7375755 -1.2237706 -4.623929 0.39392436 -5.5995173 -5.229473
-5.455894 -5.0639844 2.3306987 2.8405957 0.07973717 -1.6714277 -4.7953253 0.5729277
-5.4387302 -5.85906 -5.615461 -5.4320107 2.2187614 3.7284493 -2.295598 -2.965271
-4.8303137 1.0094917 -5.762134 -5.664965 -5.6174383 -5.569398 1.9704164 7.695487
-5.423677 -5.0276804 -5.0837145 0.2729594 -5.945046 -5.1775346 -6.2130375 -5.6293464
3.2791202 7.3064346 -4.450213 -7.234133 -5.1391335 1.0995442 -6.0614038 -5.958807
-6.0760617 -5.670216 2.2973456 4.4795685 -4.068355 -8.634661 -5.2821617 1.2102818
-6.9236836 -6.1779666 -7.2392354 -6.491407 1.8423352 2.5532823 -3.435617 -10.800621
-5.4707456 1.0833851 -7.096366 -7.2458434 -7.3082113 -6.8066244 0.7488604 -3.9592867
-1.8738521 -12.785987 -5.782568 1.4219449 -6.32443 -6.8167605 -6.947048 -6.646431
1.9874761 0.067201994 -4.0796394 -11.8778925 -5.930636 0.91642565 -6.372196 -6.126938
-6.6510386 -5.8035526 1.9607998 -6.246125 3.8174515 -11.129884 -6.021934 1.3497779
-6.367176 -6.4482284 -6.665703 -6.1001806 1.9404757 -13.091079 -2.427593 -9.019439
-5.998573 1.0097333 -6.9623985 -6.916246 -7.241962 -6.621656 -2.6379886 -17.086664
-1.8395499 -10.898342 -6.1910844 -0.09736305 -5.944925 -6.8896766 -6.9992056 -6.3938737
-0.08463133 7.1772513 20.824379 -8.78245 -6.160722 2.9911299 -7.200662 -6.440793
-6.8377986 -7.1286993 -4.8007884 4.847723 0.051097296 0.9223556 -6.7856274 0.42170528
-7.589352 -7.71195 -7.25165 -7.641087 -3.6813345 -4.5518136 -2.0020425 0.2869161
-6.941386 0.51145613 -7.9242816 -7.8333526 -7.671656 -8.145831 -4.6679416 -8.832084
-0.9166132 -1.7055352 -7.087591 0.646984 -8.447251 -7.94201 -7.622328 -8.585658
-5.2252603 -13.234094 0.42688447 -3.3617184 -7.2217526 0.83582366 -8.508399 -8.528642
-8.598734 -8.678509 -4.7969713 -13.58953 1.4942088 -4.681325 -7.455595 0.5522459
-8.517751 -8.629778 -8.413276 -8.846897 -4.936722 -15.707515 0.49905846 -6.0603642
-7.64378 0.19439271 -8.860138 -8.278135 -8.36119 -8.563843 -5.471724 -11.051695
0.15526639 -7.6233816 -7.740339 -0.44809726 -9.314828 -8.517844 -8.930558 -8.70024
-6.478166 -2.770628 -2.7948422 -10.830688 -8.048245 -0.9520884 -9.779303 -9.067376
-9.765244 -9.19092 -7.241285 -0.85320145 -1.7207997 -12.754223 -8.240521 -0.3601653
-8.387257 -10.055636 -9.189605 -9.03969 -4.3121343 8.434912 2.9052753 -8.441571
-8.381177 0.6226901 -7.599242 -8.143604 -8.015843 -8.03731 -3.655215 8.547933
00000000: a197 95c0 ba78 8ec0 8d5b a5c0 3087 8bc0
00000010: 3604 3640 c268 6c40 9a7b cc3f 696c 9cc0
00000020: 57b0 8ec0 0507 eb3d 089d a4c0 c015 9bc0
00000030: cd84 9dc0 8f23 92c0 2f83 3c40 37c6 dd40
00000040: e2f0 8940 c5b0 61c0 64a2 95c0 4eb1 06be
00000050: bd62 9ec0 aeef a7c0 54d3 b3c0 c3b7 9dc0
00000060: 9b1e 2640 13e2 e940 7034 2f40 84a4 9cbf
00000070: 3af7 93c0 74b0 c93e 3f2f b3c0 d857 a7c0
00000080: af96 aec0 290c a2c0 2b2a 1540 52cc 3540
00000090: 3e4d a33d 58f1 d5bf 4e73 99c0 64ab 123f
000000a0: 140a aec0 6b7d bbc0 dbb1 b3c0 08d3 adc0
000000b0: 3000 0e40 ea9e 6e40 14eb 12c0 00c7 3dc0
000000c0: ee91 9ac0 0637 813f 6763 b8c0 6547 b5c0
000000d0: 0ec2 b3c0 8238 b2c0 9b36 fc3f 6e41 f640
000000e0: c38e adc0 c2e2 a0c0 caad a2c0 56c1 8b3e
000000f0: d13d bec0 5dae a5c0 34d1 c6c0 9b23 b4c0
00000100: 1bdd 5140 50ce e940 2568 8ec0 047e e7c0
00000110: c873 a4c0 ddbd 8c3f 05f7 c1c0 8cae bec0
00000120: 196f c2c0 6972 b5c0 b607 1340 a058 8f40
00000130: f72f 82c0 9227 0ac1 7807 a9c0 84ea 9a3f
00000140: d18e ddc0 e7b1 c5c0 d1a7 e7c0 9bb9 cfc0
00000150: a4d1 eb3f fa68 2340 26e1 5bc0 58cf 2cc1
00000160: 5910 afc0 5dac 8a3f 6e15 e3c0 f3dd e7c0
00000170: dedc e9c0 decf d9c0 51b5 3f3f f464 7dc0
00000180: 63da efbf 6793 4cc1 cc0a b9c0 4a02 b63f
00000190: bb61 cac0 e722 dac0 384e dec0 90af d4c0
000001a0: 9e65 fe3f 33a1 893d 688c 82c0 d90b 3ec1
000001b0: c5c7 bdc0 df9a 6a3f 08e9 cbc0 e00f c4c0
000001c0: 4fd5 d4c0 b4b6 b9c0 7dfb fa3f 42e0 c7c0
000001d0: 2051 7440 0114 32c1 afb3 c0c0 86c5 ac3f
000001e0: e8bf cbc0 e357 cec0 704d d5c0 ae34 c3c0
000001f0: 8261 f83f 0f75 51c1 af5d 1bc0 9f4f 10c1
00000200: 4ff4 bfc0 f13e 813f f8cb dec0 e351 ddc0
00000210: 27be e7c0 9be4 d3c0 ced4 28c0 7db1 88c1
00000220: 5f76 ebbf 9c5f 2ec1 5d1d c6c0 4766 c7bd
00000230: d33c bec0 3b78 dcc0 7ef9 dfc0 9d9a ccc0
00000240: 3153 adbd 0bac e540 5498 a641 ea84 0cc1
00000250: a224 c5c0 ac6e 3f40 d36b e6c0 fa1a cec0
00000260: 3fcf dac0 4e1e e4c0 0fa0 99c0 8c20 9b40
00000270: 664b 513d 7f1f 6c3f dc23 d9c0 c1e9 d73e
00000280: f9db f2c0 4bc8 f6c0 840d e8c0 c983 f4c0
00000290: fc9a 6bc0 75a8 91c0 7721 00c0 abe6 923e
000002a0: d61f dec0 caee 023f b793 fdc0 d3aa fac0
000002b0: 357e f5c0 5355 02c1 c75f 95c0 3750 0dc1
000002c0: 2aa7 6abf fa4e dabf 8ccd e2c0 bea0 253f
000002d0: f127 07c1 f224 fec0 1cea f3c0 db5e 09c1
000002e0: 5535 a7c0 d9be 53c1 9a90 da3e 6526 57c0
000002f0: 9918 e7c0 8af8 553f 6722 08c1 5175 08c1
00000300: 6a94 09c1 2cdb 0ac1 ca80 99c0 b76e 59c1
00000310: 3c42 bf3f 6acd 95c0 3c94 eec0 fd5f 0d3f
00000320: b548 08c1 9213 0ac1 c79c 06c1 e48c 0dc1
00000330: a0f9 9dc0 fb51 7bc1 9784 ff3e 81ee c1c0
00000340: d999 f4c0 e20e 473e 20c3 0dc1 3e73 04c1
00000350: 6fc7 05c1 8005 09c1 5d18 afc0 bed3 30c1
00000360: 27fe 1e3e bef2 f3c0 dbb0 f7c0 016d e5be
00000370: 8909 15c1 1749 08c1 91e3 0ec1 2f34 0bc1
00000380: 234d cfc0 f851 31c0 b2de 32c0 804a 2dc1
00000390: 9dc5 00c1 11bc 73bf 0678 1cc1 f913 11c1
000003a0: 703e 1cc1 020e 13c1 9bb8 e7c0 696b 5abf
000003b0: 2a43 dcbf 4c11 4cc1 2dd9 03c1 9667 b8be
000003c0: 3432 06c1 e3e3 20c1 9f08 13c1 92a2 10c1
000003d0: 01fd 89c0 66f5 0641 08f0 3940 ad10 07c1
000003e0: 4d19 06c1 9e68 1f3f fe2c f3c0 344c 02c1
000003f0: e540 00c1 d298 00c1 0bef 69c0 55c4 0841

Target_Q_Net.linear1.bias f4 [30]
-1.3127447 -2.9235122 12.1860485 -4.032821 3.2218096 5.4916773 -4.0333276 3.7634916
5.420158 -1.2842057 8.138756 -3.7423341 4.7307396 -10.583636 -11.798594 -10.9206
-11.673135 -0.8052436 -3.4402807 4.683714 9.164419 -8.403363 7.4992723 0.41626528
-1.2209622 14.03167 -4.487914 10.218992 -1.4023209 -0.35420474
00000000: 0508 a8bf d31a 3bc0 0efa 4241 df0c 81c0
00000010: 2132 4e40 d2bb af40 0511 81c0 0cdd 7040
00000020: ef71 ad40 da60 a4bf 5838 0241 6782 6fc0
00000030: 3862 9740 9356 29c1 0bc7 3cc1 c7ba 2ec1
00000040: 29c5 3ac1 7224 4ebf 8f2d 5cc0 fce0 9540
00000050: 76a1 1241 2d74 06c1 0afa ef40 b920 d53e
00000060: 7d48 9cbf b881 6041 fe9c 8fc0 fe80 2341
00000070: 407f b3bf 535a b5be

Target_Q_Net.fc_A.weight f4 [3, 30]
0.17009899 1.658962 -0.39043632 1.5638059 -0.12247562 -0.17683993 0.3861179 -0.18577464
-0.5078399 0.36709857 -0.17894623 -0.6841851 -0.9143298 0.037816405 2.220154 0.11812178
-0.44066748 0.036899563 -3.1959124 -1.3316752 -0.42195588 0.2546979 -0.012740802 -0.1603341
-0.014521693 3.0073216 0.42475826 -1.4450259 0.39115268 -0.02137753 1.7165341 3.5223079
2.3745382 1.4163209 0.9576686 -0.27381352 -0.3395732 -1.8281827 -0.2996412 2.0026166
-0.16762285 -0.7796675 -0.9639002 -0.81965566 -0.34271333 1.1714354 -0.7226842 -1.4049095
2.1190715 -1.7229389 -2.2075722 0.12868041 0.8532358 -0.76371837 -1.0380038 -1.7646279
1.2641633 0.27433482 -0.43953842 0.2045374 0.19436875 -2.1716127 0.3146706 -2.927556
-0.70364296 -0.3610551 0.6742227 0.4416698 -0.04356458 -0.44381973 -0.27353752 0.96424246
1.1382395 0.915701 -2.4794998 0.007055585 1.2111046 0.35030264 2.802503 1.6461891
0.3444856 0.22414485 -1.0182515 0.52104545 -0.037448946 -0.16515014 -1.6662066 0.64817756
0.33145136 -1.0458832
00000000: 6e2e 2e3e de58 d43f 45e7 c7be cb2a c83f
00000010: 7fd4 fabd 8715 35be 3fb1 c53e b53b 3ebe
00000020: cc01 02bf 58f4 bb3e ae3d 37be c126 2fbf
00000030: 8511 6abf 60e5 1a3d 0117 0e40 d5e9 f13d
00000040: 2b9f e1be ff23 173d d489 4cc0 5574 aabf
00000050: 9a0a d8be c367 823e ccbe 50bc 9f2e 24be
00000060: 65ec 6dbc f577 4040 ea79 d93e 9cf6 b8bf
00000070: 2a45 c83e ee1f afbc 64b7 db3f 7e6d 6140
00000080: 6ff8 1740 014a b53f c529 753f 4931 8cbe
00000090: 8adc adbe e401 eabf 926a 99be df2a 0040
000000a0: 53a5 2bbe 4a98 47bf 2ac2 76bf f4d4 51bf
000000b0: 1f78 afbe 98f1 953f d501 39bf 13d4 b3bf
000000c0: de9e 0740 4389 dcbf dd48 0dc0 ccc4 033e
000000d0: a96d 5a3f 0c83 43bf 4fdd 84bf 54df e1bf
000000e0: 1ad0 a13f 9d75 8c3e 2e0b e1be 4172 513e
000000f0: 9a08 473e b4fb 0ac0 811c a13e 145d 3bc0
00000100: f221 34bf 37dc b8be dc99 2c3f 8b22 e23e
00000110: c670 32bd 573c e3be 1c0d 8cbe 98d8 763f
00000120: d5b1 913f 616b 6a3f 20b0 1ec0 8932 e73b
00000130: 7a05 9b3f de5a b33e 365c 3340 53b6 d23f
00000140: 6b60 b03e 3a86 653e 1156 82bf 3c63 053f
00000150: 1164 19bd 1e1d 29be 4246 d5bf f7ee 253f
00000160: feb3 a93e 80df 85bf

Target_Q_Net.fc_A.bias f4 [3]
26.252743 -26.715904 -24.404707
00000000: 9e05 d241 2cba d5c1 d73c c3c1

Target_Q_Net.fc_V.weight f4 [1, 30]
-1.3371875 -3.94045 -2.0613449 -2.8041263 -0.706566 1.7420402 0.9932892 1.2617261
-0.082846515 -1.3067174 -0.022490796 1.2836589 2.2080126 1.3129759 -1.047881 -0.67401916
1.4755661 0.6425506 -1.3771584 2.0918133 1.951888 0.08322582 -0.9048816 1.2591462
0.61133033 3.2590766 -2.3446412 -2.1650093 0.54984766 -0.48309627
00000000: f628 abbf 5530 7cc0 13ed 03c0 ce76 33c0
00000010: 82e1 34bf 2cfb de3f 3348 7e3f 3e80 a13f
00000020: 6fab a9bd 8442 a7bf 9e3e b8bc ef4e a43f
00000030: 1450 0d40 980f a83f f720 86bf 858c 2cbf
00000040: 5adf bc3f 327e 243f ba46 b0bf 45e0 0540
00000050: 77d7 f93f 4c72 aa3d 52a6 67bf b42b a13f
00000060: 2580 1c3f b694 5040 9a0e 16c0 838f 0ac0
00000070: d1c2 0c3f 6558 f7be
