Model/DDQN/result/agent_ddqn_600036_SH.pt (torch_old, 39326 bytes, 10 tensors)

Q_Net.linear1.weight f4 [30, 150]
0	0xc102dec5	-8.179387
1	0xc105ca87	-8.361945
2	0xc108347a	-8.512812
3	0xc0ff8f4a	-7.9862413
4	0xc018f8e1	-2.3901904
5	0x40723519	3.7844908
6	0x405b1e59	3.4237273
7	0xbf19f306	-0.6013645
8	0xc10736ca	-8.450876
9	0xbd24d9b9	-0.0402467
10	0xc0f6124a	-7.6897326
11	0xc105352e	-8.325483
12	0xc103f7dc	-8.248013
13	0xc0f7d344	-7.7445393
14	0xbfe65a52	-1.7996314
15	0x410baf6a	8.730326
16	0x410680b8	8.406425
17	0x40536127	3.3028047
18	0xc1073ebf	-8.452819
19	0xbe722a70	-0.23649001
20	0xc0ed1910	-7.4093094
21	0xc0f15893	-7.5420623
22	0xc0f4e7d1	-7.653298
23	0xc0f02b33	-7.5052733
24	0xbfeefdf6	-1.8671253
25	0x40ef57fb	7.47949
26	0x40ede3fa	7.434079
27	0x40e9bc4b	7.304235
28	0xc10349b1	-8.205491
29	0x3f859cf1	1.043852
30	0xc0f12288	-7.5354652
31	0xc0f8bf3d	-7.7733445
32	0xc0f50b2a	-7.657613
33	0xc0f12414	-7.535654
34	0xbff2f98d	-1.8982407
35	0x40e6b55f	7.20964
36	0x409fccc6	4.9937468
37	0x4108d35c	8.551601
38	0xc1025700	-8.14624
39	0x3feaad02	1.8334048
40	0xc0fbdb52	-7.8705225
41	0xc0f0184a	-7.502965
42	0xc0f260f7	-7.5743365
43	0xc0f2b16f	-7.5841594
44	0xc00f98ed	-2.2437088
45	0x40d08d90	6.5172806
46	0x3fabb556	1.3414714
47	0x40fa3849	7.8193707
48	0xc100b362	-8.043795
49	0x40083fb4	2.1288881
50	0xc1026e17	-8.151877
51	0xc0fef51c	-7.9674206
52	0xc1029b44	-8.162907
53	0xc0fd667a	-7.9187593
54	0xc01bc97d	-2.4341729
55	0x4152715a	13.152674
56	0xc093ac87	-4.6148105
57	0x40c5a439	6.1762967
58	0xc102c8e0	-8.174042
59	0x3f821b07	1.0164498
60	0xc0fe3ffa	-7.9453096
61	0xc1000f4e	-8.0037365
62	0xc106a30d	-8.414807
63	0xc0fdfee8	-7.9373665
64	0xbf88550f	-1.0650958
65	0x415f7921	13.9670725
66	0xc0b9f373	-5.810968
67	0x40993542	4.787751
68	0xc100fb97	-8.061423
69	0x3f9ce345	1.2256857
70	0xc0ff7096	-7.9824934
71	0xc0f9b9ea	-7.8039446
72	0xc101a17e	-8.101927
73	0xc0fe3a88	-7.944645
74	0xc012cd62	-2.2937856
75	0x41206624	10.024937
76	0xc0d93132	-6.7872553
77	0x407cb05a	3.9482636
78	0xc100d5a9	-8.052163
79	0x3f2e4494	0.6807339
80	0xc102b3f3	-8.168933
81	0xc102a30d	-8.164807
82	0xc1093a07	-8.576667
83	0xc102cb15	-8.174581
84	0xc00155f6	-2.0208716
85	0x4127ab86	10.479376
86	0xbffcf8a3	-1.9763378
87	0x402f13ea	2.7355905
88	0xc1004bb9	-8.018487
89	0x3f09a76f	0.5377111
90	0xc105ffb2	-8.374926
91	0xc10555d8	-8.333458
92	0xc107390e	-8.451429
93	0xc103f57e	-8.247435
94	0xc018260d	-2.3773224
95	0x40b597cb	5.6747794
96	0x4070eacf	3.7643316
97	0x3f01aec4	0.50657296
98	0xc10248ae	-8.142744
99	0x3f99565c	1.197948
100	0xc1045085	-8.269658
101	0xc107027e	-8.438108
102	0xc1067336	-8.403128
103	0xc104af1a	-8.292749
104	0xbfd95af0	-1.6980877
105	0x40fc814e	7.8907843
106	0x3fadb873	1.3571914
107	0xbeb04040	-0.3442402
108	0xc1039d6f	-8.225936
109	0x3fa7928a	1.3091595
110	0xc10b4c62	-8.706148
111	0xc101828c	-8.094372
112	0xc10805ac	-8.501385
113	0xc1075215	-8.45754
114	0xbf9dbd47	-1.2323388
115	0xbf8869e6	-1.0657318
116	0x410f73c9	8.965768
117	0xbfc2e215	-1.5225245
118	0xc1051c64	-8.319431
119	0x3fdf2627	1.7433518
120	0xc10d0d56	-8.815756
121	0xc10eeb0f	-8.932387
122	0xc10f2d32	-8.948534
123	0xc10c9471	-8.786241
124	0xbfce13af	-1.6099757
125	0xc11e9e62	-9.913668
126	0xbfed051d	-1.8517185
127	0xbf8a3821	-1.0798379
128	0xc105073e	-8.314268
129	0x3f692f84	0.9108813
130	0xc112d499	-9.176904
131	0xc1158f52	-9.34749
132	0xc1149293	-9.285785
133	0xc113004f	-9.187575
134	0xc0c8e3da	-6.277814
135	0xc152505c	-13.144619
136	0x3eb0ebc6	0.3455488
137	0xc07355f2	-3.8021207
138	0xc107d26f	-8.488875
139	0xbf4dc7e9	-0.80383164
140	0xc10f8412	-8.969744
141	0xc11546af	-9.329757
142	0xc11bbadc	-9.73312
143	0xc111925e	-9.098234
144	0xc095181e	-4.659194
145	0x40b748a8	5.727619
146	0x4194475d	18.534845
147	0xc0418435	-3.0236943
148	0xc1091d3f	-8.56964
149	0xbf38799b	-0.72060555
150	0xc111519f	-9.082427
151	0xc10f236f	-8.946151
152	0xc10b1d61	-8.694673
153	0xc114fd68	-9.311867
154	0xc10c1dad	-8.757245
155	0xc09a74bf	-4.826751
156	0xc1127c19	-9.155297
157	0x4013cbeb	2.3093212
158	0xc1094f1b	-8.581813
159	0x3e85eb9f	0.26156327
160	0xc106d642	-8.427309
161	0xc1134ec9	-9.206735
162	0xc108cae6	-8.549536
163	0xc1113bf8	-9.077141
164	0xc0db1cd1	-6.8472676
165	0xc14a412c	-12.640911
166	0xc0d5cfbb	-6.6816077
167	0x403cebce	2.9518924
168	0xc1096de1	-8.589326
169	0x3f38f767	0.72252506
170	0xc10aa3d5	-8.664998
171	0xc108aeec	-8.542706
172	0xc1010285	-8.063115
173	0xc10fa565	-8.97788
174	0xc0eb3c7d	-7.351134
175	0xc183b7fc	-16.464836
176	0xc0716f8d	-3.7724335
177	0x4001a5ef	2.0257528
178	0xc10987b1	-8.595628
179	0x3fa631fd	1.2984005
180	0xc10d33d5	-8.825154
181	0xc10d95f6	-8.849112
182	0xc1054700	-8.329834
183	0xc1141e69	-9.257424
184	0xc0f361c3	-7.605684
185	0xc1882785	-17.019297
186	0x3f32bd4a	0.6982008
187	0x3fcd3ba7	1.603383
188	0xc108e52a	-8.555948
189	0x3fa1edb7	1.265067
190	0xc10a1f67	-8.632667
191	0xc10bfe18	-8.749535
192	0xc10aea67	-8.682227
193	0xc1133771	-9.2010355
194	0xc0d6bef8	-6.7108116
195	0xc1819f3a	-16.202747
196	0x40824d46	4.071933
197	0x3fbd8b4c	1.4808135
198	0xc109a826	-8.603552
199	0x3f800b16	1.0003383
200	0xc10bf82b	-8.748088
201	0xc10c8569	-8.782571
202	0xc109acf8	-8.604729
203	0xc10f52ec	-8.957745
204	0xc0de6d7a	-6.950864
205	0xc171d319	-15.1140375
206	0x403c1170	2.9385643
207	0x3f80b2a7	1.005452
208	0xc10a673f	-8.650207
209	0x3e48ed22	0.19621709
210	0xc10b1fb9	-8.695245
211	0xc10cb669	-8.794534
212	0xc1085050	-8.519608
213	0xc10c5a07	-8.771979
214	0xc0ebce92	-7.368966
215	0xc0d97740	-6.795807
216	0x4002dff3	2.0449188
217	0x3f6de17c	0.92922187
218	0xc1090192	-8.562883
219	0xbf962423	-1.1729778
220	0xc11143d6	-9.0790615
221	0xc108e1be	-8.555113
222	0xc10925a0	-8.571686
223	0xc10ce495	-8.805806
224	0xc109cb9b	-8.612208
225	0x40163d4c	2.3474913
226	0xbe216351	-0.15760542
227	0xbf84d5f7	-1.0377797
228	0xc10b4cf0	-8.706284
229	0xbfd02a62	-1.6262934
230	0xc10fc36c	-8.98521
231	0xc10b56f2	-8.708727
232	0xc10b75b2	-8.716234
233	0xc10fbf06	-8.984137
234	0xc1042bfa	-8.260736
235	0x40f1c48c	7.5552425
236	0x407c1e72	3.9393582
237	0xbfbf0e3c	-1.4926219
238	0xc10add49	-8.679025
239	0xbf1b215b	-0.6059777
240	0xc0f583c6	-7.6723356
241	0xc10fb550	-8.981766
242	0xc10363d3	-8.211871
243	0xc10967fe	-8.587889
244	0xc098c3c0	-4.7738953
245	0x41951ccf	18.639067
246	0x40fb3ba7	7.851032
247	0x405f5a17	3.4898736
248	0xc10a51eb	-8.6449995
249	0x3f8b8761	1.0900689
250	0xc0fdb0a3	-7.927812
251	0xc0f8e7eb	-7.7783103
252	0xc0f53cc1	-7.6636662
253	0xc0f7b2ab	-7.74056
254	0xc09acb33	-4.8373046
255	0x41803973	16.028051

Q_Net.linear1.bias f4 [30]
0	0xc0c267ea	-6.075185
1	0xc09e1de7	-4.94115
2	0x412e0c6c	10.878033
3	0xc0d4aa97	-6.645824
4	0x4106fc92	8.436663
5	0x3f1adbdc	0.6049173
6	0x40805ace	4.0110846
7	0x40804bb4	4.009241
8	0x41265132	10.394823
9	0x40422658	3.0335903
10	0x4166f316	14.434347
11	0x40bbeee0	5.8729095
12	0x4101a026	8.101599
13	0xc07a2e65	-3.9090817
14	0xc1740cf4	-15.253162
15	0xc0c1cadb	-6.0560126
16	0xc10521b2	-8.320726
17	0x3f4737ab	0.7781932
18	0xc05efbf6	-3.4841285
19	0x40143c06	2.3161635
20	0x410de522	8.868441
21	0xc0ffcf03	-7.99402
22	0xbee6121d	-0.44935694
23	0x405faec6	3.4950423
24	0x405b86af	3.4300954
25	0x4144af62	12.292818
26	0xc1124700	-9.142334
27	0x41042327	8.258582
28	0xc023cb79	-2.559294
29	0x410484a9	8.282388

Q_Net.fc_A.weight f4 [3, 30]
0	0x3e689358	0.22712457
1	0x3fd0eed0	1.632288
2	0x3da4704e	0.08029233
3	0x3fec9738	1.8483648
4	0xbecacf05	-0.39611068
5	0xbf7e12ff	-0.99247736
6	0x3ef15092	0.47131783
7	0xbc33febf	-0.010986029
8	0x40064fa8	2.0986118
9	0x3f1ff51b	0.62483376
10	0x4046b2cb	3.1046627
11	0xbf33f5e8	-0.702971
12	0xbf929180	-1.1450653
13	0xbf4e038c	-0.8047416
14	0x40a7ee94	5.2478733
15	0x3f5514c6	0.8323482
16	0xbf8b8c2d	-1.0902153
17	0x3ef80ff9	0.48449686
18	0xc0a58c48	-5.173374
19	0xc0175215	-2.364385
20	0xbea0fddb	-0.31443676
21	0x3f361ce0	0.7113781
22	0x3f4a7d3e	0.79097354
23	0xbde0f661	-0.10984493
24	0x3f754acd	0.9581726
25	0x3f9aeab0	1.2102871
26	0x3f6cd389	0.9251028
27	0xbf4c4302	-0.79789746
28	0x3ea88023	0.3291026
29	0x3f9d85a9	1.2306415
30	0x3fa0fb6f	1.2576731
31	0x407b78fc	3.9292593
32	0x40811268	4.033497
33	0x3f824a1d	1.0178868
34	0x3f9f3a95	1.2439753
35	0x3eb8bb3e	0.36080354
36	0x3e9f2bcb	0.310881
37	0xbfea6959	-1.83134
38	0xc05119d1	-3.2672007
39	0x4023416e	2.5508685
40	0xc03ab5db	-2.9173496
41	0xbf5657b7	-0.8372759
42	0xbf92eb13	-1.1477989
43	0x3e860367	0.2617447
44	0xc0465b1f	-3.0993116
45	0x3f9990ee	1.1997354
46	0x3e56bfe9	0.20971645
47	0xc000abf6	-2.0104957
48	0x4021adfc	2.5262442
49	0xbe0f43ef	-0.13990758
50	0xbfe9d2ab	-1.8267416
51	0x3e26272b	0.16225879
52	0x3f35bef1	0.7099448
53	0xbf1d110b	-0.6135413
54	0xc0018072	-2.0234647
55	0x40332fd0	2.7997932
56	0xbde9f1c0	-0.11423063
57	0xbed1bb32	-0.4096313
58	0xbf3cdb25	-0.7377189
59	0xbe1fc4ef	-0.15602468
60	0x3f037721	0.5135365
61	0xc031ea0d	-2.7799103
62	0xc00b13da	-2.1730866
63	0xc03094b3	-2.7590759
64	0xbefb81d0	-0.49122477
65	0xbdda22b6	-0.10651152
66	0xbe34904c	-0.1763317
67	0x3ea6920d	0.32533303
68	0xbddfa4ff	-0.109201424
69	0xbfc51036	-1.5395572
70	0xbf270976	-0.6524881
71	0x3f8dd36c	1.1080146
72	0x3fb6a223	1.426823
73	0x3f07b936	0.53016984
74	0xc030fe87	-2.765535
75	0xbf3c2667	-0.734961
76	0x3f4f3bcd	0.80950624
77	0x3f225aab	0.634196
78	0x409023fd	4.504393
79	0x3f7a6972	0.97817147
80	0x3d82a577	0.06379216
81	0xbe7ddda5	-0.24791582
82	0xbfcd6cc9	-1.6048824
83	0x3e704105	0.23462303
84	0x3d739b7a	0.059474446
85	0xc09f1304	-4.9710712
86	0xbf22c4ae	-0.6358136
87	0x3f70dc08	0.9408574
88	0x3f4492c0	0.7678642
89	0xbfc37e3a	-1.5272896

Q_Net.fc_A.bias f4 [3]
0	0x42089e57	34.15463
1	0xc1f40631	-30.503023
2	0xc1e69e48	-28.827286

Q_Net.fc_V.weight f4 [1, 30]
0	0xbf894111	-1.0722982
1	0xc08e6367	-4.449634
2	0xc05564b1	-3.3342707
3	0xc020556e	-2.5052142
4	0x3f3b2c56	0.73114526
5	0x40294580	2.644867
6	0x404674b6	3.1008735
7	0x405ebba6	3.4802032
8	0x40499059	3.1494353
9	0xbf26d182	-0.65163434
10	0x3fd1d45d	1.6392933
11	0x402f141a	2.735602
12	0x404f4b8b	3.2389858
13	0x40419913	3.024968
14	0x3f4363d9	0.7632423
15	0x3fe6fde1	1.8046228
16	0x403cee8f	2.9520605
17	0x4004158f	2.0638158
18	0xbfca5447	-1.580697
19	0x403b33ff	2.9250486
20	0x40c90be7	6.282703
21	0x4001b3f5	2.0266087
22	0xbdd25183	-0.102694534
23	0x4040a5c1	3.0101168
24	0x4065d4ba	3.5911088
25	0x40871d2f	4.2223125
26	0xc014527a	-2.317534
27	0xbfc5369c	-1.540729
28	0x40440b38	3.0631847
29	0x4015eb09	2.3424704

Target_Q_Net.linear1.weight f4 [30, 150]
0	0xc102f37a	-8.1844425
1	0xc105dee0	-8.366913
2	0xc10848b6	-8.517752
3	0xc0ffb97e	-7.991393
4	0xc018e768	-2.389124
5	0x407278ad	3.7886155
6	0x405b9163	3.4307487
7	0xbf1b4b7f	-0.6066207
8	0xc1074c03	-8.456058
9	0xbd27cb51	-0.040965382
10	0xc0f63da9	-7.695027
11	0xc1054929	-8.330361
12	0xc1040c39	-8.252984
13	0xc0f7fd92	-7.7497034
14	0xbfe64c99	-1.7992126
15	0x410ba923	8.728793
16	0x41069feb	8.414042
17	0x4053099d	3.2974617
18	0xc107540a	-8.458017
19	0xbe70c1ca	-0.23511425
20	0xc0ed45f6	-7.41479
21	0xc0f183cc	-7.5473385
22	0xc0f513c7	-7.658664
23	0xc0f056cb	-7.510595
24	0xbfef0c1e	-1.8675573
25	0x40ef30fd	7.47473
26	0x40edd5bc	7.4323406
27	0x40e98c62	7.2983866
28	0xc1035f2d	-8.210736
29	0x3f859c04	1.0438237
30	0xc0f15172	-7.541192
31	0xc0f8ec64	-7.7788563
32	0xc0f539ef	-7.663322
33	0xc0f150f5	-7.5411325
34	0xbff3267e	-1.8996122
35	0x40e68beb	7.20458
36	0x409f8b16	4.9857283
37	0x4108b76c	8.544781
38	0xc1026ccb	-8.151561
39	0x3fea2355	1.8292032
40	0xc0fc0b35	-7.876368
41	0xc0f0463e	-7.5085745
42	0xc0f290fd	-7.580199
43	0xc0f2df7c	-7.589781
44	0xc00fb797	-2.2455804
45	0x40d05863	6.5107894
46	0x3faa4c26	1.3304489
47	0x40f9f7e9	7.8115125
48	0xc100c980	-8.049194
49	0x4007d949	2.122637
50	0xc102866b	-8.157817
51	0xc0ff2420	-7.97316
52	0xc102b3d8	-8.168907
53	0xc0fd963b	-7.9245887
54	0xc01be8c3	-2.4360816
55	0x41525849	13.146554
56	0xc09421c4	-4.629122
57	0x40c55bd8	6.1674614
58	0xc102df58	-8.179527
59	0x3f812dbf	1.0092086
60	0xc0fe6dbe	-7.9508963
61	0xc10026f5	-8.009511
62	0xc106bae4	-8.420628
63	0xc0fe2dee	-7.9431067
64	0xbf886fe8	-1.0659151
65	0x415f736e	13.965681
66	0xc0ba48c7	-5.821384
67	0x4098ea3a	4.778592
68	0xc1011221	-8.066926
69	0x3f9bfa2a	1.2185719
70	0xc0ff9ccc	-7.9878902
71	0xc0f9e686	-7.80939
72	0xc101b7b7	-8.107352
73	0xc0fe67f3	-7.950189
74	0xc012c964	-2.293542
75	0x4120685c	10.025478
76	0xc0d934d2	-6.787698
77	0x407c1de1	3.9393237
78	0xc100ec22	-8.05765
79	0x3f2d0a1b	0.67593545
80	0xc102cb83	-8.1746855
81	0xc102b911	-8.170182
82	0xc1094ffc	-8.582027
83	0xc102e239	-8.18023
84	0xc00155de	-2.020866
85	0x41279911	10.47487
86	0xbffc9a5f	-1.973461
87	0x402e8120	2.7266312
88	0xc100625f	-8.024016
89	0x3f0981da	0.5371376
90	0xc10617d1	-8.380815
91	0xc1056dae	-8.339277
92	0xc1074f95	-8.456929
93	0xc1040e9c	-8.253567
94	0xc0183504	-2.3782358
95	0x40b55e58	5.6677666
96	0x4070fcdf	3.765434
97	0x3efee207	0.4978182
98	0xc1025f93	-8.148334
99	0x3f9994cc	1.1998534
100	0xc104677b	-8.275264
101	0xc1071b27	-8.444129
102	0xc10689b5	-8.40862
103	0xc104c801	-8.298829
104	0xbfd9645c	-1.6983752
105	0x40fc4c9f	7.884353
106	0x3fadc2c1	1.3575059
107	0xbeb46358	-0.35232043
108	0xc103b457	-8.231528
109	0x3fa7f261	1.3120843
110	0xc10b6337	-8.711722
111	0xc1019a17	-8.10012
112	0xc1081c34	-8.506886
113	0xc10768ec	-8.463116
114	0xbf9dbc90	-1.232317
115	0xbf893634	-1.0719666
116	0x410f6c40	8.963928
117	0xbfc3dc06	-1.5301521
118	0xc1053349	-8.325021
119	0x3fdf58eb	1.7449011
120	0xc10d2470	-8.821396
121	0xc10f0201	-8.937989
122	0xc10f4495	-8.954244
123	0xc10caaba	-8.791681
124	0xbfce0e71	-1.6098157
125	0xc11ebbbc	-9.920834
126	0xbfed66f4	-1.8547044
127	0xbf8b2d24	-1.0873151
128	0xc1051e2d	-8.319867
129	0x3f68ce02	0.9093934
130	0xc112ecbb	-9.182796
131	0xc115a5bb	-9.352962
132	0xc114aacd	-9.291699
133	0xc1131731	-9.193162
134	0xc0c8e2d7	-6.2776904
135	0xc1526b36	-13.151175
136	0x3eafc62d	0.34330884
137	0xc073d5c1	-3.8099215
138	0xc107e98d	-8.494519
139	0xbf4ec182	-0.8076402
140	0xc10f99ea	-8.975077
141	0xc1155d0a	-9.335215
142	0xc11bd1cb	-9.738719
143	0xc111a96a	-9.103861
144	0xc0950752	-4.6571436
145	0x40b746f4	5.7274113
146	0x41945175	18.539774
147	0xc041fbb1	-3.030987
148	0xc1093434	-8.575245
149	0xbf39154e	-0.72298133
150	0xc1113895	-9.076314
151	0xc10f0995	-8.939839
152	0xc10b0406	-8.688482
153	0xc114e408	-9.305672
154	0xc10bfc66	-8.749121
155	0xc09a30cf	-4.818458
156	0xc1126970	-9.150742
157	0x40142796	2.3149161
158	0xc1093627	-8.575721
159	0x3e85533a	0.2604006
160	0xc106bed4	-8.421589
161	0xc113352a	-9.2004795
162	0xc108b247	-8.543525
163	0xc1112370	-9.071152
164	0xc0dae172	-6.84002
165	0xc14a35e2	-12.638155
166	0xc0d5b91e	-6.6788473
167	0x403d2711	2.9555094
168	0xc1095528	-8.58329
169	0x3f39269d	0.72324544
170	0xc10a8d41	-8.659486
171	0xc108977f	-8.536986
172	0xc100eb87	-8.057502
173	0xc10f8e18	-8.972191
174	0xc0eb06ca	-7.3445787
175	0xc183b86e	-16.465054
176	0xc071cf5e	-3.7782817
177	0x4001b7b2	2.0268369
178	0xc1096f4a	-8.58967
179	0x3fa643d0	1.2989445
180	0xc10d1eb3	-8.819995
181	0xc10d7f7b	-8.843623
182	0xc1053180	-8.324585
183	0xc114080e	-9.251966
184	0xc0f3359f	-7.6002955
185	0xc1882f67	-17.023146
186	0x3f2fee3a	0.6872288
187	0x3fccf3da	1.6011918
188	0xc108cd41	-8.550111
189	0x3fa1ae90	1.2631397
190	0xc10a0aa2	-8.627596
191	0xc10be8f5	-8.744374
192	0xc10ad5d8	-8.677208
193	0xc1132221	-9.195832
194	0xc0d69629	-6.70583
195	0xc181acc5	-16.20936
196	0x4081e975	4.059748
197	0x3fbcf744	1.476296
198	0xc10990b2	-8.597826
199	0x3f7f1d7d	0.9965437
200	0xc10be3de	-8.743132
201	0xc10c7053	-8.777423
202	0xc109993f	-8.599914
203	0xc10f3de7	-8.952613
204	0xc0de4537	-6.945949
205	0xc171f2f1	-15.121812
206	0x403b3b98	2.9255123
207	0x3f7fd6a2	0.9993688
208	0xc10a5047	-8.644599
209	0x3e423fa7	0.18969594
210	0xc10b0ad4	-8.690144
211	0xc10ca180	-8.789429
212	0xc1083c0c	-8.51466
213	0xc10c457b	-8.766963
214	0xc0eba3a0	-7.3637238
215	0xc0d9b105	-6.802859
216	0x4001f854	2.0307817
217	0x3f6c270e	0.9224709
218	0xc108eaec	-8.557354
219	0xbf96f2ac	-1.1792808
220	0xc1112f0e	-9.073988
221	0xc108cce2	-8.55002
222	0xc10910c0	-8.566589
223	0xc10cd0b4	-8.800953
224	0xc109b3e6	-8.6064205
225	0x4015dd06	2.3416152
226	0xbe2c275e	-0.16811892
227	0xbf85bcc1	-1.0448228
228	0xc10b3696	-8.700827
229	0xbfd0a551	-1.630045
230	0xc10fb093	-8.980609
231	0xc10b4298	-8.703758
232	0xc10b6150	-8.711258
233	0xc10fabdc	-8.979458
234	0xc10414bd	-8.255063
235	0x40f18210	7.547127
236	0x407c1eda	3.939383
237	0xbfbffe27	-1.4999436
238	0xc10ac77b	-8.673701
239	0xbf1ae560	-0.6050625
240	0xc0f56223	-7.6682296
241	0xc10fa397	-8.977439
242	0xc1035135	-8.207326
243	0xc10957a2	-8.583895
244	0xc098a0b9	-4.7696195
245	0x41950ba4	18.630684
246	0x40fb24dd	7.84825
247	0x405ee16c	3.4825087
248	0xc10a3ce4	-8.639866
249	0x3f8bf580	1.0934296
250	0xc0fd8ebc	-7.9236736
251	0xc0f8c74b	-7.7743278
252	0xc0f519c4	-7.659395
253	0xc0f792f5	-7.736689
254	0xc09aa54d	-4.8326783
255	0x418029b6	16.020367

Target_Q_Net.linear1.bias f4 [30]
0	0xc0c2602b	-6.0742393
1	0xc09dd8cc	-4.9327145
2	0x412e2d9f	10.886138
3	0xc0d46b26	-6.6380796
4	0x4106ea15	8.432149
5	0x3f19245f	0.5982112
6	0x408039d4	4.007059
7	0x40802779	4.0048184
8	0x412662e6	10.399145
9	0x4042dc55	3.044698
10	0x41671e06	14.44483
11	0x40bbcbbb	5.8686194
12	0x410186fe	8.095457
13	0xc07a7110	-3.9131508
14	0xc173e608	-15.24366
15	0xc0c1e430	-6.059105
16	0xc105424f	-8.328689
17	0x3f465a2c	0.7748134
18	0xc05f9e55	-3.4940388
19	0x4013905e	2.3056865
20	0x410dc9f7	8.861808
21	0xc0ffe627	-7.996845
22	0xbee82f1a	-0.45348436
23	0x405f5fe7	3.4902284
24	0x405b2d98	3.4246578
25	0x41448d64	12.284519
26	0xc1122a34	-9.1353035
27	0x41043c94	8.26479
28	0xc024335f	-2.5656354
29	0x4104722c	8.277874

Target_Q_Net.fc_A.weight f4 [3, 30]
0	0x3e692ea5	0.227717
1	0x3fd176f7	1.636443
2	0x3da6f535	0.08152238
3	0x3fec971f	1.8483618
4	0xbeca6edd	-0.39537707
5	0xbf7d719c	-0.9900148
6	0x3ef26d98	0.47349238
7	0xbc358c35	-0.011080791
8	0x40063fc1	2.0976412
9	0x3f1f79f1	0.6229544
10	0x4046ad62	3.1043324
11	0xbf32be9b	-0.6982209
12	0xbf92664c	-1.1437469
13	0xbf4d57a3	-0.8021185
14	0x40a7c717	5.243053
15	0x3f563fdc	0.8369119
16	0xbf8b2197	-1.0869626
17	0x3ef8c543	0.48588
18	0xc0a54e7e	-5.1658316
19	0xc016ab26	-2.354196
20	0xbe9f7a53	-0.31148013
21	0x3f367202	0.7126771
22	0x3f4b8e56	0.7951406
23	0xbddebfdb	-0.10876437
24	0x3f75fbed	0.96087533
25	0x3f9b8e67	1.2152833
26	0x3f6d24f8	0.92634535
27	0xbf4bde73	-0.79636306
28	0x3ea98e96	0.33116597
29	0x3f9dffe5	1.2343718
30	0x3fa129c3	1.259087
31	0x407b714f	3.9287908
32	0x40810de1	4.032944
33	0x3f8236cd	1.0172974
34	0x3f9f1cdc	1.2430682
35	0x3eb6f6a3	0.35735044
36	0x3e9ee042	0.3103047
37	0xbfeaca1d	-1.834293
38	0xc050a833	-3.260266
39	0x4022fa0f	2.5465124
40	0xc03a8fa1	-2.9150164
41	0xbf55bd79	-0.8349224
42	0xbf931f14	-1.1493859
43	0x3e8424fe	0.25809473
44	0xc045f78d	-3.0932343
45	0x3f99328e	1.1968553
46	0x3e53b766	0.2067543
47	0xc000ceb7	-2.0126169
48	0x40212e67	2.5184572
49	0xbe05a35d	-0.130506
50	0xbfea2dc5	-1.8295218
51	0x3e23442d	0.15943976
52	0x3f34cd73	0.7062599
53	0xbf1def7f	-0.6169357
54	0xc001ae8c	-2.0262785
55	0x4033b440	2.8078766
56	0xbde58e8c	-0.11208829
57	0xbed0cc90	-0.4078107
58	0xbf3d9be2	-0.74065983
59	0xbe22ab32	-0.15885618
60	0x3f03252e	0.51228607
61	0xc032263c	-2.7835836
62	0xc00b1e20	-2.1737137
63	0xc0308f17	-2.7587335
64	0xbefb7b6e	-0.49117607
65	0xbdd7cab2	-0.10536708
66	0xbe35dddd	-0.17760415
67	0x3ea79e7b	0.32738099
68	0xbdeeaa95	-0.1165363
69	0xbfc480d4	-1.5351815
70	0xbf2759df	-0.6537151
71	0x3f8cfd5e	1.1014822
72	0x3fb6a653	1.4269508
73	0x3f080621	0.5313435
74	0xc0311763	-2.7670524
75	0xbf3c3e3c	-0.7353246
76	0x3f4f4f42	0.8098031
77	0x3f227888	0.63465166
78	0x40902eea	4.505727
79	0x3f7792da	0.9670845
80	0x3d838b4a	0.06423052
81	0xbe7cb870	-0.24679732
82	0xbfcd4f89	-1.6039897
83	0x3e71ff77	0.23632608
84	0x3d7613c6	0.06007745
85	0xc09f5438	-4.9790306
86	0xbf234d0e	-0.6378945
87	0x3f704930	0.93861675
88	0x3f44d077	0.7688059
89	0xbfc379ac	-1.5271506

Target_Q_Net.fc_A.bias f4 [3]
0	0x4208ab77	34.167446
1	0xc1f41694	-30.511024
2	0xc1e6a952	-28.832676

Target_Q_Net.fc_V.weight f4 [1, 30]
0	0xbf88ee31	-1.069769
1	0xc08e828f	-4.4534373
2	0xc0555c53	-3.33376
3	0xc0203442	-2.5031896
4	0x3f3af513	0.73030204
5	0x40294fbe	2.645492
6	0x4046c373	3.1056793
7	0x405ed4c8	3.4817371
8	0x404a2382	3.1584172
9	0xbf251ea1	-0.6449986
10	0x3fd29b68	1.6453676
11	0x402f71dc	2.7413244
12	0x404f48d7	3.2388208
13	0x4041a564	3.0257196
14	0x3f43b81f	0.7645282
15	0x3fe6f1dc	1.804256
16	0x403cea69	2.9518073
17	0x40041462	2.063744
18	0xbfca1400	-1.5787354
19	0x403ae55e	2.9202495
20	0x40c90bff	6.2827144
21	0x4001b3d6	2.0266013
22	0xbdcf2e37	-0.10116237
23	0x4040b320	3.010933
24	0x4065d377	3.5910318
25	0x4086f3ea	4.2172747
26	0xc0145786	-2.317842
27	0xbfc56dc4	-1.5424123
28	0x404408a5	3.0630276
29	0x4015e955	2.3423665
